examples/ch4/reversi_DQN_DNN/agent_white_8000/model.npz (npz, 521922 bytes, 8 tensors)

l2/b f4 [256]
000000 ee bc 5a bd b3 51 46 3c 18 11 15 3d 4f 7e b2 3c
       -0.053402834 0.01210444 0.036393255 0.021788744
000010 da 34 24 bc 67 ad 8f bd ae 16 86 3d 4c 1a d7 3c
       -0.010022366 -0.07015496 0.065472946 0.026257657
000020 52 e9 b7 bb a7 c4 a5 3c 2c 4a 8c bd 36 84 d0 3c
       -0.0056125307 0.020235373 -0.06850085 0.025453668
000030 19 e0 4e 3d e7 e1 10 bd ce 7e 1c ba 45 29 8e 3c
       0.050506685 -0.035371687 -0.0005969823 0.017353663
000040 94 6d 86 bd b4 56 59 bd 13 ec 50 3c 3a 56 99 3c
       -0.06563869 -0.053061202 0.012751597 0.018717874
000050 70 e5 4e 3c c2 6c 86 3d e6 b8 c9 3d 1f 5e 08 bb
       0.012627944 0.06563713 0.0984972 -0.0020808054
000060 db 43 c7 bc 6f 42 b5 3d 40 82 c4 3c 13 d8 a2 3c
       -0.024324348 0.08850562 0.02398789 0.019878423
000070 4d e9 6d bd 3d ae 14 bd b9 2c 38 bc 9f fb 2e 3d
       -0.05808382 -0.03629898 -0.011241131 0.042720433
000080 3e 3c e9 3c f7 19 06 bd 00 79 70 3d 58 1d 27 bd
       0.028471109 -0.032739606 0.058709145 -0.04079947
000090 99 4d 99 bc 40 42 36 bc b4 30 24 3d c1 80 be bb
       -0.01871376 -0.011124194 0.04008551 -0.0058136885
0000a0 2d 4f 09 be 46 db 15 bb c2 3c 00 3c eb 9f b4 3d
       -0.1340911 -0.0022866293 0.007826986 0.088195644
0000b0 30 7f 79 bd f7 ff 09 bd d9 3f e0 3a 01 c8 90 bd
       -0.06091231 -0.033691373 0.0017108872 -0.07069398
0000c0 fb 20 5b bd 7b a1 28 3d 18 ca 85 3d 47 20 0f 3b
       -0.05349825 0.041169625 0.06532687 0.0021839307
0000d0 24 1f 05 3c 00 1d 5c 3c b8 c0 5a bc fe aa 98 3c
       0.0081251 0.0134346485 -0.013351612 0.018636223
0000e0 f8 21 10 3c 62 d5 7a 3b 3d 37 9c bd 24 ad 1d 3b
       0.008797161 0.0038274159 -0.07627723 0.0024059499
0000f0 e8 e5 b5 bc 80 dd 27 3c 44 db f9 bc 70 da 84 3d
       -0.022204354 0.010245681 -0.030500062 0.06486976
000100 03 92 9c bc 1d a7 7c bb 37 3e bd ba 26 12 fd 3c
       -0.019112593 -0.0038551756 -0.0014438097 0.030892443
000110 c5 9b 82 3b 94 b0 49 3d 49 8f 46 3d ae 64 9f 3d
       0.0039858543 0.049240664 0.04847649 0.07782875
000120 7d b6 de ba 09 ee 57 3d 3b c3 0c bc 13 23 54 ba
       -0.0016991642 0.052717242 -0.008591468 -0.00080923847
000130 ce bd 3e bc 2b b7 b0 3c 6b a2 44 bd 5f 56 52 bd
       -0.011641933 0.021571716 -0.048006456 -0.0513519
000140 45 b3 12 3d 26 74 20 bb 50 dc 8d bc 50 18 0b bd
       0.035815496 -0.0024483292 -0.017316967 -0.033958733
000150 7c 8b 3a bd df 7a 33 bb 87 2a 99 bd 0a 52 89 3c
       -0.04554318 -0.002738647 -0.074788146 0.016762752
000160 50 6d 70 bd 96 31 94 bc 0c 28 91 3d b2 04 08 bd
       -0.058698 -0.01809005 0.070877165 -0.033207603
000170 2c a0 80 bc 06 41 13 bb 3a db 2a bc 9e 72 75 bd
       -0.015701376 -0.0022469177 -0.010428244 -0.05992376
000180 b9 88 bf 3d 04 be 8e bd ce 87 8e bd 29 43 5a bd
       0.0935225 -0.06969836 -0.069594964 -0.053286705
000190 7e 08 66 3c 47 07 64 bd 62 ce 23 3d ef 0f 1d bc
       0.014040111 -0.055671003 0.039991744 -0.009586318
0001a0 d2 14 cf 3d 96 d0 91 bc 02 e4 ee 3a 3d 01 3c bd
       0.10111393 -0.017799657 0.0018225911 -0.04589962
0001b0 38 46 9e 3c 83 b1 d0 bb 54 be 90 bc 62 78 aa bb
       0.019320592 -0.0063688173 -0.01766888 -0.005202339
0001c0 89 73 cc bc 5e 55 80 3d 91 93 5d bd a8 7d 28 bc
       -0.024957435 0.062662825 -0.05409581 -0.010283865
0001d0 6d d8 6d bd ed 52 05 bc d2 16 9c bc 23 82 da 3c
       -0.058067728 -0.008137447 -0.01905385 0.026673382
0001e0 7a 3d 82 bc ab c3 5c b9 83 a6 5c 3d 1f db 53 bb
       -0.015898455 -0.00021053727 0.053869735 -0.0032326651
0001f0 e5 cc 71 3d 75 c5 56 bd 69 c1 58 bd f1 43 79 bd
       0.059033293 -0.052434403 -0.052918825 -0.06085581
000200 5a 2b a0 bd 77 a9 05 ba ff 9b 33 bb cc 5c 6d 3a
       -0.07820769 -0.00050987996 -0.0027406213 0.00090546603
000210 9e df 85 3d 00 93 ba bd f1 8f f6 b9 33 6f 09 3c
       0.06536792 -0.09110069 -0.0004702802 0.008388328
000220 b8 b8 35 3d dd c8 de bc 80 a5 c9 3c fc 42 9f bc
       0.044365615 -0.027195388 0.02461505 -0.01944112
000230 c3 86 64 3b 07 a8 a0 3c d8 08 4b bc 4f cc 38 3d
       0.0034870363 0.019611372 -0.012392245 0.04511672
000240 15 da 8d 3d b2 09 89 bd 38 73 85 bd ee 19 44 bd
       0.069263615 -0.06691302 -0.06516117 -0.04787629
000250 80 8d 25 3c 0c a3 aa 3c 53 e1 f4 3b 77 3a 1c 3d
       0.010104537 0.0208297 0.00747315 0.038141694
000260 e8 80 0a 3d 68 21 72 bd 00 c0 dd bc 06 f3 0f bd
       0.03381434 -0.05911389 -0.027069092 -0.035143875
000270 dc 4f 92 bd 64 af aa bd 95 fc c2 bc d9 10 83 bd
       -0.07144138 -0.08334234 -0.023802081 -0.06399698
000280 e7 ee 79 bc a2 ae ae 3c 1e d0 d5 bc 74 e6 f2 3c
       -0.015254713 0.021323506 -0.026100215 0.029650904
000290 32 95 d0 bc 04 ee f8 bb c1 2e 83 bd da 44 31 3d
       -0.025461767 -0.007596733 -0.06405402 0.043278553
0002a0 ca 88 f2 3c 78 e0 f0 bc ee ef 4c bc d6 5c 72 3c
       0.029606242 -0.02940391 -0.012508376 0.014792642
0002b0 25 67 32 3d df 0c e4 ba 86 36 40 3d c7 59 e9 bc
       0.043555398 -0.0017398855 0.046926998 -0.028485192
0002c0 2e bd 21 3d 1e 4a 4f 3d 64 d2 ab bc 5c 2d 1e 3d
       0.039487056 0.050607793 -0.020974346 0.038617477
0002d0 89 e1 79 bc c0 2b 16 bd 9b ea e5 bc ed e5 d8 3c
       -0.015251526 -0.036662817 -0.02806597 0.026476825
0002e0 c4 c3 1c bd bf d1 6f bd 93 3b b0 bd d1 ea 9c 3d
       -0.038272634 -0.05854964 -0.08605113 0.07661975
0002f0 33 61 ce 3c 70 e5 89 3c 44 0f bc bd 06 59 de bc
       0.025192833 0.016833037 -0.09182599 -0.027142059
000300 dc f4 36 3d 0c 7a d2 bc cf 98 3b 3d 52 0c b1 bc
       0.04466711 -0.025692962 0.045800027 -0.02161232
000310 f0 21 26 bd ca 22 39 bd bc f7 4f bd 85 17 a5 bd
       -0.04055971 -0.045199193 -0.050773367 -0.080611266
000320 f1 b7 c9 bc e6 5b 8e 3d 4a d4 09 bb 1f 67 00 3d
       -0.024623843 0.06951122 -0.0021031075 0.031348344
000330 91 cc 39 3c b0 d9 09 bd 31 52 dc 3b 1f 52 2c bc
       0.011340276 -0.03365487 0.006723665 -0.010517626
000340 30 81 16 bd e9 97 67 bd eb 60 2f 3b 4c 5a e6 bc
       -0.036744297 -0.056541357 0.0026760648 -0.028119229
000350 c8 5a a6 bd aa 85 4b bd 00 4e 2e 3c d5 f1 5f bd
       -0.08122784 -0.04968802 0.010638714 -0.05467399
000360 28 e3 a1 3d c8 e8 b3 3d 0c f9 c4 3b 3f 22 8c bd
       0.07904655 0.08784634 0.006011134 -0.068424694
000370 99 5f ee 3c b8 2c 6a bd 20 a7 cb bc 8c e4 26 bd
       0.029098319 -0.057171553 -0.024859965 -0.040745303
000380 b7 79 15 3c 0e 2f 80 3d cb 83 72 bd 51 66 fc bc
       0.009123257 0.06258975 -0.05920772 -0.030810507
000390 2d 97 6b 3a 38 4f 17 bd 3f 18 74 bd 78 a8 f9 bc
       0.00089870655 -0.036940783 -0.059593435 -0.03047584
0003a0 cd d1 d9 3c 02 68 5c bc 35 6d 00 bd 6c 97 8e 3d
       0.026589299 -0.013452532 -0.031354148 0.06962475
0003b0 ae 4d d4 3d 56 13 c0 3c df 17 d4 bc 5c 2e 07 bc
       0.10366379 0.02344672 -0.025890289 -0.008250799
0003c0 d9 81 70 bc a6 7a 48 3d 73 4b 7d 3d 80 39 a9 bc
       -0.014679396 0.04894509 0.061839532 -0.020657301
0003d0 8c eb 45 bb cd 1f 0b bd 79 e1 60 bc 1a 5a 14 bc
       -0.0030200211 -0.033965874 -0.013725632 -0.009054685
0003e0 82 40 af bc bd 3b 3b b9 ee 97 ac bc ba da a6 3c
       -0.021393064 -0.00017855964 -0.02106854 0.020367969
0003f0 86 a6 21 bb d8 01 2d 3d 89 f5 31 bd 29 57 99 bd
       -0.0024665906 0.042238086 -0.04344705 -0.074873276

l1/W f4 [256, 16]
000000 01 10 35 3e 4f c3 d1 be 8e 0d 5b 3e dc b2 b3 3e
       0.17681886 -0.4096932 0.2139189 0.35097396
000010 c6 b2 e0 be 5e 18 99 be bc 8d 5f 3e f7 89 fe 3e
       -0.43886393 -0.29901403 0.21831411 0.49714634
000020 b1 63 4d be db e4 07 bf 36 8b 16 3f ec 44 7f be
       -0.2005756 -0.5308358 0.5880617 -0.24928635
000030 81 35 f2 3c 8b e8 54 be 8d 2d 0b 3f 54 6d 22 bd
       0.029566528 -0.20791833 0.5436638 -0.039655045
000040 d6 95 de 3e 57 76 ea be 02 7d ab 3d 63 e8 da be
       0.4347369 -0.4579341 0.08373453 -0.42755422
000050 1f 8e 19 bd 97 4d fd be 03 d9 4f be 71 11 26 3e
       -0.037489053 -0.4947326 -0.20297627 0.16217591
000060 c2 06 d1 3e a0 66 02 bf 08 e6 08 3f c2 fa 29 3d
       0.40825468 -0.50937843 0.53476 0.041498907
000070 f9 ef 55 3f b4 3b 83 3e 9f 70 40 3e 7d 98 d6 bd
       0.83569294 0.25631487 0.18792962 -0.104783036
000080 96 0f 9d be 99 d9 ad be 5f 2e d2 be d5 c8 1f 3e
       -0.30675954 -0.33955076 -0.41051003 0.15603955
000090 05 4b c8 bd 57 39 61 bd 18 03 f7 bd 75 a7 8b 3e
       -0.09779934 -0.054986324 -0.12061137 0.27276197
0000a0 da 3e c3 be e5 9f f4 3c 92 5b c6 be 82 92 0b 3d
       -0.3813389 0.0298614 -0.38741738 0.034075268
0000b0 72 ef c5 bd 36 2f a6 3d 1f 31 2c be 87 81 54 3f
       -0.09664811 0.081144735 -0.16815613 0.83010143
0000c0 fb 14 1e 3e be 6d 16 bf 43 78 59 be e8 0c 33 3d
       0.15437691 -0.58761203 -0.21237282 0.04371348
0000d0 d8 a0 29 be 20 fd e9 be 06 6e 24 3f f0 a2 c6 be
       -0.16565263 -0.45700932 0.6423038 -0.38796186
0000e0 74 6f 38 3f 6b 5c 42 3f 07 17 5e 3e 61 20 2c bf
       0.72045064 0.7592227 0.21688472 -0.67236906
0000f0 2b f5 a5 be 8e db fd be 1b 5b 10 3e aa cc 31 3f
       -0.3241361 -0.4958157 0.14097254 0.6945292
000100 f4 00 91 bc f3 d6 20 3e 30 5f c6 be 2b 27 45 be
       -0.01770065 0.15706997 -0.38744497 -0.19253223
000110 c6 a3 45 bd 4d 53 53 be dd fd d3 3e ee 01 61 3f
       -0.04825189 -0.20637245 0.4140462 0.8789357
000120 3a 36 28 bd 8b e7 a3 bd f7 c6 46 3e 4a 47 82 bf
       -0.04106734 -0.08003148 0.19411837 -1.0178006
000130 34 ad 0c 3d 22 0a d7 3e f0 76 e4 be 24 ce b5 be
       0.034344867 0.41999918 -0.44621992 -0.35508835
000140 b4 78 eb 3e 6c aa c3 be d5 ed 79 be 98 bd 2c 3e
       0.45990527 -0.3821596 -0.24407132 0.168692
000150 6a de f8 bd ff 1c 43 bf dc fb fc 3e 27 df 07 3f
       -0.12151797 -0.7621612 0.49410903 0.5307488
000160 67 a1 01 bf 11 37 e7 3e 3e a2 b5 be 73 a8 4a 3e
       -0.50636905 0.451592 -0.35475343 0.19790821
000170 f7 c1 b2 3e 9b a7 04 bf 4a a0 bb 3d f3 21 fc 3e
       0.34913608 -0.51818246 0.09161432 0.4924465
000180 97 2a c9 ba fb 83 b0 3c bf 81 dd 3d 5c 13 25 3f
       -0.0015347776 0.021547308 0.10815763 0.64482665
000190 81 00 4f bf 2b 1e 41 3e 72 c5 2d 3f 12 ed d2 3c
       -0.80860144 0.18859164 0.678794 0.02574781
0001a0 07 0c b0 3d f7 a5 2a be 74 a0 14 bd c5 09 60 bd
       0.08596044 -0.16664873 -0.036285833 -0.054696817
0001b0 9a 8d eb 3d a1 71 e4 be c2 ea 6b 3e dc 79 3d 3e
       0.11501618 -0.44617942 0.23038772 0.18503517
0001c0 86 36 05 3f 09 35 2e 3d c9 ee 6c 3e e5 4e c4 3d
       0.5203632 0.042531047 0.23137964 0.095853604
0001d0 51 0e 24 be f7 f9 c7 be 6f 30 7a bf 1a 7b e4 be
       -0.16021086 -0.39057896 -0.97730154 -0.4462517
0001e0 7e 92 24 be 8f d2 a1 3d ee bd 3d 3e a1 07 ce 3d
       -0.16071507 0.07901489 0.18529484 0.10060049
0001f0 24 50 07 3e 65 3f 08 3f 82 00 0a 3e 7e ef 09 3e
       0.13214165 0.5322173 0.13476756 0.13470265
000200 c8 fb e7 be 55 7a d1 be 8b d2 a2 3d 17 22 25 3f
       -0.4530928 -0.40913644 0.07950314 0.6450514
000210 11 f5 61 3d 7f 54 50 be dd 03 eb 3e 68 9e 85 be
       0.055165354 -0.20344733 0.45901385 -0.26097417
000220 22 97 ae be a3 0f 0e 3f 13 05 80 be e8 bc 90 3e
       -0.3409968 0.5549261 -0.2500387 0.28269124
000230 0a 47 6e bf 1c 00 77 3c 5e b7 22 3e 4a c2 aa bd
       -0.93077147 0.01507571 0.15890262 -0.08337839
000240 3c f1 31 3e 84 52 9d 3d e5 da 00 bf 17 3f 5a 3d
       0.1737718 0.07681754 -0.50334007 0.053282823
000250 7a 25 05 3f 30 8e 6f 3e 5b a2 93 3e b1 19 6b be
       0.5201031 0.23394084 0.28834805 -0.22959019
000260 5e 61 d0 3d c3 d3 82 be 35 3f da be 57 0f 87 be
       0.10174821 -0.25552186 -0.42626348 -0.2637889
000270 b6 4e 31 3f bd c7 0d 3f 4b ac 94 bd 8b ef 97 3c
       0.6926073 0.553829 -0.07259425 0.01854684
000280 3d 14 23 3f 48 c8 36 3d e0 22 3c bd d2 30 cc be
       0.63702756 0.044624597 -0.045931697 -0.39880997
000290 b0 af e3 3d 96 f5 1e be d5 c7 07 be 84 c3 00 3d
       0.11117494 -0.15523371 -0.13259824 0.03143646
0002a0 ea 9e 61 bf 8f ec 9d bd f9 67 37 3e 4d 38 e8 be
       -0.8813311 -0.077111356 0.17910756 -0.45355454
0002b0 dd 1f 3c 3f 49 3f ff bd 90 50 12 3d a1 e5 48 be
       0.7348612 -0.124632426 0.03572136 -0.19618846
0002c0 20 6f dc be 31 89 5a bf 32 af be 3e 4b 62 ae be
       -0.43053532 -0.8536559 0.37243038 -0.34059367
0002d0 54 a2 3d 3f 0d 9e 78 be 57 07 05 3e 88 4b 56 3f
       0.7407582 -0.24279042 0.12991081 0.83709
0002e0 da a9 7c 3d 21 bd b3 3e 6b 6f 3c be fe 64 f1 3d
       0.06168542 0.3510523 -0.18401878 0.11786841
0002f0 74 97 03 bf 3d 2e b2 be 72 58 20 bf 68 8b cf bd
       -0.51402974 -0.34800902 -0.62634957 -0.101340115
000300 0a f7 b6 3d 6a 80 83 3e f7 0c c8 3d 74 ce 0e 3e
       0.08933838 0.2568391 0.09768098 0.13945943
000310 d4 32 b8 bd 76 6a 5e be 72 af 3e bd a9 56 1d bd
       -0.0899407 -0.21720299 -0.046554036 -0.038412724
000320 6f 3a 54 3c 88 66 91 be c6 e7 6e 3d 41 6c 19 be
       0.012953385 -0.28398538 0.058326505 -0.14982702
000330 4d 07 02 3d 6f eb 74 bc 5d 3b 6d be 72 a6 01 3f
       0.031745244 -0.01494871 -0.23167177 0.506446
000340 fe 19 e4 bc 6e 1a 54 bd ba d7 14 bf 96 86 3f be
       -0.027844425 -0.051783018 -0.5814167 -0.18703684
000350 cd 35 c9 be ee 55 d1 3c 78 06 22 bf 30 fa 96 3d
       -0.3929886 0.02555367 -0.6329112 0.07371938
000360 a0 40 2e be 0a 29 27 bf cc c2 7d 3e 64 4c 46 be
       -0.1701684 -0.65296996 0.2478134 -0.19365078
000370 9c 68 2e bf b4 ff ca 3e 4a ea 18 3f b7 65 94 3c
       -0.6812837 0.3964821 0.59732497 0.018114908
000380 de 90 44 bf ef 62 bc be 1a 9d 17 3e f6 65 36 be
       -0.7678355 -0.3679423 0.14806023 -0.17812333
000390 d4 21 69 3d df a3 f2 3e 6a 11 26 3e 11 9e c3 bb
       0.056917027 0.4739065 0.1621758 -0.0059697707
0003a0 33 a6 df 3e 9c 43 be 3e 9a 56 86 3e 96 cd 3e 3e
       0.43681487 0.37160957 0.26237947 0.18633112
0003b0 36 6c 38 bf a0 22 60 3e a9 f3 33 3e f1 55 f5 be
       -0.72040117 0.21888208 0.17573418 -0.4791713
0003c0 69 34 18 be 0a 6b c7 bd bc f7 12 3f 3c 30 82 3e
       -0.14863743 -0.09737213 0.5740926 0.25427425
0003d0 72 cd a2 3d 5b 4c a4 bf c8 10 a5 bd a6 06 06 bf
       0.07949342 -1.2835802 -0.080598414 -0.52353895
0003e0 c5 a3 de 3e 33 f5 85 3c 9f 31 09 3f 1c 9d c8 3e
       0.4348432 0.016352272 0.5359134 0.39182365
0003f0 96 82 71 be 3e 62 9c be b3 bb b1 3e 02 06 a3 3e
       -0.23584971 -0.30543703 0.34713516 0.3184052

l3/W f4 [256, 256]
000000 c8 a1 55 bc 0e e3 4f be 4e f0 e1 3d 11 c0 69 bd
       -0.01303906 -0.20301458 0.110321626 -0.057067934
000010 e2 fb d3 bc 94 19 2c be 2b a2 f1 bd 79 a6 25 bd
       -0.025876943 -0.16806632 -0.11798509 -0.040441964
000020 7c ae e6 bc 22 50 7b 3c 29 d7 02 be 0f 92 3f bd
       -0.028159373 0.015338929 -0.1277739 -0.04677015
000030 6c 93 29 3e 82 c6 9b bd 28 35 3b 3e 0f 1b 03 3e
       0.16560143 -0.07606222 0.18281996 0.12803291
000040 59 37 cc bd 58 1c d8 bb dd 38 37 be 6d 45 86 3b
       -0.09971494 -0.0065951757 -0.17892785 0.0040976317
000050 d7 af e9 3d bd 0e 45 bd 35 45 56 3e ca 9f 16 3d
       0.11410492 -0.04810976 0.20924838 0.03677348
000060 d0 f7 95 3d a5 7a 13 be a5 1d 3d 3c 13 da 89 bc
       0.07322657 -0.14402254 0.011542712 -0.016827619
000070 2b 34 be 3d f6 03 c4 bd 18 6a e5 3d 58 85 d3 bd
       0.09287294 -0.09571068 0.112018764 -0.10328168
000080 65 15 9b 3d 5f 85 91 bd 37 85 20 bc 15 34 9b 3c
       0.0757244 -0.07105517 -0.009797386 0.018945733
000090 04 10 e7 bc 72 39 18 3d ec ce 05 3e c7 69 94 3d
       -0.028205879 0.03716416 0.13067216 0.07246738
0000a0 33 51 1b be c4 a6 a3 bd 91 13 e8 bd 81 5d 8a bd
       -0.15167694 -0.079907924 -0.11331857 -0.06756116
0000b0 43 e8 45 3d c0 13 89 3d 34 71 e4 bd bf 98 9a 3b
       0.048317205 0.0669322 -0.11154404 0.004717916
0000c0 14 1a 80 bd cc c2 10 3e 0d 98 9c bd 66 83 d5 3c
       -0.06254974 0.14136809 -0.07646189 0.026063632
0000d0 64 ae c3 3d d6 13 84 bd d9 bf a7 3d b9 62 99 3d
       0.09554747 -0.06449096 0.08190889 0.07489533
0000e0 49 93 b5 3d 38 6c 16 be 6d 5c 36 bd 32 8a f2 3c
       0.08865983 -0.1468972 -0.044521738 0.029606912
0000f0 35 e6 10 be 7f c6 8d bd 1c f4 05 be be 9f d7 3d
       -0.14150317 -0.06922626 -0.13081402 0.10528515
000100 ca 48 f6 bb 49 ed d7 bc 9a e9 6c bc 7a 86 c5 3e
       -0.0075160014 -0.026358264 -0.014459992 0.3857916
000110 03 7c 7a bc 30 0b c7 bd 3a ba 90 3d 47 f8 9d bd
       -0.015288356 -0.09718931 0.0706677 -0.07713371
000120 13 e6 03 3d b2 9a 6f 3d 5e 53 70 3d 69 a3 f1 3d
       0.032201838 0.05849714 0.058673255 0.11798746
000130 3a 22 9b 3c 27 38 53 3d 97 3a 7f be 71 6c e6 bd
       0.018937219 0.051567223 -0.24924694 -0.11251152
000140 98 de f8 ba 87 a6 4b be 70 5b 0b be 98 fe 95 3c
       -0.0018987237 -0.19887744 -0.136091 0.018309876
000150 09 ab f3 3c 2e 6b 7b 3d d6 d4 25 be 80 1d 83 bd
       0.029744642 0.06138151 -0.16194472 -0.06402111
000160 e2 df eb 3d c8 57 03 3e fd 80 3d bd 51 a6 ba 3d
       0.11517312 0.12826455 -0.04626559 0.091137536
000170 c5 37 3c 3e 3a f9 4f bb da 4c 16 bd 75 f3 36 3c
       0.1838065 -0.0031734244 -0.036694385 0.011166443
000180 9b c9 21 3e bd 31 f6 bc 4b 88 1b be 61 2a 7d 3d
       0.15799563 -0.030053014 -0.1518871 0.061807994
000190 7b 96 4b 3e 14 3f 3d bd e5 8f a3 3d 78 b2 8a bd
       0.19881622 -0.046202734 0.0798643 -0.067723215
0001a0 e9 c1 1b 3e 83 d7 1e be bc 9c bb 3d f5 91 15 3c
       0.1521069 -0.15511899 0.09160754 0.009129037
0001b0 22 f2 cf bd 31 03 b3 bd 58 fd ae bd 5f f0 9b ba
       -0.10153605 -0.08740843 -0.08544415 -0.0011897198
0001c0 17 4d 6d bc 13 4e 18 be 5d 3b 44 3c b0 67 0c bd
       -0.014483712 -0.14873533 0.011977044 -0.03427857
0001d0 9b 57 88 bd f2 59 b7 bd e7 f6 82 bd bd 81 fe bb
       -0.066573344 -0.089527026 -0.06394749 -0.007766931
0001e0 95 a5 07 be c6 dc 13 be c3 6d 16 3d 5b fa 39 3d
       -0.13246758 -0.14439687 0.03672577 0.045404773
0001f0 25 b3 ab bc f3 ef d0 bd bc 18 2a be 0f a9 8f bd
       -0.020959446 -0.10202017 -0.16610998 -0.07014667
000200 d1 c0 72 bc 86 4c f7 bd 8f 69 6c 3d b3 3d 42 3e
       -0.014816479 -0.120751426 0.057717856 0.18968849
000210 8d 95 a3 bd c3 79 a2 bc b1 9e cb 3d 3c c2 5b 3d
       -0.07987509 -0.019833451 0.09942377 0.053652033
000220 1e 25 13 be 5a 87 82 3d 29 43 25 3e c9 de 12 3d
       -0.14369628 0.063734725 0.16138901 0.035856996
000230 4d 06 65 bd d5 a6 0c bb 10 33 b9 3d 6f 23 70 bd
       -0.055914212 -0.0021461744 0.090429425 -0.058627542
000240 9e 76 50 3c 9f c4 16 bd b3 db bf bd d9 30 c0 3c
       0.012723593 -0.036808606 -0.09368076 0.023460792
000250 06 4c b5 3c 4f d3 6d bd e2 28 30 3e 9f ea 12 3d
       0.022130977 -0.058062848 0.17203096 0.035868283
000260 db 7c 67 be 85 b4 b6 bb e8 32 36 bd b4 f1 d4 bd
       -0.22606222 -0.005575719 -0.04448214 -0.10397664
000270 7d 55 2d bd a1 21 ea bd dc 77 b1 3c 9d 41 41 3c
       -0.042317856 -0.114321955 0.021663599 0.011795429
000280 69 af 21 3d 8d 15 e2 3d 81 1b 04 bc 68 ae 8e 3d
       0.039473925 0.11039267 -0.008063198 0.06966859
000290 f9 2a 9c bd db 62 c9 bc ac 28 9f bd b9 ed 8b 3d
       -0.07625384 -0.02458327 -0.077714294 0.068324514
0002a0 e1 d4 80 bd b7 a1 54 3e a0 18 5a 3d a9 5a ec 3b
       -0.062906034 0.20764814 0.05324614 0.007212956
0002b0 30 d4 1c be e2 2d 20 bd e6 e7 32 3d 74 d1 8b ba
       -0.15315318 -0.039106257 0.043678187 -0.001066728
0002c0 3a f8 03 3d 54 72 8b 3d 57 c0 22 bd ad 0d 10 3e
       0.03221915 0.06808916 -0.03973421 0.14067717
0002d0 b3 0e f4 3c e9 f5 b9 bc 55 bb 43 bd 84 e9 10 3d
       0.029792165 -0.022700267 -0.047786076 0.035378948
0002e0 bb c0 1b 3d a8 33 33 be 2d e0 80 3d e2 d2 d4 3d
       0.0380256 -0.17500174 0.06292758 0.10391785
0002f0 53 6f 10 be bd 21 f3 bd 0b 91 7d 3d 15 38 f0 3d
       -0.14104967 -0.118716694 0.061905902 0.11729447
000300 8e fc 17 3d 25 db 9d bd e7 fb a6 3d 57 68 7e bd
       0.03710609 -0.07707814 0.08153515 -0.062111225
000310 85 01 29 be 9d 91 b3 be 26 f9 8c 3d 3f 44 b9 3d
       -0.16504486 -0.35072032 0.06883459 0.0904622
000320 2c c1 42 bd 71 86 b7 3d a3 b0 68 bd 7d 2c a5 bd
       -0.047547504 0.089611895 -0.05680908 -0.08065126
000330 1b 04 b3 bd bd 83 3c bd ad 9e 03 be 9d 44 b2 bd
       -0.087410174 -0.046024073 -0.12853499 -0.08704493
000340 13 fe 75 3d 60 5f 41 be e6 eb 0d be 47 3b 3d bd
       0.060056757 -0.18884039 -0.1385952 -0.04619911
000350 8c 1c 99 bb 64 4b d0 3d d2 6a 1b be 47 c2 96 bb
       -0.0046725925 0.101706296 -0.15177467 -0.0046007964
000360 6e 98 d1 3d ed fa 70 3b 5a 3c ff 3e ce c7 10 bd
       0.10234152 0.0036770657 0.49850732 -0.0353468
000370 c5 26 08 bd aa f2 6d b8 cb 0f d8 3d 64 69 82 3d
       -0.0332401 -5.67312e-05 0.10549887 0.06367758
000380 2e 88 88 bd 3a 98 01 bd 0b 7c 70 3d d4 62 81 bc
       -0.06666599 -0.031639315 0.058712047 -0.015794195
000390 53 e6 b6 3c d4 f6 10 be 18 34 05 be 7c 3c 12 bd
       0.022326624 -0.14156657 -0.13008153 -0.035702214
0003a0 ea b4 18 3e ae 6d 99 be 37 a6 97 bd bc f6 2c bd
       0.14912763 -0.2996649 -0.0740475 -0.04222749
0003b0 1e d6 2a bd 18 e0 5f bd 15 9e aa bd 70 66 24 3e
       -0.041708104 -0.05465707 -0.08330933 0.16054702
0003c0 02 86 09 3e 17 0d 0b be ba 22 ae bd 43 98 36 be
       0.13430026 -0.13579212 -0.08502717 -0.1783152
0003d0 2f 3a 25 3c da 45 4f be 3e 52 d6 3d 1d c0 4b 3e
       0.010084673 -0.2024149 0.10464905 0.19897504
0003e0 0b 17 e6 bd 34 40 f1 bd 11 93 1a 3e ed db 48 bd
       -0.11234864 -0.11779824 0.15095164 -0.049037863
0003f0 b9 f7 86 3e 2e a4 61 3d 44 ee 04 3e 60 11 51 3d
       0.26360872 0.055088215 0.12981516 0.05104196

l4/W f4 [16, 256]
000000 17 06 c5 3d 37 1f 18 3e a6 e7 04 3e 5f a3 95 bc
       0.09620302 0.14855658 0.12978992 -0.018266378
000010 69 b9 90 be 00 5c 9a be 73 5e 8b be 85 f4 b0 be
       -0.28266457 -0.30148315 -0.27220497 -0.34561554
000020 90 df ee bd ba 86 77 3e f8 d2 03 be 8b e9 31 bc
       -0.11663735 0.24172488 -0.12873447 -0.010858904
000030 4a c8 ab 3d 7f ff 98 be a8 f9 34 3e 9c 36 fe 3d
       0.083878115 -0.29882428 0.17673361 0.1241276
000040 be fd ac 3d e0 5f 57 bd 65 d7 00 3d bf 6b c4 be
       0.08446835 -0.052581668 0.031455416 -0.38363454
000050 88 64 98 3e 35 22 af be 12 21 8f bd 6a 6e 37 3d
       0.297642 -0.34205785 -0.069887295 0.044783033
000060 16 70 bb bc be eb 84 3e a3 56 9a bc f0 22 b6 3e
       -0.022880595 0.25961107 -0.01884014 0.3557353
000070 7b 5b 6f 3c fb 8a 2e 3e 7c 95 36 3d e9 bc be bb
       0.014609213 0.17045204 0.044576153 -0.0058208597
000080 d3 aa 2f 3d 8e 36 03 3e a9 85 5c 3d 68 41 fc 3d
       0.04288752 0.1281378 0.053838406 0.12317163
000090 8f 4e a2 3e d8 2d 8d 3d 8d 8e ba 3e 19 88 70 be
       0.3170056 0.068935096 0.36436883 -0.23489417
0000a0 6d da bc 3e 55 95 55 3e bf fc 3c bc b4 eb 8c 3e
       0.36885396 0.20857747 -0.011534869 0.27523577
0000b0 4f 42 97 bc b3 a3 c0 3d 9d f8 90 3e 0e 69 19 3e
       -0.018464236 0.09406223 0.28314677 0.14981481
0000c0 56 7c 5c 3e 63 bb 24 3e 7a 15 ac bc 03 bd 2e 3d
       0.21531805 0.16087107 -0.021006335 0.042660724
0000d0 6d d7 75 bd 44 2a 7f 3e 5c a2 c2 be 75 ee b7 3d
       -0.0600199 0.24918467 -0.38014495 0.08981029
0000e0 6b 8b 86 3e 93 72 cd bd 4f cd 1f be 0c 68 c7 be
       0.26278242 -0.10031619 -0.15605663 -0.3894657
0000f0 a3 f3 1d be c0 14 45 3e 29 1c 9c bd aa 81 24 be
       -0.15424971 0.19246197 -0.076225586 -0.16065088
000100 77 e5 2b be 82 a2 4a 3c 4c 8b 23 be 3f 83 5c be
       -0.16786753 0.012367846 -0.15971106 -0.21534441
000110 e3 90 60 3d a9 70 90 3e b3 4e 6e 3d 7b e0 96 3e
       0.054825675 0.28210953 0.058180522 0.2946814
000120 1c b6 af be b1 71 1a 3e 0d 47 a3 be dc d9 73 bd
       -0.34318626 0.15082432 -0.31890145 -0.05953394
000130 91 92 03 be 12 6c 80 3d 36 10 10 be 39 a5 2d 3e
       -0.1284888 0.06270613 -0.14068684 0.16957559
000140 41 96 07 be 18 fd ab be e6 fd 24 b8 0e bd cf be
       -0.13240911 -0.33591533 -3.933711e-05 -0.40573925
000150 e8 13 45 be c4 6c d0 bd 84 4d 25 3c 86 99 f7 bd
       -0.19245875 -0.101769954 0.010089282 -0.12089829
000160 d4 1e b7 be 64 8d 9b 3c ad 2d d7 3e 3d 98 a5 bd
       -0.35765707 0.018988319 0.42027035 -0.08085678
000170 ec cf 67 3e 86 8e f2 3d 74 af 92 3e b6 ab a2 3e
       0.2263791 0.118435904 0.28649485 0.3177163
000180 04 72 42 3d 6b da 0c be 7e 9b 91 bc 81 22 31 be
       0.047472015 -0.13755195 -0.01777434 -0.17298318
000190 24 50 76 bd d6 31 34 3c 7b cf c1 bd be 6d d1 3d
       -0.06013502 0.01099821 -0.09463402 0.1022601
0001a0 14 0a 42 3d 8e 01 dd bd 18 ac 3e bc b3 f9 9f 3d
       0.047372892 -0.10791312 -0.01163771 0.07811298
0001b0 c3 f3 42 3c b9 db 3f 3e aa 4c 02 be f5 d7 37 be
       0.011898938 0.18736161 -0.12724558 -0.17953475
0001c0 0b 19 85 be 0a 16 9a bb b2 aa fa 3d 8d 29 e6 3e
       -0.2599567 -0.0047023343 0.12239589 0.44953576
0001d0 8f 00 a8 3e 80 9a f8 3b 74 b0 9f be 71 32 61 be
       0.32812926 0.007586777 -0.3118931 -0.21991898
0001e0 2b 3f 44 be 78 44 37 be ca 4f 7e 3e cd 33 f1 3d
       -0.19164722 -0.17897213 0.24835125 0.11777458
0001f0 df 48 8b 3d 1f 28 15 3e c2 13 c7 be 49 de 98 3d
       0.068010084 0.14566086 -0.38882262 0.074642725
000200 20 3a 04 bd 2e 6d ff 3d d6 f4 0c 3e b3 cf dc 3d
       -0.032281995 0.12471996 0.13765272 0.10781803
000210 53 7f 20 3e 64 2f 1a 3e b0 86 6a 3e 5c 56 e7 bd
       0.1567357 0.1505714 0.22902942 -0.112957686
000220 04 71 6e 3c bf f0 00 bf 29 3c 52 3d ba ea 59 bd
       0.014553312 -0.5036735 0.051326904 -0.05320237
000230 70 1c 01 3e ac ea e6 be ba 29 42 be 30 42 2f 3e
       0.12608504 -0.45100915 -0.1896123 0.17115092
000240 3b cd 4b bd 7f 39 93 be 1c bd 80 3d eb 6a 22 bc
       -0.04975627 -0.28754804 0.0628607 -0.009913187
000250 67 d2 33 3e 6b 06 2f 3e 51 68 31 be 6b ca b2 be
       0.17560731 0.17092292 -0.1732495 -0.34920058
000260 f6 9d 3b 3e c9 d7 97 bd c3 11 68 bd 97 1c c5 bd
       0.18321976 -0.074142046 -0.056657564 -0.09624594
000270 e9 df 09 be c6 01 62 3d 4b f5 b8 3e f6 cd 12 3e
       -0.13464321 0.055177473 0.36124644 0.1433638
000280 43 d8 41 be 51 57 85 be ce 80 2f 3e 8e ee b0 3d
       -0.18930154 -0.2604318 0.17138979 0.08639251
000290 1e 2e 07 be 9c 09 2b 3e 89 30 d5 bd 9b fa 51 3e
       -0.13201186 0.16702884 -0.10409648 0.20505755
0002a0 66 10 42 be f2 9b a6 3c c6 a6 53 3e 55 4f 8f be
       -0.18951568 0.020338032 0.20669088 -0.27990213
0002b0 06 c1 8e 3d fc 76 15 be f3 96 89 3e 24 a0 fb 3b
       0.0697041 -0.1459617 0.26872978 0.0076790024
0002c0 28 d7 90 3d ed ab 2c 3e 9d 89 02 3e 23 9b a7 be
       0.07072288 0.1686246 0.12747808 -0.32735547
0002d0 82 d6 0b 3e 78 31 3b be c2 24 f8 bd 34 6c 5d 3d
       0.13656047 -0.1828059 -0.12116386 0.05405827
0002e0 ed 99 32 bd 2e 4f 72 be d5 bf 4a 3e 60 4b 72 be
       -0.043603826 -0.23663017 0.1979974 -0.23661566
0002f0 db 76 b7 bc 1c fb f1 be 8e bc 72 3e b8 a4 32 3d
       -0.022395542 -0.47261894 0.2370474 0.04361412
000300 7a 98 02 bf 41 f9 74 3d 2c a2 8c 3d 87 6f 35 be
       -0.5101391 0.05980802 0.06866869 -0.17718326
000310 f3 f5 a7 3d 26 2f 06 3e 96 5f 2a 3d 5a 74 94 be
       0.08201208 0.13103923 0.041595064 -0.2899502
000320 ca a9 1a bd ee f0 25 3e 9f d4 94 be c0 cb a2 bd
       -0.03775958 0.16205189 -0.29068467 -0.079490185
000330 15 bf 74 be 68 27 0e 3e 9c cf b3 3e ef 77 06 be
       -0.23901017 0.1388222 0.3511933 -0.13131689
000340 fa 39 b3 bd cd aa 1b be 7b 6c bb bc 8e b2 07 be
       -0.087512925 -0.15201874 -0.022878876 -0.13251707
000350 db a2 a5 be 11 97 ac 3c 56 c3 7e be 5c 39 02 3e
       -0.3235081 0.021068128 -0.24879202 0.12717193
000360 7b 73 0e 3d d2 aa fa bd e4 f3 80 3e c7 65 54 be
       0.0347781 -0.12239613 0.25186074 -0.2074195
000370 5f c8 2b 3e 67 a4 39 3e 75 65 4f 3e 0c 4f e9 3d
       0.16775654 0.18129121 0.20253547 0.1139203
000380 15 d1 0f 3e c0 cf 96 be fa 43 cb bd 5e 99 00 bf
       0.14044602 -0.29455376 -0.09925075 -0.5023402
000390 ca fb e0 bd a4 e8 b5 3d 9c dd 07 3d e7 9b 9e 3d
       -0.10985525 0.08882263 0.033170328 0.0774458
0003a0 79 40 95 3d ca 51 1e be 6b aa f6 3d ef 9a 16 3d
       0.07287688 -0.15460888 0.120442234 0.03676885
0003b0 ea e1 9b bd 53 e2 b7 bd 05 5a e2 be e4 bf b5 3e
       -0.07611449 -0.08978715 -0.44209304 0.35497963
0003c0 1c 64 3a 3e ec 01 3c be 87 02 4d 3e 45 25 b5 3e
       0.18202251 -0.18360108 0.20020495 0.35379997
0003d0 65 52 6d 3d 89 ef 6e bd 78 60 5d 3e a6 c8 57 3e
       0.057939906 -0.058333907 0.21618831 0.21072635
0003e0 d5 3e 44 be cb d6 d0 bd d3 29 1a be 60 64 fe 3d
       -0.19164594 -0.101972185 -0.15055017 0.12421489
0003f0 62 93 a8 bc e4 bf 57 3e c3 4a d6 bd 32 3c 1a bd
       -0.02057809 0.21069294 -0.104634784 -0.037655063

l2/W f4 [256, 256]
000000 3f ce 86 bc d9 15 16 be 37 50 49 bd a4 b0 3c 3e
       -0.016455768 -0.14656772 -0.049148764 0.18426758
000010 1a 3c 42 3c 17 fb a8 bb 2a 1f 25 3d a3 88 3a bc
       0.01185515 -0.0051568854 0.040312923 -0.011385116
000020 f6 8d 03 3e da 05 56 be 26 7c 72 bd be 85 ac 3d
       0.12847123 -0.2090067 -0.05920043 0.08423947
000030 05 54 9f bd 4b 31 0d 3e a9 8b 91 bd 5c e6 ec 3d
       -0.07779697 0.13788335 -0.07106716 0.11567375
000040 bb 98 56 3e 06 05 0e 3e 38 e9 31 be 05 97 8f bd
       0.209567 0.13869104 -0.17374122 -0.070112266
000050 58 64 72 3c cd 34 be 3d d6 3d 90 be 34 10 df 3c
       0.014794432 0.09287415 -0.28172177 0.027229406
000060 f1 29 09 3e 82 32 e0 bd 47 1a 17 bd 47 ec 06 be
       0.13394906 -0.109471336 -0.036890294 -0.1317607
000070 c4 48 d7 3d 11 66 4d bc 6a ea 7b 3d 2e ee 0d be
       0.10511926 -0.012536542 0.06150285 -0.1386039
000080 94 51 ee bd ed de 5b bc 8e 2c 9f bd c1 b3 77 bd
       -0.116366535 -0.013419849 -0.0777217 -0.06047416
000090 c5 85 b2 bc 94 18 4c bd f0 b9 89 bd bb e9 f5 bd
       -0.021792302 -0.049828127 -0.06724918 -0.12007471
0000a0 23 2b 05 bd 44 07 1e 3e 37 c9 e5 bc a3 8f b5 bd
       -0.03251184 0.15432459 -0.028050048 -0.08865287
0000b0 f1 b3 f1 3d 84 b8 a9 3a 7f 08 bf 3d 9d 2e cb 3c
       0.11801899 0.0012948667 0.093277924 0.0248025
0000c0 ed 04 be bb e8 0a 34 3d 40 63 ac bd 71 bd b3 3d
       -0.005798927 0.043955714 -0.08417368 0.087763675
0000d0 c3 f9 19 3e c6 d0 91 bc 55 65 fc 3d 0c 12 de 3d
       0.15036683 -0.017799746 0.12324015 0.10843286
0000e0 17 b9 8b bd 1d 45 03 3e 8c 79 8e bd 05 b2 dd bd
       -0.068224125 0.12819333 -0.06956777 -0.1082497
0000f0 06 53 2c bc ed 9f c7 3c ae 07 a4 bc a1 59 06 3d
       -0.010517841 0.02436825 -0.020023193 0.03280032
000100 d9 10 30 3d 36 c6 9e bd f8 e2 98 3e 56 73 6b 3d
       0.042984817 -0.077526495 0.29860663 0.05748304
000110 df ed 4e 3d fc fa 02 be 0a 40 d8 bd 6b 2b 4b 3e
       0.05051982 -0.12791055 -0.105590895 0.19840781
000120 1e fb 0f bd d9 a5 0e be cd 17 88 3e 44 f1 09 bd
       -0.035151593 -0.13930453 0.2658066 -0.033677354
000130 dd 5a 48 3d fe c3 4b bc b6 bc 4b 3e 5b 0f 40 bd
       0.04891478 -0.012436865 0.19896206 -0.046889644
000140 1c bd bc bc a2 32 f2 bc f4 d8 8c bc ae a6 b5 bd
       -0.023039393 -0.02956516 -0.017193295 -0.08869682
000150 10 46 35 bd 5a d9 96 3d 1c 40 79 3c 88 7b 09 3e
       -0.04425627 0.07365675 0.015213039 0.1342603
000160 74 a4 eb bc 20 70 f9 3d c1 9f 87 be 26 66 d5 3c
       -0.02876494 0.12179589 -0.2648907 0.026049685
000170 c3 c1 0c 3d ac b3 57 bd f8 97 6a be 21 a1 3f be
       0.034364473 -0.052661583 -0.22909534 -0.1871381
000180 84 af 94 bc 48 23 34 bd 12 ce dc 3c 7a c5 24 3e
       -0.018150099 -0.04397896 0.02695373 0.16090956
000190 47 38 d2 3c bd e3 a3 be 56 0f 87 3d 09 5b 09 be
       0.0256616 -0.32009688 0.06594722 -0.13413633
0001a0 c2 07 8f bb 50 48 55 3d 37 12 29 3e 8f c2 18 3d
       -0.0043649385 0.052070916 0.16510855 0.03729492
0001b0 96 e1 04 3e e9 d2 b5 3d 34 e4 ac 3c 9d e7 1d be
       0.12976679 0.088781185 0.02110491 -0.15420385
0001c0 6b be 1d 3d 12 0a e6 3d d4 bc 57 3d 7e 4a 2e 3e
       0.038511675 0.112323895 0.052670315 0.17020604
0001d0 ce aa 0d 3e 47 68 2a 3d af 15 84 bd 42 09 01 be
       0.13834688 0.041603353 -0.06449448 -0.12601188
0001e0 28 75 a7 3d 38 de 5d 3d 63 55 b5 bd 5d fc 76 3c
       0.08176643 0.054167002 -0.08854177 0.0150748165
0001f0 37 01 9d bd c0 38 47 be 0d 93 39 3d 2e 9d 63 3e
       -0.07666247 -0.19455242 0.045306254 0.22227928
000200 02 f6 b6 bd 62 34 2d bc dd 9b 99 bd 61 2c a6 3d
       -0.08933641 -0.010571571 -0.07500432 0.08113933
000210 ac c2 8c be a3 26 45 3d 10 bb da bc 84 0f 89 bd
       -0.27492273 0.04813255 -0.026700526 -0.066924125
000220 bc be 04 3e 68 39 0a bd ff b2 09 3e 20 9d c3 3b
       0.12963384 -0.033746153 0.13447188 0.0059696585
000230 4b f2 08 3e 13 d4 47 3e 57 3b 18 3e 99 08 2e be
       0.13373677 0.19514494 0.14866386 -0.16995467
000240 e6 b2 16 be 94 4a da bc 11 70 b4 bd af 24 d0 3c
       -0.14716682 -0.02664689 -0.088104375 0.025408117
000250 94 bd 8b bd 8e 1f ed bd ef ab ae 3c 2b 54 0c be
       -0.068232685 -0.11578284 0.021322219 -0.13703983
000260 9f ef 85 3c 27 7c b3 bc c2 c0 23 3e 13 b5 e4 3c
       0.016349612 -0.021909786 0.159915 0.027918374
000270 21 40 ac bd 27 4e 43 3d b7 fc 37 bd 54 08 75 bd
       -0.08410669 0.047681954 -0.044918742 -0.059822395
000280 76 27 45 be 2b df d1 3d de 92 d1 bc 0c a5 da bd
       -0.19253334 0.10247644 -0.025582727 -0.106760114
000290 a6 1a c5 bc 3f d8 0f 3d 0e e1 f0 bc 07 3c 89 bd
       -0.024060559 0.035118338 -0.02940419 -0.067009024
0002a0 e7 00 2b be 3a 55 1f 3e d2 31 4f bd 43 c0 98 bd
       -0.16699563 0.15559855 -0.05058462 -0.07458546
0002b0 fe c5 7a bd ec 01 58 bd e5 e2 1d 3d 4c 26 60 be
       -0.061223976 -0.052736208 0.03854646 -0.21889609
0002c0 a5 b2 08 bb 5b 99 97 bb b1 0e 9c bc 5a 17 ca bb
       -0.0020858434 -0.0046264357 -0.019049974 -0.0061673345
0002d0 56 e0 42 3e 56 9f 0d 3d e2 75 7e 3e 95 6e 33 be
       0.1903089 0.034575783 0.24849656 -0.17522652
0002e0 6e 16 0a be 31 9e 8c 3c 79 c7 67 bc 03 97 b7 3c
       -0.13485119 0.017165275 -0.014146679 0.022410875
0002f0 2c 15 63 3d 90 4f 32 3e 5a 8b 7f bc 5e b5 85 b8
       0.055440113 0.17413163 -0.015597189 -6.3757165e-05
000300 96 27 e8 bc e9 39 1e 3c 9e 49 a1 3d ec 23 7f be
       -0.028339189 0.009657362 0.078753695 -0.24916047
000310 9f bf b9 bd fa 40 6e 3d 42 f1 a7 bd d2 15 32 bd
       -0.09069752 0.058167435 -0.08200313 -0.04347784
000320 56 53 17 bd 0a a5 01 3e 8c d6 03 3e 73 25 6e 3e
       -0.03694471 0.12660614 0.12874812 0.23256473
000330 f2 60 96 3c 2f d7 de 3d a9 48 f4 bd 9f e7 ec bc
       0.018356774 0.10880887 -0.11927921 -0.02891904
000340 99 f3 e3 bd 1f 56 f6 bd 9a ad 31 3e 27 22 97 3d
       -0.11130447 -0.12028145 0.1735138 0.07379561
000350 cf 91 0a bc 13 5e 5b 3d 93 0c f5 bd 12 f5 43 be
       -0.008457615 0.053556513 -0.11965289 -0.19136456
000360 9d 61 0d bd 3c d5 2b 3e f2 ee cf 3b 5c ef 9e bd
       -0.03451692 0.16780561 0.006345623 -0.07760498
000370 58 17 23 bd c6 78 07 3e 8a fd 3c 3d 34 c1 98 3d
       -0.039817184 0.13229665 0.04614023 0.074587256
000380 9b 3d 53 be 0f 4c e3 3d 72 2a bb 3c c0 64 4d bd
       -0.2062897 0.110984914 0.022847388 -0.05014491
000390 67 16 15 be 84 33 66 be cd c6 75 3d 24 1c 87 bd
       -0.14559327 -0.22480589 0.060004044 -0.06597164
0003a0 0f f8 c9 3c fb 8a c6 3d a1 b8 60 3e e2 ab 25 3d
       0.024654416 0.09694477 0.2194543 0.040447123
0003b0 c9 a0 af bd 21 0b 10 be 68 e7 fd 3a e7 fe 46 3d
       -0.08575589 -0.14066745 0.0019371333 0.048582938
0003c0 a0 ea cf bd fe ea 62 bd 87 8c d0 bc 17 65 16 3e
       -0.10152173 -0.055399887 -0.025457634 0.14687
0003d0 19 4a bd 3b 7b 93 1b 3c 19 5a 90 3d fe af c0 bd
       0.0057766554 0.009495611 0.07048435 -0.09408568
0003e0 fe 2d f0 3d 84 9b 00 be a4 42 23 be f0 bd b5 bd
       0.11727522 -0.12559325 -0.1594339 -0.08874118
0003f0 c0 81 4d 3a 05 dc 00 be 9c 97 2c be fb 56 58 3d
       0.00078394637 -0.12583931 -0.1685471 0.052817326

l1/b f4 [256]
000000 6b f7 69 bd 80 73 08 be 65 9f 05 3d e9 17 a0 bd
       -0.05712072 -0.1332531 0.032622714 -0.078170605
000010 5a f6 27 3c d4 8e a8 3b 91 11 13 be d5 84 0a 3d
       0.010251606 0.0051439796 -0.1436217 0.033818085
000020 e1 5c 01 ba d0 59 57 be 6f 26 69 3e 16 d7 16 3e
       -0.00049347995 -0.21030354 0.22768568 0.14730486
000030 3f 1b 35 be 4d 77 1f 3c 04 b3 40 be f8 a5 87 ba
       -0.17686175 0.009733033 -0.18818289 -0.0010349145
000040 87 23 93 bd 75 8f b0 3d fc e1 3d 3c 30 ae 2c bd
       -0.07184511 0.08621112 0.011589523 -0.042158306
000050 e1 7e c0 be 4c a7 b4 3d b4 4f dd bd 52 e2 d7 bd
       -0.375968 0.08820972 -0.10806218 -0.10541214
000060 74 d3 a7 bd 1e 8f 16 3d af d1 07 3d 16 cf 93 3d
       -0.08194628 0.03675758 0.033158954 0.07217233
000070 00 00 00 00 22 ca ea bb db 85 45 3d d9 47 b4 bc
       0.0 -0.0071652094 0.048223358 -0.022006916
000080 dc 7a 5f be 4c eb 84 3d c0 75 76 be a5 c3 3e bb
       -0.21824211 0.06490192 -0.24068356 -0.0029108312
000090 9a a1 3f bc e5 83 ca 3c 97 54 8b 3d 26 bc 98 bc
       -0.011696244 0.024721095 0.068032436 -0.018644404
0000a0 2d 2b 75 3d 45 4f f8 3b 87 4c 89 be 95 99 01 be
       0.05985563 0.007577809 -0.26816198 -0.12656243
0000b0 13 72 9a 3d 03 dc e4 bd 93 7a 15 3d 1a a1 25 3c
       0.07541289 -0.111747764 0.03649385 0.01010921
0000c0 e5 32 00 3d 48 fe 99 3d f2 76 69 bc 10 32 b0 3d
       0.031298537 0.075192034 -0.01424955 0.08603299
0000d0 5f 30 d5 be f3 c8 62 3d d7 95 af bd 08 ce 9b 3c
       -0.41638467 0.05536742 -0.085735016 0.019019142
0000e0 c3 58 4c be 3a 97 72 3d f0 1e 33 bc 7f c9 ae bd
       -0.19955735 0.059226252 -0.010932669 -0.08534526
0000f0 d7 6c e1 bd 7d 5b 71 3d 69 d0 8e 3d 88 47 3b 3c
       -0.11007088 0.05892514 0.06973345 0.011430629
000100 ea 7d cc 3c d7 1d 6a 3c 6a 05 b0 bc 10 65 03 3c
       0.024962384 0.014289341 -0.021486957 0.008019701
000110 25 e1 90 bd c9 f1 1d 3d 7c 1d b4 3c aa 0f cd bd
       -0.07074193 0.038560662 0.021986715 -0.10012753
000120 8d 65 02 bd 71 d3 cb 3d 15 63 b2 bd 26 fc 24 3d
       -0.031835128 0.099524386 -0.08710305 0.04027953
000130 af 67 aa bd 4b 93 1f bd 4c e3 de bc b8 ee 07 be
       -0.08320557 -0.03895883 -0.027207993 -0.13274658
000140 23 82 9b 3d 59 6b 3c 3d 8b 59 81 be fe f4 cb 3c
       0.07593181 0.046000812 -0.25263628 0.024897095
000150 6f f8 f4 3c 55 75 d7 3d e5 f2 32 bd 0c 51 21 3d
       0.029903619 0.10520426 -0.043688674 0.039383933
000160 9c cf c8 bd c2 7f 82 be 9e 55 a3 be 47 b2 a7 3d
       -0.09805223 -0.25488096 -0.31901258 0.081883006
000170 11 58 9c bd 15 90 d1 3d ba 9d 46 bd 8b 6d 43 bc
       -0.07633985 0.102325596 -0.048490264 -0.011927973
000180 27 f5 57 be 43 93 75 bd 7d d4 38 3c 23 46 63 3d
       -0.21089612 -0.059954893 0.01128113 0.05548681
000190 d8 ea f0 3c 61 ae b2 ba 03 94 06 3d 47 f4 8a 3d
       0.029408857 -0.0013632291 0.032856 0.067848735
0001a0 46 a9 98 bd b1 ba 47 3c 00 75 f0 3d 7b f8 fe 3c
       -0.07454161 0.012190507 0.11741066 0.031124344
0001b0 33 c3 a1 3d 10 fb ed bc e9 bc 5e bc 66 1a e5 bd
       0.078985594 -0.02905038 -0.013594844 -0.11186676
0001c0 a6 ad e7 3d f5 41 12 3d f6 ca a1 be 0f e5 b1 3b
       0.11312418 0.035707433 -0.3160016 0.0054289172
0001d0 3a a0 11 3e 03 1d 33 bd 6e 5d 39 3c bb 85 77 be
       0.14221278 -0.04372884 0.011313779 -0.24172108
0001e0 62 92 ac bc 4f e3 d0 3d 6e e7 33 3c 3d 0f 14 3d
       -0.021065895 0.10199606 0.01098047 0.036147345
0001f0 bd 6f 04 bc c6 42 41 bc 61 14 aa 3d cb a0 11 3e
       -0.008083281 -0.011795705 0.08304668 0.14221494
000200 1b 51 64 3d 59 c8 56 3d 1e 53 00 be 40 2b 09 3e
       0.05574141 0.05243716 -0.12531707 0.13395405
000210 ee ca 7c be 55 2c 50 3d 3f e3 65 3c ce d1 34 be
       -0.24686787 0.05082353 0.0140312305 -0.17658159
000220 30 76 01 3a 26 b3 25 bd fe d0 c7 bd e4 1d 41 3d
       0.0004938571 -0.040454052 -0.09756659 0.047147647
000230 70 c9 c0 3c ab b5 9c 3d 5c 3e 7a 3d 82 1a b0 3d
       0.023533553 0.07651838 0.061094627 0.08598806
000240 a1 51 14 bc 80 5d b2 3d bc b2 63 3d 46 32 72 be
       -0.009052665 0.0870924 0.055590376 -0.2365199
000250 84 28 5c 3d fb 4d ac 3d 23 6d 12 be ca 76 c9 bd
       0.053749576 0.08413311 -0.14299445 -0.0983711
000260 e3 ec 74 3c af 8c b2 be 2c ce 72 3d de 5b 03 bc
       0.014949056 -0.34872958 0.059278652 -0.008017508
000270 8f b0 2a 3e c8 43 c8 bd 71 1d 1b 3e 9f 38 94 3c
       0.16668914 -0.09778553 0.1514795 0.018093405
000280 4e be d8 3b fb 4a 19 3d 45 c2 95 3d a0 0e cb bc
       0.006614483 0.037425023 0.073124446 -0.024787247
000290 98 fd b8 bd 06 8c 82 be 77 72 c3 3d 41 3b f4 3d
       -0.09032744 -0.25497454 0.09543317 0.11925364
0002a0 92 95 6b bd 00 40 51 bd 7d b1 b0 3d 91 0a 28 be
       -0.05751569 -0.051086426 0.08627603 -0.16410281
0002b0 81 ca d0 3c 29 07 c6 3c 0b f7 15 bb 52 b2 3c be
       0.025487186 0.024173336 -0.0022882845 -0.18427399
0002c0 82 84 a5 be c8 d1 2f 3d eb e3 92 3d 7f 8b 06 be
       -0.32327658 0.042924672 0.07172378 -0.13139151
0002d0 ed 8a 0c 3e e1 67 64 be 8d 98 6d be 21 26 1c bd
       0.13724871 -0.22305252 -0.23202725 -0.0381223
0002e0 10 23 9d bd 21 a8 8b be 10 bb 3e be 5e 10 5e 3c
       -0.07672703 -0.2727671 -0.18626046 0.013553707
0002f0 82 cf ff 3b 3f a6 69 3d a3 69 8e 3d be 42 91 be
       0.0078067193 0.05704331 0.06953742 -0.28371233
000300 4b 8b c7 3c 3c a0 6e bc d2 68 37 ba 5d 87 07 3d
       0.024358412 -0.01456457 -0.00069965154 0.033088077
000310 29 98 4b 3e 97 26 b9 bd eb d5 c0 bc f0 75 c1 3d
       0.19882263 -0.090405636 -0.023539504 0.09446323
000320 0c fe 11 be 90 d1 93 3d b5 b5 5f 3d 3a 6f 47 3d
       -0.14257067 0.07217705 0.05461665 0.04869006
000330 26 35 e1 3d 3e 74 22 3e 98 bd 2c 3c c3 fe 0a 3e
       0.109964654 0.15864655 0.01054325 0.13573746
000340 1b 20 a5 ba 72 17 bb 3d 12 fc 4e be 86 77 b3 3d
       -0.0012598069 0.09135331 -0.20213345 0.08763032
000350 12 40 c2 3d 41 0b e5 3c 01 d0 91 be ae fa b3 3d
       0.09484877 0.027959468 -0.28479007 0.08788048
000360 17 12 73 bd 85 95 68 bc 20 36 8e 3d e6 31 82 bc
       -0.059343424 -0.0141958045 0.06943917 -0.015892934
000370 51 f6 9e be c7 ba 2c 3d 77 7f 78 3d 07 a7 77 3d
       -0.310473 0.042170312 0.060668435 0.060462024
000380 fe 67 aa 3d c7 66 3f bb 97 ec 0c be fe 03 49 bc
       0.08320616 -0.0029205547 -0.13762127 -0.012269018
000390 1d ee b2 bd 52 6c 3a 3d 57 49 f1 3d be aa 3c 3d
       -0.08736823 0.04551346 0.117815666 0.04606127
0003a0 a9 b9 90 bd 6c 19 56 be 27 05 ea 3c 40 9a 56 3c
       -0.07066662 -0.20908135 0.02856691 0.0130982995
0003b0 b9 35 97 bd 2d 02 14 3d ad a0 a4 bd a2 0f 80 bc
       -0.07383294 0.036134887 -0.08038459 -0.015632454
0003c0 c9 98 bb 3d 2c 03 46 be 1f 82 82 bb 83 e4 91 3d
       0.09160001 -0.19337147 -0.003982797 0.07123663
0003d0 0b c1 9a bd 6b f8 4e 3d d5 ba 1e be 00 f0 4d bd
       -0.07556351 0.05052988 -0.15500958 -0.05027771
0003e0 ee 8f 92 3c 57 5d aa 3d e5 62 70 bd 1e 44 06 3c
       0.017890897 0.083185844 -0.058688063 0.008194951
0003f0 ee c1 af be 5d d8 91 be 93 c6 ba bd cf a0 3f be
       -0.34327644 -0.28485385 -0.09119906 -0.18713687

l3/b f4 [256]
000000 11 55 ef 3d 0f 13 2e 3b 2e 27 01 bd 10 52 8c bd
       0.11686147 0.0026561653 -0.031531505 -0.0685159
000010 4e bc 90 bd 91 84 0f 3d b4 82 61 bc 8d f8 c5 bc
       -0.07067166 0.035038535 -0.013764072 -0.02416637
000020 ab b3 43 bd ed d9 c9 3b cd cc 26 3a ba 55 d8 bc
       -0.047778767 0.006160012 0.0006362915 -0.026408065
000030 87 88 9b 3d 96 5c 84 bd 10 da 27 3d 70 0a 06 3d
       0.075944 -0.06462972 0.040979445 0.032724798
000040 53 87 0a bd 64 6a 9d bd 7c 00 84 3c 03 a9 6d 3d
       -0.03382046 -0.07686308 0.016113512 0.05802251
000050 2e a2 31 3d a7 4b 9d bd da b5 1f bd 8b b9 49 bc
       0.043367557 -0.07680445 -0.038991787 -0.012312303
000060 70 6a 3a 3d 23 7e 59 3d d2 86 42 3d e7 b9 a3 bd
       0.045511663 0.05309881 0.047491856 -0.079944424
000070 72 52 22 3d 2d d6 85 bc 76 c7 43 3d 64 08 0b bd
       0.039629407 -0.016337479 0.047797643 -0.03394355
000080 15 f1 5b bc 57 1c c8 bd a2 72 94 bd 1a c5 ef 3c
       -0.013424178 -0.097710304 -0.07248427 0.02926879
000090 22 75 a1 bd a5 13 69 3d 41 99 1d bc 9d 0e e5 bd
       -0.078836694 0.0569035 -0.009619058 -0.11184428
0000a0 f5 bf ad 3d 23 66 b3 3d 7a 77 93 3c 24 bf 24 3d
       0.084838785 0.087597154 0.018001307 0.04022135
0000b0 d6 9f e1 bc 1e 01 5c bc ab 69 20 bd b0 91 7d bc
       -0.027542036 -0.013428001 -0.039163273 -0.015476629
0000c0 50 da 8b 3d c1 4e 9a bd e9 97 60 bc 39 af 94 3d
       0.06828749 -0.07534552 -0.013708093 0.072599836
0000d0 4b b7 a2 bc 4a c6 c8 3d b4 00 cf ba f3 98 31 3c
       -0.019862792 0.09803446 -0.0015793056 0.010839689
0000e0 bf ce 9b bb 18 22 10 3c 77 d3 17 3d 38 97 9f bd
       -0.0047548707 0.008797191 0.037066903 -0.077925146
0000f0 4b 6e 30 3c b9 98 c9 3c 4b 02 04 bd 3c 6b 97 bd
       0.010768483 0.024608957 -0.03222875 -0.073935
000100 39 79 40 bd 3d 72 e5 3c b1 9d 69 bd 74 3f 09 bd
       -0.046990607 0.028008575 -0.057035152 -0.03350778
000110 6d e8 15 bd 76 68 ab 3d 82 c5 67 3d 27 87 0b bd
       -0.03659861 0.08369534 0.056584843 -0.03406444
000120 14 eb 3b bd 42 6e 8f bc 67 5a 92 bd 81 81 cb 3c
       -0.045878485 -0.01750863 -0.07146149 0.024842026
000130 d7 49 06 bd c5 1f 58 3d 01 b0 49 3d 06 ee ca bc
       -0.032785263 0.052764673 0.049240116 -0.024771702
000140 a0 5e e8 3c 9a 4a 43 bd 69 0b 80 3d c3 d3 c0 bd
       0.028365433 -0.047678567 0.06252176 -0.0941539
000150 0c d7 76 bb 59 4b 2e 3d f0 e6 bb bc c2 ce 05 3d
       -0.00376648 0.042552326 -0.022937268 0.032667883
000160 d1 1a c9 bc 1a 9d 83 bd 18 68 9d bd 8d 1d 34 3b
       -0.02454892 -0.06426449 -0.0768587 0.0027483434
000170 9e 73 ad 3d 4c ff 0c bd 71 1b 91 3d 97 a0 fa bc
       0.08469318 -0.034423158 0.07085312 -0.030594153
000180 cb 60 4e bc 1d 12 c7 3c 38 ce af bb 5a 08 93 bc
       -0.012596319 0.02430063 -0.0053651594 -0.017948318
000190 09 34 e0 3b d1 3c 71 bc 51 47 8a bd 65 05 78 bd
       0.0068421406 -0.014723972 -0.06751884 -0.06055202
0001a0 65 4d 36 bc 31 fa 44 bd bb 2b 14 bd aa 04 88 bc
       -0.011126851 -0.048090164 -0.036174517 -0.016603786
0001b0 2d 1c 00 bb f8 ae 63 3c aa 5d 01 bd 68 93 23 3d
       -0.0019548044 0.013896696 -0.031583466 0.0399355
0001c0 2c 1d a2 bd 4e 14 80 bd d7 69 e7 bc de 83 d9 bc
       -0.0791572 -0.06253873 -0.02824871 -0.026552137
0001d0 7e 47 92 bc 67 7a 30 bd 24 48 5d bb a8 c6 2f bc
       -0.017856356 -0.043085482 -0.0033764923 -0.010728516
0001e0 88 4c ce bc fd 47 75 bb 7a e1 7b 3d bb 7d e1 bc
       -0.025182977 -0.0037426942 0.061494328 -0.027525773
0001f0 27 40 9c 3c 6f 9b a8 3a d3 aa 30 bd 65 e6 11 bd
       0.019073559 0.0012863706 -0.04313166 -0.035620112
000200 5f bc 0d bc 12 ad 8e bc 6b 64 57 3d c9 d3 0b 3d
       -0.008650868 -0.01741651 0.052586 0.03413752
000210 5b 52 f2 bc 62 65 79 3d 7e 54 b4 bd f9 b4 9f 3d
       -0.029580286 0.0608877 -0.08805178 0.0779819
000220 4a 4e 6b bc 46 89 a2 bc c8 94 7d 3d b5 5c b5 3c
       -0.014361927 -0.019840848 0.061909467 0.022138933
000230 da 7e 0c 3c b9 f0 06 bd 95 f9 64 3c 49 a9 3d 3d
       0.008575166 -0.032944415 0.013975521 0.04630402
000240 21 ed 9b bc a7 76 50 bb 00 88 ef bb f1 0d 15 bd
       -0.01903397 -0.0031809004 -0.0073099136 -0.03639025
000250 36 52 7c bc 18 6c 2b 3d 39 87 49 bc 3d d3 3b bc
       -0.01540046 0.041851133 -0.012300306 -0.011463937
000260 91 15 d2 bb 87 2e 10 3d 7e 7b c5 3a 9f 7d 4e bd
       -0.0064112623 0.035200622 0.0015066711 -0.05041277
000270 bb 1b 07 be ca 47 0c bc 4b 6a d4 3c bc 97 4b bd
       -0.13194172 -0.008562038 0.02592959 -0.049705252
000280 45 4d c9 bc 0b 8c 59 bc 2a 2a ab bc ef 00 ed bc
       -0.024572978 -0.013278018 -0.020894129 -0.02893111
000290 45 96 56 bd 58 cc d9 bc 25 bd a0 bc 89 1b b0 3c
       -0.052389402 -0.026586697 -0.019621441 0.021497505
0002a0 b4 85 2c 3d ae 14 1a bd 15 88 e3 bb 50 29 f1 bc
       0.042119697 -0.037617378 -0.0069437125 -0.029438645
0002b0 94 03 28 bd 3c a1 41 bc 65 91 68 bd a7 3b a1 bc
       -0.041019037 -0.011818226 -0.056779284 -0.019681765
0002c0 85 02 87 3d 24 b1 8c bc 56 6b 42 bd 9f 35 18 bc
       0.065922774 -0.017174311 -0.047465645 -0.009290128
0002d0 6e 3b a6 bd 76 21 bb bb 07 e6 2a bd 1b 2a 50 bc
       -0.08116804 -0.005710776 -0.041723277 -0.012705351
0002e0 93 ff 11 bd 20 1f 09 3b 2f 21 32 ba 56 4f 85 bd
       -0.035644125 0.0020923093 -0.0006795106 -0.06509273
0002f0 78 00 30 bd a8 5d 9d bc 97 1b f5 3c 71 06 30 bd
       -0.042969197 -0.019209698 0.029920382 -0.042974893
000300 42 37 17 3d c2 81 48 3d f3 fc 4f bb 62 12 ec bc
       0.036917932 0.04895187 -0.0031736463 -0.02881736
000310 14 3a bb bc 66 33 e1 bc 3b f4 30 bd fa 62 c8 bc
       -0.022854842 -0.027490329 -0.043201666 -0.024461258
000320 8c b4 f8 bc 6f da 14 bb 82 ab b1 bc b9 5f d3 bc
       -0.030359529 -0.0022713204 -0.021688227 -0.02580248
000330 7c 5b cf 3c 99 39 9a 3d 0e 51 07 bc b1 99 0a 3b
       0.025312178 0.07530517 -0.008259071 0.0021148736
000340 11 b6 62 3d 2d fe 3b 3c 27 24 72 bc 62 d3 3c bd
       0.055349413 0.011474174 -0.014779127 -0.046100028
000350 f3 94 98 3d 85 d0 37 bd 63 8b 49 bd e1 4c 2c 3c
       0.07450285 -0.044876594 -0.049205195 0.010516376
000360 52 86 11 bd d5 62 0c 3d 94 33 71 bb d2 1f b5 bd
       -0.03552849 0.03427394 -0.0036804425 -0.0884396
000370 a8 bb 22 bc 43 c5 9e bc d2 cf 77 bd 7d a7 e4 3c
       -0.009932436 -0.019381171 -0.060500927 0.027911896
000380 2f bc c9 bc 92 f4 5e bd c6 ef 8f 3d 10 c4 8d bd
       -0.024625866 -0.05443246 0.07028155 -0.069221616
000390 37 40 ec bc 60 41 b5 3c 82 b9 b9 bc 27 09 3a 3d
       -0.028839214 0.0221259 -0.022671465 0.045418885
0003a0 1b 97 5b 3d 7e 6e c3 bd 90 34 96 3c ff d5 70 3d
       0.053610902 -0.09542559 0.01833561 0.058797833
0003b0 c2 05 c0 bc 6f 6c 8f bc 80 2b be bd e7 dc 38 bd
       -0.023440246 -0.01750776 -0.09285641 -0.045132544
0003c0 da 7d 7c bc ff e5 ae 39 d4 24 6f 3d 09 b7 54 3d
       -0.015410865 0.00033359227 0.05838473 0.05193237
0003d0 19 26 c6 3d 56 08 bb bd 5c 15 08 3d 79 7c d0 3c
       0.09675235 -0.09132449 0.033223495 0.025449978
0003e0 f1 c7 9e bc 9a 7b 26 3c d2 c8 cc bb d2 5d c4 3c
       -0.019382449 0.010161305 -0.0062495256 0.023970518
0003f0 19 ee 17 bc 25 39 43 3d 3e 4a 94 bd a4 94 b2 3c
       -0.0092730755 0.04766192 -0.07240723 0.021799393

l4/b f4 [16]
000000 50 6e cc bd 3c 67 1e be 83 f4 69 bd af 4f 08 bd
       -0.09981978 -0.15469068 -0.05711795 -0.033279117
000010 4a e9 8c bd d3 fc 28 be 97 8d 37 be 6f 4a 8a bd
       -0.06880434 -0.16502695 -0.17925106 -0.06752478
000020 a6 bd 49 bd 55 45 2a be e3 14 1a be 26 12 93 bd
       -0.04925313 -0.1662801 -0.1504703 -0.07181196
000030 f4 77 37 bc 63 9c 43 3c ac 55 7c bc 20 01 22 bd
       -0.011198033 0.011939141 -0.015401285 -0.039551854
