examples/ch4/reversi_DQN_DNN/agent_white_16000/model.npz (npz, 522135 bytes, 8 tensors)

l2/b f4 [256]
0	0xbd8d6a38	-0.06905025
1	0x3d0feb51	0.035136525
2	0x3ceee08e	0.02915981
3	0x3c8e847a	0.017397154
4	0xbc77377f	-0.015088915
5	0xbdb3b793	-0.087752484
6	0x3cc8dab7	0.024518354
7	0x3cf88c20	0.030340254
8	0xbb81044a	-0.003937279
9	0x3ca36978	0.019947752
10	0xbdb0b607	-0.08628469
11	0x3c6f8f77	0.014621607
12	0x3d492c01	0.04911423
13	0xbd1fddb8	-0.039029807
14	0xbbf2d91e	-0.0074111363
15	0x3c809baf	0.015699236
16	0xbd875d1a	-0.066095546
17	0xbda856b8	-0.08219665
18	0x3cdf5b9b	0.02726536
19	0x3bf18022	0.007370011
20	0x3cc5541c	0.024087958
21	0x3dbbd08f	0.09170639
22	0x3de20dd4	0.11037794
23	0x3cb1d813	0.021709478
24	0xbc9fec8f	-0.01952198
25	0x3dfe59b4	0.12419453
26	0x3cd7a624	0.02632434
27	0x3cf2e194	0.02964858
28	0xbd67007a	-0.05639694
29	0xbd7cbb7f	-0.061702248
30	0xbcc84062	-0.024444763
31	0x3d2330f2	0.0398416
32	0x3c3e6c26	0.011622464
33	0xbd3f2136	-0.04666253
34	0x3d74b29f	0.05974066
35	0xbd0a14cc	-0.03371124
36	0xbd000d2f	-0.031262573
37	0xbc02e873	-0.0079899905
38	0x3cd39740	0.025828958
39	0xbc29476f	-0.0103319725
40	0xbe039ce7	-0.12852822
41	0x3b4fbf55	0.0031699736
42	0x3bd18ecc	0.0063951965
43	0x3d91f8ca	0.07127531
44	0xbd1c847e	-0.038212292
45	0xbc326d47	-0.010890312
46	0x3b9a5a71	0.0047104885
47	0xbdeec792	-0.11659159
48	0xbd5a3b65	-0.0532793
49	0x3d2dc2c9	0.04242209
50	0x3d80ec3e	0.062950596
51	0xbc91083e	-0.017704125
52	0xbc694eaa	-0.014239946
53	0xbc7b6d48	-0.015345879
54	0xbc8ddd8d	-0.017317558
55	0x3c98eab7	0.018666608
56	0xbc24ae17	-0.010051272
57	0x3bd16dab	0.0063912473
58	0xbdbafa1c	-0.09129736
59	0x3c68e1cb	0.0142139895
60	0xbd3fe1c5	-0.04684617
61	0x3c88bb20	0.01669079
62	0xbd451e77	-0.048124757
63	0x3d784bce	0.060619168
64	0xbcc64fa1	-0.024207892
65	0x3b7d6f05	0.003867091
66	0xbb8fc4ba	-0.0043874653
67	0x3ce4c6f9	0.027926909
68	0x3bf5507a	0.0074864
69	0x3d6aa8f0	0.057290018
70	0x3d66f367	0.05638447
71	0x3dade700	0.084913254
72	0x3bdf6578	0.006817516
73	0x3d4c3b22	0.04986108
74	0xbc5881e8	-0.013214566
75	0xbc824bd5	-0.0159053
76	0xbcc093a7	-0.023507906
77	0x3d3dba70	0.04632038
78	0xbca7b2e3	-0.020471042
79	0xbd5c54aa	-0.05379168
80	0x3c3eaea7	0.01163832
81	0xbb7a537a	-0.0038196729
82	0xbca73214	-0.020409621
83	0xbcf13953	-0.02944628
84	0xbd846386	-0.06464295
85	0xbc13d312	-0.009022491
86	0xbdd854d5	-0.105630554
87	0x3d2ad2d9	0.041704986
88	0xbd9aed0f	-0.075647466
89	0xbcaa5c45	-0.02079595
90	0x3d5a547c	0.053303227
91	0xbd12bf51	-0.035826985
92	0xbc9241fd	-0.017853731
93	0x3ae8040f	0.0017701405
94	0xbceb1a5a	-0.028699089
95	0xbd6f8677	-0.058477845
96	0x3e03ce1f	0.12871598
97	0xbdcb5a4e	-0.099293336
98	0xbdab9424	-0.08377865
99	0xbd95bdf1	-0.07311619
100	0x3b72c971	0.0037046338
101	0xbd35ac45	-0.044353742
102	0x3d52ebb6	0.051494323
103	0xbbec28d4	-0.0072070155
104	0x3da4078a	0.080092505
105	0x3b056fca	0.002036082
106	0x3b872171	0.0041238596
107	0xbd7e5a3b	-0.06209777
108	0xbc970ccb	-0.018438717
109	0xbc016fe4	-0.007900212
110	0xbcbbf7d6	-0.022945326
111	0xbc12dd24	-0.008963857
112	0xbd78636c	-0.06064169
113	0x3d44c72f	0.04804152
114	0xbd0805c0	-0.03320861
115	0xbcc6d58d	-0.02427175
116	0xbd958e13	-0.07302489
117	0xbca1e36e	-0.019761767
118	0xbcc3c64b	-0.023898264
119	0x3cdf2078	0.027237162
120	0x3abd9a63	0.0014465566
121	0x3bb23750	0.0054387227
122	0x3d3b3608	0.045705825
123	0xbbc8af7b	-0.0061244345
124	0x3d648f4d	0.055800725
125	0xbd5ee8d7	-0.054421272
126	0xbd4f1687	-0.050558593
127	0xbd8cd995	-0.06877438
128	0xbdb9871e	-0.09058975
129	0x3c3eea2b	0.01165251
130	0xbafe0b3e	-0.0019382013
131	0xbc8d286e	-0.017231192
132	0x3d842bf0	0.06453693
133	0xbdbe8c09	-0.09304053
134	0xbbbd2549	-0.005772267
135	0xb9bade12	-0.0003564214
136	0x3d9f8409	0.077888556
137	0xbcc24d0a	-0.023718376
138	0xbc0cddb0	-0.008597776
139	0xbcb56cab	-0.022146543
140	0xbbb9b645	-0.00566748
141	0x3d2351f1	0.039873067
142	0xbc00ae5e	-0.007854072
143	0x3d249bb5	0.040187556
144	0x3d8acfff	0.06777953
145	0xbd26eec1	-0.040755037
146	0xbd8f01c5	-0.069827594
147	0xbd42b06d	-0.047531534
148	0xbbd0a815	-0.006367693
149	0x3ce95412	0.02848247
150	0xbc9a90ee	-0.018867936
151	0x3c35a2c2	0.011086168
152	0x3d0c5d4a	0.034268655
153	0xbd90c256	-0.07068317
154	0xbcffed68	-0.031241134
155	0xbd788049	-0.060669217
156	0xbdc524e1	-0.09626175
157	0xbd7e4dd3	-0.062085938
158	0xbd119fdf	-0.035552856
159	0xbd8fccd3	-0.07021489
160	0xbc991c15	-0.018690148
161	0x3cc031e9	0.023461299
162	0xbc9f87e6	-0.019473981
163	0x3c736cc2	0.014857473
164	0xbd64dde0	-0.05587566
165	0x3ca6fa3c	0.020382993
166	0xbd604589	-0.054753814
167	0x3d3a0005	0.045410175
168	0x3d259e6c	0.040434286
169	0xbd0c152d	-0.034199882
170	0xbc802c63	-0.015646165
171	0x3c8164f6	0.015795212
172	0x3d2651ad	0.040605236
173	0x3c3286ef	0.0108964285
174	0x3d14f273	0.03636403
175	0xbd47af1a	-0.048750974
176	0x3c28e399	0.01030817
177	0x3d81dd25	0.06341008
178	0xbcf8ed96	-0.030386727
179	0x3d236bc9	0.039897714
180	0xbccb5950	-0.024822861
181	0xbd807da7	-0.06273966
182	0xbcefb2cc	-0.029260062
183	0x3c35cbe1	0.011095972
184	0xbcd55bc5	-0.026044736
185	0xbd549372	-0.051898427
186	0xbdd3e0dc	-0.10345623
187	0x3d403364	0.04692401
188	0x3d1c4d40	0.03815961
189	0x3c9cd4c0	0.019144416
190	0xbda62f3d	-0.08114479
191	0xbc98094e	-0.018559124
192	0x3d860c18	0.065452754
193	0xbd35ab2e	-0.044352703
194	0x3d6330a4	0.05546631
195	0x3b2fb8c7	0.0026813017
196	0xbd6a3309	-0.057177577
197	0xbd96b8c0	-0.07359457
198	0xbd5c19b0	-0.053735435
199	0xbda6944d	-0.08133755
200	0xbce195d2	-0.02753726
201	0x3d87b227	0.06625777
202	0xbc6149ed	-0.013750535
203	0x3caefaf4	0.021359898
204	0x3d744d34	0.05964394
205	0xbcae7a3c	-0.02129852
206	0x3a67f99b	0.0008849145
207	0xbc660e5f	-0.014041512
208	0xbd94111a	-0.07229824
209	0xbd3476e7	-0.044058707
210	0x3ba637bf	0.0050725634
211	0xbd890628	-0.06690627
212	0xbdacf0a5	-0.08444337
213	0xbdbe3550	-0.09287512
214	0xbc70bde2	-0.014693709
215	0xbd609b9f	-0.05483591
216	0x3d8b382f	0.067978255
217	0x3dbd34ab	0.09238561
218	0xbbe045e5	-0.0068442696
219	0xbd6e3951	-0.05816013
220	0x3cffa8e0	0.031208456
221	0xbd6950e9	-0.056961928
222	0xbccd04aa	-0.025026638
223	0xbce9dc0f	-0.028547315
224	0x3c45a4f5	0.012063255
225	0x3d8d96f0	0.06913555
226	0xbdab8209	-0.083744116
227	0xbd2b48af	-0.041817363
228	0x3b43dbf0	0.0029885732
229	0xbd53adad	-0.051679302
230	0xbce96301	-0.028489592
231	0xbd2d5590	-0.042317927
232	0x3c933e8e	0.017974164
233	0xbce55031	-0.02799234
234	0xbcfecd7f	-0.031103848
235	0x3d939ca3	0.072076105
236	0x3dc10176	0.09424107
237	0x3c2c6cfb	0.01052403
238	0xbc931007	-0.017951978
239	0x3c6c0d5e	0.014407484
240	0xbc886efd	-0.016654486
241	0x3da62a32	0.08113517
242	0x3d99d66a	0.07511599
243	0xbd0692af	-0.032854732
244	0xbd0d0a96	-0.034433924
245	0xbd730f06	-0.0593405
246	0xbc2b8a02	-0.010469915
247	0xbc91e220	-0.01780802
248	0xbcfd4c8f	-0.030920295
249	0x3c152f93	0.009105581
250	0xbc116bac	-0.008875769
251	0x3d67636c	0.0564913
252	0x3cc3dc38	0.02390872
253	0x3d30ed44	0.043195024
254	0xbd6abb72	-0.057307668
255	0xbd94ca61	-0.07265163

l1/W f4 [256, 16]
0	0x3e3a87f2	0.18215922
1	0xbec8d80a	-0.39227325
2	0x3e4b44ba	0.19850436
3	0x3eafe59f	0.34354874
4	0xbee29bb7	-0.44259426
5	0xbe9b07c9	-0.30279377
6	0x3e82f935	0.25580755
7	0x3efdcedb	0.4957188
8	0xbe3f52ed	-0.18683977
9	0xbf08b57a	-0.5340191
10	0x3f1876b7	0.59556144
11	0xbe911b1b	-0.28340992
12	0x3cd56743	0.026050216
13	0xbe78c083	-0.24292187
14	0x3efc1fed	0.49243107
15	0x3a8885ba	0.001041583
16	0x3ed6e259	0.41969565
17	0xbef15914	-0.47138274
18	0x3dd1b202	0.102390304
19	0xbec675ec	-0.38761842
20	0xbd2e90c0	-0.042618513
21	0xbf083078	-0.5319896
22	0xbe3bee4d	-0.18352623
23	0x3e57c76c	0.21072167
24	0x3ed2cefa	0.41173536
25	0xbf13add8	-0.5768714
26	0x3f10cd3d	0.5656317
27	0xba8d1ccf	-0.0010766032
28	0x3f599baf	0.8500318
29	0x3e6d572d	0.23177786
30	0x3e1be6ca	0.15224758
31	0xbe0ffcd5	-0.14061292
32	0xbe8cd75b	-0.27508053
33	0xbec2c01f	-0.38037202
34	0xbed142f2	-0.40871388
35	0x3e206d3c	0.1566667
36	0xbd75de3a	-0.060026385
37	0xbb47d35e	-0.0030490975
38	0xbe1218bc	-0.14267248
39	0x3ea1317b	0.31483063
40	0xbebc1f02	-0.36742407
41	0xbc327317	-0.010891697
42	0xbecca8db	-0.39972576
43	0x3c862416	0.016374629
44	0xbe45f982	-0.19333461
45	0x3db720cf	0.089418046
46	0xbe3be9cd	-0.18350907
47	0x3f5debde	0.8668803
48	0x3e2a1d38	0.16612709
49	0xbf0c4971	-0.5479956
50	0xbe59b112	-0.21258953
51	0x3d2c4969	0.042062197
52	0xbe229c4c	-0.15879935
53	0xbeed4ed0	-0.46349192
54	0x3f28f205	0.6599429
55	0xbeb7080d	-0.3574833
56	0x3f29033a	0.6602055
57	0x3f33a20c	0.7016914
58	0x3e5d6eee	0.21624348
59	0xbf29e4c6	-0.66364706
60	0xbeb4e023	-0.35327253
61	0xbf005f07	-0.50145
62	0x3e13b8ea	0.14426008
63	0x3f308551	0.68953425
64	0xbd019f70	-0.031646192
65	0x3e2aca0c	0.16678637
66	0xbec751f6	-0.3892972
67	0xbe44270e	-0.19155523
68	0xbd8b0eef	-0.06789958
69	0xbe48dbcb	-0.19615094
70	0x3ed78abe	0.4209804
71	0x3f617b7f	0.88079065
72	0xbd7a0a59	-0.061045025
73	0xbd924afc	-0.071432084
74	0x3e4de31a	0.20106164
75	0xbf8cc77a	-1.0998375
76	0xbb8ffe68	-0.0043943413
77	0x3eeab4af	0.45840976
78	0xbed72020	-0.42016697
79	0xbecebb0f	-0.4037709
80	0x3ee3330c	0.44374883
81	0xbec68a5a	-0.3877743
82	0xbe83c4ba	-0.25736028
83	0x3e317826	0.17330989
84	0xbe0679d8	-0.13132417
85	0xbf4e7dd1	-0.8066073
86	0x3ee11b24	0.4396602
87	0x3f06be58	0.5263419
88	0xbef295f2	-0.47380024
89	0x3eee9b93	0.4660307
90	0xbeab8974	-0.33503306
91	0x3e4445db	0.19167273
92	0x3ebbe6c2	0.36699492
93	0xbf0079a2	-0.50185597
94	0x3e084f95	0.13311608
95	0x3f0204d2	0.50788605
96	0x3c7abea2	0.0153042395
97	0x3c97c659	0.018527197
98	0x3d0450ae	0.032303505
99	0x3f19fd45	0.60152084
100	0xbf4b45a2	-0.79403126
101	0x3e6cea8d	0.23136349
102	0x3f221aab	0.6332194
103	0xbce14f26	-0.027503561
104	0x3dcf494a	0.10121401
105	0xbe2e02c7	-0.16993247
106	0xbd7cda0e	-0.06173139
107	0xbd040dc5	-0.032239694
108	0x3e188881	0.14895822
109	0xbed0b8fb	-0.4076613
110	0x3e47104d	0.19439812
111	0x3e2a6561	0.16640235
112	0x3f058ad7	0.5216498
113	0xbc8f7a75	-0.017514447
114	0x3e543c49	0.20726122
115	0x3dd960a6	0.10614137
116	0xbe556d52	-0.20842484
117	0xbed67389	-0.4188502
118	0xbf777d56	-0.9667562
119	0xbef37f11	-0.4755788
120	0xbe062d43	-0.13103203
121	0x3dfd2f7c	0.123625726
122	0x3e497fba	0.1967763
123	0x3e34937b	0.17634384
124	0x3e33cb89	0.17558111
125	0x3ef5feab	0.4804586
126	0x3e18b7ca	0.1491386
127	0x3df90173	0.121584795
128	0xbf016b10	-0.5055399
129	0xbef6c72b	-0.48198828
130	0x3dc77185	0.09738449
131	0x3f245509	0.64192253
132	0x3d95b28f	0.07309448
133	0xbe74443c	-0.23854154
134	0x3efa80b1	0.4892631
135	0xbe711b26	-0.23545513
136	0xbe8fc134	-0.2807709
137	0x3f0cbd72	0.5497657
138	0xbe9eb3ae	-0.3099646
139	0x3e8a25df	0.26982018
140	0xbf7d6f3c	-0.98997855
141	0x3ce0ae38	0.027426824
142	0x3e0cc1f9	0.1374587
143	0xbdde0c4d	-0.1084219
144	0x3e27532d	0.16340323
145	0x3da5fae1	0.08104492
146	0xbeefcf14	-0.46837676
147	0x3c3629ee	0.011118395
148	0x3f02a24d	0.510289
149	0x3e6e342e	0.23262092
150	0x3e8ef6ba	0.27922612
151	0xbe53de12	-0.20690182
152	0x3dcfb7fc	0.10142514
153	0xbe9d1ae3	-0.30684575
154	0xbed7491b	-0.42047963
155	0xbe8a3b95	-0.26998582
156	0x3f319a74	0.693763
157	0x3f12dab1	0.57364947
158	0xbd9c0a10	-0.07619107
159	0x3c1cfabc	0.009581264
160	0x3f30bfb7	0.69042534
161	0x3c80d759	0.015727686
162	0xbcefda8a	-0.029279012
163	0xbee1dcca	-0.4411376
164	0x3e1a3a2b	0.15061252
165	0xbe4a7a68	-0.19773257
166	0xbe1842f4	-0.1486929
167	0x3d6c9797	0.057761755
168	0xbf5f2473	-0.8716499
169	0xbe01b6f0	-0.12667441
170	0x3e597dfb	0.21239464
171	0xbef39ddb	-0.47581372
172	0x3f3b7e27	0.7323937
173	0xbe3dfe23	-0.18553977
174	0x3dfaef1b	0.12252637
175	0xbe40f3bd	-0.18842979
176	0xbeeb164b	-0.45915446
177	0xbf68c9fe	-0.90933216
178	0x3ebc4c31	0.3677688
179	0xbea9b282	-0.33144003
180	0x3f44f381	0.7693406
181	0xbe7d981e	-0.2476506
182	0x3e242904	0.16031271
183	0x3f6149db	0.8800332
184	0x3d956741	0.07295085
185	0x3ebe63c0	0.37185478
186	0xbe5c7120	-0.21527529
187	0x3df5411d	0.1197531
188	0xbef390ad	-0.47571316
189	0xbec7d144	-0.39026845
190	0xbf1e0629	-0.6172815
191	0xbdf083ed	-0.11743913
192	0x3db6a40a	0.08918007
193	0x3e9d4397	0.3071563
194	0x3dcdd88f	0.10051071
195	0x3e16229b	0.14661638
196	0xbdc04982	-0.093890205
197	0xbe5317c7	-0.20614539
198	0x3a87b84c	0.0010354607
199	0xbd04e632	-0.032446094
200	0x3c4e2f2a	0.012584487
201	0xbe9c03d5	-0.30471674
202	0x3d16e09c	0.036835298
203	0xbe161a10	-0.1465838
204	0x3d0be777	0.03415629
205	0xbc20a620	-0.009805232
206	0xbe8d1b42	-0.2755986
207	0x3f0c51a0	0.5481205
208	0xbcc9c81b	-0.02463155
209	0xbc666023	-0.014061007
210	0xbf16ca80	-0.5890274
211	0xbe5b2601	-0.21401216
212	0xbed6ead9	-0.4197605
213	0x3c4a2518	0.012337945
214	0xbf1f366b	-0.6219241
215	0x3dcc2498	0.09967917
216	0xbe49c69b	-0.19704668
217	0xbf2fb009	-0.68627983
218	0x3e71236f	0.23548673
219	0xbe4d7288	-0.20063221
220	0xbf2b9a68	-0.6703248
221	0x3ec3b395	0.38222948
222	0x3f206d18	0.62666464
223	0x3cf4634d	0.029832507
224	0xbf42107e	-0.75806415
225	0xbe941160	-0.28919506
226	0x3df3455f	0.11878466
227	0xbe79a77a	-0.24380293
228	0x3d7a63cb	0.061130326
229	0x3ee2a6b9	0.44267824
230	0x3e2a6382	0.16639522
231	0xbd774f9a	-0.06037865
232	0x3edf6458	0.43631244
233	0x3eacec0d	0.33773842
234	0x3e5e9312	0.2173579
235	0x3e6399b7	0.22226606
236	0xbf2c44b1	-0.67292315
237	0x3e35c131	0.17749478
238	0x3e39ed6c	0.18156976
239	0xbf042352	-0.51616395
240	0xbe42bcdd	-0.19017358
241	0xbda076c3	-0.07835152
242	0x3f1b1b96	0.6058897
243	0x3e85529b	0.26039585
244	0x3dafe829	0.08589203
245	0xbfa8422f	-1.3145198
246	0xbdf1c1f0	-0.11804569
247	0xbf07c224	-0.5303061
248	0x3ec970a4	0.3934375
249	0x3b858ffd	0.0040760026
250	0x3f138cf7	0.5763697
251	0x3edb0298	0.42775416
252	0xbe89566b	-0.26823744
253	0xbe952c8c	-0.2913555
254	0x3ea8a4f6	0.32938355
255	0x3eb46e0c	0.3524021

l3/W f4 [256, 256]
0	0xbcfd88ea	-0.030949075
1	0xbe599ef6	-0.21252045
2	0x3df3bcf4	0.11901274
3	0xbda8447f	-0.082161896
4	0xbcd85eff	-0.026412485
5	0xbe38afeb	-0.18035857
6	0xbdd4281c	-0.10359213
7	0xbd362dac	-0.04447715
8	0xbdbc8d5c	-0.0920665
9	0x3c4941df	0.012283771
10	0xbe10e008	-0.14147961
11	0xbc99b750	-0.018764168
12	0x3e07a342	0.13245872
13	0xbd75a4f4	-0.059971765
14	0x3e3647ae	0.17800781
15	0x3dfb3b2d	0.12267146
16	0xbe040b57	-0.12894951
17	0xbc8f7103	-0.017509943
18	0xbe3f6391	-0.18690325
19	0xbb5ca5b5	-0.0033668105
20	0x3da1eea0	0.07906842
21	0xbc2f3820	-0.010694534
22	0x3e56f39f	0.20991372
23	0x3c69d217	0.014271281
24	0x3d25b9e3	0.04046048
25	0xbe3f3219	-0.18671454
26	0xbb127308	-0.0022346396
27	0x3c1809cb	0.009279679
28	0x3daf3d7b	0.08556648
29	0xbdc73a92	-0.09727968
30	0x3dad7c3e	0.08470963
31	0xbd956f4c	-0.07296619
32	0x3d6adc31	0.057338897
33	0xbdca01f2	-0.09863652
34	0x3d05f0d6	0.032700382
35	0x3d626170	0.055268705
36	0xbcf022a4	-0.029313393
37	0x3d920268	0.07129365
38	0x3e0513f7	0.12995897
39	0x3da7fed6	0.08202903
40	0xbe361f0c	-0.17785281
41	0xbd99e3a9	-0.07514126
42	0xbdef7c98	-0.11693686
43	0xbd1a89b3	-0.037728976
44	0x3ceb2fa8	0.028709248
45	0x3da5d8a7	0.08097964
46	0xbdb757b1	-0.08952273
47	0x3bc0a170	0.00587862
48	0xbda8b43c	-0.08237502
49	0x3e1e6864	0.1546951
50	0xbdc450d4	-0.09585729
51	0x3d3a786f	0.04552501
52	0x3ddfb524	0.10923222
53	0xbc389ebb	-0.011268313
54	0x3debe1dc	0.11517689
55	0x3d66f6ae	0.056387596
56	0x3dda7fd7	0.10668915
57	0xbe168682	-0.14699748
58	0xbd4a13cd	-0.04933529
59	0x3d65a041	0.056061033
60	0xbe1d2a60	-0.15348196
61	0xbcf5562a	-0.029948313
62	0xbdfb5c2f	-0.12273442
63	0x3dc0fc11	0.09423078
64	0xbc9c0862	-0.019046966
65	0xbd1dc45a	-0.038517334
66	0xbd3fdb6e	-0.046840124
67	0x3edc3dc0	0.43015862
68	0xbd7c421b	-0.06158648
69	0xbdb002a3	-0.08594253
70	0x3d7df4c9	0.062001023
71	0xbd9cdd90	-0.07659447
72	0x3bd3484d	0.006447828
73	0x3dc701ae	0.09717117
74	0x3db51c37	0.08843272
75	0x3de41655	0.11137072
76	0x3d05bff3	0.03265376
77	0x3d5434cd	0.051808167
78	0xbe89551a	-0.2682274
79	0xbd89ef09	-0.067350455
80	0xbc9f0eca	-0.019416232
81	0xbe465cdc	-0.1937136
82	0xbdf36b42	-0.11885692
83	0x3d04efae	0.03245514
84	0x3d6cfde7	0.057859328
85	0x3cd10f5a	0.025520016
86	0xbe11fe11	-0.14257075
87	0xbd96244b	-0.07331141
88	0x3e141bb3	0.14463691
89	0x3e1b5f27	0.15173016
90	0xbce3c6a7	-0.027804686
91	0x3d786554	0.06064351
92	0x3e4b8db0	0.19878268
93	0x3bac41e5	0.0052568787
94	0xbd3f7029	-0.046737824
95	0xbd678a98	-0.056528658
96	0x3e3c73ab	0.18403499
97	0xbd87a83a	-0.066238835
98	0xbdf4c5e1	-0.11951805
99	0x3d3c7614	0.046011046
100	0x3e59e54e	0.21278879
101	0xbce13b65	-0.027494142
102	0x3d920d5d	0.07131455
103	0xbdebe520	-0.115183115
104	0x3df02c1e	0.11727165
105	0xbe04eb43	-0.1298037
106	0x3e09de7c	0.13463777
107	0xbbcbfc70	-0.0062251613
108	0xbe108833	-0.14114456
109	0xbda884f7	-0.08228486
110	0xbdcb8abd	-0.099385716
111	0xbcde799d	-0.0271576
112	0xbd202f9a	-0.039107896
113	0xbe35cfbb	-0.17755024
114	0x3c9ba2f6	0.018998604
115	0xbc285d6f	-0.010276183
116	0xbd1557d7	-0.036460724
117	0xbdedfd9c	-0.11620638
118	0xbdc14091	-0.09436143
119	0x3d76675c	0.060157165
120	0xbe095baa	-0.13413873
121	0xbdd0d444	-0.101967365
122	0x3d778b79	0.060435746
123	0x3d37c029	0.044860993
124	0xbd5d13d0	-0.053973973
125	0xbe063e43	-0.13109688
126	0xbe422777	-0.18960367
127	0xbe02c77a	-0.12771407
128	0xbcc1f6cc	-0.023677252
129	0xbe23ddd9	-0.16002597
130	0x3d51e7e9	0.051246557
131	0x3e497855	0.1967481
132	0xbdee59ca	-0.1163822
133	0xbb8ab0ab	-0.0042324862
134	0x3daf0a4d	0.085468866
135	0x3d80bf6a	0.06286509
136	0xbe1ea9a2	-0.15494397
137	0x3da90912	0.08253683
138	0x3e11bc7f	0.14232062
139	0x3d3979c2	0.045282133
140	0xbd6bd7b8	-0.057578772
141	0x3ca20e33	0.019782161
142	0x3dcfaabc	0.10139987
143	0xbd88d542	-0.06681301
144	0xbc87bb06	-0.016568672
145	0xbd2492c0	-0.040179014
146	0xbdc23cad	-0.09484229
147	0x3ba0ddb8	0.0049092434
148	0x3bd1e932	0.006405973
149	0xbd92c219	-0.071659274
150	0x3e268155	0.16260274
151	0x3c3ed884	0.011648301
152	0xbe88a0cd	-0.2668518
153	0x3bb012d5	0.0053733387
154	0xbd955b70	-0.07292831
155	0xbde99aa8	-0.114064515
156	0xbd01cb81	-0.031688217
157	0xbd87134b	-0.06595477
158	0x3cc0a561	0.023516359
159	0xb7480c9c	-1.1923865e-05
160	0x3db595ca	0.088664606
161	0x3e0939ce	0.13400957
162	0xbd2f66e8	-0.04282275
163	0x3dedd6c1	0.11613227
164	0xbd9dc699	-0.07703895
165	0xbc24bfbe	-0.0100554805
166	0xbd8b2864	-0.06794813
167	0x3de76cab	0.11300024
168	0xbd405dff	-0.04696464
169	0x3e56fd46	0.20995054
170	0x3d1fa65c	0.038977012
171	0x3cf3fad2	0.029782686
172	0xbe09f3f1	-0.13471963
173	0xbc96d6f3	-0.018413043
174	0x3d8c6e78	0.06857008
175	0xbd518c61	-0.051159266
176	0x3d649525	0.055806298
177	0x3c7c0243	0.015381399
178	0xbcd135cc	-0.025538348
179	0x3dd896ef	0.10575663
180	0x3cff6c0c	0.03117945
181	0xbd2f9512	-0.042866774
182	0xbda7c2e5	-0.0819147
183	0xbd0d3c56	-0.03448137
184	0x3c822bde	0.015890058
185	0xbe43897b	-0.19095413
186	0x3dded22d	0.108799316
187	0x3dd5ad4f	0.104334466
188	0xbe051731	-0.12997128
189	0xbe1141a3	-0.14185195
190	0x3dec63e3	0.115424894
191	0x3e168eeb	0.14702956
192	0x3d28fa14	0.041254118
193	0xbd8143d4	-0.06311765
194	0x3dff799a	0.124743655
195	0xbd9b0277	-0.075688295
196	0xbe3cbbf8	-0.1843108
197	0xbec21c35	-0.37912145
198	0x3d981b76	0.07427113
199	0x3deda378	0.11603445
200	0xbd5f0fe7	-0.054458525
201	0x3dc112da	0.09427424
202	0xbd9e610c	-0.07733354
203	0xbe051544	-0.12996393
204	0xbda4abf7	-0.08040612
205	0xbd2440d5	-0.04010089
206	0xbe1e0844	-0.1543284
207	0xbddc0cde	-0.10744642
208	0x3d3e6af2	0.04648871
209	0xbe68d315	-0.22736771
210	0xbe212bc2	-0.15739349
211	0xbd536d03	-0.051617634
212	0x39c70508	0.00037959986
213	0x3e1b456a	0.15163198
214	0xbe54587d	-0.2073688
215	0xbd541e3f	-0.051786657
216	0x3cc8bfb1	0.024505468
217	0xbbd15c5a	-0.006389183
218	0x3efd0f3e	0.4942569
219	0xbcf512d4	-0.029916205
220	0xbd2932dd	-0.041308273
221	0x3cfb8bb7	0.03070627
222	0x3deb738f	0.114966504
223	0x3dd9b5b8	0.10630363
224	0xbdb29923	-0.08720615
225	0xbd2e05b3	-0.042485904
226	0x3d407516	0.04698666
227	0xbd5a5750	-0.053305924
228	0xbb4b10e9	-0.003098542
229	0xbe3173b9	-0.17329301
230	0xbdd45b60	-0.10368991
231	0xbd26d434	-0.040729716
232	0x3e28c925	0.1648298
233	0xbea523c0	-0.32253838
234	0xbddc304e	-0.10751401
235	0xbd7c6294	-0.06161745
236	0xbca539bd	-0.020169133
237	0xbd47ca35	-0.048776824
238	0xbe092cdb	-0.13396017
239	0x3e25f166	0.16205367
240	0x3e32f473	0.17476062
241	0xbdd7bd6d	-0.10534177
242	0xbd66db3e	-0.05636143
243	0xbe3c3aee	-0.18381855
244	0x3d690a5e	0.056894653
245	0xbe3029c1	-0.17203428
246	0x3ddf26d2	0.10896076
247	0x3e56ab9a	0.20963898
248	0xbdc99208	-0.098423064
249	0xbe01ef8a	-0.12689033
250	0x3e021fd7	0.12707458
251	0xbd8e051d	-0.06934569
252	0x3e955916	0.2916953
253	0x3db737a3	0.08946159
254	0x3dfa9257	0.12234943
255	0x3d14fbee	0.03637307

l4/W f4 [16, 256]
0	0x3e130e03	0.14360814
1	0x3e077b5a	0.13230649
2	0x3d854ff1	0.06509388
3	0xbd2b8d3f	-0.04188275
4	0xbea002f7	-0.31252262
5	0xbea754b4	-0.3268181
6	0xbe80170b	-0.2501758
7	0xbea72e52	-0.32652527
8	0xbe1464fd	-0.14491649
9	0x3e89b587	0.26896307
10	0xbe40cf20	-0.18829012
11	0xbc31dcac	-0.010855835
12	0x3d0b089d	0.03394376
13	0xbe9ad3ba	-0.3023966
14	0x3e4b41e0	0.19849348
15	0x3da7fe78	0.08202833
16	0x3da83ec3	0.08215096
17	0xbcb25909	-0.02177097
18	0x3cc8589f	0.02445632
19	0xbebf72a2	-0.37392145
20	0x3e7ce8e8	0.24698222
21	0xbedd8694	-0.43266737
22	0xbd7d7ded	-0.06188767
23	0x3cf9c260	0.030488193
24	0xbd80c838	-0.06288189
25	0x3e9ee90c	0.31037176
26	0xbbe181a1	-0.006881908
27	0x3ec57131	0.3856292
28	0x3d5ea13a	0.054352976
29	0x3e217988	0.15769017
30	0x3ba5a76a	0.0050553577
31	0xbd00dc26	-0.03145995
32	0x3db37cab	0.08764013
33	0x3dd9ebef	0.10640704
34	0x3dcd7016	0.10031144
35	0x3e374ca5	0.17900331
36	0x3eab6e45	0.33482566
37	0x3d8e02f0	0.06934154
38	0x3eb50352	0.35354096
39	0xbe4f5ec9	-0.20251001
40	0x3ec52881	0.38507465
41	0x3e6a8efe	0.2290611
42	0xbd5f6b6a	-0.054545797
43	0x3e83dc8d	0.25754204
44	0xbd55a5cd	-0.052160073
45	0x3df35b7a	0.11882682
46	0x3eaec043	0.3413106
47	0x3e05871d	0.13039823
48	0x3e592267	0.2120453
49	0x3e1cbc9d	0.15306325
50	0xbd395eb4	-0.04525633
51	0x3c3bd9c4	0.011465494
52	0xbd2c8baa	-0.04212538
53	0x3e703303	0.2345696
54	0xbed21338	-0.41030288
55	0x3d61b8f1	0.055108014
56	0x3e8ac716	0.27105016
57	0xbd0db842	-0.03459955
58	0xbdf7129b	-0.120640956
59	0xbeca0673	-0.39458045
60	0xbe55d140	-0.20880604
61	0x3e3bfe0a	0.18358627
62	0xbdaaaa2f	-0.08333241
63	0xbe3c5623	-0.18392234
64	0xbe23ec66	-0.16008148
65	0xbc047cbf	-0.008086382
66	0xbe122c3b	-0.14274685
67	0xbe6f26b4	-0.23354608
68	0x3d66deca	0.056364812
69	0x3ea9e7f2	0.33184773
70	0x3d9c77a2	0.07640006
71	0x3eb79058	0.35852313
72	0xbeb80d7c	-0.35947788
73	0x3dbf542f	0.093422286
74	0xbeb36eeb	-0.3504556
75	0xbd1ed4e9	-0.038777266
76	0xbdfcda60	-0.12346339
77	0x3daa643b	0.08319899
78	0xbe0867b4	-0.1332081
79	0x3e2abdc5	0.16673954
80	0xbe4a6ae6	-0.19767341
81	0xbea63303	-0.32460794
82	0xbcedf40d	-0.029047037
83	0xbeeae692	-0.45879036
84	0xbe3d874d	-0.18508644
85	0xbdbe5242	-0.09293033
86	0x3d1251b8	0.035722464
87	0xbd689d91	-0.056790892
88	0xbebb5118	-0.36585307
89	0x3aafb249	0.0013404574
90	0x3eb978b0	0.3622489
91	0xbe0dbaed	-0.13840838
92	0x3e662135	0.22473605
93	0x3dd5124c	0.104038805
94	0x3e98e4d9	0.29862097
95	0x3eb40101	0.35157016
96	0x3d04ac73	0.032391023
97	0xbdaf3694	-0.08555332
98	0xbdb1ca13	-0.08681121
99	0xbe5a614c	-0.21326178
100	0xbd2baf0d	-0.04191499
101	0x3c608926	0.013704574
102	0xbdf2e73f	-0.11860513
103	0x3dd31396	0.1030647
104	0x3d3f039b	0.046634298
105	0xbdd4060e	-0.10352717
106	0xbd3c30f1	-0.04594511
107	0x3d80ae2c	0.06283221
108	0x3c030e44	0.007999007
109	0x3e0e379f	0.13888405
110	0xbe084d9c	-0.13310856
111	0xbe22709a	-0.15863267
112	0xbe8e67c3	-0.2781354
113	0xbdaa9a6c	-0.08330235
114	0x3dd813c8	0.10550648
115	0x3ee00799	0.43755797
116	0x3eae9dd7	0.34104797
117	0x3d871f80	0.06597805
118	0xbea17558	-0.3153484
119	0xbe6312a9	-0.22175087
120	0xbe185435	-0.14875872
121	0xbe1b4b70	-0.15165496
122	0x3e7bf327	0.24604474
123	0x3de4d424	0.11173275
124	0x3d3e248b	0.04642157
125	0x3e5a0265	0.21289976
126	0xbed8be57	-0.42332718
127	0x3d525d9d	0.051358808
128	0x3ccc58fc	0.024944775
129	0x3d9e6c96	0.07735555
130	0x3db1e092	0.086854115
131	0x3dfb68dd	0.122758605
132	0x3e2a5f0b	0.16637819
133	0x3e17dd4b	0.1483051
134	0x3e83ea10	0.25764513
135	0xbe07a0ac	-0.13244885
136	0xbb2403d0	-0.0025026686
137	0xbf054cf7	-0.52070564
138	0x3d203a8a	0.039118327
139	0x3b750f1d	0.0037393041
140	0x3e0f8b2d	0.14017935
141	0xbeecbb2e	-0.46236557
142	0xbe84b537	-0.25919506
143	0x3e5c51f6	0.2151564
144	0xbd5a4c75	-0.05329557
145	0xbe97102d	-0.2950453
146	0x3ca84e9a	0.020545293
147	0xbc946523	-0.018114632
148	0x3e2883b3	0.1645649
149	0x3e0f1c7d	0.13975711
150	0xbe280dea	-0.16411558
151	0xbed9d1be	-0.42542833
152	0x3e25f917	0.16208301
153	0xbddccc68	-0.10781175
154	0xbd7255ce	-0.05916386
155	0xbe37437d	-0.17896838
156	0xbdcb682d	-0.09931979
157	0x3d60b469	0.054859553
158	0x3e9da3c6	0.30789012
159	0x3e204056	0.15649542
160	0xbe77a8a4	-0.24185425
161	0xbe7d580d	-0.2474062
162	0x3e4211f2	0.18952158
163	0x3d594abc	0.053049788
164	0xbdc3f280	-0.095677376
165	0x3e25c4f4	0.16188413
166	0xbe290ff8	-0.16509998
167	0x3e5e824d	0.21729393
168	0xbe4a7ea0	-0.19774866
169	0x3d7723a7	0.060336735
170	0x3e594b7f	0.21220206
171	0xbe869c96	-0.2629134
172	0x3d86d7eb	0.06584152
173	0xbe3597fe	-0.17733762
174	0x3e803832	0.25042874
175	0x3c8aaf6a	0.016929347
176	0x3d094102	0.033509262
177	0x3e2a7f15	0.1665004
178	0x3de3e138	0.111269414
179	0xbeaa7537	-0.33292553
180	0x3db53306	0.088476226
181	0xbe78dc56	-0.24302801
182	0xbdeb8d00	-0.11501503
183	0x3d67c283	0.056581985
184	0xbd109f9c	-0.035308465
185	0xbe95617b	-0.29175934
186	0x3e522e59	0.20525493
187	0xbe6a3a07	-0.22873698
188	0x3d14f216	0.036363684
189	0xbef040de	-0.4692449
190	0x3e825f3a	0.25463277
191	0x3cea479c	0.0285986
192	0xbf0464b3	-0.51716155
193	0x3d9f1cff	0.077692024
194	0x3db8b92e	0.09019695
195	0xbe43c808	-0.19119275
196	0x3e192210	0.149544
197	0x3e1b6363	0.15174632
198	0x3c4993ab	0.012303273
199	0xbeaebfc2	-0.34130675
200	0xbd2cde30	-0.042204082
201	0x3e30f667	0.17281495
202	0xbe9fc03d	-0.31201354
203	0xbdf31bd5	-0.11870543
204	0xbe86c4b0	-0.26321936
205	0x3dac4a1a	0.08412571
206	0x3ef7a3ec	0.4836725
207	0xbe31c920	-0.1736188
208	0xbbeb5f63	-0.007183002
209	0xbe197170	-0.14984679
210	0xbc8b9723	-0.017039841
211	0xbdf6cc82	-0.120507255
212	0xbe8e1e95	-0.27757707
213	0x3d5f7482	0.05455447
214	0xbe96d872	-0.2946201
215	0x3e1584f7	0.14601503
216	0x3d3140a7	0.043274548
217	0xbe1dac12	-0.15397671
218	0x3e74c321	0.23902561
219	0xbe386e92	-0.18010929
220	0x3e393dd0	0.18089986
221	0x3e6dad92	0.23210743
222	0x3e53d906	0.20688257
223	0x3d9da6f8	0.076978624
224	0x3e3758fc	0.17905039
225	0xbea8d77a	-0.32976896
226	0xbdb3b012	-0.08773817
227	0xbf0cab15	-0.5494855
228	0xbe24cc24	-0.16093498
229	0x3e110dd8	0.14165437
230	0x3d16a10c	0.03677468
231	0x3de70e64	0.11282042
232	0x3dd1c4f6	0.102426454
233	0xbdb4836c	-0.08814129
234	0x3e020da9	0.12700523
235	0x3d99427d	0.07483385
236	0xbda1921a	-0.07889195
237	0xbe09c973	-0.13455753
238	0xbee5ccdf	-0.44882867
239	0x3eb2e4cd	0.34940186
240	0x3e5b1b36	0.21397099
241	0xbe26bb28	-0.16282332
242	0x3e58a37f	0.21156119
243	0x3ea35f19	0.3190849
244	0x3d1a777a	0.037711598
245	0xbdcce897	-0.100053005
246	0x3e7c2b72	0.24625948
247	0x3e4b9ce4	0.19884068
248	0xbe2f9dee	-0.17150089
249	0xbd85d473	-0.06534662
250	0xbdb2bc9d	-0.087273814
251	0x3e0d6968	0.1380974
252	0xbd091f19	-0.033476923
253	0x3e2473e8	0.1605984
254	0xbe12774c	-0.1430332
255	0xbdd573e6	-0.104224965

l2/W f4 [256, 256]
0	0x3b59fb38	0.003326131
1	0xbe32e2b0	-0.17469287
2	0xbd4502a7	-0.048098233
3	0x3e42dee7	0.19030343
4	0x3d79d2b2	0.06099195
5	0x3c840692	0.016116414
6	0xba29061e	-0.000644775
7	0xbc52cd94	-0.012866396
8	0x3e05cae7	0.13065682
9	0xbe6f6751	-0.23379256
10	0xbd96190c	-0.07328996
11	0x3dc83ba6	0.09777002
12	0xbdab2ce9	-0.08358175
13	0x3e0c4dcd	0.13701554
14	0xbd90731a	-0.07053204
15	0x3db89439	0.09012646
16	0x3e582f0a	0.21111694
17	0x3dfaf31d	0.122534014
18	0xbe511849	-0.2041942
19	0xbdb19ff7	-0.08673089
20	0xbb3a079e	-0.0028385888
21	0x3de42b68	0.111410916
22	0xbe8791ba	-0.26478368
23	0xbc07dfff	-0.008293151
24	0x3e043005	0.12908943
25	0xbdffb779	-0.124861665
26	0xbc1bd748	-0.009511776
27	0xbe038fa1	-0.12847759
28	0x3dd748c4	0.10511926
29	0xbcdfd950	-0.027325302
30	0x3d9b59cf	0.07585489
31	0xbe0f14b4	-0.13972741
32	0xbe00fb05	-0.12595756
33	0xbc9d190e	-0.019176986
34	0xbd945b65	-0.072439946
35	0xbdaaf551	-0.08347572
36	0xbca22d02	-0.019796852
37	0xbbb09602	-0.005388976
38	0xbd8ea760	-0.06965518
39	0xbe18bf19	-0.14916648
40	0xbd13465f	-0.035955783
41	0x3e21dbb1	0.15806462
42	0xbd5549e2	-0.052072413
43	0xbdd734f8	-0.1050815
44	0x3dcf0416	0.10108201
45	0xbc0c6640	-0.0085693
46	0x3d0ae6ea	0.033911623
47	0x3d021955	0.03176244
48	0x3cc23a8b	0.023709556
49	0x3c663251	0.014050082
50	0xbd540d6e	-0.05177062
51	0x3dbcc590	0.092173696
52	0x3e1d9304	0.15388113
53	0xbd377057	-0.04478487
54	0x3de9ad0c	0.11409959
55	0x3e1ee820	0.15518236
56	0xbdb2b9bf	-0.087268345
57	0x3e143dd3	0.14476709
58	0xbcfab153	-0.030602133
59	0xbdd00aec	-0.10158333
60	0xbd0c3401	-0.034229282
61	0x3cdd3fb0	0.027007908
62	0xbc9be431	-0.019029709
63	0xbbd76258	-0.006573003
64	0x3d1cf27b	0.038317185
65	0xbda24661	-0.0792358
66	0x3ea61bcd	0.32443085
67	0x3d6b7356	0.05748304
68	0x3d686786	0.056739353
69	0xbdfbd29c	-0.1229603
70	0xbe11ff4b	-0.14257543
71	0x3e4cbfa4	0.1999498
72	0xbd188fc9	-0.0372465
73	0xbe1a4c29	-0.15068115
74	0x3e8c728a	0.27431136
75	0xbd77b3b8	-0.060474128
76	0x3d89fc05	0.06737522
77	0xbc672165	-0.014107083
78	0x3e4b97cd	0.19882126
79	0xbd767c7f	-0.060177322
80	0xbca09231	-0.01960096
81	0xbd11bb17	-0.035578813
82	0xbbf41046	-0.007448229
83	0xbe06bacb	-0.13157193
84	0xbcf0e86d	-0.029407704
85	0x3db0cdfa	0.08633037
86	0x3d1a2c96	0.037640177
87	0x3dc68dd7	0.096950226
88	0xbd335514	-0.04378231
89	0x3dd464c1	0.1037078
90	0xbe8d8408	-0.27639794
91	0x3d152e42	0.036421068
92	0x3d5a2870	0.05326122
93	0xbd259806	-0.040428184
94	0xbe85ba5d	-0.26118746
95	0xbe4c5ae8	-0.19956553
96	0xbcfc9366	-0.030832004
97	0xbd4c7ff5	-0.049926717
98	0x3ccee663	0.025256341
99	0x3e224282	0.15845683
100	0x3cb54c31	0.022131057
101	0xbeb84c1d	-0.3599557
102	0x3d3401d3	0.043947052
103	0xbe017f6f	-0.12646268
104	0xbcb5ddd2	-0.022200499
105	0x3d6a00b5	0.05712958
106	0x3e13ea8c	0.14444941
107	0x3d457f07	0.048216846
108	0x3dfda956	0.12385814
109	0x3db4bf04	0.08825496
110	0x3ca8a03c	0.020584218
111	0xbe1f876e	-0.15579006
112	0x3ca183c5	0.019716153
113	0x3e041199	0.12897338
114	0x3d34cbb9	0.044139598
115	0x3e2dfb37	0.16990362
116	0x3e02929f	0.12751244
117	0x3d8994b6	0.067178175
118	0xbd88db98	-0.06682509
119	0xbdfcbf87	-0.123412184
120	0x3d9181a5	0.07104806
121	0x3d9ad6c7	0.07560497
122	0xbdc0ddda	-0.09417315
123	0x3c2a108f	0.010379924
124	0xbdcc957d	-0.0998945
125	0xbe447baa	-0.19187799
126	0x3c0adb4b	0.008475135
127	0x3e77738a	0.24165168
128	0xbdb1eefc	-0.08688161
129	0xbc9272a8	-0.017876938
130	0xbdc64b82	-0.09682371
131	0x3da4e622	0.08051707
132	0xbe97b4c9	-0.29630116
133	0x3d051aad	0.032496143
134	0xba6d1a1a	-0.0009044722
135	0xbda7b150	-0.081881166
136	0x3e044076	0.12915215
137	0xbc9c8cc0	-0.019110084
138	0x3debf21a	0.115207866
139	0xbcfedaf9	-0.031110274
140	0x3e1576dc	0.14596123
141	0x3e55fc59	0.20897044
142	0x3e31b3a8	0.1735369
143	0xbe22c856	-0.15896735
144	0xbe094317	-0.13404499
145	0xbc0a7885	-0.008451586
146	0xbdc12c4b	-0.09432276
147	0x3d398fab	0.045303028
148	0xbdb2abb0	-0.08724153
149	0xbdc59eaa	-0.096494034
150	0xbb261a9f	-0.0025345457
151	0xbe2140fc	-0.15747446
152	0x3c866116	0.016403716
153	0xbc8c3538	-0.01711522
154	0x3e2b56a1	0.16732265
155	0x3d19a482	0.037510403
156	0xbdf151e1	-0.11783195
157	0x3d356925	0.044289727
158	0xbd18b6b7	-0.037283625
159	0xbd764232	-0.060121723
160	0xbe76fa8f	-0.24119018
161	0x3da26a0b	0.07930382
162	0xbdaac999	-0.08339233
163	0xbdd61b56	-0.10454433
164	0xbd5c3094	-0.053757265
165	0x3cb446fe	0.022006508
166	0xbc86498b	-0.01639249
167	0xbd9b785b	-0.07591315
168	0xbe2e85e9	-0.1704327
169	0x3e0315bb	0.12801258
170	0xbd273af5	-0.04082771
171	0xbdbb6bc0	-0.09151411
172	0xbd84dd6f	-0.064875476
173	0xbd8e7f7d	-0.0695791
174	0x3d453d3e	0.04815411
175	0xbe58c153	-0.21167497
176	0xbc452063	-0.012031647
177	0xbc7f5b4a	-0.01558573
178	0xbcdb7b3c	-0.026792161
179	0xba90dcb2	-0.00110521
180	0x3e52eb1c	0.205975
181	0x3d294df1	0.041334096
182	0x3e70d973	0.2352045
183	0xbe30cbb7	-0.17265211
184	0xbe0b87dc	-0.13626045
185	0xbc857305	-0.016290197
186	0x3c6e005c	0.014526453
187	0x3d162646	0.036657594
188	0x3d912827	0.070877366
189	0x3e29dbbd	0.1658773
190	0x3c5a61d7	0.013328991
191	0x3c49a0b5	0.012306382
192	0xbcba614f	-0.022751478
193	0x3c358dd3	0.011081177
194	0x3da1499e	0.078753695
195	0xbe86aa20	-0.2630167
196	0xbdac7c25	-0.08422116
197	0x3d7404ea	0.059575
198	0xbda7dba2	-0.081961885
199	0xbd3cf1d5	-0.046129066
200	0xbd3fa034	-0.04678364
201	0x3e2ccd1a	0.16875115
202	0x3e096b51	0.13419844
203	0x3e751069	0.23932041
204	0x3d0e1418	0.03468713
205	0x3d9f97c1	0.07792617
206	0xbdca5cc3	-0.09880974
207	0xbd396db4	-0.045270637
208	0xbde3f399	-0.11130447
209	0xbe1090f6	-0.14117798
210	0x3e1d4c2d	0.1536109
211	0x3dc1bb5c	0.09459564
212	0x3a25b747	0.0006321561
213	0x3d840f59	0.0644824
214	0xbe083770	-0.13302398
215	0xbe3c406b	-0.18383949
216	0xbd188f0b	-0.03724579
217	0x3e4b188d	0.19833584
218	0x3c915ef2	0.017745469
219	0xbda018df	-0.07817244
220	0xbd25b495	-0.04045542
221	0x3e18f455	0.14936955
222	0xb8ce1f60	-9.8286895e-05
223	0x3daf4aa4	0.085591584
224	0xbe4a3a96	-0.19748911
225	0x3e1061f6	0.14099869
226	0x3c67dc28	0.01415161
227	0xbd4d4f08	-0.0501242
228	0xbe241edb	-0.16027395
229	0xbe652f52	-0.22381333
230	0x3dbc38ef	0.09190547
231	0xbd809fbd	-0.06280468
232	0xbbd583e9	-0.006515969
233	0x3db56b9a	0.08858414
234	0x3e476eb2	0.1947582
235	0x3d26a767	0.04068699
236	0xbda7e442	-0.081978336
237	0xbe2fc576	-0.17165169
238	0xb8159711	-3.566506e-05
239	0x3d5a5210	0.053300917
240	0xbdc3ed94	-0.09566799
241	0xbd6cd7c0	-0.057822943
242	0xbd3205e6	-0.043462656
243	0x3e24ab46	0.1608096
244	0xbceb340e	-0.028711345
245	0x3c9b0ed6	0.018927973
246	0x3d1d06a4	0.03833641
247	0xbdb9a55a	-0.090647414
248	0x3d99d2f8	0.07510942
249	0xbe0f601c	-0.14001507
250	0xbe21b04b	-0.15789907
251	0xbddf6a9f	-0.10909008
252	0xbb9f8209	-0.0048677963
253	0xbdeff27e	-0.117161736
254	0xbe3eb728	-0.18624556
255	0x3d4ee55b	0.0505117

l1/b f4 [256]
0	0xbd476bf2	-0.04868693
1	0xbe141767	-0.14462052
2	0x3d07903c	0.033096537
3	0xbdfaa8ca	-0.12239225
4	0xbc9b292c	-0.01894053
5	0xbbc9b25b	-0.006155295
6	0xbe20f41d	-0.15718122
7	0x3cd3424b	0.025788447
8	0xbbad6cbf	-0.0052925046
9	0xbe82ac23	-0.25521955
10	0x3e72eed8	0.23723924
11	0x3e0a4961	0.13504554
12	0xbe3a59b8	-0.18198287
13	0x3baadbf1	0.0052142073
14	0xbe874108	-0.26416802
15	0xbd2b08f4	-0.041756585
16	0xbd93dcb3	-0.072198294
17	0x3dc08ab4	0.094014555
18	0x3d5611a5	0.05226292
19	0xbd83e891	-0.06440843
20	0xbece32a4	-0.4027301
21	0x3df14623	0.11780956
22	0xbe05ae96	-0.1305488
23	0xbe0e7323	-0.13911109
24	0xbd977571	-0.07395447
25	0x3c7691fb	0.015049453
26	0x3bc08756	0.0058755083
27	0x3d992a3f	0.07478761
28	0x00000000	0.0
29	0xbc2b6c9f	-0.010462909
30	0x3cc2a99f	0.023762522
31	0xbd0c3ad5	-0.034235794
32	0xbe69e8cd	-0.22842713
33	0x3d878ef6	0.066190645
34	0xbe843ffa	-0.2583006
35	0xbc487440	-0.012234747
36	0xbbcb2cd7	-0.0062004137
37	0x3c61fd6a	0.013793329
38	0x3d7e20f9	0.062043164
39	0xbafdd0fe	-0.0019364653
40	0x3d8f0b2c	0.06984553
41	0xbd13fda6	-0.03613057
42	0xbe98d5c8	-0.29850602
43	0xbdfd4a86	-0.1236773
44	0x3da3745f	0.079811804
45	0xbe061b56	-0.13096365
46	0x3c28897f	0.010286688
47	0x3c99182e	0.018688288
48	0x3d25341b	0.040332895
49	0x3d4df8e5	0.050286192
50	0xbd7ad2fa	-0.06123636
51	0x3da5816a	0.080813244
52	0xbeef612d	-0.46753827
53	0x3d342df9	0.043989155
54	0xbda599a9	-0.08085949
55	0x3d0eef13	0.034895968
56	0xbe8033e4	-0.2503959
57	0x3ce9a83b	0.028522601
58	0xbd0ed185	-0.034867782
59	0xbdcfae8d	-0.10140715
60	0xbe0ec816	-0.13943514
61	0x3d3f152c	0.04665105
62	0x3db8e65c	0.090283126
63	0x3c49763d	0.012296257
64	0x3cf14b8f	0.029454974
65	0x3ba1f308	0.0049423017
66	0xbd3e7535	-0.046498496
67	0x3be1ffe1	0.006896958
68	0xbde06be4	-0.109580785
69	0x3d0cc18d	0.034364272
70	0x3ca69e6a	0.02033921
71	0xbddd7d4e	-0.108149156
72	0xbd0a14ed	-0.033711363
73	0x3d8e719e	0.069552645
74	0xbd90375f	-0.07041811
75	0x3d8ddde5	0.06927089
76	0xbdb2b2e6	-0.087255284
77	0xbce031bb	-0.027367463
78	0xbd0262a3	-0.03183235
79	0xbe1b2029	-0.15148987
80	0x3d2dca1e	0.042429082
81	0x3b268250	0.0025407262
82	0xbe72bf30	-0.23705745
83	0x3bd7f470	0.0065904185
84	0xbc0fe3f8	-0.008782379
85	0x3e019ac9	0.12656702
86	0xbd85bdf8	-0.06530374
87	0x3cda9b41	0.026685359
88	0xbdc67002	-0.096893325
89	0xbe9478a0	-0.2899828
90	0xbecb2400	-0.39675903
91	0x3dd1fe94	0.10253635
92	0xbdc6a7d3	-0.09699979
93	0x3e0d9c09	0.13829054
94	0xbbff33cb	-0.0077881566
95	0xbca0f612	-0.019648585
96	0xbe8daff8	-0.27673316
97	0xbd7eecfc	-0.062237725
98	0xbc5d000c	-0.013488781
99	0x3d87f7c9	0.06639058
100	0x3bf24d5b	0.0073944754
101	0xbc03b172	-0.008037912
102	0x3c837e42	0.016051415
103	0x3d8ee423	0.069771074
104	0xbdd442c3	-0.10364296
105	0x3c51cabb	0.012804682
106	0x3df79867	0.12089615
107	0x3b89ec58	0.0042090826
108	0x3d94a4f3	0.07258024
109	0xbd80c1a9	-0.06286938
110	0xbbcd13c3	-0.0062584593
111	0xbdfab7a8	-0.12242061
112	0x3de61f22	0.11236407
113	0x3d3d6ee3	0.046248328
114	0xbeb82889	-0.35968426
115	0x3c3b443e	0.011429844
116	0x3de63801	0.11241151
117	0xbd833d53	-0.06408181
118	0x3cd0be9e	0.025481518
119	0xbe924a60	-0.2857237
120	0xbca8000a	-0.020507831
121	0x3db3bd91	0.08776391
122	0xbd12a5a6	-0.035802506
123	0x3ba1336f	0.0049194614
124	0x3c6737ed	0.014112455
125	0x3aaf10f2	0.001335649
126	0x3d810668	0.0630005
127	0x3e2e8107	0.17041408
128	0x3cbbc738	0.022922143
129	0x3d4e1808	0.050315887
130	0xbdd5936f	-0.10428511
131	0x3e1a7e38	0.15087211
132	0xbe69d44b	-0.2283489
133	0x3caa2284	0.020768411
134	0xbd0e1c06	-0.034694694
135	0xbe3b566b	-0.18294685
136	0x3b51909f	0.003197707
137	0xbd76575e	-0.060141914
138	0xbdd4db5f	-0.10393404
139	0x3da234e8	0.07920247
140	0x3c9baf63	0.01900453
141	0x3d56ebdd	0.05247103
142	0x3d47f05c	0.04881321
143	0x3da6cbb5	0.08144323
144	0xbd0996f5	-0.03359123
145	0x3dad0edf	0.08450102
146	0x3dad307b	0.084565125
147	0xbe915fa1	-0.28393272
148	0x3d163da1	0.036679868
149	0x3d9df254	0.07712236
150	0xbe47cbb5	-0.19511302
151	0xbdf0c113	-0.11755576
152	0x3c8419be	0.016125556
153	0xbec13998	-0.37739253
154	0x3d4a815b	0.04943977
155	0xbc5f759e	-0.013638882
156	0x3e37e0be	0.17956826
157	0xbdfbf12d	-0.1230186
158	0x3e24ecfb	0.16106026
159	0xbc49f797	-0.012327096
160	0xbc8516c9	-0.016246216
161	0x3c81693e	0.015797254
162	0x3d8dc6f8	0.06922716
163	0xbcef0973	-0.02917931
164	0xbe1ae3c0	-0.15125942
165	0xbe8fa662	-0.28056628
166	0x3de26856	0.11055057
167	0x3e01abb1	0.12663151
168	0xbd9a04a1	-0.07520414
169	0xbd7a515a	-0.06111274
170	0x3db87c65	0.090081014
171	0xbe299489	-0.16560568
172	0x3ccce638	0.02501212
173	0x3c988ff6	0.018623333
174	0xbcd98b4b	-0.026555678
175	0xbe7a11a5	-0.24420793
176	0xbeb7184d	-0.35760728
177	0x3d0a3921	0.03374589
178	0x3d4083a5	0.047000546
179	0xbe3f037e	-0.18653676
180	0x3e148695	0.14504464
181	0xbe64edd7	-0.22356354
182	0xbe507be6	-0.20359764
183	0xbd5ca621	-0.05386937
184	0xbd7341f0	-0.059389055
185	0xbe90aeb2	-0.28258282
186	0xbe574451	-0.21022154
187	0xbbd063f9	-0.006359574
188	0xba8a361f	-0.0010544694
189	0x3d85c4ea	0.06531699
190	0x3db207cf	0.086928956
191	0xbe9e4e30	-0.30919027
192	0x3cf1d4b3	0.029520368
193	0xbd0adf2f	-0.03390425
194	0xba3768d2	-0.00069965154
195	0x3d0a6aa4	0.033793107
196	0x3e4b5787	0.19857608
197	0xbddb0648	-0.106945574
198	0xbd2efbd0	-0.042720616
199	0x3db4837c	0.08814141
200	0xbe0a0c07	-0.1348115
201	0x3dea11c9	0.114291735
202	0x3cd4da24	0.025982924
203	0x3d0d2abd	0.034464587
204	0x3db440c8	0.088014185
205	0x3e252d44	0.16130549
206	0x3c7d5d88	0.015464194
207	0x3e29a8a5	0.16568239
208	0xbaa5201b	-0.0012598069
209	0x3dbf696b	0.09346279
210	0xbe583a38	-0.21115959
211	0x3d65617e	0.05600118
212	0x3dc0119e	0.0937836
213	0x3cd04e55	0.025427977
214	0xbe977fe3	-0.29589757
215	0x3dd8a8fe	0.10579108
216	0xbd862846	-0.0655065
217	0xbce716a2	-0.028209034
218	0x3d479da0	0.048734307
219	0xbd01f312	-0.03172595
220	0xbeb3d495	-0.35123125
221	0x3d811377	0.06302541
222	0x3cbd1b19	0.02308421
223	0x3d897485	0.067116775
224	0x3d2e0622	0.042486317
225	0xbc35b9cc	-0.011091661
226	0xbe3e02f3	-0.18555813
227	0xbc323973	-0.010877955
228	0xbdd1993b	-0.102343045
229	0x3d133f7d	0.03594922
230	0x3df2b608	0.11851126
231	0x3da82d34	0.08211747
232	0xbdc77053	-0.09738221
233	0xbe6663b1	-0.22498967
234	0x3c94f5c6	0.0181836
235	0x3bedebaf	0.0072607617
236	0xbda0bbaf	-0.07848298
237	0x3d306682	0.04306651
238	0xbdd27bd2	-0.10277523
239	0xbcc13320	-0.023583949
240	0x3dec7958	0.11546582
241	0xbe485d7f	-0.19566916
242	0xbcbafb15	-0.022824803
243	0x3d78476a	0.06061498
244	0xbdc1c0c9	-0.09460599
245	0x3d47a712	0.048743315
246	0xbe1d23c6	-0.15345678
247	0xbd5d9ef0	-0.054106653
248	0xbc7e5b9d	-0.015524772
249	0x3dd64523	0.104624055
250	0xbdb962dd	-0.0905206
251	0x3c327c73	0.010893929
252	0xbeb1cd5e	-0.34726995
253	0xbe8f649b	-0.28006443
254	0xbdc7cd42	-0.09755947
255	0xbe378386	-0.17921266

l3/b f4 [256]
0	0x3dd3171d	0.10307143
1	0xbcd3fb6c	-0.025876723
2	0xbd2ab0f8	-0.041672677
3	0xbd2c529b	-0.042070966
4	0xbd9fe889	-0.078080244
5	0x3d8352c4	0.06412271
6	0xbcaeb208	-0.021325126
7	0xbb490647	-0.0030673908
8	0xbd3326d4	-0.0437382
9	0x3c29cf39	0.010364347
10	0x3cf60551	0.030031832
11	0xbc886fe7	-0.016654922
12	0x3d62cadb	0.05536924
13	0xbd8bf331	-0.068334945
14	0x3d4c2ae7	0.049845602
15	0x3cdf416a	0.027252872
16	0xbcda3338	-0.026635751
17	0xbd89e6fe	-0.067335114
18	0x3c3f5aa5	0.011679326
19	0x3d816a7f	0.06319141
20	0x3d2eca45	0.042673368
21	0xbdb64641	-0.089001186
22	0xbd3ebd09	-0.046566997
23	0xbcc3cc28	-0.02390106
24	0x3ccbbb76	0.024869662
25	0x3d8d8d61	0.069117315
26	0x3d272b40	0.04081273
27	0xbdc2d89d	-0.09513972
28	0x3cd3642d	0.025804603
29	0xbcf1b4e4	-0.0295052
30	0x3d467315	0.048449595
31	0xbd4a5051	-0.049393002
32	0xbd10af54	-0.035323456
33	0xbdda817a	-0.10669227
34	0xbd87906d	-0.06619344
35	0x3d2a2801	0.041542057
36	0xbdd61287	-0.104527526
37	0x3d7f0856	0.06226381
38	0xbbc2b9f0	-0.0059425756
39	0xbda14b95	-0.07875744
40	0x3dde72d5	0.10861746
41	0x3dc427b7	0.095778875
42	0x3b94a1d6	0.004535894
43	0x3cf3e7ed	0.029773677
44	0xbcd04081	-0.025421383
45	0xbb7d95b7	-0.0038693973
46	0xbd58b89b	-0.05291043
47	0xbc7723c2	-0.015084209
48	0x3da36d5f	0.07979845
49	0xbd948dfc	-0.07253644
50	0xbd6bdab3	-0.057581615
51	0x3d1a8eb2	0.03773374
52	0xbc565cc1	-0.013083638
53	0x3de23616	0.11045472
54	0xbbbbe7d8	-0.005734425
55	0x3c8f751c	0.017511897
56	0xbc1c8eaf	-0.009555503
57	0xbbbe9b08	-0.005816821
58	0x3d0d9fd3	0.03457625
59	0xbdf93f06	-0.12170224
60	0x3c04c43d	0.0081034275
61	0xbc04cdf7	-0.0081057465
62	0xbd196529	-0.03744999
63	0xbda46b57	-0.08028286
64	0xbd3d6499	-0.046238516
65	0x3c405e95	0.0117413
66	0xbd863e79	-0.065548845
67	0xbc98fef5	-0.01867626
68	0xbd3cebc5	-0.046123285
69	0x3d5e1356	0.05421766
70	0x3d17ce0a	0.03706173
71	0xbd5778ea	-0.052605547
72	0xbd918227	-0.07104903
73	0xbd072f55	-0.033004124
74	0xbd8e3501	-0.069437034
75	0x3d36a14b	0.044587415
76	0xbcd699bd	-0.026196355
77	0x3d71d56b	0.05904142
78	0x3d0abf42	0.033873804
79	0xbcd3de7a	-0.025862921
80	0x3d69292c	0.05692403
81	0xbcaf2e59	-0.021384405
82	0x3c9061d2	0.01762477
83	0xbdff9658	-0.12479848
84	0x3b6087e8	0.0034260694
85	0x3d0173f7	0.031604733
86	0xbd230f18	-0.039809316
87	0x3c10ca3c	0.008837279
88	0xbd7e1306	-0.06202986
89	0xbdbf381a	-0.093368724
90	0xbda2685f	-0.079300635
91	0xbc7407ec	-0.014894467
92	0x3d84fa26	0.064930245
93	0xbc252920	-0.010080606
94	0x3da3a0f1	0.079896815
95	0xbc4f5293	-0.012653965
96	0xbb1b18d6	-0.0023665926
97	0x3d04c940	0.03241849
98	0x3c844206	0.016144764
99	0xb81e3aa2	-3.772474e-05
100	0x3caec267	0.021332933
101	0xbc093f71	-0.008376942
102	0xbd4fe44d	-0.050754834
103	0xbd4397fa	-0.047752358
104	0xbd13bccc	-0.036068723
105	0xbd9234c9	-0.07138974
106	0xbd37bb64	-0.044856444
107	0xbcca9b71	-0.024732323
108	0xbd233581	-0.039845947
109	0x3d67f91a	0.056634046
110	0xbd70bc11	-0.058773104
111	0x3cc7b518	0.024378344
112	0xbddfaeff	-0.1092205
113	0xbdb219de	-0.0869634
114	0xbd36dd7d	-0.04464482
115	0xbcac1df3	-0.021010375
116	0xbd1937a3	-0.037406575
117	0xbd2db891	-0.042412344
118	0xbc20f7c7	-0.0098247
119	0x3c8a090b	0.016850015
120	0xbcf90954	-0.030399956
121	0xbc96631f	-0.018357811
122	0x3d3cd433	0.046100806
123	0xbd48aec8	-0.04899481
124	0x3c818808	0.015811935
125	0xbcde9495	-0.027170459
126	0xbd3f7792	-0.04674489
127	0xbd0eef5f	-0.03489625
128	0xbcc5e106	-0.024155151
129	0xbcf2c54f	-0.0296351
130	0x3d51f106	0.05125525
131	0xbc053e40	-0.008132517
132	0xbc97eb97	-0.018544955
133	0x3d3a76d9	0.0455235
134	0xbdec86ce	-0.115491495
135	0x3da3c2ac	0.07996115
136	0xbcf3c9a7	-0.029759241
137	0xbd43d7ba	-0.047813155
138	0x3d8ce162	0.06878926
139	0xbbe54962	-0.0069972733
140	0x3c297be0	0.0103444755
141	0xbd46ccdc	-0.048535213
142	0x3bc44d1d	0.005990638
143	0x3d78bd15	0.060727198
144	0xbc5427ae	-0.0129489135
145	0x3bac90b5	0.005266274
146	0xbc4d8d80	-0.012545943
147	0xbc7972ac	-0.015225094
148	0xbd0acec9	-0.033888612
149	0x3d3e6ac0	0.046488523
150	0xbb69ce77	-0.003567604
151	0xbcc585b0	-0.024111599
152	0xbc05c913	-0.008165616
153	0x3d0c40e0	0.034241557
154	0xbc10e984	-0.008844737
155	0xbd893cf4	-0.06701079
156	0xbe0882e2	-0.13331178
157	0xbb889009	-0.004167561
158	0x3caee753	0.021350538
159	0xbd0e2501	-0.03470326
160	0xbd00af1d	-0.031417
161	0xbc60a9d2	-0.013712363
162	0xbcc7d277	-0.02439235
163	0xbcfd722a	-0.030938227
164	0xbd4cde6c	-0.050016806
165	0xbce4fbfb	-0.027952185
166	0xbc5f4f50	-0.013629749
167	0x3c0ba790	0.008523837
168	0x3d968f36	0.07351534
169	0xbd5541a9	-0.05206457
170	0xbc5859da	-0.013205016
171	0xbd455ee5	-0.0481862
172	0xbd689697	-0.05678424
173	0xbcc5f08d	-0.024162555
174	0xbdb80374	-0.08985034
175	0xbb85328a	-0.0040648626
176	0x3d8cfe48	0.06884438
177	0xbc81186f	-0.015758721
178	0xbd50a6fc	-0.0509405
179	0xbd4104f1	-0.047123853
180	0xbdcdf4b1	-0.10056437
181	0xbd446658	-0.047949165
182	0xbd2d9dea	-0.042386927
183	0xbc084e80	-0.008319497
184	0xbceb2665	-0.028704831
185	0x3b966eb3	0.004590833
186	0xbb0c6514	-0.0021422552
187	0xbdd2d633	-0.102947615
188	0xbd5ad535	-0.053425986
189	0xbd07f610	-0.033193648
190	0x3d08c627	0.033392098
191	0xbd5131b0	-0.051072776
192	0x3cec66b1	0.02885756
193	0x3cecde5f	0.028914629
194	0xbc4a1b0f	-0.012335553
195	0xbc8205bf	-0.01587188
196	0xbd28e4c5	-0.041233797
197	0xbd0fe5f2	-0.035131402
198	0xbd67fb48	-0.056636125
199	0xbd154b87	-0.03644898
200	0xbcff081d	-0.031131798
201	0x3a219366	0.00061636267
202	0xbcea26b3	-0.028582906
203	0xbbea1bfc	-0.0071444493
204	0x3cf9cbcb	0.030492684
205	0x3db104bb	0.086434804
206	0xbba31ed5	-0.0049780407
207	0xba28158f	-0.0006411904
208	0x3d4dc13b	0.050233107
209	0x3c6e088e	0.014528407
210	0xbc8289d9	-0.015934872
211	0xbd7e32e9	-0.06206027
212	0x3daa7acb	0.08324202
213	0xbd495c64	-0.049160376
214	0xbd575a3e	-0.052576296
215	0xbc0b4205	-0.008499627
216	0xbcfb7ced	-0.030699218
217	0x3d0d565c	0.034506187
218	0x3cc1b573	0.023646092
219	0xbdb647ad	-0.0890039
220	0xbd03c855	-0.032173473
221	0xbcd28d20	-0.02570206
222	0xbd5c62fa	-0.05380533
223	0x3d380573	0.04492707
224	0xbcdd83aa	-0.027040321
225	0xbd72067a	-0.059088208
226	0x3da3ea87	0.08003717
227	0xbdc09eeb	-0.09405311
228	0xbcd1b93a	-0.025601018
229	0xba5f566f	-0.00085196545
230	0xbcf1cc35	-0.029516319
231	0x3d1bfacf	0.038080987
232	0x3ceeb74d	0.029140139
233	0xbdc8928a	-0.09793575
234	0x3cdea3ab	0.027177652
235	0x3d9db7ef	0.07701098
236	0xbd4cc3c9	-0.049991403
237	0xbb1b453e	-0.0023692395
238	0xbdf50d46	-0.11965422
239	0xbd1f3d39	-0.038876746
240	0xbd22e2e4	-0.03976716
241	0xba8b97a9	-0.0010650057
242	0x3d41c973	0.047311258
243	0x3d2b9ade	0.04189574
244	0x3dc1db3e	0.09465645
245	0xbda6f092	-0.08151354
246	0x3d26a0fc	0.04068087
247	0x3ca521f7	0.020157797
248	0xbd340a10	-0.04395491
249	0x3c2e6040	0.010643065
250	0xbcf818fd	-0.030285353
251	0x3d3c9183	0.04603721
252	0xbc632baf	-0.013865395
253	0x3cc55a5d	0.02409094
254	0xbd76151b	-0.06007872
255	0x3ca52580	0.020159483

l4/b f4 [16]
0	0xbe0cea4e	-0.13761255
1	0xbe8014f0	-0.25015974
2	0xbde93480	-0.11386967
3	0xbe145a06	-0.14487466
4	0xbda6bb47	-0.08141189
5	0xbe7ea4c0	-0.24867535
6	0xbe5be3c8	-0.2147361
7	0xbdc21c94	-0.09478107
8	0xbdab0728	-0.08350974
9	0xbe5e0ab3	-0.21683769
10	0xbe5a3af7	-0.21311556
11	0xbe0f91d6	-0.14020476
12	0xbd6b94c0	-0.057514906
13	0xbd654d1f	-0.05598175
14	0xbdd05c30	-0.10173833
15	0xbd990daf	-0.07473313
