examples/ch4/reversi_DQN_DNN/agent_white_16000/target_model.npz (npz, 522094 bytes, 8 tensors)

l2/b f4 [256]
0	0xbd8b9af4	-0.06816664
1	0x3d0cdb14	0.034388617
2	0x3ced7597	0.028986735
3	0x3c8c0f45	0.017097125
4	0xbc6d0982	-0.014467599
5	0xbdb43cae	-0.08800636
6	0x3cbc4293	0.022980964
7	0x3cf90980	0.030400038
8	0xbb77221c	-0.003770954
9	0x3c92b82c	0.017910086
10	0xbdb09278	-0.08621687
11	0x3c71e30c	0.014763605
12	0x3d437ea8	0.04772821
13	0xbd27fd6a	-0.04101316
14	0xbbd4d5de	-0.0064952215
15	0x3c7a5fe0	0.015281647
16	0xbd875efc	-0.06609914
17	0xbda8d11b	-0.08243009
18	0x3cd2c902	0.025730614
19	0x3beb7c84	0.0071864743
20	0x3cba2908	0.022724643
21	0x3dbe9b20	0.093069315
22	0x3ddd7cd1	0.108148225
23	0x3caafe6c	0.02087327
24	0xbcab59b4	-0.020916797
25	0x3dfdca4a	0.12392099
26	0x3cda6248	0.026658192
27	0x3cde5c39	0.027143585
28	0xbd65dbcd	-0.05611782
29	0xbd7effe1	-0.062255744
30	0xbcc230db	-0.023704937
31	0x3d270747	0.040778425
32	0x3c30e330	0.010796353
33	0xbd3b3c04	-0.045711532
34	0x3d75b04a	0.059982575
35	0xbd091942	-0.033471353
36	0xbcfed93f	-0.03110945
37	0xbbad4d75	-0.0052887746
38	0x3cc3c152	0.023895893
39	0xbc31a66a	-0.010842899
40	0xbe046e36	-0.12932667
41	0x3b6713b7	0.0035259554
42	0x3bf37b11	0.007430442
43	0x3d8e314d	0.06942997
44	0xbd1e80f4	-0.038697198
45	0xbc273106	-0.010204559
46	0x3b8356ce	0.0040081507
47	0xbdeca115	-0.115541615
48	0xbd5df4f8	-0.0541887
49	0x3d35d674	0.04439397
50	0x3d7e00ce	0.062012486
51	0xbc9d6528	-0.019213274
52	0xbc56eb4b	-0.013117622
53	0xbc7c07f1	-0.015382753
54	0xbc9c29a0	-0.019062817
55	0x3c97d59a	0.01853447
56	0xbc353b62	-0.011061521
57	0x3bd1e205	0.0064051175
58	0xbdbdd0c1	-0.09268332
59	0x3c832759	0.016009973
60	0xbd427ff4	-0.047485307
61	0x3c92727f	0.017876862
62	0xbd474066	-0.0486454
63	0x3d702f92	0.058639117
64	0xbcd18b3f	-0.025579093
65	0x3bb7b52d	0.0056063146
66	0xbb8ebf62	-0.0043563107
67	0x3cda2ac9	0.02663173
68	0x3c027971	0.007963524
69	0x3d6643e2	0.05621708
70	0x3d69bf7e	0.057067387
71	0x3dae9bd3	0.08525815
72	0x3be9c384	0.007133903
73	0x3d4dc6eb	0.05023853
74	0xbc60f23a	-0.013729626
75	0xbc92f73a	-0.017940152
76	0xbcbc4401	-0.022981646
77	0x3d38808e	0.045044474
78	0xbcacab44	-0.02107776
79	0xbd58b40b	-0.052906077
80	0x3c3a1a69	0.011358836
81	0xbb5f10b5	-0.0034037058
82	0xbcae17bd	-0.021251554
83	0xbcf7ae3a	-0.030234445
84	0xbd85100d	-0.06497202
85	0xbc1c7ddb	-0.009551491
86	0xbdd56515	-0.104196705
87	0x3d289d39	0.041165564
88	0xbd974a2e	-0.073871955
89	0xbcad79c8	-0.021176234
90	0x3d59428d	0.053041983
91	0xbd161c90	-0.036648333
92	0xbc942dc5	-0.01808823
93	0x3ab7a4f4	0.0014010952
94	0xbce2f324	-0.02770383
95	0xbd723429	-0.059131775
96	0x3e0591e3	0.13043933
97	0xbdcad8bf	-0.09904622
98	0xbdaa91b9	-0.08328576
99	0xbd94e1fc	-0.072696656
100	0x3b85c65f	0.0040824856
101	0xbd2dce17	-0.04243287
102	0x3d63d2de	0.05562102
103	0xbbf4fad5	-0.0074761906
104	0x3da64502	0.08118631
105	0x3b36918c	0.0027857749
106	0x3b634d1b	0.003468341
107	0xbd80ef05	-0.06295589
108	0xbc96b3b4	-0.018396236
109	0xbc11603e	-0.008873044
110	0xbcc30484	-0.023805864
111	0xbc375c6b	-0.011191468
112	0xbd7e4c8d	-0.062084723
113	0x3d3f969d	0.046774495
114	0xbd0451f7	-0.03230473
115	0xbcce116f	-0.025154797
116	0xbd964935	-0.07338182
117	0xbcadee15	-0.02123169
118	0xbcca7b82	-0.024717096
119	0x3cd7fe13	0.02636627
120	0x3a730b85	0.0009271431
121	0x3bc99444	0.006151708
122	0x3d3e6428	0.046482235
123	0xbbe1f919	-0.00689615
124	0x3d691c17	0.056911554
125	0xbd5cefde	-0.053939693
126	0xbd558fac	-0.05213897
127	0xbd8f3cfb	-0.06994053
128	0xbdbb4369	-0.09143717
129	0x3c412ed2	0.011790948
130	0xbb5d3f9b	-0.0033759836
131	0xbc96b008	-0.018394485
132	0x3d818cec	0.06325707
133	0xbdbd8136	-0.09253161
134	0xbb8f4cff	-0.0043731923
135	0x38ac39b8	8.21235e-05
136	0x3da10806	0.078628585
137	0xbcc1ab4d	-0.023641253
138	0xbbfb696e	-0.0076724803
139	0xbcab4966	-0.020909023
140	0xbb8312a4	-0.004000025
141	0x3d239f8d	0.03994708
142	0xbc22d702	-0.009938957
143	0x3d23eede	0.040022723
144	0x3d88b137	0.06674426
145	0xbd2e4c26	-0.04255309
146	0xbd8fb03c	-0.07016036
147	0xbd42cedb	-0.047560554
148	0xbbad1af4	-0.005282754
149	0x3ce93dd8	0.028471872
150	0xbc9e9afe	-0.019361015
151	0x3c233282	0.0099607725
152	0x3d0d59a9	0.034509335
153	0xbd8fde1f	-0.07024788
154	0xbcfb6641	-0.030688407
155	0xbd78da06	-0.0607548
156	0xbdc9cd08	-0.0985356
157	0xbd8247eb	-0.063613735
158	0xbd196798	-0.03745231
159	0xbd8f8f82	-0.07009794
160	0xbc9b6fbb	-0.018974176
161	0x3cadcf3c	0.021216981
162	0xbc9c981e	-0.019115504
163	0x3c7e0d7b	0.015506144
164	0xbd5b9854	-0.05361207
165	0x3c956bf2	0.018239949
166	0xbd6618ce	-0.056176
167	0x3d404c79	0.04694793
168	0x3d2504f9	0.040287945
169	0xbd0755ed	-0.03304093
170	0xbc79ce82	-0.015246989
171	0x3c941aeb	0.018079242
172	0x3d2b5009	0.041824374
173	0x3c3066b7	0.010766677
174	0x3d15b2dc	0.036547527
175	0xbd425c40	-0.047451258
176	0x3c51cb95	0.012804885
177	0x3d834ad2	0.06410755
178	0xbcfcfea1	-0.030883135
179	0x3d1f7beb	0.038936537
180	0xbcc81526	-0.024424147
181	0xbd8073b5	-0.06272069
182	0xbcf7e63f	-0.030261157
183	0x3c3acb4e	0.011401011
184	0xbcd4bb62	-0.025968257
185	0xbd542eb7	-0.051802363
186	0xbdd54d6e	-0.10415159
187	0x3d409cf9	0.0470247
188	0x3d20d394	0.039264277
189	0x3c994d8e	0.018713739
190	0xbda76b06	-0.0817471
191	0xbc9637a7	-0.018337084
192	0x3d863582	0.065531746
193	0xbd3181fc	-0.043336853
194	0x3d5add26	0.05343356
195	0x3a210e27	0.00061437715
196	0xbd6495f9	-0.055807088
197	0xbd9c2634	-0.07624474
198	0xbd634b0d	-0.055491496
199	0xbda46bf4	-0.08028403
200	0xbcec2763	-0.028827375
201	0x3d8a2d9f	0.06746983
202	0xbc4407b3	-0.011964726
203	0x3cb4d6ab	0.022075018
204	0x3d71209f	0.058869
205	0xbca30d88	-0.019903913
206	0x3adca039	0.0016832418
207	0xbc7711b5	-0.015079905
208	0xbd94d674	-0.07267466
209	0xbd3c88d6	-0.046028934
210	0x3baa4703	0.0051964535
211	0xbd8d3fbb	-0.06896921
212	0xbdae11d4	-0.08499494
213	0xbdc06346	-0.09393935
214	0xbc93f5c1	-0.01806152
215	0xbd5a3c2b	-0.053280037
216	0x3d8be3e4	0.06830576
217	0x3dba34e1	0.09092117
218	0xbc0a46c7	-0.008439726
219	0xbd70015c	-0.058595046
220	0x3cf00e87	0.029303802
221	0xbd6dac92	-0.058025904
222	0xbcd55053	-0.026039278
223	0xbce272a3	-0.027642554
224	0x3c3a71bb	0.0113796545
225	0x3d8e33dc	0.06943485
226	0xbda85259	-0.082188316
227	0xbd2935a6	-0.04131093
228	0x3b3adc71	0.002851274
229	0xbd5944e6	-0.053044222
230	0xbced8c78	-0.028997645
231	0xbd292f2f	-0.041304763
232	0x3c9b5e66	0.018965911
233	0xbcf72e4a	-0.03017344
234	0xbd01c35f	-0.03168046
235	0x3d9304d6	0.07178657
236	0x3dbb91cf	0.0915867
237	0x3c089c90	0.008338109
238	0xbc9bfc77	-0.019041283
239	0x3c73c2a4	0.014877949
240	0xbc92e22d	-0.017930115
241	0x3da63511	0.0811559
242	0x3d99867e	0.074963555
243	0xbd04bf37	-0.03240892
244	0xbd0a6a61	-0.033792857
245	0xbd71e5d1	-0.05905706
246	0xbc31ad14	-0.010844488
247	0xbc83e631	-0.016100975
248	0xbd012d0f	-0.03153711
249	0x3c1602c6	0.009155935
250	0xbc20879e	-0.009797959
251	0x3d614df5	0.055005986
252	0x3cc31b2b	0.023816666
253	0x3d325393	0.043536734
254	0xbd64bf3f	-0.05584645
255	0xbd90de6b	-0.07073673

l1/W f4 [256, 16]
0	0x3e3bc18b	0.1833555
1	0xbec8eda0	-0.39243793
2	0x3e48ae63	0.19597773
3	0x3eb10874	0.34576762
4	0xbee1e7f5	-0.44122282
5	0xbe9a9310	-0.30190325
6	0x3e82eab1	0.2556968
7	0x3efd62d1	0.49489453
8	0xbe3e9986	-0.18613252
9	0xbf085b66	-0.5326446
10	0x3f18f86d	0.5975407
11	0xbe928db8	-0.28623748
12	0x3cb1daf9	0.02171086
13	0xbe79d0b0	-0.24396014
14	0x3efbd3f9	0.4918516
15	0x3b0f0ae0	0.002182655
16	0x3ed58969	0.41706398
17	0xbef272e8	-0.47353292
18	0x3dc899f8	0.09794992
19	0xbec864e1	-0.39139464
20	0xbd3d38b8	-0.04619667
21	0xbf084c0a	-0.53241026
22	0xbe3c7dac	-0.18407315
23	0x3e568e27	0.20952664
24	0x3ed4b5a6	0.41544837
25	0xbf13529f	-0.57547945
26	0x3f10c985	0.56557494
27	0x3b337ae9	0.0027386493
28	0x3f596eb4	0.84934545
29	0x3e6e4bf7	0.23271166
30	0x3e1e0720	0.15432405
31	0xbe12307f	-0.14276312
32	0xbe8c8549	-0.27445439
33	0xbec0a71b	-0.3762749
34	0xbed045f0	-0.40678358
35	0x3e22eee0	0.15911436
36	0xbd687e9c	-0.05676137
37	0xba9e69d0	-0.0012085978
38	0xbe0f3115	-0.13983567
39	0x3ea52dd4	0.32261527
40	0xbebad186	-0.3648798
41	0xbbf32f06	-0.007421377
42	0xbecaea39	-0.39631823
43	0x3cac51bc	0.021035068
44	0xbe40e25d	-0.1883635
45	0x3dc26937	0.094927244
46	0xbe382f5d	-0.17986818
47	0x3f5f04f3	0.87116927
48	0x3e2a5e82	0.16637614
49	0xbf0d0b58	-0.55095434
50	0xbe5c7b94	-0.21531516
51	0x3d2a54d0	0.04158479
52	0xbe1d79bd	-0.1537847
53	0xbeef22d8	-0.4670627
54	0x3f28613e	0.6577338
55	0xbeb7160c	-0.35759008
56	0x3f280b5c	0.65642333
57	0x3f33a58f	0.701745
58	0x3e5af9ba	0.21384326
59	0xbf2b8be7	-0.6701035
60	0xbeb5c37e	-0.3550071
61	0xbf0150cd	-0.5051392
62	0x3e188b93	0.14896993
63	0x3f2ff945	0.6873973
64	0xbd030832	-0.031990238
65	0x3e2c5d8b	0.16832559
66	0xbec7553d	-0.3893222
67	0xbe46a4ff	-0.19398879
68	0xbd861675	-0.06547252
69	0xbe458170	-0.19287658
70	0x3ed7227f	0.42018506
71	0x3f61edcf	0.8825349
72	0xbd616139	-0.05502436
73	0xbd8d2604	-0.068920165
74	0x3e4d7b5a	0.20066586
75	0xbf8caaf9	-1.0989677
76	0xbb9b1df0	-0.0047337934
77	0x3eeb1874	0.45917094
78	0xbed88a48	-0.42293
79	0xbeceabd3	-0.40365466
80	0x3ee4219d	0.44556895
81	0xbec5fa50	-0.38667536
82	0xbe83169c	-0.25603187
83	0x3e322391	0.1739638
84	0xbe060554	-0.1308797
85	0xbf4e8843	-0.8067667
86	0x3ee0ab56	0.4388072
87	0x3f068351	0.5254412
88	0xbef00005	-0.46875015
89	0x3eee6860	0.46564007
90	0xbeab1b46	-0.33419245
91	0x3e4490c0	0.19195843
92	0x3ebbfa60	0.36714458
93	0xbefffce2	-0.49997622
94	0x3e080544	0.13283259
95	0x3f021f63	0.5082914
96	0x3c72ef95	0.014827629
97	0x3cabbc14	0.020963706
98	0x3d2307cc	0.039802358
99	0x3f1a9fd4	0.6040013
100	0xbf49f306	-0.7888645
101	0x3e6a97fc	0.2290954
102	0x3f221892	0.6331874
103	0xbcdc22b7	-0.026872022
104	0x3dda897b	0.106707536
105	0xbe2ce10b	-0.16882722
106	0xbd7cb4df	-0.06169593
107	0xbd09beb9	-0.033629153
108	0x3e19f323	0.15034156
109	0xbed4adb0	-0.41538763
110	0x3e470c87	0.19438373
111	0x3e281789	0.16415228
112	0x3f05519b	0.52077645
113	0xbc9ecbd3	-0.0193843
114	0x3e52dbc8	0.20591652
115	0x3dddd102	0.10830881
116	0xbe565385	-0.20930298
117	0xbed56451	-0.41678098
118	0xbf776f7a	-0.96654475
119	0xbef3d6fd	-0.4762496
120	0xbe05f941	-0.13083364
121	0x3df6478b	0.120253645
122	0x3e4c7939	0.19968118
123	0x3e358288	0.17725575
124	0x3e3201c3	0.17383485
125	0x3ef776fb	0.48332962
126	0x3e17ead2	0.1483567
127	0x3dfa1f0e	0.122129545
128	0xbf018eb9	-0.506084
129	0xbef5b25a	-0.47987634
130	0x3dc7fbc8	0.0976482
131	0x3f23a760	0.6392727
132	0x3d916dd5	0.07101027
133	0xbe73345c	-0.23750442
134	0x3efa8264	0.48927605
135	0xbe73f7e0	-0.23825026
136	0xbe8cb9dd	-0.27485552
137	0x3f0cc654	0.54990125
138	0xbe9e5c0e	-0.30929607
139	0x3e8b3d51	0.27195218
140	0xbf7d5c6a	-0.9896914
141	0x3cc3ea54	0.023915447
142	0x3e0df830	0.13864207
143	0xbdd81be3	-0.10552194
144	0x3e25bc19	0.16185035
145	0x3d9baf42	0.07601787
146	0xbef4d8f8	-0.47821784
147	0x3bff3374	0.007788116
148	0x3f01667a	0.5054699
149	0x3e6e3625	0.23262842
150	0x3e8f5462	0.27994066
151	0xbe551ec5	-0.20812519
152	0x3dcdcc5f	0.10048746
153	0xbe9d30d0	-0.30701303
154	0xbed692b0	-0.4190879
155	0xbe889cdd	-0.26682177
156	0x3f30b9c6	0.6903347
157	0x3f135b1a	0.57560885
158	0xbd94dca4	-0.07268646
159	0x3c358829	0.011079826
160	0x3f307b7d	0.6893843
161	0x3c922373	0.01783917
162	0xbcf1bebc	-0.029509895
163	0xbee11faf	-0.43969485
164	0x3e18f826	0.14938411
165	0xbe484c61	-0.19560386
166	0xbe16963f	-0.14705752
167	0x3d62d67a	0.055380322
168	0xbf5f50e4	-0.87232804
169	0xbe00b706	-0.12569818
170	0x3e5b5398	0.21418607
171	0xbef5336b	-0.4789079
172	0x3f3aa895	0.72913486
173	0xbe3ec29d	-0.18628927
174	0x3df18a14	0.117939144
175	0xbe4213de	-0.18952891
176	0xbeeca557	-0.46219894
177	0xbf68db49	-0.909596
178	0x3ebe1598	0.3712585
179	0xbeaa62df	-0.33278558
180	0x3f44ccda	0.7687508
181	0xbe7e5918	-0.24838674
182	0x3e249357	0.1607183
183	0x3f616632	0.8804656
184	0x3d92dfae	0.0717157
185	0x3ebe9101	0.37220004
186	0xbe594fdb	-0.21221869
187	0x3df3b4f8	0.118997514
188	0xbef4e471	-0.47830537
189	0xbec9b3d4	-0.3939501
190	0xbf1cb47d	-0.61212903
191	0xbde35260	-0.11099696
192	0x3db38f6d	0.08767591
193	0x3e9c2d59	0.30503348
194	0x3dc90549	0.09815461
195	0x3e15dc1d	0.14634748
196	0xbdc5d8f2	-0.0966052
197	0xbe55f094	-0.20892555
198	0xb99b3eb8	-0.00029610633
199	0xbd174321	-0.036929253
200	0x3c431162	0.011906
201	0xbe9d4d9c	-0.30723274
202	0x3d0ec1e9	0.034852896
203	0xbe18918c	-0.14899272
204	0x3d10bc10	0.0353356
205	0xbc23c708	-0.009996183
206	0xbe8cb08a	-0.2747844
207	0x3f0bd41e	0.5462054
208	0xbcceed48	-0.025259629
209	0xbc5ace3d	-0.013354835
210	0xbf16d4cb	-0.58918446
211	0xbe5c2570	-0.21498656
212	0xbed7168a	-0.42009383
213	0x3c576452	0.013146477
214	0xbf1f0f13	-0.62132376
215	0x3dc9fa13	0.09862151
216	0xbe4addfd	-0.19811244
217	0xbf2f8947	-0.68568844
218	0x3e7183b2	0.23585394
219	0xbe4d1e04	-0.20030981
220	0xbf2ba96b	-0.67055386
221	0x3ec425f5	0.3831021
222	0x3f2090a3	0.627207
223	0x3cf9cffc	0.030494682
224	0xbf410383	-0.75395983
225	0xbe919c49	-0.2843955
226	0x3df07019	0.11740131
227	0xbe792865	-0.24331816
228	0x3d7daf43	0.06193472
229	0x3ee4fb1c	0.4472283
230	0x3e28ff7a	0.16503707
231	0xbd8078ca	-0.06273039
232	0x3ee12089	0.43970135
233	0x3eadfb31	0.33980706
234	0x3e61935d	0.22028871
235	0x3e6515ad	0.2237155
236	0xbf2d5ce6	-0.67719877
237	0x3e357f65	0.17724378
238	0x3e3aa7ac	0.18228024
239	0xbf02f430	-0.5115385
240	0xbe447a3b	-0.19187252
241	0xbda13da7	-0.078730874
242	0x3f1c0dd1	0.6095858
243	0x3e85db6c	0.26143968
244	0x3daee9f0	0.08540714
245	0xbfa86413	-1.315554
246	0xbdeb7c8d	-0.114983656
247	0xbf078b18	-0.52946615
248	0x3ec97dce	0.39353794
249	0x3b1a2909	0.0023522994
250	0x3f1332b3	0.57499236
251	0x3ed98a85	0.42488495
252	0xbe87197c	-0.2638663
253	0xbe961e53	-0.2932001
254	0x3ea80bdf	0.32821557
255	0x3eb2433f	0.3481693

l3/W f4 [256, 256]
0	0xbd015c66	-0.03158226
1	0xbe5b1d0c	-0.21397799
2	0x3df08227	0.117435746
3	0xbda81c35	-0.08208505
4	0xbcdb84fc	-0.02679681
5	0xbe380129	-0.17969193
6	0xbdda2dad	-0.10653243
7	0xbd324695	-0.043524344
8	0xbdbc6d7a	-0.092005685
9	0x3c642a01	0.01392603
10	0xbe125803	-0.14291386
11	0xbc773de7	-0.015090442
12	0x3e092e49	0.13396563
13	0xbd7fd3a6	-0.062457703
14	0x3e36603d	0.1781015
15	0x3df4e3a6	0.11957483
16	0xbdfd1cef	-0.12359034
17	0xbc84175e	-0.016124424
18	0xbe3e5201	-0.1858597
19	0xbb0cf2e8	-0.0021507088
20	0x3da24a7b	0.07924362
21	0xbc19ec03	-0.0093946485
22	0x3e586ba0	0.21134806
23	0x3c771b84	0.015082244
24	0x3d19b08a	0.037521876
25	0xbe3d4bed	-0.18485995
26	0xbb8a9e0d	-0.004230267
27	0x3bf762ed	0.0075496347
28	0x3dae68a6	0.08516054
29	0xbdc5159a	-0.09623261
30	0x3db51a96	0.088429615
31	0xbd952eb9	-0.07284302
32	0x3d614c5f	0.055004474
33	0xbdcd7d60	-0.10033679
34	0x3d09ea80	0.033670902
35	0x3d65ee95	0.056135733
36	0xbcee42a0	-0.029084504
37	0x3d9a4812	0.075332776
38	0x3e061adc	0.13096184
39	0x3dabd2e6	0.08389835
40	0xbe369f53	-0.17834215
41	0xbd985509	-0.07438094
42	0xbdf23f50	-0.11828482
43	0xbd212309	-0.039340053
44	0x3ce72781	0.02821708
45	0x3daed886	0.08537392
46	0xbdb35b0d	-0.08757601
47	0x3bc9afff	0.0061550136
48	0xbda2ddb5	-0.079524435
49	0x3e211e6b	0.1573426
50	0xbdc4f67d	-0.096173264
51	0x3d32fdf4	0.04369922
52	0x3ddeb47b	0.10874268
53	0xbc4736a2	-0.012159022
54	0x3dec39cd	0.11534462
55	0x3d6a6faf	0.057235416
56	0x3dda2cc3	0.10653069
57	0xbe173d57	-0.14769493
58	0xbd46b769	-0.048514757
59	0x3d62c3bf	0.05536246
60	0xbe1bf542	-0.15230277
61	0xbceff0ea	-0.029289681
62	0xbdfb714b	-0.12277468
63	0x3dbf8737	0.09351962
64	0xbc9320d5	-0.017959991
65	0xbd1bbe55	-0.03802331
66	0xbd3cbf4c	-0.046080872
67	0x3edce0cd	0.4314026
68	0xbd769446	-0.0602
69	0xbdb13c7d	-0.08654115
70	0x3d7c5468	0.061603934
71	0xbda21f92	-0.07916178
72	0x3bc8724a	0.00611714
73	0x3dca119a	0.098666385
74	0x3db71aa5	0.08940629
75	0x3de2b69c	0.11069986
76	0x3cffcbd8	0.03122513
77	0x3d486752	0.04892666
78	0xbe88ae69	-0.26695564
79	0xbd88bc7e	-0.06676577
80	0xbca30a8d	-0.019902492
81	0xbe44bc87	-0.19212542
82	0xbdf284b2	-0.11841716
83	0x3d0323c6	0.032016538
84	0x3d75de0b	0.06002621
85	0x3ccd295c	0.025044136
86	0xbe10a05b	-0.14123671
87	0xbd932926	-0.07185583
88	0x3e156e87	0.14592944
89	0x3e18b318	0.14912069
90	0xbce49669	-0.027903752
91	0x3d7a3fda	0.06109605
92	0x3e4c4908	0.19949734
93	0x3bc3c5a3	0.005974488
94	0xbd3b5798	-0.045737833
95	0xbd5923a3	-0.0530125
96	0x3e3b3bf5	0.1828459
97	0xbd8237cd	-0.063582994
98	0xbdfa233d	-0.122137524
99	0x3d326bff	0.043560024
100	0x3e5d70ff	0.21625136
101	0xbcd12916	-0.025532287
102	0x3d930df0	0.07180393
103	0xbdeabf89	-0.11462314
104	0x3df4f89d	0.11961482
105	0xbe060b6d	-0.13090296
106	0x3e09d791	0.13461138
107	0xbbcca6a0	-0.006245449
108	0xbe11c9e4	-0.14237171
109	0xbdab845c	-0.08374855
110	0xbdca766f	-0.09885871
111	0xbcb0802c	-0.021545492
112	0xbd1e3976	-0.038629018
113	0xbe346186	-0.17615327
114	0x3ca0e578	0.01964067
115	0xbc3e2084	-0.011604432
116	0xbd1096ea	-0.035300173
117	0xbdeb1bf9	-0.11479945
118	0xbdbde400	-0.09272003
119	0x3d710cbf	0.058850046
120	0xbe06e15e	-0.13171908
121	0xbdcb9aa8	-0.09941608
122	0x3d74f164	0.05980052
123	0x3d37d2be	0.044878714
124	0xbd56265f	-0.052282687
125	0xbe08453d	-0.13307662
126	0xbe4145e5	-0.18874319
127	0xbe00cdce	-0.12578508
128	0xbcbb6c64	-0.022878833
129	0xbe22206a	-0.15832677
130	0x3d5d9b23	0.054103028
131	0x3e4b1d40	0.19835377
132	0xbdf03951	-0.11729682
133	0xbb8b71d0	-0.004255511
134	0x3db2cd16	0.08730523
135	0x3d7e2cd6	0.062054478
136	0xbe1d999e	-0.15390632
137	0x3da8397c	0.08214089
138	0x3e12c071	0.14331223
139	0x3d3c2fab	0.045943897
140	0xbd60d6d8	-0.05489239
141	0x3cad5871	0.021160336
142	0x3dcdaec9	0.10043103
143	0xbd874c87	-0.06606393
144	0xbc4ff462	-0.012692543
145	0xbd1982c5	-0.037478227
146	0xbdc3e69f	-0.09565472
147	0x3be312d2	0.006929734
148	0x3bb63481	0.005560458
149	0xbd90c163	-0.070681356
150	0x3e25457a	0.16139784
151	0x3c1feea6	0.009761488
152	0xbe874a10	-0.26423693
153	0x3bb3ba7b	0.0054848767
154	0xbd92b6c0	-0.07163763
155	0xbdea930a	-0.11453827
156	0xbcfe64fb	-0.03105401
157	0xbd86fda3	-0.06591346
158	0x3cd21700	0.025645733
159	0xbae618b6	-0.0017554972
160	0x3db828de	0.0899217
161	0x3e07af6f	0.13250516
162	0xbd2be734	-0.04196854
163	0x3deb31cb	0.11484107
164	0xbd976d8f	-0.073939435
165	0xbc1b3af1	-0.009474502
166	0xbd8a67ac	-0.06758055
167	0x3de527d3	0.111892365
168	0xbd42121d	-0.047380555
169	0x3e56f254	0.20990878
170	0x3d2f5b58	0.04281172
171	0x3ceb274f	0.028705267
172	0xbe09ab6f	-0.13444303
173	0xbc9115f2	-0.01771066
174	0x3d8bab1e	0.068197474
175	0xbd4d44e5	-0.05011453
176	0x3d54e7f3	0.051979017
177	0x3c7eeaa0	0.015558869
178	0xbcd06e83	-0.025443321
179	0x3dd95827	0.10612517
180	0x3cf41b44	0.029798158
181	0xbd25b7cf	-0.040458497
182	0xbda4f78a	-0.08055027
183	0xbd1696de	-0.036764972
184	0x3c51f7ed	0.012815458
185	0xbe40b626	-0.18819484
186	0x3ddaee29	0.10689957
187	0x3dda9653	0.10673203
188	0xbe07d0bc	-0.1326322
189	0xbe1122ed	-0.1417348
190	0x3df6941e	0.1203997
191	0x3e139bdf	0.14414929
192	0x3d2b0493	0.04175241
193	0xbd7d7f09	-0.06188873
194	0x3dfc3cb8	0.12316269
195	0xbd991de6	-0.07476406
196	0xbe3d8e9a	-0.1851143
197	0xbec1d009	-0.3785403
198	0x3d9a5ac8	0.075368464
199	0x3dec7af8	0.11546892
200	0xbd60275f	-0.054725047
201	0x3dc16796	0.094435856
202	0xbd9df8d3	-0.07713475
203	0xbe03ed32	-0.12883452
204	0xbda2e397	-0.079535656
205	0xbd231151	-0.039811436
206	0xbe1e7ac5	-0.1547652
207	0xbdd86642	-0.10566379
208	0x3d33031f	0.04370415
209	0xbe68135d	-0.22663637
210	0xbe21be74	-0.15795308
211	0xbd639400	-0.055561066
212	0x39891975	0.00026149643
213	0x3e173b0b	0.14768617
214	0xbe544c79	-0.20732297
215	0xbd5b7924	-0.053582326
216	0x3cf38d20	0.02973038
217	0x3ab2431d	0.0013600324
218	0x3efe019a	0.49610597
219	0xbce78583	-0.028261906
220	0xbd27dd66	-0.040982626
221	0x3cfa2cf6	0.030539017
222	0x3de82fe6	0.11337261
223	0x3ddb84e2	0.10718705
224	0xbdb1f3a6	-0.086890504
225	0xbd2da028	-0.042389065
226	0x3d410a08	0.047128707
227	0xbd536209	-0.051607165
228	0xbb165ecc	-0.0022944687
229	0xbe2e748e	-0.1703665
230	0xbdd34e2c	-0.103176445
231	0xbd2ba0d5	-0.04190143
232	0x3e2ab238	0.16669548
233	0xbea4ae79	-0.32164362
234	0xbdd820c6	-0.10553126
235	0xbd7a5361	-0.061114673
236	0xbc992b75	-0.01869748
237	0xbd4d0021	-0.05004895
238	0xbe0ad07a	-0.1355609
239	0x3e260540	0.1621294
240	0x3e365806	0.17807016
241	0xbdd1f5d0	-0.10251963
242	0xbd6545fa	-0.055974938
243	0xbe3b98c0	-0.18319988
244	0x3d71197d	0.0588622
245	0xbe29eba8	-0.16593802
246	0x3ddeba30	0.10875356
247	0x3e57794d	0.21042366
248	0xbdcaa73d	-0.098951794
249	0xbe006213	-0.12537412
250	0x3e018eeb	0.12652175
251	0xbd8ded45	-0.06930021
252	0x3e96a674	0.2942387
253	0x3db74f5a	0.08950682
254	0x3dfcebee	0.123496875
255	0x3d14e8a6	0.036354683

l4/W f4 [16, 256]
0	0x3e115cca	0.14195552
1	0x3e09d3d9	0.1345972
2	0x3d7dfcc4	0.062008634
3	0xbd23efb9	-0.04002354
4	0xbe9f9e28	-0.3117535
5	0xbea82a67	-0.3284485
6	0xbe7e1dd1	-0.24816062
7	0xbea7789a	-0.327092
8	0xbe1497a8	-0.14510977
9	0x3e8a840e	0.27053875
10	0xbe41ae80	-0.18914223
11	0xbc439f4f	-0.011939838
12	0x3d08807b	0.033325654
13	0xbe9cdbe5	-0.30636516
14	0x3e4d546a	0.20051733
15	0x3dabaf01	0.08382989
16	0x3dab3a99	0.08360786
17	0xbcadbbe2	-0.021207754
18	0x3ccfaefc	0.025351994
19	0xbec04cdb	-0.37558636
20	0x3e80a3b9	0.2512491
21	0xbeddc593	-0.433148
22	0xbd82ddec	-0.063899845
23	0x3cf2b7b1	0.029628607
24	0xbd7fd05e	-0.062454574
25	0x3e9d2e16	0.30699223
26	0xbc32c46d	-0.010911089
27	0x3ec567f3	0.3855587
28	0x3d668e47	0.05628803
29	0x3e1fd876	0.15609917
30	0x3bffa52d	0.007801673
31	0xbcf8bdd2	-0.03036395
32	0x3db19243	0.08670475
33	0x3dde852a	0.10865243
34	0x3dcd16c6	0.10014109
35	0x3e331abf	0.17490672
36	0x3ead2449	0.33816746
37	0x3d96c734	0.07362214
38	0x3eb730fe	0.35779566
39	0xbe4eef10	-0.20208383
40	0x3ec3b82d	0.38226452
41	0x3e6ca3a0	0.23109293
42	0xbd608739	-0.05481646
43	0x3e83505e	0.25647253
44	0xbd5d662b	-0.054052513
45	0x3df670c6	0.120332286
46	0x3eb104cc	0.34573972
47	0x3e08693d	0.13321395
48	0x3e5bd564	0.21468121
49	0x3e1ed753	0.15511827
50	0xbd28cc19	-0.041210268
51	0x3c40e9aa	0.01177446
52	0xbd348afc	-0.04407786
53	0x3e710d6f	0.23540281
54	0xbed02afd	-0.40657797
55	0x3d64074c	0.05567102
56	0x3e896398	0.26833797
57	0xbd0b3f31	-0.03399581
58	0xbdf06b2a	-0.1173919
59	0xbecb118e	-0.3966183
60	0xbe55b567	-0.20869981
61	0x3e370951	0.17874648
62	0xbda9abbe	-0.0828471
63	0xbe3c6d17	-0.1840099
64	0xbe26e921	-0.16299869
65	0xbbd0efab	-0.006376227
66	0xbe1148a2	-0.14187863
67	0xbe6df40d	-0.23237629
68	0x3d759929	0.059960518
69	0x3eaa1be4	0.33224404
70	0x3d961180	0.073275566
71	0x3eb5a646	0.3547842
72	0xbeb91de4	-0.36155617
73	0x3dc02cfb	0.09383579
74	0xbeb4756f	-0.35245845
75	0xbd2e0721	-0.042487267
76	0xbded010d	-0.11572466
77	0x3da1caee	0.07900034
78	0xbe0a1c38	-0.13487327
79	0x3e273338	0.16328132
80	0xbe4b665e	-0.19863269
81	0xbea5c51f	-0.32376954
82	0xbcd738d7	-0.02627222
83	0xbeea8917	-0.45807716
84	0xbe3e1e80	-0.18566322
85	0xbdb6e723	-0.089308046
86	0x3d0daf33	0.03459091
87	0xbd6c5616	-0.057699285
88	0xbeb91887	-0.36151525
89	0x3a971b19	0.0011528461
90	0x3eba56b0	0.36394262
91	0xbe0c33c3	-0.1369162
92	0x3e65b4c9	0.22432245
93	0x3dd0cac0	0.101949215
94	0x3e9c1da4	0.30491364
95	0x3eb3d886	0.35126132
96	0x3cf346ea	0.0296969
97	0xbdb856e7	-0.0900095
98	0xbdb3cf4a	-0.087797716
99	0xbe5a3649	-0.2130977
100	0xbd43a758	-0.047767013
101	0x3c6f0dbe	0.014590679
102	0xbdfb9169	-0.12283594
103	0x3dd7e217	0.1054117
104	0x3d43b1c1	0.04777694
105	0xbdce0ddd	-0.10061238
106	0xbd4568d2	-0.048195668
107	0x3d8443e0	0.06458259
108	0x3be4f11a	0.0069867494
109	0x3e10fdf2	0.14159372
110	0xbe0ca2e7	-0.13734017
111	0xbe219412	-0.1577914
112	0xbe8e05f8	-0.2773893
113	0xbdac7d6c	-0.0842236
114	0x3dd67efb	0.10473438
115	0x3ee1bd39	0.44089678
116	0x3ead4117	0.33838722
117	0x3d8bc37e	0.068243966
118	0xbea0f2a7	-0.3143513
119	0xbe6202bf	-0.2207136
120	0xbe1687de	-0.14700267
121	0xbe1a5e19	-0.15074958
122	0x3e7c1b17	0.24619709
123	0x3de2ec2d	0.11080203
124	0x3d3ee8ac	0.046608612
125	0x3e5e46f6	0.21706757
126	0xbed9914f	-0.42493674
127	0x3d61fdd3	0.055173706
128	0x3cd0c28d	0.025483394
129	0x3da40e07	0.08010488
130	0x3daebe8f	0.0853244
131	0x3dfe4ee3	0.1241739
132	0x3e2eaba0	0.17057657
133	0x3e159a59	0.1460966
134	0x3e8337f3	0.25628623
135	0xbe0702f0	-0.13184714
136	0xbb6dcef7	-0.003628669
137	0xbf045b55	-0.5170186
138	0x3d1f7fe3	0.03894032
139	0x3b864b5b	0.0040983385
140	0x3e0cfa4f	0.1376736
141	0xbeecb159	-0.46229056
142	0xbe82cef6	-0.25548524
143	0x3e5ea620	0.21743059
144	0xbd579e0d	-0.052640963
145	0xbe95f953	-0.29291782
146	0x3c9bd493	0.019022262
147	0xbc8688e5	-0.016422698
148	0x3e2fca35	0.1716698
149	0x3e1328b8	0.14371002
150	0xbe2a9559	-0.16658534
151	0xbed92933	-0.42414245
152	0x3e270f33	0.16314392
153	0xbdd8e92b	-0.10591348
154	0xbd61ab6d	-0.055095125
155	0xbe3a2c5e	-0.18180987
156	0xbdcefd65	-0.10106925
157	0x3d7aaa35	0.06119748
158	0x3ea09ddc	0.31370437
159	0x3e1c4d7e	0.15263936
160	0xbe7ac059	-0.24487437
161	0xbe79004d	-0.24316521
162	0x3e43c0dd	0.1911654
163	0x3d7a8ed8	0.061171383
164	0xbdca3707	-0.09873777
165	0x3e2862f3	0.16443996
166	0xbe2966da	-0.16543141
167	0x3e5d92bb	0.21638004
168	0xbe4c314b	-0.19940679
169	0x3d7758a8	0.060387284
170	0x3e5c3f36	0.21508488
171	0xbe84a64a	-0.25908118
172	0x3d909ec6	0.07061534
173	0xbe3c5b66	-0.1839424
174	0x3e7ec67e	0.24880406
175	0x3ca95f6e	0.020675387
176	0x3d09ddc6	0.033658765
177	0x3e27b88f	0.16378997
178	0x3deed758	0.11662167
179	0xbea9d3d4	-0.33169425
180	0x3db99427	0.09061461
181	0xbe755873	-0.23959522
182	0xbdf833ce	-0.12119256
183	0x3d6ccf0e	0.05781465
184	0xbd087ce0	-0.033322215
185	0xbe9638ee	-0.2934031
186	0x3e52ca0f	0.20584892
187	0xbe6b6f88	-0.22991765
188	0x3d1b3135	0.037888724
189	0xbef164cb	-0.4714721
190	0x3e80f34b	0.25185618
191	0x3ced13b6	0.028940063
192	0xbf043118	-0.5163741
193	0x3d9885e9	0.07447416
194	0x3dbf6bdc	0.093467444
195	0xbe446e4f	-0.19182704
196	0x3e1885be	0.14894769
197	0x3e1f791a	0.1557354
198	0x3c3fd1f3	0.011707771
199	0xbeaf1d52	-0.34202057
200	0xbd2c684e	-0.04209166
201	0x3e2d3ba3	0.16917281
202	0xbe9ed2dd	-0.3102025
203	0xbdf488bb	-0.11940142
204	0xbe843014	-0.2581793
205	0x3daf41ec	0.085574955
206	0x3ef7dd65	0.48411098
207	0xbe3143cb	-0.17311017
208	0xbbbe5c44	-0.0058093388
209	0xbe1f4ca5	-0.15556581
210	0xbc7ab836	-0.015302708
211	0xbdf816ed	-0.12113748
212	0xbe8c977a	-0.27459317
213	0x3d665587	0.05623391
214	0xbe979b4b	-0.29610667
215	0x3e196d63	0.14983134
216	0x3d23b8bb	0.039971095
217	0xbe211618	-0.15731084
218	0x3e703654	0.23458225
219	0xbe35067c	-0.17678255
220	0x3e373105	0.17889793
221	0x3e70a524	0.23500496
222	0x3e54d735	0.2078522
223	0x3d93b732	0.07212676
224	0x3e37cf60	0.17950201
225	0xbea87688	-0.32902932
226	0xbdb70cd6	-0.08937995
227	0xbf0d74e3	-0.5525648
228	0xbe2120c3	-0.15735154
229	0x3e15b0bf	0.14618205
230	0x3d0ff020	0.03514111
231	0x3de3eeca	0.1112953
232	0x3dd13b11	0.10216344
233	0xbdb34007	-0.087524466
234	0x3e0076af	0.12545274
235	0x3d9661a8	0.07342845
236	0xbd92e7bd	-0.07173107
237	0xbe079db3	-0.13243751
238	0xbee3f2ff	-0.4452133
239	0x3eb155e2	0.34635836
240	0x3e5afa17	0.21384464
241	0xbe287f66	-0.16454849
242	0x3e5b06c7	0.21389304
243	0x3ea080f6	0.3134839
244	0x3d0b8222	0.03405965
245	0xbdc07a59	-0.09398336
246	0x3e78633c	0.24256605
247	0x3e4da10d	0.20080967
248	0xbe312162	-0.17297891
249	0xbd8daa22	-0.06917216
250	0xbdb3f0fe	-0.087862
251	0x3e0ce5d4	0.13759547
252	0xbd0b1eff	-0.033965107
253	0x3e23e033	0.16003494
254	0xbe12563a	-0.14290705
255	0xbdbfd676	-0.09367077

l2/W f4 [256, 256]
0	0x3b80afa9	0.0039271903
1	0xbe32cebc	-0.17461675
2	0xbd44fc99	-0.04809246
3	0x3e428055	0.18994267
4	0x3d765b05	0.060145397
5	0x3c842eff	0.01613569
6	0x3a969fb9	0.0011491693
7	0xbc2f7008	-0.010707863
8	0x3e069560	0.1314292
9	0xbe6ef6f2	-0.2333639
10	0xbd952edb	-0.072843276
11	0x3dc5f587	0.09665971
12	0xbda8eddf	-0.08248495
13	0x3e0c234c	0.1368534
14	0xbd9148f4	-0.07093993
15	0x3dbe3c63	0.092888616
16	0x3e5ad4a1	0.21370174
17	0x3dfd3441	0.12363482
18	0xbe4f3c21	-0.20237781
19	0xbdb1e48e	-0.086861715
20	0x394ea049	0.00019705402
21	0x3de81a88	0.113331854
22	0xbe878fab	-0.26476797
23	0xbbfd1446	-0.007723364
24	0x3e05b1c5	0.13056095
25	0xbdfd9bd8	-0.123832405
26	0xbc150900	-0.009096384
27	0xbe03988d	-0.12851162
28	0x3dd748c4	0.10511926
29	0xbcde20f2	-0.027115319
30	0x3d9d7e8e	0.07690154
31	0xbe0f3201	-0.13983919
32	0xbdff871c	-0.12476942
33	0xbc9bf3f5	-0.019037226
34	0xbd95b7ca	-0.073104456
35	0xbdab6e25	-0.08370618
36	0xbc9d03f9	-0.019166933
37	0xbbaa8a5e	-0.005204483
38	0xbd8f7c63	-0.07006147
39	0xbe17aef6	-0.14812836
40	0xbd1bbc59	-0.03802142
41	0x3e215cd8	0.15758073
42	0xbd4c6d27	-0.049908783
43	0xbdd860e7	-0.10565358
44	0x3dd11760	0.102095366
45	0xbbcc1083	-0.0062275543
46	0x3d0c1630	0.034200847
47	0x3d0aa3f0	0.03384775
48	0x3cc66b22	0.024221007
49	0x3c8520db	0.016251018
50	0xbd502669	-0.05081788
51	0x3dbd38ca	0.09239347
52	0x3e1eddc5	0.15514286
53	0xbd3946f3	-0.045233678
54	0x3dedf9dc	0.116199225
55	0x3e225f38	0.15856636
56	0xbdb1cc12	-0.086815014
57	0x3e13b59e	0.1442475
58	0xbd00691f	-0.03135025
59	0xbdd1097d	-0.10206888
60	0xbd058e65	-0.0326065
61	0x3cd4b09a	0.025963116
62	0xbc945a34	-0.018109418
63	0xbbe62f18	-0.007024657
64	0x3d14ef68	0.036361128
65	0xbda2e76f	-0.07954299
66	0x3ea63d4a	0.32468635
67	0x3d6b7356	0.05748304
68	0x3d6ad72d	0.057334114
69	0xbdfcb113	-0.12338462
70	0xbe112d13	-0.1417735
71	0x3e4d00ea	0.2001988
72	0xbd1ad126	-0.037797116
73	0xbe1b3750	-0.15157819
74	0x3e8d0848	0.2754538
75	0xbd739c14	-0.05947502
76	0x3d8be3aa	0.06830533
77	0xbc64c0f2	-0.013962017
78	0x3e4d3407	0.20039378
79	0xbd74a114	-0.05972393
80	0xbca68f9f	-0.020332156
81	0xbd0e9e60	-0.034819007
82	0xbbc0cdd5	-0.005883912
83	0xbe06feda	-0.13183156
84	0xbcea837a	-0.028627146
85	0x3dadac3f	0.08480119
86	0x3d237ddb	0.039914947
87	0x3dc83705	0.09776119
88	0xbd32ead0	-0.043680966
89	0x3dd75572	0.10514344
90	0xbe8e0016	-0.2773444
91	0x3d12cb64	0.0358385
92	0x3d5a3118	0.053269476
93	0xbd235c73	-0.03988309
94	0xbe852946	-0.26008052
95	0xbe4ba58e	-0.19887373
96	0xbcf414e0	-0.02979511
97	0xbd4d752d	-0.050160576
98	0x3cce9368	0.025216773
99	0x3e223efe	0.15844342
100	0x3cba3648	0.022730961
101	0xbeb8311c	-0.35974967
102	0x3d34bdd3	0.044126343
103	0xbe01e32f	-0.1268432
104	0xbcb03c88	-0.021513239
105	0x3d6be5a7	0.05759206
106	0x3e13d637	0.14437185
107	0x3d3c21e6	0.045930766
108	0x3dfcd515	0.1234533
109	0x3db4d781	0.088301666
110	0x3ca89f7e	0.020583864
111	0xbe1eed8b	-0.15520303
112	0x3c9f6ed0	0.01946202
113	0x3e04e222	0.12976888
114	0x3d37c1ec	0.044862673
115	0x3e2df9b3	0.16989784
116	0x3e02df74	0.12780553
117	0x3d89c225	0.06726483
118	0xbd88697d	-0.06660745
119	0xbdfb4d7c	-0.12270638
120	0x3d902abc	0.07039401
121	0x3d9ad71d	0.07560561
122	0xbdbedbb3	-0.09319248
123	0x3c1e2198	0.009651564
124	0xbdc6f399	-0.09714431
125	0xbe42dd30	-0.19029689
126	0x3c264cb6	0.010150125
127	0x3e797346	0.2436038
128	0xbdb0f8a3	-0.08641174
129	0xbc982351	-0.018571528
130	0xbdc4bdae	-0.09606491
131	0x3da7f8a3	0.082017206
132	0xbe976936	-0.29572457
133	0x3d030553	0.0319875
134	0xba9aad40	-0.00118009
135	0xbda6e132	-0.08148421
136	0x3e044014	0.12915069
137	0xbc9a5a05	-0.018841753
138	0x3df31bc9	0.11870534
139	0xbcfa9755	-0.030589739
140	0x3e156852	0.14590576
141	0x3e585096	0.21124491
142	0x3e32d13c	0.17462629
143	0xbe229702	-0.15877917
144	0xbe070061	-0.13183738
145	0xbc20256b	-0.009774546
146	0xbdc05b22	-0.09392382
147	0x3d360230	0.04443568
148	0xbdb1e6f7	-0.08686631
149	0xbdc6f766	-0.09715156
150	0xb94b2363	-0.00019372771
151	0xbe1f8e0e	-0.15581533
152	0x3c8673e7	0.016412688
153	0xbc8bb815	-0.01705555
154	0x3e2c68ac	0.16836804
155	0x3d1bcf80	0.038039684
156	0xbdee2b71	-0.116293795
157	0x3d3aeb38	0.04563448
158	0xbd17bb68	-0.03704396
159	0xbd76b0cd	-0.060227204
160	0xbe77d17f	-0.2420101
161	0x3da2759a	0.07932587
162	0xbdac2b37	-0.0840668
163	0xbdd521c2	-0.104068294
164	0xbd5c3201	-0.053758625
165	0x3cc5ce55	0.024146238
166	0xbc8139ba	-0.015774596
167	0xbd9cd888	-0.076584876
168	0xbe2c7430	-0.16841197
169	0x3e063c6c	0.13108987
170	0xbd1f6239	-0.03891203
171	0xbdb9f21f	-0.09079384
172	0xbd84c7a7	-0.06483393
173	0xbd902b4b	-0.070395075
174	0x3d4a8b31	0.04944915
175	0xbe57db23	-0.21079688
176	0xbc27a3be	-0.01023191
177	0xbc6b378d	-0.014356506
178	0xbcdfdba2	-0.027326409
179	0x39c9e376	0.0003850718
180	0x3e536dd5	0.20647366
181	0x3d2bc5ff	0.04193687
182	0x3e72e98e	0.23721907
183	0xbe2f4dcd	-0.17119522
184	0xbe0a15ad	-0.13484831
185	0xbc8459d8	-0.016156122
186	0x3c6bb9ee	0.014387591
187	0x3d17a8a1	0.03702605
188	0x3d914804	0.07093814
189	0x3e2a1330	0.16608882
190	0x3c6218a8	0.013799824
191	0x3c45d4cb	0.01207466
192	0xbcba49b5	-0.022740224
193	0x3c2fe126	0.010734832
194	0x3da1499e	0.078753695
195	0xbe86f1b4	-0.2635628
196	0xbdaf765e	-0.085674986
197	0x3d79b116	0.060959898
198	0xbda5a949	-0.08088929
199	0xbd4111b1	-0.047136012
200	0xbd3547b7	-0.044257846
201	0x3e2d0259	0.16895427
202	0x3e08adbf	0.13347529
203	0x3e74475a	0.23855343
204	0x3d09e99f	0.033670064
205	0x3da16d8b	0.07882222
206	0xbdc8f2c4	-0.09811929
207	0xbd33bd15	-0.043881495
208	0xbde3f399	-0.11130447
209	0xbe0f87a4	-0.14016587
210	0x3e1faf79	0.15594281
211	0x3dc34c4b	0.09536036
212	0xba2e4e4c	-0.00066492404
213	0x3d8241b7	0.0636019
214	0xbe07dbab	-0.1326739
215	0xbe3cacee	-0.18425342
216	0xbd1873f6	-0.037219964
217	0x3e4beeeb	0.19915359
218	0x3c8e1a5e	0.017346557
219	0xbda02660	-0.078198195
220	0xbd1f596e	-0.038903646
221	0x3e1859ef	0.14878057
222	0x3aee3b4c	0.0018175631
223	0x3db0dffb	0.08636471
224	0xbe4a553c	-0.19759077
225	0x3e112366	0.1417366
226	0x3c7547f0	0.0149707645
227	0xbd4d4f10	-0.050124228
228	0xbe22a80b	-0.15884416
229	0xbe6579ce	-0.22409746
230	0x3dbc49bd	0.09193752
231	0xbd79b7a1	-0.060966138
232	0xbbc47731	-0.005995654
233	0x3db6e249	0.08929879
234	0x3e46fdae	0.19432709
235	0x3d26a5f7	0.04068562
236	0xbda78ce2	-0.08181168
237	0xbe2f937a	-0.17146102
238	0x393a5bee	0.00017772589
239	0x3d61b381	0.05510283
240	0xbdc508d6	-0.09620826
241	0xbd6af14c	-0.057359025
242	0xbd3226f5	-0.043494184
243	0x3e24e6df	0.16103695
244	0xbcda4253	-0.026642954
245	0x3caa3b76	0.020780306
246	0x3d22cfcf	0.039748963
247	0xbdb759c4	-0.08952668
248	0x3d98acae	0.07454811
249	0xbe0fe78e	-0.14053175
250	0xbe21fe36	-0.1581963
251	0xbddf93a5	-0.10916833
252	0xbb93daf9	-0.0045121876
253	0xbdeb21e2	-0.11481072
254	0xbe3c5d1a	-0.1839489
255	0x3d554d5d	0.052075732

l1/b f4 [256]
0	0xbd453817	-0.048149195
1	0xbe156b79	-0.14591779
2	0x3d120df3	0.035657834
3	0xbdfd77e8	-0.12376386
4	0xbc921558	-0.017832443
5	0xbbd8ba37	-0.0066139954
6	0xbe220ac0	-0.15824413
7	0x3ccd5deb	0.025069198
8	0xbba21770	-0.0049466416
9	0xbe829e25	-0.2551128
10	0x3e732d33	0.23747711
11	0x3e0bc891	0.13650729
12	0xbe3bf384	-0.18354613
13	0x3bbad6f5	0.0057018944
14	0xbe861409	-0.2618716
15	0xbd2ef9ed	-0.042718817
16	0xbd994991	-0.07484735
17	0x3dbcee5b	0.0922515
18	0x3d556cd1	0.05210573
19	0xbd7e2cd8	-0.062054485
20	0xbece12c0	-0.4024868
21	0x3df4df09	0.11956603
22	0xbdff4ad1	-0.12465442
23	0xbe0ded00	-0.1385994
24	0xbd960a16	-0.073261425
25	0x3c86086d	0.01636144
26	0x3baac570	0.0052115247
27	0x3d9b3de9	0.07580168
28	0x00000000	0.0
29	0xbc208a7f	-0.009798645
30	0x3cbc2332	0.022966001
31	0xbd116bcf	-0.035503205
32	0xbe6a63c2	-0.22889617
33	0x3d87bdce	0.06627999
34	0xbe83d596	-0.2574889
35	0xbc5edcf1	-0.013602481
36	0xbbbf2bb1	-0.005834066
37	0x3c5f67c6	0.013635581
38	0x3d75a0f7	0.05996796
39	0xbb66090e	-0.0035100612
40	0x3d96c217	0.073612384
41	0xbd13ed5d	-0.03611504
42	0xbe9822de	-0.29714102
43	0xbdf7422a	-0.12073167
44	0x3da1ffcf	0.0791012
45	0xbe0835d0	-0.13301778
46	0x3c29e672	0.010369884
47	0x3c91e8c3	0.017811185
48	0x3d224299	0.039614294
49	0x3d58bd20	0.05291474
50	0xbd75fa12	-0.06005294
51	0x3da0d113	0.07852378
52	0xbeee75e2	-0.46574312
53	0x3d3a674d	0.04550867
54	0xbd9f96ad	-0.07792411
55	0x3d10da60	0.03536451
56	0xbe7e91f1	-0.2486036
57	0x3cd6ccba	0.026220668
58	0xbcfecb7e	-0.031102892
59	0xbdcd985b	-0.10038825
60	0xbe0eceb6	-0.13946041
61	0x3d412fa7	0.047164585
62	0x3db8849e	0.0900967
63	0x3c23c333	0.00999527
64	0x3cf8979c	0.03034573
65	0x3bbf6643	0.005841048
66	0xbd39d365	-0.045367617
67	0x3bdae0e5	0.0066796415
68	0xbde628de	-0.112382635
69	0x3d1cb1ff	0.038255688
70	0x3c94e5f3	0.018176055
71	0xbddb642d	-0.107124664
72	0xbd0706c9	-0.032965455
73	0x3d91fa98	0.07127875
74	0xbd95367b	-0.07285782
75	0x3d896797	0.06709211
76	0xbdb89b44	-0.090139896
77	0xbce43123	-0.027855461
78	0xbce6c0e4	-0.02816815
79	0xbe1a9520	-0.15095949
80	0x3d3201fe	0.04345893
81	0x3b88a41a	0.004169953
82	0xbe75f786	-0.24020204
83	0x3c098335	0.008393099
84	0xbbc75182	-0.0060827145
85	0x3e0598e0	0.13046598
86	0xbd8a1b3e	-0.06743477
87	0x3ce68334	0.028138734
88	0xbdc406e2	-0.09571625
89	0xbe957763	-0.29192647
90	0xbec987ff	-0.3936157
91	0x3dd14c77	0.10219663
92	0xbdc3abae	-0.0955423
93	0x3e0e3409	0.13887037
94	0xbbb1f78f	-0.0054311226
95	0xbca6c864	-0.020359226
96	0xbe8de2b6	-0.2771203
97	0xbd7ef081	-0.06224108
98	0xbc653da9	-0.013991752
99	0x3d87b090	0.066254735
100	0x3c23345b	0.009961213
101	0xbc06227f	-0.008186935
102	0x3c859c7f	0.016309975
103	0x3d90d219	0.07071323
104	0xbdd4a95e	-0.10383867
105	0x3c3ba02d	0.011451763
106	0x3df63d59	0.1202342
107	0x3b984700	0.0046471357
108	0x3d930bec	0.07180008
109	0xbd76101f	-0.060073968
110	0xbbdaeab1	-0.0066808094
111	0xbdf7838e	-0.12085639
112	0x3dea616d	0.11444364
113	0x3d42bd70	0.047543943
114	0xbeb7e4fe	-0.35916895
115	0x3c3a5777	0.011373392
116	0x3de6b6bb	0.11265322
117	0xbd83b48e	-0.064309224
118	0x3cc52a00	0.024067879
119	0xbe9162ea	-0.28395778
120	0xbcae9f47	-0.021316184
121	0x3db45483	0.08805182
122	0xbd0ea5b8	-0.03482601
123	0x3b35a0ef	0.0027714332
124	0x3c792fe4	0.015209172
125	0xbb02b29e	-0.001994289
126	0x3d889a35	0.06670038
127	0x3e2faa0a	0.17154709
128	0x3ce15c38	0.027509794
129	0x3d501a08	0.050806075
130	0xbdd27247	-0.10275703
131	0x3e1b1dbd	0.15148063
132	0xbe6b25e4	-0.22963673
133	0x3cb3dbc4	0.021955378
134	0xbd11dbd1	-0.035610024
135	0xbe3d5a02	-0.18491367
136	0x3b4a5516	0.003087347
137	0xbd7899c5	-0.06069352
138	0xbdd7d78b	-0.105391584
139	0x3d9c5b22	0.0763457
140	0x3c82fb3d	0.01598894
141	0x3d53f105	0.051743526
142	0x3d4b24c9	0.049595628
143	0x3da9b6d2	0.08286823
144	0xbd045787	-0.032310035
145	0x3dad94c8	0.084756434
146	0x3daa94b6	0.083291456
147	0xbe90d998	-0.2829101
148	0x3d10dd5e	0.035367362
149	0x3d998218	0.074955165
150	0xbe467609	-0.19380964
151	0xbdeffaf5	-0.11717788
152	0x3c8679dc	0.016415529
153	0xbec17b9c	-0.3778962
154	0x3d508319	0.050906274
155	0xbc4809b7	-0.012209347
156	0x3e386ba5	0.18009813
157	0xbdff716e	-0.12472807
158	0x3e236d91	0.15959765
159	0xbc3bf826	-0.011472737
160	0xbc7692ee	-0.015049679
161	0x3c8d338c	0.017236494
162	0x3d8d8736	0.06910555
163	0xbceacd35	-0.028662303
164	0xbe1c5af3	-0.1526907
165	0xbe8f67a2	-0.28008753
166	0x3ddcd34d	0.1078249
167	0x3e052fe7	0.13006555
168	0xbd9f7349	-0.07785661
169	0xbd781464	-0.06056632
170	0x3db962cc	0.09052047
171	0xbe2af833	-0.16696243
172	0x3cd289ce	0.025700476
173	0x3c9601ec	0.018311463
174	0xbcd97206	-0.026543628
175	0xbe773762	-0.2414222
176	0xbeb80f41	-0.35949138
177	0x3cf7b731	0.03023872
178	0x3d4ee087	0.050507095
179	0xbe3edfb6	-0.18640026
180	0x3e17e9b6	0.14835247
181	0xbe642e97	-0.22283398
182	0xbe4ec749	-0.20193209
183	0xbd5b2f21	-0.053511743
184	0xbd6d194c	-0.057885453
185	0xbe90c3e0	-0.2827444
186	0xbe57b643	-0.21065621
187	0xbbe304cb	-0.0069280616
188	0x3956a164	0.00020468753
189	0x3d84eae9	0.06490118
190	0x3daf192f	0.08549725
191	0xbe9d382d	-0.3070692
192	0x3ce94d86	0.028479349
193	0xbd09249b	-0.033482175
194	0xba3768d2	-0.00069965154
195	0x3d03a655	0.03214105
196	0x3e4d9a72	0.20078447
197	0xbddb4f85	-0.107085265
198	0xbd366b7c	-0.0445361
199	0x3db019b7	0.08598655
200	0xbe09d70a	-0.13460937
201	0x3dea6aa1	0.11446119
202	0x3ce7a7bb	0.028278222
203	0x3d131ca8	0.035916
204	0x3db3cd42	0.08779384
205	0x3e2252a0	0.15851831
206	0x3c6a43ae	0.014298363
207	0x3e2540b0	0.16137958
208	0xbaa5201b	-0.0012598069
209	0x3dc34ce8	0.09536153
210	0xbe58735a	-0.21137753
211	0x3d62a4e7	0.055333044
212	0x3dc30d7e	0.09524058
213	0x3cc485f4	0.023989655
214	0xbe971850	-0.29510736
215	0x3dd4ef9e	0.10397266
216	0xbd869584	-0.065714866
217	0xbcdab6d2	-0.026698504
218	0x3d42ddde	0.04757487
219	0xbd0233a7	-0.03178754
220	0xbeb2b22f	-0.34901568
221	0x3d7dd39b	0.06196938
222	0x3cc50380	0.02404952
223	0x3d8b3b7e	0.067984566
224	0x3d267af7	0.040644612
225	0xbc24d98d	-0.010061634
226	0xbe3b2c1a	-0.18278542
227	0xbc3215e8	-0.010869481
228	0xbdd4fbfb	-0.10399624
229	0x3d146a6c	0.036234304
230	0x3df27c7b	0.11840149
231	0x3dad08c5	0.08448938
232	0xbdc55b47	-0.096365504
233	0xbe668a89	-0.22513784
234	0x3c93a1d3	0.0180215
235	0x3be5852d	0.007004401
236	0xbd9eb65d	-0.07749627
237	0x3d32dff2	0.043670602
238	0xbdd1b649	-0.10239846
239	0xbcb03066	-0.021507453
240	0x3dee7442	0.11643268
241	0xbe49cd71	-0.19707276
242	0xbcbe9c55	-0.023267904
243	0x3d7f2ac8	0.06229666
244	0xbdbd1192	-0.09231867
245	0x3d458a94	0.04822786
246	0xbe1dfdda	-0.15428868
247	0xbd5696b2	-0.052389808
248	0xbc6d8ddc	-0.014499154
249	0x3dd6c3f5	0.104865946
250	0xbdb71e96	-0.08941381
251	0x3c23fec8	0.010009475
252	0xbeb2760a	-0.34855682
253	0xbe8f8628	-0.2803204
254	0xbdc777e4	-0.09739664
255	0xbe36cba6	-0.17851123

l3/b f4 [256]
0	0x3dd6b3f8	0.10483545
1	0xbcc2a49a	-0.023760129
2	0xbd320d65	-0.043469805
3	0xbd358110	-0.044312537
4	0xbda2e12a	-0.07953103
5	0x3d7fe70b	0.0624762
6	0xbcb44b81	-0.02200866
7	0xba9ea935	-0.0012104871
8	0xbd2dfa4f	-0.04247504
9	0x3c403dd6	0.011733493
10	0x3ceb63df	0.028734146
11	0xbc895f66	-0.016769122
12	0x3d67ba5e	0.056574218
13	0xbd8d309d	-0.06894038
14	0x3d522dc8	0.05131319
15	0x3ce38f3e	0.027778264
16	0xbcdb8022	-0.026794497
17	0xbd8c48a6	-0.06849794
18	0x3c29aa05	0.010355477
19	0x3d7b2b78	0.061320752
20	0x3d2a41f4	0.041566804
21	0xbdb14b58	-0.08656949
22	0xbd48ac04	-0.048992172
23	0xbcbdc452	-0.023164902
24	0x3cc53be7	0.024076415
25	0x3d85b52a	0.06528695
26	0x3d2eaba6	0.042644165
27	0xbdc04a67	-0.09389191
28	0x3ce08141	0.027405383
29	0xbce9853d	-0.028505916
30	0x3d48e0dd	0.04904257
31	0xbd4df15e	-0.050279014
32	0xbd154be6	-0.036449336
33	0xbdde9ee1	-0.108701475
34	0xbd8a03ac	-0.067389816
35	0x3d259048	0.0404208
36	0xbdd2407f	-0.10266208
37	0x3d79c0cd	0.060974885
38	0xbba67740	-0.0050801337
39	0xbda3ceaa	-0.079984024
40	0x3dd55671	0.10416878
41	0x3dc79d0a	0.0974675
42	0x3b9df299	0.0048201797
43	0x3cf65d58	0.030073807
44	0xbcc6d6ac	-0.024272285
45	0xbb9497a1	-0.004534677
46	0xbd5962d3	-0.05307276
47	0xbc6983f7	-0.014252654
48	0x3da44b60	0.08022189
49	0xbd962c75	-0.07332698
50	0xbd6d5ab8	-0.057947844
51	0x3d1935fa	0.03740499
52	0xbc541a14	-0.012945671
53	0x3ddf392b	0.10899576
54	0xbbebd74c	-0.0071972962
55	0x3c7bce7f	0.015369057
56	0xbc359f11	-0.011085288
57	0xbb9b175f	-0.0047330107
58	0x3d061476	0.032734357
59	0xbdf8156a	-0.121134594
60	0x3be10712	0.006867298
61	0xbbef35ec	-0.007300129
62	0xbd1edf6e	-0.038787298
63	0xbda5839f	-0.08081745
64	0xbd2e6308	-0.042574912
65	0x3c1afdc1	0.009459914
66	0xbd85f232	-0.06540336
67	0xbcaf7be0	-0.021421373
68	0xbd3a9124	-0.045548573
69	0x3d6bad7f	0.057538506
70	0x3d18a63f	0.03726792
71	0xbd526c1b	-0.05137263
72	0xbd927dbd	-0.07152889
73	0xbd11e8d7	-0.035622444
74	0xbd90eefb	-0.07076832
75	0x3d352aed	0.04423039
76	0xbcdf037b	-0.02722334
77	0x3d768838	0.060188502
78	0x3d0ba109	0.034089122
79	0xbce0cf2b	-0.027442535
80	0x3d61ab76	0.05509516
81	0xbcb4293f	-0.021992324
82	0x3caea60d	0.021319414
83	0xbe0007fb	-0.12503044
84	0x3b7ae11c	0.0038281148
85	0x3d09d133	0.033646774
86	0xbd1fc3d3	-0.039005112
87	0x3c250687	0.010072357
88	0xbd74b0f4	-0.05973907
89	0xbdc18b15	-0.09450356
90	0xbda2da6a	-0.079518154
91	0xbc8f79b2	-0.017514084
92	0x3d8569d4	0.06514326
93	0xbc267b00	-0.010161161
94	0x3da6db04	0.08147243
95	0xbc762fc7	-0.015026039
96	0xba890147	-0.0010452651
97	0x3d03d874	0.032188848
98	0x3c858725	0.016299793
99	0xba9a745c	-0.0011783945
100	0x3cb3386d	0.021877492
101	0xbc0654f5	-0.008198966
102	0xbd5b4b12	-0.05353839
103	0xbd49aa20	-0.04923451
104	0xbd1db0c8	-0.03849867
105	0xbd962d31	-0.07332838
106	0xbd35a54d	-0.044347096
107	0xbcb6a281	-0.022294285
108	0xbd1b5541	-0.0379231
109	0x3d61dfce	0.055145077
110	0xbd65a34e	-0.056063943
111	0x3cc15245	0.0235988
112	0xbde01abd	-0.109426
113	0xbdb39335	-0.08768312
114	0xbd404620	-0.046941876
115	0xbcaa599b	-0.02079468
116	0xbd169c63	-0.036770236
117	0xbd2d982b	-0.042381447
118	0xbc0d7ef0	-0.008636221
119	0x3c92e9d6	0.017933767
120	0xbcf28ced	-0.029608214
121	0xbc857fd0	-0.016296297
122	0x3d35c6ee	0.044379167
123	0xbd472031	-0.048614684
124	0x3c981b45	0.01856769
125	0xbcf680a9	-0.030090647
126	0xbd3ef0cc	-0.04661636
127	0xbd07785c	-0.033073768
128	0xbcbf87ff	-0.023380278
129	0xbcea728c	-0.028619073
130	0x3d4b9dc7	0.049711015
131	0xbc1287d9	-0.008943521
132	0xbc8d5bec	-0.017255746
133	0x3d339805	0.04384615
134	0xbdea9748	-0.11454636
135	0x3da94c02	0.082664505
136	0xbcf35da8	-0.029707745
137	0xbd3e71e4	-0.046495333
138	0x3d8fd24d	0.070225336
139	0xbc07fe2d	-0.008300346
140	0x3c071f8f	0.00824727
141	0xbd4c029d	-0.04980718
142	0x3bd2f1d3	0.006437519
143	0x3d76d8f3	0.060265493
144	0xbc58314d	-0.013195348
145	0x3b4a03c0	0.003082499
146	0xbc49481b	-0.012285258
147	0xbc60e6f5	-0.013726939
148	0xbd10523c	-0.035234675
149	0x3d36ac8c	0.044598147
150	0xbb232518	-0.0024893936
151	0xbcd0fa17	-0.025509877
152	0xbbc3a738	-0.0059708618
153	0x3d08aa25	0.033365387
154	0xbc1bf774	-0.009519447
155	0xbd88ced4	-0.06680074
156	0xbe086f6c	-0.13323754
157	0xbbbab3ec	-0.005697718
158	0x3cacf121	0.021111073
159	0xbd0f2be4	-0.034953967
160	0xbcf1b25f	-0.029504
161	0xbc6edc0f	-0.014578833
162	0xbcc0022f	-0.023438541
163	0xbcf2b12f	-0.029625503
164	0xbd5086c7	-0.050909784
165	0xbceff710	-0.029292613
166	0xbc6d1795	-0.014470954
167	0x3beb4a60	0.007180497
168	0x3d90fdb3	0.07079639
169	0xbd543c5c	-0.051815376
170	0xbc608788	-0.013704188
171	0xbd4a967f	-0.04945993
172	0xbd5a0de4	-0.053235903
173	0xbce072ea	-0.027398545
174	0xbdb60ef1	-0.088895686
175	0xbb9b038c	-0.0047306474
176	0x3d921a54	0.07133928
177	0xbc5edc1c	-0.013602283
178	0xbd4bcbe7	-0.049755003
179	0xbd431fea	-0.047637857
180	0xbdcbfe10	-0.09960568
181	0xbd4b7e8f	-0.049681243
182	0xbd2e90ba	-0.04261849
183	0xbc04bdfe	-0.008101938
184	0xbcfbe291	-0.030747684
185	0x3c2dc781	0.0106066475
186	0xbb1e6195	-0.002416705
187	0xbdd489d5	-0.10377852
188	0xbd5a3398	-0.05327186
189	0xbcfc38c7	-0.030788792
190	0x3d007e93	0.03137071
191	0xbd509232	-0.050920673
192	0x3cedc1d0	0.029023081
193	0x3ced4ce7	0.028967334
194	0xbc53c35d	-0.012924996
195	0xbc839165	-0.01606054
196	0xbd2e80fd	-0.04260348
197	0xbd0f4774	-0.034980252
198	0xbd73bac0	-0.05950427
199	0xbd155a97	-0.036463346
200	0xbcfabd0b	-0.03060772
201	0xbb1f5071	-0.0024309421
202	0xbce2359b	-0.027613452
203	0xbbbdc2a1	-0.005791024
204	0x3cf92da7	0.030417277
205	0x3db025fa	0.086009935
206	0xbb8a17f8	-0.004214283
207	0xba94f2e8	-0.0011363896
208	0x3d4c4efb	0.04988001
209	0x3c5b4328	0.0133827105
210	0xbc7a61da	-0.015282119
211	0xbd7ed4a2	-0.0622145
212	0x3dabcb71	0.08388413
213	0xbd491fb1	-0.04910249
214	0xbd53b7a0	-0.05168879
215	0xbc0a4596	-0.008439442
216	0xbcec36df	-0.028834758
217	0x3d0b9eaa	0.03408686
218	0x3ccda7d1	0.025104435
219	0xbdb07662	-0.0861633
220	0xbd06044c	-0.03271894
221	0xbcc8d2c6	-0.024514567
222	0xbd575079	-0.05256698
223	0x3d2cd875	0.042198617
224	0xbcd376c7	-0.025813473
225	0xbd72046e	-0.059086256
226	0x3da1b37c	0.07895562
227	0xbdc06ce8	-0.09395772
228	0xbcd5f555	-0.02611796
229	0xbb283dfa	-0.0025671707
230	0xbcda0c6a	-0.026617248
231	0x3d16eefb	0.036849003
232	0x3cf32168	0.029679015
233	0xbdc71d36	-0.097223684
234	0x3cd48707	0.025943292
235	0x3da16beb	0.07881912
236	0xbd4df534	-0.050282672
237	0xbb8a1b1c	-0.0042146575
238	0xbdf71a14	-0.12065521
239	0xbd1a05f4	-0.037603334
240	0xbd272c19	-0.04081354
241	0x3b0b5ad3	0.0021263852
242	0x3d491c45	0.049099226
243	0x3d31ab0b	0.04337601
244	0x3dc4aa3a	0.09602781
245	0xbda18a19	-0.07887668
246	0x3d220f28	0.039565235
247	0x3cb1c7aa	0.021701653
248	0xbd2eb359	-0.042651508
249	0x3c1308d0	0.008974269
250	0xbcfbf27b	-0.030755272
251	0x3d3dd1d9	0.046342704
252	0xbc68614c	-0.014183354
253	0x3cc810b5	0.024422029
254	0xbd7865ba	-0.06064389
255	0x3c92d808	0.017925277

l4/b f4 [16]
0	0xbe0e61ed	-0.13904543
1	0xbe7a244c	-0.24427909
2	0xbde3e450	-0.111275315
3	0xbe18082f	-0.14846872
4	0xbda885fb	-0.0822868
5	0xbe7f2722	-0.24917272
6	0xbe5c0b3a	-0.21488658
7	0xbdc30ed3	-0.09524312
8	0xbda03569	-0.07822687
9	0xbe5c5095	-0.21515115
10	0xbe5a3ab6	-0.21311459
11	0xbe0f30f1	-0.13983513
12	0xbd7067cb	-0.058692735
13	0xbd62f58f	-0.055409964
14	0xbdc39af0	-0.09551036
15	0xbd963bc4	-0.07335618
