examples/ch4/reversi_DQN_DNN/agent_white_18000/target_model.npz (npz, 522157 bytes, 8 tensors)

l2/b f4 [256]
-0.06761779 0.037264753 0.02944185 0.02192599 -0.014085479 -0.088558614 0.019169351 0.026218578
-0.0011764093 0.020983672 -0.08870879 0.011507716 0.04602983 -0.038215876 -0.006787548 0.017344857
-0.06473141 -0.08722153 0.027689675 0.010265486 0.024428468 0.09432436 0.10874414 0.025221333
-0.023067191 0.13371195 0.028606685 0.024955539 -0.056436773 -0.06396252 -0.022239305 0.042746376
0.006734135 -0.047649924 0.059110783 -0.03169716 -0.03470825 -0.00695157 0.02348577 -0.008546256
-0.12785015 0.0021208713 0.0061594183 0.0662529 -0.03704044 -0.0056128763 0.004268759 -0.119899176
-0.054196864 0.043564755 0.059804995 -0.022150278 -0.011780189 -0.019192232 -0.014580163 0.015438848
-0.015948806 0.008545109 -0.09534694 0.01660963 -0.051222898 0.018048182 -0.052493416 0.058953952
-0.02900633 0.0074844663 -0.005768076 0.025925633 0.009303371 0.05234314 0.057646144 0.080123164
0.008769511 0.04599478 -0.0151565345 -0.02123313 -0.025034249 0.047083605 -0.016043179 -0.055621676
0.010956829 0.0010641775 -0.019355776 -0.030781597 -0.06738828 -0.0111448625 -0.10734576 0.04205653
-0.07560145 -0.02035463 0.057599794 -0.042149153 -0.016600529 0.0040875287 -0.033800118 -0.06105369
0.13306981 -0.09920444 -0.08295867 -0.08015113 0.0056958105 -0.034711383 0.04989995 -0.0066860537
0.07798692 0.0038507788 0.0075670015 -0.065860726 -0.020548698 -0.007145715 -0.028580101 -0.00957409
-0.06650979 0.045677096 -0.027272763 -0.028686972 -0.07749948 -0.017177971 -0.025852578 0.024624212
0.009411755 0.011968168 0.04979491 -0.0067386394 0.053204656 -0.0532978 -0.04136897 -0.07065776
-0.09252924 0.0145861255 -0.004179839 -0.02139603 0.06051774 -0.099764355 -0.013687974 -0.0021890851
0.0803362 -0.023368966 -0.016687324 -0.0214642 0.0025556416 0.039604127 -0.013486774 0.041632798
0.0692599 -0.03885098 -0.06818809 -0.04873709 -0.0053705536 0.035904262 -0.022938367 0.007964384
0.038650405 -0.077170186 -0.034935273 -0.06255816 -0.093919545 -0.061386544 -0.03644379 -0.07385474
-0.01750683 0.020106813 -0.015144383 0.014405807 -0.062231325 0.025237013 -0.054092295 0.04318491
0.03960015 -0.03483461 -0.021393977 0.018990718 0.040164776 0.014719734 0.032352135 -0.050080497
0.0003284586 0.062925145 -0.027940376 0.037416037 -0.023172567 -0.06485293 -0.02327088 0.010296525
-0.025132908 -0.054932695 -0.1074373 0.043922137 0.04113932 0.018214261 -0.08060618 -0.01916695
0.062437985 -0.048246067 0.051683135 0.00646883 -0.058623474 -0.0802253 -0.05718898 -0.08130753
-0.029098844 0.06405896 -0.016719809 0.020630995 0.07313124 -0.013552114 -0.002902638 -0.0153419105
-0.077462494 -0.043893665 0.00078513636 -0.06585936 -0.08599856 -0.10439068 -0.018095048 -0.05327663
0.06749724 0.09190423 -0.009297743 -0.059315685 0.030083625 -0.05880554 -0.019984376 -0.024826169
0.005577527 0.0662174 -0.08439978 -0.04147048 0.005492854 -0.05335397 -0.027430037 -0.0389748
0.013695344 -0.024020072 -0.029096188 0.075577974 0.08532676 0.006330645 -0.01964258 0.015859647
-0.012170885 0.08315354 0.0789665 -0.036538668 -0.041857827 -0.061812826 -0.011929778 -0.018451925
-0.03670795 0.006149114 -0.011813971 0.059988495 0.029694881 0.041872527 -0.05664705 -0.07119012
00000000: 327b 8abd eda2 183d 0930 f13c 229e b33c
00000010: c8c6 66bc 385e b5bd 0b09 9d3c 58c8 d63c
00000020: bf31 9aba f3e5 ab3c f4ac b5bd dc8a 3c3c
00000030: c689 3c3d 4088 1cbd 146a debb cd16 8e3c
00000040: e791 84bd 34a1 b2bd 75d5 e23c 9230 283c
00000050: 361e c83c 212d c13d 3fb5 de3d f89c ce3c
00000060: 68f7 bcbc c9eb 083e 9158 ea3c 8f6f cc3c
00000070: 3f2a 67bd c8fe 82bd 342f b6bc d316 2f3d
00000080: 05aa dc3b 912c 43bd 261e 723d e2d4 01bd
00000090: 3d2a 0ebd ffc9 e3bb 3b65 c03c 9905 0cbc
000000a0: 26eb 02be 51fe 0a3b f2d4 c93b 9aaf 873d
000000b0: b7b7 17bd 38ec b7bb f2e0 8b3b b38d f5bd
000000c0: 88fd 5dbd f570 323d 15f6 743d 8074 b5bc
000000d0: b201 41bc 0739 9dbc a3e1 6ebc 39f3 7c3c
000000e0: 12a7 82bc c900 0c3c 4245 c3bd eb10 883c
000000f0: 1acf 51bd c8d9 933c 5603 57bd b379 713d
00000100: af9e edbc 4140 f53b 2102 bdbb fe61 d43c
00000110: 2b6d 183c c365 563d 5d1e 6c3d 9d17 a43d
00000120: ffad 0f3c 0665 3c3d 1d53 78bc 1af1 adbc
00000130: a014 cdbc bdda 403d fc6c 83bc 8ed3 63bd
00000140: 4684 333c df7b 8b3a 0190 9ebc b029 fcbc
00000150: de02 8abd f198 36bc 18d8 dbbd 7843 2c3d
00000160: efd4 9abd c1be a6bc c3ed 6b3d 97a4 2cbd
00000170: d5fd 87bc adf0 853b fe71 0abd 6f13 7abd
00000180: 7443 083e b32b cbbd 3ce6 a9bd 4726 a4bd
00000190: eca3 ba3b 862d 0ebd e463 4c3d af16 dbbb
000001a0: 9bb7 9f3d 595d 7c3b 9cf4 f73b fde1 86bd
000001b0: be55 a8bc 9a26 eabb d120 eabc a5dc 1cbc
000001c0: 4936 88bd e817 3b3d 216b dfbc f100 ebbc
000001d0: 0cb8 9ebd d1b8 8cbc c9c8 d3bc b7b8 c93c
000001e0: c333 1a3c 2316 443c bff5 4b3d cecf dcbb
000001f0: 20ed 593d cb4e 5abd 8272 29bd 04b5 90bd
00000200: f87f bdbd a5fa 6e3c 08f7 88bb ba46 afbc
00000210: 73e1 773d 4151 ccbd 8643 60bc c176 0fbb
00000220: 4e87 a43d 4670 bfbc dbb3 88bc b1d5 afbc
00000230: 8d7c 273b f037 223d a1f7 5cbc 2787 2a3d
00000240: 22d8 8d3d 3522 1fbd 33a6 8bbd 8ba0 47bd
00000250: 78fb afbb 5910 133d 3ee9 bbbc 0c7d 023c
00000260: e34f 1e3d 670b 9ebd 4a18 0fbd 7e1e 80bd
00000270: e458 c0bd 7570 7bbd 1546 15bd 2741 97bd
00000280: 7c6a 8fbc 0bb7 a43c 2520 78bc 5506 6c3c
00000290: 46e6 7ebd dabd ce3c e28f 5dbd a9e2 303d
000002a0: c433 223d bcae 0ebd 6c42 afbc 6c92 9b3c
000002b0: d283 243d 0a2b 713c ac83 043d 3521 4dbd
000002c0: f834 ac39 e6de 803d 37e3 e4bc 8f41 193d
000002d0: 65d4 bdbc 9dd1 84bd 93a2 bebc c2b2 283c
000002e0: 87e3 cdbc 1b01 61bd 1608 dcbd b3e7 333d
000002f0: b481 283d 1336 953c da14 a5bd 0204 9dbc
00000300: f9be 7f3d ab9d 45bd b2b1 533d 7bf8 d33b
00000310: 2b1f 70bd 294d a4bd fe3e 6abd 9084 a6bd
00000320: b360 eebc 5831 833d fbf7 88bc 5502 a93c
00000330: d5c5 953d b009 5ebc 2f3a 3ebb a35c 7bbc
00000340: a8a4 9ebd d8c9 33bd 9cd1 4d3a 46e1 86bd
00000350: 0320 b0bd c8ca d5bd 113c 94bc 9838 5abd
00000360: fe3b 8a3d 4938 bc3d 9055 18bc 01f5 72bd
00000370: ef71 f63c 14de 70bd 46b6 a3bc 4060 cbbc
00000380: b0c3 b63b fd9c 873d cbd9 acbd f3dc 29bd
00000390: 66fd b33b b189 5abd f5b4 e0bc 0aa4 1fbd
000003a0: 7062 603c bec5 c4bc 215b eebc a0c8 9a3d
000003b0: ccbf ae3d 4d71 cf3b 7ae9 a0bc 17ec 813c
000003c0: 6468 47bc 674c aa3d 30b9 a13d 92a9 15bd
000003d0: 1d73 2bbd 722f 7dbd 1e75 43bc 7e28 97bc
000003e0: 135b 16bd 827e c93b 638f 41bc 7fb6 753d
000003f0: ae42 f33c 8782 2b3d bd06 68bd 20cc 91bd

l1/W f4 [256, 16]
0.1690286 -0.39980838 0.20355861 0.3404626 -0.44668475 -0.28032815 0.27066663 0.49025914
-0.20050183 -0.5432995 0.59179866 -0.2801676 0.039495014 -0.25306773 0.47550952 0.019516084
0.42654282 -0.48434514 0.111741155 -0.3732788 -0.03334574 -0.5467972 -0.17232054 0.22282898
0.39832723 -0.5863682 0.55451494 -0.0056528267 0.84352547 0.23585565 0.1597894 -0.14169888
-0.26314104 -0.3856579 -0.41759804 0.15171275 -0.048725743 0.001970884 -0.15292381 0.3247475
-0.35767797 -0.013184226 -0.39121377 0.016171 -0.20556353 0.07864146 -0.18180037 0.87002075
0.18441656 -0.54739577 -0.21272384 0.04480101 -0.14610685 -0.47429892 0.66148686 -0.34078652
0.6550799 0.681743 0.21026309 -0.65726036 -0.3371089 -0.5074223 0.13699119 0.66957104
-0.012974215 0.16635162 -0.38136467 -0.20432904 -0.07192968 -0.20113897 0.42364165 0.88199264
-0.08285954 -0.08515029 0.21180955 -1.1114602 0.0007948075 0.45901126 -0.42163086 -0.400276
0.4490469 -0.3885791 -0.2623827 0.17194289 -0.14570993 -0.80575335 0.44282877 0.52411044
-0.479071 0.46794197 -0.3148776 0.19155109 0.370582 -0.51521486 0.14193678 0.49197805
0.017637184 0.017901538 0.024643265 0.59584457 -0.77631027 0.2258447 0.6350979 -0.034679517
0.11390546 -0.16365413 -0.0659311 -0.034204017 0.1524964 -0.41188344 0.17775467 0.1609851
0.52058303 -0.026047423 0.20865136 0.106549636 -0.20292503 -0.4174976 -0.9658926 -0.47341004
-0.1212295 0.12416945 0.20472954 0.17755753 0.17496042 0.4725834 0.15062983 0.12482677
-0.5146142 -0.4787552 0.08585301 0.6457704 0.06731214 -0.22913575 0.49600315 -0.2282956
-0.2736637 0.5478913 -0.31941205 0.2754036 -1.003912 0.024030766 0.14448994 -0.09951561
0.17239629 0.07323085 -0.46564022 0.006561421 0.5098334 0.24421643 0.27929485 -0.20220478
0.07996295 -0.31557584 -0.42476034 -0.2627585 0.6862672 0.583141 -0.077848375 0.0006733783
0.6997963 0.016745852 -0.031468462 -0.46623328 0.15771031 -0.19255745 -0.14846814 0.060928207
-0.8826296 -0.1303821 0.20158589 -0.47851047 0.7314024 -0.20157695 0.10428697 -0.20100494
-0.45108658 -0.9079041 0.36624357 -0.3266149 0.765628 -0.2587608 0.15275349 0.8773768
0.08082308 0.37363368 -0.21838395 0.1168152 -0.47742543 -0.38481736 -0.6250582 -0.11863107
0.08255783 0.3122648 0.107894845 0.15139458 -0.09329268 -0.21630664 0.006148372 -0.039652117
0.020163855 -0.31864765 0.019795315 -0.14237338 0.04006645 -0.026943604 -0.2818274 0.54191405
-0.017829966 -0.017403305 -0.59491724 -0.21460438 -0.42383733 0.013887225 -0.61741287 0.10298903
-0.1943082 -0.69164455 0.23521231 -0.21055374 -0.66551316 0.38780946 0.6320855 0.03484557
-0.7564497 -0.28899083 0.11266513 -0.2582424 0.054629784 0.44909716 0.17307466 -0.07807916
0.44165355 0.3340434 0.21997559 0.22915879 -0.6768528 0.17846464 0.1769981 -0.50962955
-0.2056351 -0.090749584 0.60764855 0.2629747 0.10722934 -1.3287685 -0.11387559 -0.5443454
0.3888455 0.004816593 0.5828389 0.42492142 -0.26994643 -0.28575665 0.32879573 0.34236348
00000000: d515 2d3e afb3 ccbe ab71 503e 1d51 ae3e
00000010: ddb3 e4be 2c87 8fbe d194 8a3e 3f03 fb3e
00000020: 5a50 4dbe ad15 0bbf 1e80 173f 2172 8fbe
00000030: 86c5 213d 1892 81be fc75 f33e 32e0 9f3c
00000040: d263 da3e 16fc f7be 8cd8 e43d 661e bfbe
00000050: 8b95 08bd e7fa 0bbf cc74 30be 482d 643e
00000060: 8cf1 cb3e 3a1c 16bf b1f4 0d3f 593b b9bb
00000070: 49f1 573f 2584 713e d59f 233e 8319 11be
00000080: 6cba 86be f474 c5be 69cf d5be 965a 1b3e
00000090: a594 47bd f229 013b 0f98 1cbe 4e45 a63e
000000a0: 9121 b7be a702 58bc 2c4d c8be 0c79 843c
000000b0: 3f7f 52be c60e a13d e029 3abe aeb9 5e3f
000000c0: b2d7 3c3e 2122 0cbf 47d4 59be 4481 373d
000000d0: 099d 15be 4fd7 f2be 3457 293f 927b aebe
000000e0: 51b3 273f b686 2e3f 354f 573e 3742 28bf
000000f0: 8a99 acbe 6ee6 01bf 6b47 0c3e 0269 2b3f
00000100: cd91 54bc 1458 2a3e 3b42 c3be a23b 51be
00000110: de4f 93bd 60f7 4dbe 8fe7 d83e 45ca 613f
00000120: 43b2 a9bd 4663 aebd 9ae4 583e 5444 8ebf
00000130: a15a 503a 8603 eb3e 00e0 d7be faf0 ccbe
00000140: 7ae9 e53e d7f3 c6be 0657 86be cc11 303e
00000150: fc34 15be da45 4ebf 74ba e23e 1a2c 063f
00000160: cb48 f5be 1796 ef3e a337 a1be f825 443e
00000170: edbc bd3e 1fe5 03bf e057 113e 8ce4 fb3e
00000180: db7b 903c 3fa6 923c ace0 c93c 4589 183f
00000190: 45bc 46bf d543 673e c795 223f 1c0c 0ebd
000001a0: 4447 e93d f394 27be e206 87bd 8319 0cbd
000001b0: 0428 1c3e 63e2 d2be 5205 363e 47d9 243e
000001c0: ee44 053f 6861 d5bc b4a8 553e b236 da3d
000001d0: 94cb 4fbe 3fc2 d5be bd44 77bf cd62 f2be
000001e0: 2c47 f8bd 8d4c fe3d 9fa4 513e a4d1 353e
000001f0: d328 333e 74f6 f13e b53e 1a3e 2da5 ff3d
00000200: c2bd 03bf 671f f5be b4d3 af3d 3551 253f
00000210: f2da 893d 90a2 6abe 20f4 fd3e 52c6 69be
00000220: a61d 8cbe 9b42 0c3f fa89 a3be b301 8d3e
00000230: 3080 80bf 2bdc c43c 2cf5 133e d7ce cbbd
00000240: a788 303e 0efa 953d 6568 eebe 3001 d73b
00000250: 7184 023f df13 7a3e bcff 8e3e c50e 4fbe
00000260: 9dc3 a33d 2893 a1be 307a d9be 4888 86be
00000270: 35af 2f3f bb48 153f f86e 9fbd a785 303a
00000280: da25 333f 992e 893c 13e5 00bd 21b6 eebe
00000290: d07e 213e c82d 45be 0808 18be db8f 793d
000002a0: 03f4 61bf e382 05be 886c 4e3e 53ff f4be
000002b0: 303d 3b3f 306a 4ebe 6894 d53d 3dd4 4dbe
000002c0: d2f4 e6be 676c 68bf 4784 bb3e 113a a7be
000002d0: 3200 443f 4c7c 84be 696b 1c3e c49b 603f
000002e0: 9286 a53d ea4c bf3e 0ba0 5fbe cf3c ef3d
000002f0: 1b71 f4be c806 c5be d003 20bf d9f4 f2bd
00000300: 1414 a93d 2ce1 9f3e f9f7 dc3d 2e07 1b3e
00000310: 3c10 bfbd 7d7f 5dbe 4878 c93b 426a 22bd
00000320: ab2e a53c c925 a3be c929 a23c 54ca 11be
00000330: b81c 243d d5b8 dcbc ae4b 90be e1ba 0a3f
00000340: 2610 92bc 6091 8ebc 7f4c 18bf 40c1 5bbe
00000350: 3501 d9be 3e87 633c c50e 1ebf eaeb d23d
00000360: bbf8 46be 9e0f 31bf 7fdb 703e 669b 57be
00000370: 125f 2abf f68e c63e 5bd0 213f 3aba 0e3d
00000380: b0a6 41bf 9bf6 93be fabc e63d 5938 84be
00000390: 7bc3 5f3d 10f0 e53e 7c3a 313e f7e7 9fbd
000003a0: 6a20 e23e bd07 ab3e 4841 613e 9aa8 6a3e
000003b0: 3a46 2dbf 6fbf 363e fd3e 353e 1577 02bf
000003c0: 0292 52be ebda b9bd db8e 1b3f 9fa4 863e
000003d0: 0e9b db3d 1615 aabf 9b37 e9bd 385a 0bbf
000003e0: c216 c73e 83d4 9d3b ee34 153f 4d8f d93e
000003f0: 6b36 8abe b24e 92be ea57 a83e 444a af3e

l3/W f4 [256, 256]
-0.031258192 -0.21300314 0.11188151 -0.07622509 -0.024988022 -0.1923961 -0.11916651 -0.034155197
-0.090513684 0.017601093 -0.13604638 -0.017307851 0.14223288 -0.05822242 0.17681988 0.12156859
-0.13314077 -0.017977074 -0.18412665 0.0048464304 0.069735244 -0.019351654 0.21523897 0.006681413
0.038513992 -0.18655433 -0.00027998205 0.013838256 0.08766611 -0.09731938 0.088554375 -0.084929496
0.048879948 -0.09203597 0.039239645 0.066295266 -0.02632703 0.060341876 0.13387343 0.07886109
-0.17433721 -0.071598776 -0.12145851 -0.036987264 0.022667065 0.08662821 -0.09742816 0.008915627
-0.07241099 0.15629914 -0.09799815 0.04853135 0.12591545 -0.02807525 0.116773255 0.053563446
0.110100046 -0.1447591 -0.050106533 0.06152502 -0.15986621 -0.016242398 -0.12334885 0.09453626
0.0010940873 -0.044072382 -0.052179985 0.41550308 -0.075139455 -0.0975477 0.06882064 -0.071063
-0.011965045 0.0950651 0.10929783 0.10810922 0.036180392 0.04514714 -0.26335955 -0.054930657
-0.028518504 -0.20052692 -0.11572811 0.020365799 0.06542473 0.022344625 -0.15113117 -0.079491444
0.15179971 0.1423272 -0.028245658 0.057426386 0.20165777 0.015948124 -0.041446783 -0.056950856
0.19374655 -0.070086196 -0.11360696 0.048455693 0.21021454 -0.02875057 0.07088937 -0.11954005
0.12678337 -0.13038532 0.15051928 -0.007408369 -0.13776657 -0.08292129 -0.12452587 -0.01776094
-0.04242896 -0.18143189 0.028586926 -0.01309046 -0.026205376 -0.11669937 -0.09315773 0.058084648
-0.13538189 -0.08932097 0.056503 0.043242007 -0.05186062 -0.14154397 -0.18647641 -0.1332076
-0.03651935 -0.16274358 0.051818166 0.19541883 -0.10982964 0.008239924 0.08578727 0.04459941
-0.14969395 0.086894386 0.1351016 0.047634136 -0.052354094 0.013148721 0.10270508 -0.068736024
-0.013670311 -0.034435023 -0.09484851 -0.008527275 0.013962875 -0.062363364 0.15383793 -0.0070490083
-0.25263098 0.00042023492 -0.07498809 -0.120938934 -0.014599344 -0.06668449 0.0264673 0.0058223773
0.09967576 0.14678304 -0.042758383 0.104056954 -0.07306076 -0.0020305072 -0.075308755 0.10502887
-0.044872217 0.20770158 0.03659921 0.029809725 -0.13833472 -0.012683821 0.073906064 -0.07185696
0.048155434 0.016065538 -0.028070224 0.08852472 0.031073485 -0.0446748 -0.08178981 -0.035787437
0.009968486 -0.19554107 0.117041275 0.09237788 -0.13297227 -0.15867206 0.13314542 0.14935213
0.04634358 -0.052430693 0.12040424 -0.07413435 -0.19132636 -0.371822 0.07455712 0.12714735
-0.056447096 0.09535763 -0.07768943 -0.1304483 -0.08170851 -0.051052053 -0.1582573 -0.11154339
0.04430167 -0.2341666 -0.16491091 -0.06749844 -0.011219001 0.15991025 -0.21327361 -0.05617579
0.024334304 0.012439723 0.48676094 -0.03706869 -0.045083698 0.028383119 0.10557774 0.10559018
-0.083457164 -0.05498062 0.048989445 -0.07233458 -0.004359313 -0.17603023 -0.08774602 -0.042799942
0.157696 -0.32574096 -0.10816799 -0.062668815 -0.008126715 -0.04232611 -0.13195387 0.15500051
0.19703552 -0.09232303 -0.053007435 -0.19233441 0.060846247 -0.16788012 0.11023824 0.20723392
-0.091127396 -0.12967554 0.12145174 -0.07641142 0.29416665 0.101356976 0.12132436 0.049537852
00000000: 9708 00bd 7f1d 5abe 2222 e53d e61b 9cbd
00000010: aeb3 ccbc 7c03 45be 920d f4bd 52e6 0bbd
00000020: 3d5f b9bd 2b30 903c be4f 0bbe 32c9 8dbc
00000030: 7fa5 113e a27a 6ebd 4510 353e f4f8 f83d
00000040: 0e56 08be a844 93bc b28b 3cbe cece 9e3b
00000050: 5ad1 8e3d 5c87 9ebc 9b67 5c3e c1ef da3b
00000060: d9c0 1d3d 1908 3fbe 8eca 92b9 dab9 623c
00000070: 4a8a b33d 624f c7bd ff5b b53d 84ef adbd
00000080: 5736 483d 5b7d bcbd c0b9 203d d0c5 873d
00000090: c9ab d7bc 0b29 773d 1e16 093e ec81 a13d
000000a0: 7485 32be 61a2 92bd 3dbf f8bd f57f 17bd
000000b0: 48b0 b93c 226a b13d 6a88 c7bd da12 123c
000000c0: 374c 94bd e20c 203e 41b3 c8bd cfc8 463d
000000d0: fbef 003e 11fe e5bc d126 ef3d 5865 5b3d
000000e0: 227c e13d bb3b 14be 823c 4dbd a901 7c3d
000000f0: f8b3 23be c70e 85bc 529e fcbd 3a9c c13d
00000100: 7a67 8f3a 3e85 34bd aeba 55bd d2bc d43e
00000110: b7e2 99bd 17c7 c7bd d6f1 8c3d 7a89 91bd
00000120: 0909 44bc 7eb1 c23d 8ad7 df3d 5e68 dd3d
00000130: e431 143d 35ec 383d 10d7 86be f8fe 60bd
00000140: a39f e9bc ee56 4dbe dc02 edbd 2dd6 a63c
00000150: 67fd 853d 130c b73c 21c2 1abe 69cc a2bd
00000160: 6271 1b3e 39be 113e 7063 e7bc ee37 6b3d
00000170: 607f 4e3e a4a5 823c 1ac4 29bd 4d45 69bd
00000180: 7f65 463e 5a89 8fbd c4aa e8bd 7a79 463d
00000190: 7b42 573e 5186 ebbc 722e 913d 6ad1 f4bd
000001a0: 80d3 013e bb83 05be ba21 1a3e e7c1 f2bb
000001b0: ae12 0dbe a3d2 a9bd 6b07 ffbd 647f 91bc
000001c0: fdc9 2dbd 48c9 39be 212f ea3c 5e79 56bc
000001d0: a8ac d6bc 1400 efbd 7bc9 bebd 2bea 6d3d
000001e0: 8da1 0abe eaed b6bd b16f 673d 881e 313d
000001f0: cd6b 54bd e7f0 10be acf3 3ebe 9367 08be
00000200: 5095 15bd 41a6 26be 493f 543d e01b 483e
00000210: 5dee e0bd bf00 073c 3cb1 af3d dfad 363d
00000220: 5f49 19be aff5 b13d 1358 0a3e 031c 433d
00000230: 3f71 56bd bc6d 573c 0a57 d23d 79c5 8cbd
00000240: 71f9 5fbc bd0b 0dbd f03f c2bd fcb5 0bbc
00000250: 8bc4 643c ba70 7fbd b187 1d3e 5efb e6bb
00000260: d958 81be fa52 dc39 5b93 99bd d5ae f7bd
00000270: 1632 6fbc e191 88bd f3d1 d83c a4c9 be3b
00000280: ce22 cc3d 4b4e 163e 6a23 2fbd d01b d53d
00000290: e1a0 95bd 4212 05bb 7a3b 9abd 6019 d73d
000002a0: eecb 37bd b9af 543e 0ee9 153d 8633 f43c
000002b0: 9ea7 0dbe cdcf 4fbc 105c 973d be29 93bd
000002c0: a23e 453d e09b 833c 87f3 e5bc 734c b53d
000002d0: d28d fe3c ecfc 36bd 6a81 a7bd d995 12bd
000002e0: dc52 233c eb3b 48be 56b3 ef3d 9d30 bd3d
000002f0: e229 08be ee7a 22be 4657 083e c4ef 183e
00000300: c4d2 3d3d 91c1 56bd 8096 f63d c0d3 97bd
00000310: 0feb 43be 745f bebe 67b1 983d ea32 023e
00000320: 1235 67bd dc4a c33d a31b 9fbd 3d94 05be
00000330: cb56 a7bd f51b 51bd 340e 22be dc70 e4bd
00000340: ab75 353d 5fc9 6fbe 68de 28be 9f3c 8abd
00000350: e7cf 37bc 83bf 233e 6664 5abe 9618 66bd
00000360: bc58 c73c fbcf 4b3c bb38 f93e 57d5 17bd
00000370: afa9 38bd b783 e83c 2439 d83d aa3f d83d
00000380: 97eb aabd 5c33 61bd 28a9 483d 2724 94bd
00000390: 91d8 8ebb 4541 34be 2fb4 b3bd fe4e 2fbd
000003a0: 0f7b 213e 85c7 a6be 2e87 ddbd 8258 80bd
000003b0: ea25 05bc 255e 2dbd ea1e 07be 74b8 1e3e
000003c0: aec3 493e db13 bdbd 531e 59bd 50f3 44be
000003d0: ea39 793d c4e8 2bbe 96c4 e13d 2135 543e
000003e0: 00a1 babd aac9 04be b1bb f83d 977d 9cbd
000003f0: 039d 963e 3f94 cf3d e878 f83d 34e8 4a3d

l4/W f4 [16, 256]
0.13878568 0.12244015 0.046061475 -0.033314142 -0.297346 -0.32857013 -0.24246657 -0.31560636
-0.1356253 0.26680836 -0.17745511 0.0057158275 0.014802449 -0.2916594 0.1917843 0.08236289
0.08431621 -0.012830583 0.033331126 -0.3683959 0.24475005 -0.4354047 -0.06762906 0.03769031
-0.054143973 0.29744935 -0.041742127 0.38010705 0.05012084 0.1430668 0.0047710356 -0.010465209
0.09122652 0.11858417 0.1129719 0.19068559 0.3436439 0.07505428 0.36333695 -0.1769778
0.39591488 0.2218373 -0.056927845 0.26220104 -0.050094586 0.10930949 0.34187695 0.12614036
0.21297464 0.15590405 -0.03781857 0.014851149 -0.047712464 0.24267913 -0.4325538 0.058835704
0.2616393 -0.050938625 -0.13847055 -0.39105585 -0.2034567 0.17791231 -0.08206603 -0.18365651
-0.17383063 -0.012026154 -0.12472198 -0.21749176 0.04660648 0.33394796 0.07659951 0.36728176
-0.3695192 0.08801759 -0.36392015 -0.025293835 -0.12696186 0.09912354 -0.13938993 0.18406583
-0.19103755 -0.3176064 -0.04978376 -0.46770373 -0.18584557 -0.10001508 0.039592046 -0.06106647
-0.38602626 7.4322998e-06 0.3628271 -0.15008825 0.22749875 0.109666996 0.2908301 0.33897465
0.016562127 -0.08308504 -0.08513888 -0.22436735 -0.04768908 -0.014946888 -0.116874695 0.10623605
0.02334597 -0.11140851 -0.05388867 0.07724416 -0.0014419211 0.13128875 -0.14038235 -0.1645706
-0.28899875 -0.09975394 0.112338334 0.44980013 0.33491454 0.0507923 -0.31970796 -0.22393203
-0.15067399 -0.14743754 0.24848667 0.12009725 0.047141388 0.20469934 -0.43343228 0.054147646
0.03078878 0.068066955 0.084985964 0.125007 0.14433949 0.1543443 0.2732897 -0.12078729
-0.041516148 -0.5145571 0.049204558 -0.002465603 0.13718112 -0.45905188 -0.2618667 0.22736657
-0.04079095 -0.30628964 0.017663177 -0.015741784 0.1464416 0.13639593 -0.16877803 -0.43571255
0.1628901 -0.07785426 -0.048903875 -0.18472344 -0.09684505 0.06118367 0.30969948 0.15898822
-0.24224491 -0.23063536 0.19852537 0.071962126 -0.0960221 0.17539352 -0.1606281 0.2318737
-0.19164997 0.06629712 0.21723528 -0.2845492 0.06025043 -0.19021972 0.24526592 0.035903875
0.031927224 0.15637222 0.12140663 -0.3539186 0.094657205 -0.23457457 -0.11107332 0.044137727
-0.028965108 -0.30573446 0.20700818 -0.23385763 0.028876666 -0.45769492 0.26341468 0.017853126
-0.52848977 0.084831595 0.08867526 -0.19806215 0.14765455 0.14334646 0.039282415 -0.34993038
-0.041502684 0.15625848 -0.31567717 -0.1407494 -0.2487356 0.07934313 0.46942285 -0.1521097
-0.0016828162 -0.12990832 -0.014062826 -0.115193315 -0.2800905 0.052327488 -0.31439322 0.14742967
0.017121416 -0.16416049 0.22526272 -0.19089624 0.1876967 0.23728265 0.2274291 0.059075955
0.17365627 -0.31386378 -0.07448665 -0.5412889 -0.16683191 0.1438018 0.034965284 0.10088746
0.12366089 -0.07921139 0.12039712 0.06374222 -0.07630185 -0.16173524 -0.42943683 0.35361615
0.19632654 -0.18480149 0.2212623 0.32201785 0.03294892 -0.10247653 0.2491657 0.18709418
-0.15057302 -0.0635321 -0.09314068 0.14651625 -0.018021489 0.1598839 -0.16438985 -0.095095895
00000000: d51d 0e3e e7c1 fa3d f5aa 3c3d 6974 08bd
00000010: bc3d 98be 583a a8be 2849 78be 2897 a1be
00000020: 5ce1 0abe 1b9b 883e cbb6 35be d64b bb3b
00000030: f985 723c 6254 95be 1b63 443e e0ad a83d
00000040: faad ac3d 5e37 52bc 3886 083d 639e bcbe
00000050: c29f 7a3e 5ded debe 1b81 8abd 2861 1a3d
00000060: 12c6 5dbd 484b 983e cbf9 2abd 649d c23e
00000070: 834b 4d3d 1a80 123e 5956 9c3b 4576 2bbc
00000080: f8d4 ba3d 42dc f23d d05d e73d 1543 433e
00000090: 18f2 af3e 0fb6 993d 4d07 ba3e ab39 35be
000000a0: 5bb5 ca3e 5129 633e 2c2d 69bd 373f 863e
000000b0: fb2f 4dbd a7dd df3d 7f0a af3e f02a 013e
000000c0: 0616 5a3e 50a5 1f3e a5e7 1abd 3c52 733c
000000d0: 256e 43bd e180 783e b177 ddbe b5fd 703d
000000e0: 96f5 853e 05a5 50bd 39cb 0dbe 7938 c8be
000000f0: f456 50be a52e 363e 3c12 a8bd 7410 3cbe
00000100: a800 32be 5909 45bc 3d6e ffbd 29b6 5ebe
00000110: 70e6 3e3d 3afb aa3e 34e0 9c3d 5b0c bc3e
00000120: 9f31 bdbe 9142 b43d be53 babe 0435 cfbc
00000130: 4a02 02be 4801 cb3d 3cbc 0ebe c17b 3c3e
00000140: 599f 43be 4e9d a2be 0eea 4bbd dd76 efbe
00000150: 4d4e 3ebe b5d4 ccbd 452b 223d d620 7abd
00000160: 3ca5 c5be f862 f936 79c4 b93e bcb0 19be
00000170: 6ff5 683e 1799 e03d afe7 943e 168e ad3e
00000180: 4cad 873c 7d28 aabd 4b5d aebd 8ec0 65be
00000190: a055 43bd cbe3 74bc 005c efbd 4992 d93d
000001a0: 0c40 bf3c 252a e4bd 5eba 5cbd 3032 9e3d
000001b0: d8fe bcba 8f70 063e 64c0 0fbe 3285 28be
000001c0: a5f7 93be cb4b ccbd a411 e63d 344c e63e
000001d0: eb79 ab3e 960b 503d c3b0 a3be 704e 65be
000001e0: 484a 1abe def9 16be 4a73 7e3e 8cf5 f53d
000001f0: 5417 413d b49c 513e d6ea ddbe ecc9 5d3d
00000200: c038 fc3c b066 8b3d 1f0d ae3d d601 003e
00000210: bbcd 133e 6f0c 1e3e a1ec 8b3e 545f f7bd
00000220: d60c 2abd 04ba 03bf b88a 493d f495 21bb
00000230: 3579 0c3e d908 ebbe 6413 86be c8d2 683e
00000240: 6914 27bd ffd1 9cbe 5eb2 903c eaf4 80bc
00000250: c9f4 153e 60ab 0b3e 26d4 2cbe b715 dfbe
00000260: aacc 263e 0e72 9fbd 6e4f 48bd 2428 3dbe
00000270: b356 c6bd ba9b 7a3d ee90 9e3e cfcd 223e
00000280: 0d0f 78be ad2b 6cbe 3c4a 4b3e e160 933d
00000290: 3ca7 c4bd 5c9a 333e b17b 24be 4d70 6d3e
000002a0: e43f 44be c9c6 873d ed72 5e3e 6fb0 91be
000002b0: 28c9 763d f5c8 42be fd26 7b3e f10f 133d
000002c0: 1fc6 023d 0a20 203e 0aa4 f83d d234 b5be
000002d0: a3db c13d 5134 70be 697a e3bd c3c9 343d
000002e0: 3c48 edbc 3a89 9cbe f4f9 533e 6078 6fbe
000002f0: c28e ec3c fd56 eabe 4ade 863e b840 923c
00000300: 1b4b 07bf 30bc ad3d 609b b53d ced0 4abe
00000310: c132 173e 6ac9 123e 99e6 203d 132a b3be
00000320: b8fe 29bd 3902 203e 70a0 a1be 9c20 10be
00000330: 8cb4 7ebe a77e a23d 3158 f03e a5c2 1bbe
00000340: f191 dcba b006 05be c467 66bc 79ea ebbd
00000350: 0668 8fbe 5955 563d 26f8 a0be cef7 163e
00000360: 3642 8c3c b019 28be 45ab 663e 4e7a 43be
00000370: 9033 403e 39fa 723e 2de3 683e a1f9 713d
00000380: f3d2 313e c1b2 a0be 758c 98bd e991 0abf
00000390: fcd5 2abe c740 133e c237 0f3d 169e ce3d
000003a0: ec41 fd3d 9539 a2bd c492 f63d 488b 823d
000003b0: 2544 9cbd ec9d 25be 25df dbbe 2d0d b53e
000003c0: d309 493e 9a3c 3dbe 9692 623e 86df a43e
000003d0: 72f5 063d 37df d1bd 4b25 7f3e 9e95 3f3e
000003e0: d02f 1abe 1e1d 82bd 8ac0 bebd 5b08 163e
000003f0: cda1 93bc 9bb8 233e d055 28be a3c1 c2bd

l2/W f4 [256, 256]
0.0070784707 -0.17054398 -0.04624748 0.19604555 0.06550301 0.014468694 -0.00032610845 -0.010454587
0.13571131 -0.2394785 -0.073840454 0.10262777 -0.08098203 0.13846004 -0.0733054 0.09635169
0.22238335 0.12225218 -0.20314267 -0.09372719 -0.0010852307 0.11228826 -0.26563075 -0.0040646433
0.13546753 -0.12831205 -0.0023234303 -0.12724183 0.10511926 -0.025181612 0.0795563 -0.14158604
-0.12669562 -0.019939197 -0.0682872 -0.077430956 -0.018008344 0.00074997364 -0.060526963 -0.15213099
-0.035102513 0.16642416 -0.04998019 -0.10194156 0.09572287 -0.0071203606 0.036204282 0.022122461
0.028420465 0.015455088 -0.05135053 0.09841009 0.15459816 -0.036352437 0.11090052 0.15743133
-0.08516781 0.15000144 -0.02809843 -0.10100435 -0.03505952 0.027921509 -0.016665613 -0.0056378115
0.045207243 -0.076075226 0.33848822 0.05748304 0.053016294 -0.123866506 -0.14381094 0.19399294
-0.03461992 -0.1556923 0.26985526 -0.05852122 0.066978 -0.012830578 0.18944675 -0.06741297
-0.01149159 -0.037186842 -0.006276158 -0.13259558 -0.034324713 0.08571173 0.03907645 0.08907759
-0.037458666 0.10510567 -0.28370512 0.03856508 0.05606846 -0.038372774 -0.26572976 -0.19854978
-0.021096883 -0.05321574 0.024596427 0.1582519 0.02515698 -0.36476293 0.041748274 -0.13563761
-0.029614387 0.060540468 0.14475413 0.043814946 0.13659357 0.08683855 0.020227559 -0.15444225
0.021147113 0.13348843 0.049188886 0.16970848 0.11932474 0.07219309 -0.067032084 -0.12526552
0.07337218 0.08903582 -0.088750385 0.018787667 -0.098681726 -0.19054466 0.004501066 0.24808306
-0.08528975 -0.021476042 -0.09820303 0.08171614 -0.2999158 0.029125987 -0.0019767464 -0.07962458
0.12910524 -0.016577374 0.11896552 -0.036589216 0.13319151 0.20819177 0.17750321 -0.15827022
-0.1305653 -0.011555687 -0.09106949 0.04255146 -0.09202863 -0.090226434 -0.0077626375 -0.1631828
0.016287826 -0.02054586 0.16519018 0.051535003 -0.12324855 0.05088529 -0.035248656 -0.05952326
-0.24381267 0.075323775 -0.09377837 -0.1036772 -0.04861496 0.019448232 -0.016491547 -0.07933871
-0.1624019 0.12594296 -0.042699438 -0.089875065 -0.059859153 -0.070811495 0.052748624 -0.21355243
-0.013597354 -0.012409657 -0.02676309 -0.00032522285 0.22744736 0.04703619 0.22798525 -0.17057022
-0.12955676 -0.016755765 0.01776053 0.042018935 0.07104634 0.15766849 0.01455384 0.015681539
-0.022755831 0.011022601 0.078753695 -0.27303624 -0.086808145 0.05988266 -0.07694377 -0.036134284
-0.05000892 0.17621815 0.13752005 0.241074 0.032057434 0.07914403 -0.099676065 -0.04897685
-0.11130447 -0.14068112 0.1479817 0.09311074 -0.0002048881 0.05418933 -0.13608149 -0.18336686
-0.037335966 0.19711867 0.029076057 -0.078095764 -0.046604987 0.15098444 -0.0034169324 0.09269103
-0.19727701 0.14743407 0.015452614 -0.050121713 -0.1615332 -0.21732298 0.09360024 -0.06863619
-0.007537955 0.09339386 0.18661591 0.040686674 -0.07859518 -0.17807664 0.004442035 0.058833566
-0.09548429 -0.0569157 -0.04588983 0.16880466 -0.032824554 0.030406764 0.03175476 -0.0925427
0.07387047 -0.13979234 -0.1482393 -0.10954183 -0.0085151205 -0.11362292 -0.18894075 0.052776653
00000000: 84f2 e73b 15a3 2ebe ff6d 3dbd 2ac0 483e
00000010: 7126 863d 1a0e 6d3c 89f9 aab9 b749 2bbc
00000020: e8f7 0a3e da39 75be aa39 97bd 822e d23d
00000030: e8d9 a5bd 78c8 0d3e 2421 96bd 0954 c53d
00000040: 76b8 633e 5a5f fa3d a204 50be 0af4 bfbd
00000050: 4d3e 8eba 63f7 e53d c100 88be b330 85bb
00000060: 00b8 0a3e 3c64 03be b144 18bb af4b 02be
00000070: c448 d73d ab49 cebc 6aee a23d eefb 10be
00000080: 7fbc 01be 8757 a3bc 29da 8bbd 1f94 9ebd
00000090: 3c86 93bc e199 443a 1feb 77bd 3ac8 1bbe
000000a0: a7c7 0fbd 186b 2a3e 07b8 4cbd bdc6 d0bd
000000b0: 5a0a c43d ea51 e9bb f14a 143d 2a3a b53c
000000c0: 09d2 e83c 5637 7d3c ef54 52bd 3b8b c93d
000000d0: fb4e 1e3e 4be6 14bd d01f e33d ae35 213e
000000e0: 766c aebd fa99 193e ae2e e6bc 5edb cebd
000000f0: 929a 0fbd a6bb e43c 5386 88bc 64bd b8bb
00000100: 3b2b 393d 54cd 9bbd 544e ad3e 5673 6b3d
00000110: 9d27 593d b9ad fdbd 2d43 13be 16a6 463e
00000120: 9ecd 0dbd cd6d 1fbe 782a 8a3e f2b3 6fbd
00000130: c32b 893d 5837 52bc 54fe 413e d00f 8abd
00000140: 3947 3cbc 3b51 18bd 3ba8 cdbb 23c7 07be
00000150: 1298 0cbd a289 af3d a10e 203d 506e b63d
00000160: 426e 19bd a441 d73d cc41 91be 6bf6 1d3d
00000170: 0ba8 653d c52c 1dbd bb0d 88be a250 4bbe
00000180: 5fd3 acbc bff8 59bd 727e c93c c90c 223e
00000190: 0316 ce3c 35c2 babe 3d00 2b3d 96e4 0abe
000001a0: df99 f2bc 48f9 773d 6d3a 143e 4d77 333d
000001b0: 2fdf 0b3e 69d8 b13d 44b4 a53c 1c26 1ebe
000001c0: b63c ad3c 31b1 083e 497a 493d 0fc8 2d3e
000001d0: 8760 f43d f9d9 933d 1e48 89bd 9b45 00be
000001e0: 2744 963d 6958 b63d c3c2 b5bd 98e8 993c
000001f0: a519 cabd 241e 43be ae7d 933b 7c09 7e3e
00000200: 64ac aebd 86ee afbc ac1e c9bd cb5a a73d
00000210: 908e 99be 9f99 ee3c 4d8c 01bb 3612 a3bd
00000220: 2a34 043e 46cd 87bc 32a4 f33d 93de 15bd
00000230: 5b63 083e 3930 553e 67c3 353e 9711 22be
00000240: e9b2 05be 1054 3dbc a482 babd 714a 2e3d
00000250: 8279 bcbd a3c8 b8bd b95d febb 6419 27be
00000260: 0c6e 853c cb4f a8bc 9d27 293e 5e16 533d
00000270: bc69 fcbd 186d 503d e560 10bd a9ce 73bd
00000280: 07aa 79be 5a43 9a3d e00e c0bd b654 d4bd
00000290: 7b20 47bd e651 9f3c 4819 87bc 557c a2bd
000002a0: af4c 26be 31f7 003e 9be5 2ebd 6b10 b8bd
000002b0: df2e 75bd 9e05 91bd f10e 583d 7dad 5abe
000002c0: 70c7 5ebc e051 4bbc 453e dbbc ac82 aab9
000002d0: f6e7 683e 05a9 403d f774 693e f6a9 2ebe
000002e0: 87aa 04be 6343 89bc 887e 913c 0c1c 2c3d
000002f0: be80 913d d973 213e 3b73 6e3c 9276 803c
00000300: 706a babc 2498 343c 9e49 a13d 68cb 8bbe
00000310: 78c8 b1bd 8547 753d b294 9dbd 8b01 14bd
00000320: 27d6 4cbd 8872 343e 0ed2 0c3e 1adc 763e
00000330: a84e 033d 4416 a23d f722 ccbd f39b 48bd
00000340: 99f3 e3bd b60e 10be 8488 173e d8b0 be3d
00000350: 3bd7 56b9 a2f5 5d3d f258 0bbe 86c4 3bbe
00000360: 99ed 18bd 7ad9 493e e930 ee3c acf0 9fbd
00000370: dfe4 3ebd aa9b 1a3e 9dee 5fbb cbd4 bd3d
00000380: fc02 4abe f5f8 163e f62c 7d3c 6d4c 4dbd
00000390: f668 25be ea89 5ebe 7cb1 bf3d 2191 8cbd
000003a0: f300 f7bb 4845 bf3d 3e18 3f3e 12a7 263d
000003b0: 82f6 a0bd b959 36be 7e8e 913b 77fb 703d
000003c0: 448d c3bd 7020 69bd f9f6 3bbd 21db 2c3e
000003d0: 0a73 06bd 9b17 f93c 4711 023d 0787 bdbd
000003e0: 6749 973d b925 0fbe 0bcc 17be 7857 e0bd
000003f0: 0183 0bbc 22b3 e8bd af79 41be 552c 583d

l1/b f4 [256]
-0.041638866 -0.1478776 0.03305075 -0.13272138 -0.021057215 -0.0030499133 -0.15825786 0.026478482
-0.0018323148 -0.25658107 0.23405929 0.12376206 -0.19158092 0.008035195 -0.27079073 -0.045193758
-0.06962355 0.09892747 0.05203477 -0.06976278 -0.40243936 0.12248351 -0.12808937 -0.14412503
-0.0742764 0.016648274 -0.0014550469 0.07377365 0.0 -0.013103273 0.020730833 -0.035390947
-0.2341968 0.060996283 -0.25634706 -0.02409751 -0.004503596 0.00870938 0.06593423 -0.0021797488
0.07555805 -0.041454595 -0.30408978 -0.117443874 0.08541682 -0.13775657 0.010925167 0.015468212
0.03743209 0.045376267 -0.072522394 0.07145939 -0.466911 0.046214618 -0.08023766 0.04005198
-0.25659692 0.018458735 -0.033294015 -0.098895736 -0.14584514 0.04039504 0.091317676 0.011307157
0.028130896 0.006519521 -0.045909695 0.008371488 -0.109616116 0.032307386 0.016074054 -0.10688074
-0.036667712 0.06677756 -0.06448315 0.06674756 -0.08452733 -0.027550215 -0.040791977 -0.15160908
0.03974177 0.0010439028 -0.23577194 0.008788961 -0.029130576 0.13553746 -0.07192812 0.030525569
-0.08939048 -0.29041925 -0.40408278 0.10590625 -0.10257081 0.13915205 -0.002075875 -0.012120015
-0.2879706 -0.06094855 -0.010448538 0.070618615 0.00044999376 -0.011254519 0.012143383 0.07066915
-0.10959199 0.01274344 0.12098538 0.008748421 0.08366955 -0.05622956 -0.00890391 -0.1210678
0.11725062 0.046882052 -0.36357093 0.012596564 0.100176774 -0.066326424 0.02360798 -0.2931001
-0.020758627 0.08930204 -0.03838681 -0.0024268797 0.017758839 -0.0022285115 0.05596724 0.16620621
0.020250933 0.04955551 -0.10536739 0.14167687 -0.22671181 0.022000792 -0.03990022 -0.1879008
0.0025901669 -0.07470985 -0.101495765 0.083117396 0.01888662 0.057025965 0.0518135 0.08411124
-0.036326416 0.08897256 0.081534036 -0.28737223 0.035183668 0.07707767 -0.20894288 -0.11902874
0.014108881 -0.38529715 0.0525775 -0.016194845 0.18429649 -0.12255682 0.1562015 -0.020239398
-0.018680053 0.020209955 0.07001322 -0.028968338 -0.1525077 -0.2788552 0.11109388 0.13311352
-0.07790586 -0.07550633 0.09065375 -0.16073266 0.019871533 0.016537553 -0.03237919 -0.2418207
-0.3525825 0.03378852 0.055804897 -0.19016303 0.15491399 -0.22496113 -0.1950815 -0.053755876
-0.05881485 -0.2847121 -0.21165164 0.00045598485 -0.00041178986 0.06664504 0.08956774 -0.31217855
0.02952605 -0.035756152 -0.00069965154 0.040726855 0.20500757 -0.1187103 -0.037470516 0.087442845
-0.13325666 0.12255601 0.029707508 0.031621873 0.08792709 0.15796924 0.009251233 0.15948063
-0.0012598069 0.09364753 -0.20789833 0.051886845 0.095127456 0.02253828 -0.2934626 0.09983915
-0.06597451 -0.027276501 0.043758783 -0.029321672 -0.36462396 0.06490332 0.018225566 0.0615614
0.040846217 -0.011878225 -0.1878296 -0.0103616705 -0.10526958 0.03316098 0.12421478 0.08154001
-0.10522343 -0.22694232 0.01615673 0.00400149 -0.07804428 0.047932003 -0.10269937 -0.018147599
0.11736094 -0.18333897 -0.029501526 0.056927536 -0.1010383 0.051865116 -0.1514047 -0.05112672
-0.017661992 0.10177155 -0.09304297 0.018211424 -0.3462645 -0.28770387 -0.09659881 -0.17992091
00000000: 848d 2abd 3a6d 17be 3960 073d 1de8 07be
00000010: 2e80 acbc 0ee1 47bb 590e 22be 67e9 d83c
00000020: 482a f0ba 985e 83be 3dad 6f3e f776 fd3d
00000030: ca2d 44be 0da6 033c 15a5 8abe 171d 39bd
00000040: cb96 8ebd 7c9a ca3d 6922 553d cadf 8ebd
00000050: 880c cebe a2d8 fa3d dc29 03be 8395 13be
00000060: 3a1e 98bd f661 883c 46b7 beba a416 973d
00000070: 0000 0000 1caf 56bc b5d3 a93c 19f6 10bd
00000080: 49d1 6fbe 3dd7 793d ec3f 83be 2468 c5bc
00000090: e792 93bb cab1 0e3c 8708 873d 1eda 0ebb
000000a0: 2ebe 9a3d 4bcc 29bd a8b1 9bbe 6a86 f0bd
000000b0: 04ef ae3d 0f10 0dbe 79ff 323c 626e 7d3c
000000c0: 6452 193d 77dc 393d 9f86 94bd 4d59 923d
000000d0: f50e efbe 8a4b 3d3d a453 a4bd 8c0d 243d
000000e0: ac60 83be c636 973c 4e5f 08bd d989 cabd
000000f0: 6e58 15be 4575 253d c304 bb3d a741 393c
00000100: c472 e63c b5a1 d53b ce0b 3cbd 9128 093c
00000110: 6a7e e0bd c054 043d bcad 833c 4ae4 dabd
00000120: e230 16bd acc2 883d be0f 84bd f2b2 883d
00000130: aa1c adbd fdb0 e1bc 7d15 27bd 693f 1bbe
00000140: 44c8 223d 91d3 883a 336e 71be 93ff 0f3c
00000150: 3fa3 eebc 55ca 0a3e 0d4f 93bd c210 fa3c
00000160: 5b12 b7bd d5b1 94be f0e3 cebe 60e5 d83d
00000170: a510 d2bd e07d 0e3e 670b 08bb 0793 46bc
00000180: e270 93be 30a5 79bd 5830 2bbc 7ea0 903d
00000190: 24ed eb39 e064 38bc 0af5 463c fdba 903d
000001a0: c471 e0bd ddc9 503c 2fc7 f73d 8a55 0f3c
000001b0: f15a ab3d f850 66bd b5e1 11bc 65f2 f7bd
000001c0: 1821 f03d 6507 403d f825 babe d261 4e3c
000001d0: 7b29 cd3d 26d6 87bd 8665 c13c 3711 96be
000001e0: ff0d aabc fde3 b63d 7d3b 1dbd 490c 1fbb
000001f0: fc7a 913c 380c 12bb e83d 653d f631 2a3e
00000200: 49e5 a53c b8fa 4a3d dcca d7bd be13 113e
00000210: 2427 68be 013b b43c 6a6e 23bd 1169 40be
00000220: cabf 293b 7a01 99bd 03dd cfbd 7439 aa3d
00000230: 1db8 9a3c 0f94 693d 643a 543d 8442 ac3d
00000240: 02cb 14bd 3f37 b63d 51fb a63d 7422 93be
00000250: c01c 103d e6da 9d3d 1ff5 55be 57c5 f3bd
00000260: f028 673c ab45 c5be 815b 573d 0dab 84bc
00000270: 38b8 3c3e 12ff fabd 49f3 1f3e 18cd a5bc
00000280: e906 99bc 598f a53c 1763 8f3d 024f edbc
00000290: fa2a 1cbe 1cc6 8ebe 3085 e33d e94e 083e
000002a0: 1c8d 9fbd 10a3 9abd aca8 b93d 1a97 24be
000002b0: a0c9 a23c c379 873c 0ba0 04bd d89f 77be
000002c0: b285 b4be d565 0a3d ad93 643d 19ba 42be
000002d0: c6a1 1e3e 365c 66be 72c3 47be 1f2f 5cbd
000002e0: d7e7 70bd c9c5 91be 35bb 58be 4011 ef39
000002f0: 80e5 d7b9 327d 883d 4b6f b73d ded5 9fbe
00000300: 9de0 f13c 0b75 12bd d268 37ba 34d1 263d
00000310: 81ed 513e 631e f3bd af7a 19bd 3c15 b33d
00000320: 6f74 08be a5fe fa3d 295d f33c f085 013d
00000330: 1e13 b43d b0c2 213e 7c92 173c e44e 233e
00000340: 1b20 a5ba 47ca bf3d 4de3 54be 4d87 543d
00000350: 2fd2 c23d 33a2 b83c bb40 96be 7878 cc3d
00000360: a51d 87bd f872 dfbc 693c 333d 0134 f0bc
00000370: feaf babe 08ec 843d c84d 953c ce27 7c3d
00000380: 5d4e 273d e39c 42bc 6756 40be ffc3 29bc
00000390: 9497 d7bd cfd3 073d 5264 fe3d 73fe a63d
000003a0: 627f d7bd 9163 68be 1e5b 843c ee1e 833b
000003b0: aed5 9fbd 5954 443d 0c54 d2bd 46aa 94bc
000003c0: ef5a f03d 36bd 3bbe 2fad f1bc d92c 693d
000003d0: 2bed cebd 8470 543d d509 1bbe 406a 51bd
000003e0: e2af 90bc 9a6d d03d 508d bebd 2030 953c
000003f0: 9549 b1be ec4d 93be 99d5 c5bd 303d 38be

l3/b f4 [256]
0.09667365 -0.019072486 -0.04253261 -0.038748335 -0.07472065 0.071685 -0.026306989 0.0018824703
-0.0457934 0.007893229 0.037043452 -0.021207675 0.054153793 -0.06965899 0.04716111 0.028664865
-0.024187876 -0.06501658 0.011655616 0.066981025 0.04529223 -0.08667688 -0.05308785 -0.023948623
0.017274598 0.068887405 0.04542098 -0.0927974 0.029521573 -0.02939872 0.05171744 -0.04636267
-0.026482947 -0.11319566 -0.065135576 0.041197322 -0.10804585 0.05411744 -0.0049683354 -0.0728823
0.101213634 0.09527034 0.0075321607 0.026740773 -0.019474747 -0.010294352 -0.04646227 -0.009633283
0.08061448 -0.06896222 -0.055489086 0.02367963 -0.018891392 0.101845905 -0.0021066926 0.024159726
-0.005908348 -0.0061067264 0.033292938 -0.13309743 0.0049120295 -0.008751469 -0.042358298 -0.0804611
-0.0386763 0.008551292 -0.06520825 -0.01770389 -0.044923905 0.050155967 0.032254506 -0.057009377
-0.0783492 -0.04176645 -0.06994557 0.038313273 -0.022501182 0.06365064 0.028198889 -0.0273928
0.059240654 -0.010426595 0.023146773 -0.1315215 -0.0008313372 0.033615585 -0.042125788 0.007517107
-0.0611917 -0.10142854 -0.07898557 -0.026379645 0.062913716 -0.013525152 0.085041754 -0.013437295
-0.006353027 0.034505934 0.02555985 0.0020667068 0.013752956 -0.006280075 -0.05192515 -0.04611679
-0.037946377 -0.07283359 -0.044721615 -0.02772871 -0.036546547 0.06727729 -0.054189924 0.02303615
-0.11464031 -0.09488167 -0.046079345 -0.018528545 -0.041628063 -0.045307048 -0.018366862 0.025207125
-0.02503536 -0.023753233 0.04009936 -0.05486779 0.017807886 -0.03186499 -0.045631938 -0.032611936
-0.026356421 -0.031342685 0.050543815 -0.016948784 -0.01873912 0.0384549 -0.13104126 0.0897669
-0.026567953 -0.046790417 0.071373165 -0.017227735 0.01433722 -0.047716845 0.010702518 0.059186574
-0.0071100816 0.0077349422 -0.009834078 -0.002430363 -0.041188292 0.051803045 -0.0068639484 -0.025162961
-0.002821014 0.037383743 -0.0074929707 -0.07027276 -0.13102548 -0.010190824 0.017026545 -0.032619704
-0.028820049 -0.018316116 -0.029425893 -0.040826846 -0.05979585 -0.022926895 -0.012817929 0.009969144
0.07955345 -0.049880285 -0.009170352 -0.050556798 -0.053164266 -0.029493293 -0.0924959 -0.0010870346
0.075866714 -0.009539671 -0.04620487 -0.046890628 -0.10112164 -0.049362198 -0.049582276 -0.009403586
-0.027202515 0.0068123755 -0.0023419256 -0.112284236 -0.055769026 -0.03556177 0.0322156 -0.044681624
0.034154404 0.026578644 -0.01635326 -0.016286127 -0.039447166 -0.042375304 -0.05814011 -0.03676323
-0.033212177 -0.0096471505 -0.02816513 -0.003945347 0.030878337 0.091241755 -0.000950161 -0.002372974
0.049706038 0.020502567 -0.013694457 -0.05997835 0.08529572 -0.047689922 -0.04215236 -0.016979322
-0.033195496 0.041657872 0.02582286 -0.095813274 -0.030070439 -0.030361729 -0.06023891 0.044416837
-0.021510229 -0.061845735 0.08341333 -0.08997025 -0.021019842 -0.006670622 -0.02544155 0.036912467
0.024285218 -0.10868228 0.01781865 0.07370675 -0.058351077 -0.00041386616 -0.11690006 -0.026351599
-0.046120897 0.009474756 0.04087616 0.036130924 0.09343536 -0.07528092 0.046723425 0.024152117
-0.04345856 0.018243248 -0.027177382 0.043100893 -0.010753037 0.018065533 -0.066532776 0.028484162
00000000: d6fc c53d e73d 9cbc ad36 2ebd 93b6 1ebd
00000010: 2407 99bd 96cf 923d c181 d7bc 39bd f63a
00000020: dc91 3bbd 9a52 013c e0ba 173d b8bb adbc
00000030: 5ed0 5d3d 5fa9 8ebd 022c 413d 94d2 ea3c
00000040: a725 c6bc 6a27 85bd 32f7 3e3c 592d 893d
00000050: 5884 393d a683 b1bd a572 59bd e72f c4bc
00000060: 7583 8d3c d714 8d3d 590b 3a3d 900c bebd
00000070: 3ad7 f13c 96d5 f0bc abd5 533d c8e6 3dbd
00000080: c4f2 d8bc 20d3 e7bd cd65 85bd 86be 283d
00000090: 2547 ddbd 40aa 5d3d 6bcd a2bb 5143 95bd
000000a0: 1849 cf3d 191d c33d 58d0 f63b 770f db3c
000000b0: 8189 9fbc a4a9 28bc 394f 3ebd ebd4 1dbc
000000c0: 3419 a53d 103c 8dbd 8648 63bd c9fb c13c
000000d0: 1fc2 9abc 9694 d03d 7010 0abb 9eea c53c
000000e0: d19a c1bb ef1a c8bb 2d5e 083d b14a 08be
000000f0: 17f5 a03b 5262 0fbc e57f 2dbd cac8 a4bd
00000100: 0a6b 1ebd b81a 0c3c e78b 85bd c007 91bc
00000110: 2102 38bd 5870 4d3d 4d1d 043d aa82 69bd
00000120: 8c75 a0bd 4c13 2bbd 9f3f 8fbd 61ee 1c3d
00000130: 6654 b8bc 445b 823d 5b01 e73c de66 e0bc
00000140: 54a6 723d 4fd4 2abc 4d9e bd3c 92ad 06be
00000150: 18ee 59ba 7fb0 093d 178c 2cbd 1052 f63b
00000160: 26a4 7abd c4b9 cfbd 30c3 a1bd 201a d8bc
00000170: e8d8 803d 9998 5dbc 5f2a ae3d 1a28 5cbc
00000180: 0e2d d0bb 1856 0d3d e462 d13c 9671 073b
00000190: 1454 613c 16c9 cdbb 77af 54bd f6e4 3cbd
000001a0: a96d 1bbd c729 95bd 032e 37bd 5227 e3bc
000001b0: d5b1 15bd adc8 893d 41f6 5dbd 4fb6 bc3c
000001c0: 8ac8 eabd 5251 c2bd b2bd 3cbd 2dc9 97bc
000001d0: 3082 2abd e293 39bd 1a76 96bc 2c7f ce3c
000001e0: f516 cdbc 2496 c2bc 3a3f 243d 0cbd 60bd
000001f0: d8e1 913c dd84 02bd 8ee8 3abd 1894 05bd
00000200: 6ce9 d7bc 3061 00bd 0807 4f3d 2dd8 8abc
00000210: c882 99bc e382 1d3d ae2f 06be b5d7 b73d
00000220: 09a5 d9bc 4fa7 3fbd 182c 923d 2e21 8dbc
00000230: a9e6 6a3c bd72 43bd 9d59 2f3c 9f6d 723d
00000240: b0fb e8bb 6675 fd3b 1d1f 21bc ba46 1fbb
00000250: 0eb5 28bd 6e2f 543d f9ea e0bb 8e22 cebc
00000260: c3e0 38bb b21f 193d 9887 f5bb 2aeb 8fbd
00000270: 8b2b 06be 6af7 26bc 417b 8b3c 3d9c 05bd
00000280: 0618 ecbc ae0b 96bc 920e f1bc 0d3a 27bd
00000290: 7eec 74bd 2fd1 bbbc 4a02 52bc 9f55 233c
000002a0: ebec a23d 454f 4cbd 3e3f 16bc a514 4fbd
000002b0: c6c2 59bd eb9b f1bc 7e6e bdbd d47a 8eba
000002c0: 0260 9b3d 484c 1cbc 5141 3dbd 6310 40bd
000002d0: dd18 cfbd 0430 4abd c916 4bbd 8011 1abc
000002e0: cfd7 debc 593a df3b fe7a 19bb 47f5 e5bd
000002f0: 106e 64bd 38a9 11bd 81f4 033d 1404 37bd
00000300: 7de5 0b3d 75bb d93c 46f7 85bc 7c6a 85bc
00000310: 5a93 21bd ba91 2dbd 5324 6ebd 0a95 16bd
00000320: 7e09 08bd 150f 1ebc 8fba e6bc f847 81bb
00000330: 91f4 fc3c f5dc ba3d 3a14 79ba e683 1bbb
00000340: 8f98 4b3d 00f5 a73c b75e 60bc dcab 75bd
00000350: 86af ae3d 8256 43bd f4a7 2cbd 3818 8bbc
00000360: 00f8 07bd 72a1 2a3d 768a d33c c039 c4bd
00000370: 4856 f6bc 29b9 f8bc 13bd 76bd 6eee 353d
00000380: 3836 b0bc f451 7dbd 9cd4 aa3d 5342 b8bd
00000390: ce31 acbc 3c95 dabb cc6a d0bc 8731 173d
000003a0: cbf1 c63c d194 debd 6bf8 913c 91f3 963d
000003b0: 8a01 6fbd 2dfc d8b9 4c69 efbd 4fdf d7bc
000003c0: 44e9 3cbd 023c 1b3c c36d 273d 05fe 133d
000003d0: 0a5b bf3d e22c 9abd 1061 3f3d a9da c53c
000003e0: 9a01 32bd dd72 953c 1aa3 debc 908a 303d
000003f0: 822d 30bc 2bfe 933c 5642 88bd 9e57 e93c

l4/b f4 [16]
-0.1458887 -0.26290467 -0.12919259 -0.15971445 -0.09669805 -0.2590589 -0.21561658 -0.100965604
-0.084182166 -0.23530433 -0.2181962 -0.13819292 -0.072354965 -0.074732155 -0.09417705 -0.08347911
00000000: d963 15be 719b 86be 104b 04be 2f8c 23be
00000010: a109 c6bd 5ea3 84be 98ca 5cbe 0ec7 cebd
00000020: b367 acbd 9ef3 70be d36e 5fbe 7282 0dbe
00000030: d72e 94bd 2c0d 99bd e6df c0bd 18f7 aabd
