examples/ch4/reversi_DQN_CNN/agent_white_2000/model.npz (npz, 35922 bytes, 10 tensors)

c3/b f4 [16]
-0.15351258 -0.28187183 0.0 0.39750537 0.00041330443 0.38230073 0.16445462 0.24048056
0.0 -0.0014394422 0.24509098 -0.09197345 -0.1165293 -0.035889763 0.19511707 -0.00021953763
00000000: 6732 1dbe 8151 90be 0000 0000 d385 cb3e
00000010: c8b0 d839 ecbc c33e cb66 283e 8940 763e
00000020: 0000 0000 aaab bcba 21f9 7a3e 935c bcbd
00000030: eaa6 eebd 2501 13bd c5cc 473e af33 66b9

c1/W f4 [4, 1, 2, 2]
1.0760146 -0.72090167 -0.70683664 -0.054635394 -0.52083963 0.12004868 -0.44999546 0.4447997
0.5764286 0.28327265 0.45287654 0.03705992 -0.0100926915 0.18657343 0.1430079 0.9857705
00000000: d9ba 893f 038d 38bf 3ff3 34bf 5dc9 5fbd
00000010: bf55 05bf 15dc f53d ce65 e6be c9bc e33e
00000020: d390 133f 1d09 913e 6fdf e73e 25cc 173d
00000030: d15b 25bc 1b0d 3f3e aa70 123e 755b 7c3f

l5/W f4 [16, 256]
-0.5240953 0.26632422 -0.14577205 0.09665127 -0.28442284 -0.10487791 0.071702525 -0.061517414
0.33644906 -0.006141594 -0.15576093 -0.14837709 0.12647048 -0.11643378 0.020262256 -0.054670352
0.14100702 0.12703222 0.033450253 0.0015819545 -0.39570418 0.42038178 -0.05806396 0.068255395
-0.08272334 -0.06769728 0.16894144 -0.22951166 0.08553962 -0.053216666 0.23954032 -0.27827522
0.42525148 -0.10911413 0.28133345 -0.014409913 0.19776464 0.032731477 -0.094244346 0.049425624
-0.8035476 0.19390588 -0.0377024 0.18075973 -0.016967386 0.113736555 -0.019561453 -0.05820375
0.19903886 0.028669346 -0.29142514 0.24119902 -0.1441546 -0.002317094 0.11235032 -0.34690672
0.12900093 0.09160861 -0.15081927 0.044235576 -0.29902574 0.14338754 0.10711833 0.14451239
-0.27676845 -0.12299056 -0.4283616 -0.06694335 -0.26892138 0.23827142 -0.13583785 0.20993681
-0.1402515 0.06541161 -0.00088325486 -0.11555601 0.20218436 -0.05029844 0.02107012 0.4732293
0.18907063 0.13189922 0.80475056 0.18184786 -0.14056851 0.05599021 -0.21774557 -0.033260167
-0.099972375 0.04177676 0.04034362 -0.34898737 0.23687193 -0.16982032 -0.13827252 0.017251251
-0.23722817 0.18802154 0.29403782 0.39331055 -0.05294776 0.49096513 0.05749201 -0.106879756
0.10691422 0.009883542 0.08270579 -0.2908763 -0.34181303 -0.16416323 0.06808748 0.46993753
0.15832232 -0.02178244 0.053895954 -0.029865174 0.21676625 -0.13877031 0.17224813 -0.10834036
-0.08438873 0.12544939 0.092413515 0.07081949 -0.050406616 -0.28383932 0.11397729 0.5394428
-0.04601081 0.07698994 0.029854786 0.015020676 -0.059019055 0.12157281 0.2133638 0.0034443936
0.37052518 -0.27666548 0.00519403 -0.25226387 0.10336815 -0.17441845 -0.12598297 0.11726465
-0.08739543 -0.028616996 0.060989913 -0.077840716 0.077876344 -0.045804862 -0.07893918 -0.01924771
-0.38833892 0.1681689 -0.08423547 0.08007071 0.04970926 0.14074837 -0.06575253 -0.22230251
-0.013652163 0.042743742 0.0803745 -0.46082118 0.091910444 0.02896533 -0.033874627 -0.12097299
0.14456357 -0.5200042 -0.15463255 0.22419213 -0.1265408 0.08817737 0.008869718 0.1774335
-0.41204077 0.03791861 -0.3814177 -0.15072471 0.17972478 -0.32682207 0.25837767 -0.07644745
-0.02162921 0.35390693 -0.06335162 -0.0020913826 -0.06077765 0.7014428 0.15456568 0.30401376
-0.18599302 0.16148543 0.2823498 -0.2570688 0.1797952 -0.0744207 -0.13604271 0.014405379
-0.24668713 0.07621491 0.018155968 0.4426246 0.10479042 0.15851253 -0.01614558 -0.29615492
-0.23647648 -0.08574629 -0.03815785 -0.24175833 -0.028545277 -0.016724244 0.14743538 -0.010117533
0.061252136 0.104400985 -0.036702815 -0.12787277 -0.054721102 -0.06252235 -0.07319125 -0.18274772
0.078026526 0.632691 -0.18338032 -0.1528571 0.15948929 -0.16322185 -0.07013911 0.0086409915
-0.080475055 -0.097732134 -0.18244645 0.0397883 -0.0014810605 -0.16527848 -0.051810212 0.22292545
-0.11041751 -0.10714182 -0.3760344 0.15962401 -0.1897084 -0.1007925 0.14423376 -0.050621435
-0.051454164 0.35614637 -0.07645456 -0.10355195 0.23955266 -0.1608934 0.21293248 -0.037881587
00000000: 1c2b 06bf a65b 883e 4545 15be 1af1 c53d
00000010: df9f 91be 3bca d6bd c6d8 923d aff9 7bbd
00000020: 0d43 ac3e 6d3f c9bb cb7f 1fbe 2af0 17be
00000030: 7a81 013e d574 eebd 08fd a53c 05ee 5fbd
00000040: 2564 103e bc14 023e 2203 093d 9659 cf3a
00000050: bd99 cabe 483c d73e 7ad4 6dbd 7cc9 8b3d
00000060: db6a a9bd dfa4 8abd fcfe 2c3e 1b05 6bbe
00000070: 652f af3d b8f9 59bd 0f4a 753e 177a 8ebe
00000080: 90ba d93e 3b77 dfbd f00a 903e 8e17 6cbc
00000090: d082 4a3e 7111 063d 2e03 c1bd 8672 4a3d
000000a0: 4cb5 4dbf 438f 463e d56d 1abd 1419 393e
000000b0: 30ff 8abc b6ee e83d 573f a0bc 0e67 6ebd
000000c0: d8d0 4b3e fadb ea3c ad35 95be e0fc 763e
000000d0: 439d 13be 63da 17bb ed17 e63d c29d b1be
000000e0: d218 043e 4b9d bb3d 5e70 1abe 5d30 353d
000000f0: e719 99be 2fd4 123e db60 db3d 0efb 133e
00000100: 98b4 8dbe 7ae2 fbbd 3652 dbbe 9819 89bd
00000110: 10b0 89be 6cfd 733e 1419 0bbe adf9 563e
00000120: 179e 0fbe 86f6 853d 3b8a 67ba a1a8 ecbd
00000130: 6b09 4f3e bd05 4ebd 3f9b ac3c 1c4b f23e
00000140: bb9b 413e 9710 073e 2204 4e3f 5336 3a3e
00000150: 31f1 0fbe fe55 653d b2f8 5ebe d03b 08bd
00000160: 51be ccbd 1c1e 2b3d 5a3f 253d 79ae b2be
00000170: 8e8e 723e 61e5 2dbe 5097 0dbe 7f52 8d3c
00000180: f1eb 72be b888 403e 208c 963e 0060 c93e
00000190: c0df 58bd c85f fb3e be7c 6b3d c6e3 dabd
000001a0: d8f5 da3d 94ee 213c a761 a93d bded 94be
000001b0: 1e02 afbe 681a 28be 7371 8b3d a79b f03e
000001c0: 3f1f 223e 1671 b2bc 01c2 5c3d cfa7 f4bc
000001d0: f9f7 5d3e ce19 0ebe d061 303e 8de1 ddbd
000001e0: 00d4 acbd ce75 003e 4c43 bd3d cf09 913d
000001f0: 2b77 4ebd 6353 91be ed6c e93d ec18 0a3f
00000200: d575 3cbd e7ac 9d3d 0692 f43c 4819 763c
00000210: f7bd 71bd 2afb f83d 0a7c 5a3e 56bb 613b
00000220: 7ab5 bd3e 19a7 8dbe ae32 aa3b bb28 81be
00000230: aeb2 d33d c09a 32be ae01 01be 7328 f03d
00000240: 60fc b2bd 316e eabc 8fd0 793d f46a 9fbd
00000250: a27d 9f3d e19d 3bbd ddaa a1bd 60ad 9dbc
00000260: 5cd4 c6be 7834 2c3e a583 acbd 1dfc a33d
00000270: f09b 4b3d 5720 103e 43a9 86bd 45a3 63be
00000280: 52ad 5fbc 1014 2f3d 639b a43d c1f0 ebbe
00000290: 8b3b bc3d b348 ed3c 1fc0 0abd b0c0 f7bd
000002a0: 7908 143e ff1e 05bf ff57 1ebe 9f92 653e
000002b0: e993 01be 5696 b43d 4b52 113c 21b1 353e
000002c0: 02f7 d2be 8b50 1b3d 2e49 c3be 9457 1abe
000002d0: c609 383e 3955 a7be 144a 843e 7b90 9cbd
000002e0: be2f b1bc 4a33 b53e 7fbe 81bd 940f 09bb
000002f0: fcf1 78bd c191 333f 7746 1e3e b1a7 9b3e
00000300: f474 3ebe 705c 253e 2790 903e 869e 83be
00000310: 3c1c 383e e169 98bd c84e 0bbe 8a04 6c3c
00000320: 8d9b 7cbe 9016 9c3d d3bb 943c b19f e23e
00000330: 5c9c d63d 1c51 223e bc43 84bc 9ea1 97be
00000340: e426 72be c09b afbd 684b 1cbd 7f8f 77be
00000350: c9d7 e9bc 4801 89bc 4df9 163e 02c4 25bc
00000360: 85e3 7a3d 2fd0 d53d b155 16bd 14f1 02be
00000370: 3c23 60bd b80b 80bd 4be5 95bd 3822 3bbe
00000380: 5fcc 9f3d 0af8 213f 0dc8 3bbe 9286 1cbe
00000390: 2951 233e a123 27be 18a5 8fbd f292 0d3c
000003a0: 1bd0 a4bd c927 c8bd 3ed3 3abe 0ef9 223d
000003b0: 2520 c2ba c33e 29be f236 54bd 9246 643e
000003c0: 9322 e2bd 2c6d dbbd 9587 c0be 7a74 233e
000003d0: eb42 42be 4c6c cebd 04b2 133e 6c58 4fbd
000003e0: 9ac1 52bd d158 b63e 3594 9cbd 0b13 d4bd
000003f0: 4b4d 753e 3dc1 24be f90a 5a3e b929 1bbd

c2/W f4 [8, 4, 2, 2]
-0.20069803 0.47426146 -0.36502373 0.40321577 -0.41678098 -0.32126462 0.45910197 0.04991007
0.56213975 -0.06377845 -0.00995337 0.42121705 0.24259382 -0.2625618 -0.06543007 -0.35696736
0.0064914 0.29315177 0.0046286425 -0.010443288 0.49148092 -0.30457258 0.1803839 0.45847338
-0.28148243 -0.005263004 -0.048313994 0.4210519 0.262655 0.8827818 -0.40261522 0.0460376
0.18150438 -0.47984406 0.5301629 -0.19621155 0.5454825 -0.44698098 0.23711249 0.0436013
0.4951026 0.25221077 -0.08625731 -0.13472842 0.086790696 0.3535597 0.09185805 -0.31848657
-0.3959555 0.06215967 -0.21903826 0.48661017 -0.6448973 0.10009826 -0.22965847 -0.53149366
0.13212381 0.17371075 -0.14410406 0.02203742 -0.25733143 0.37341002 0.31813562 0.20341933
-0.09435184 -0.40775588 -0.43663585 -0.29253197 -0.42970034 0.5255457 -0.84382737 -0.230379
0.43360484 -0.057342604 0.53488445 0.1701496 0.07732333 0.14023656 -0.22533451 0.16564135
-0.41771284 0.95031077 -0.6040422 -0.3704415 -0.23327908 -0.44196516 -0.2694293 -0.033558086
-0.25168458 -0.2580582 0.4852982 -0.34690362 0.08225413 -0.016706888 0.18509296 -0.29976583
0.05783786 0.23313563 0.01259797 0.10064266 -0.12791185 -0.15645161 -0.31786436 0.34268823
-0.047542773 -0.54945123 0.1373823 -0.18871549 -0.29542464 0.43849775 -0.06998973 0.26791233
-0.24587078 0.17198023 -0.55874515 0.26523033 -0.62873966 0.4414341 0.053699482 -0.512741
-0.44325662 -0.043789078 -0.07073848 0.27733403 -0.13227037 0.73059684 -0.36366937 -0.18860868
00000000: c983 4dbe 66d2 f23e 64e4 babe 4c72 ce3e
00000010: 5164 d5be cc7c a4be 6a0f eb3e 806e 4c3d
00000020: 64e8 0f3f 479e 82bd 7613 23bc c3a9 d73e
00000030: 846a 783e 806e 86be 3300 86bd 6dc4 b6be
00000040: cfb5 d43b fd17 963e deab 973b 531a 2bbc
00000050: 63a3 fb3e f0f0 9bbe 8fb6 383e 06bd ea3e
00000060: 771e 90be 4775 acbb e5e4 45bd 1d94 d73e
00000070: b77a 863e fdfd 613f 9523 cebe ec91 3c3d
00000080: 49dc 393e 1fae f5be c1b8 073f aeeb 48be
00000090: bea4 0b3f b1da e4be 9ecd 723e 4797 323d
000000a0: 177e fd3e c521 813e aca7 b0bd 3ff6 09be
000000b0: 52bf b13d c705 b53e 1320 bc3d ac10 a3be
000000c0: aeba cabe 239b 7e3d 914b 60be f824 f93e
000000d0: fd17 25bf 5100 cd3d 972b 6bbe f80f 08bf
000000e0: 774b 073e 3be1 313e 0490 13be d287 b43c
000000f0: f2c0 83be 992f bf3e ace2 a23e 284d 503e
00000100: 8a3b c1bd 61c5 d0be bc8e dfbe c0c6 95be
00000110: af01 dcbe 2a8a 063f 1205 58bf 79e8 6bbe
00000120: 7401 de3e 14e0 6abd 30ee 083f b23b 2e3e
00000130: b25b 9e3d 2c9a 0f3e 17be 66be e39d 293e
00000140: 75de d5be 9147 733f 82a2 1abf 82aa bdbe
00000150: b6e0 6ebe 4249 e2be a3f2 89be 3474 09bd
00000160: cddc 80be 3420 84be 0179 f83e 5a9d b1be
00000170: da74 a83d e2dc 88bc 0289 3d3e e87a 99be
00000180: 64e7 6c3d 1bbb 6e3e b767 4e3c bd1d ce3d
00000190: 53fb 02be da34 20be 1ebf a2be d574 af3e
000001a0: 36bc 42bd d6a8 0cbf f2ad 0c3e a23e 41be
000001b0: e641 97be c782 e03e c756 8fbd ce2b 893e
000001c0: 8dc5 7bbe 961b 303e ec09 0fbf 45cc 873e
000001d0: 15f5 20bf a603 e23e fdf3 5b3d ff42 03bf
000001e0: 88f2 e2be 2d5c 33bd 56df 90bd bafe 8d3e
000001f0: e271 07be 6508 3b3f df32 babe a222 41be

l4/W f4 [256, 16]
0.27930862 0.09161742 0.31083852 0.036075708 -0.16497469 -0.31645322 0.432538 0.08821164
0.08787292 0.031168513 -0.089705735 -1.0245498 -0.0097753275 0.5971495 0.24174657 0.4548343
-0.30301917 0.37629244 0.2561422 0.0475684 0.50417036 0.1542893 0.67174494 0.21382524
-0.39212498 -0.76203287 -0.084917076 -0.45879388 -0.10786457 0.19587746 -0.16845876 0.051134355
0.077367775 0.21822375 -0.38579232 -0.26274294 -0.26029822 0.3008547 0.091582716 0.117497526
0.6078994 -0.056946106 -0.49866557 -0.06467904 -0.09722117 -0.2172674 -1.09939 0.18776745
0.2358118 -0.19117793 0.79226965 0.08256102 0.31405082 0.03620516 -0.2860949 0.46910456
0.37669995 0.12738408 -0.63922805 0.48258793 -0.6191922 -0.44991213 0.118315734 -0.10443437
-0.16722362 -0.7280182 0.6360962 -0.17813158 0.28571272 0.45631635 -1.0771371 0.561248
-0.12462757 -0.49081331 0.16572778 0.3094206 -0.61967665 -0.9811446 0.60710466 -0.023123285
-0.3064926 -0.27271354 -0.71184164 -0.07855472 -0.12832066 0.3448847 -0.12138874 0.14503121
0.20852982 0.25168467 0.41577494 -0.3652823 -0.51935005 -0.22851086 0.41565815 0.2605861
0.16044328 0.1253987 0.13491294 -0.29374856 0.25095823 -0.3389275 -0.3476008 0.39795002
-0.2000704 0.40726286 0.07031824 0.15503016 -0.08019095 0.23678651 0.080457285 0.24138646
0.2674461 -0.28397065 0.40300912 -0.033408094 -0.9628275 -0.28571653 -0.24828915 0.2550455
0.66568226 -0.059593465 -0.6726759 0.04295495 0.06668542 -0.0066227964 -0.07224719 -0.46492115
0.17020103 -1.180064 -0.46850783 -0.3023313 -0.19947957 0.08090313 0.35008234 -0.002521696
-0.13437061 -0.17469889 -0.5375624 -0.022017052 -0.2244048 -0.76600415 0.63906395 -0.35162917
0.23570547 0.37845495 -0.40737846 -0.94848794 0.034120753 0.2005758 0.15740132 -0.25342304
-0.08472881 -0.90028626 -0.36514324 -0.20451532 0.002174766 -0.109155945 0.36663046 0.08510582
-0.81439847 -0.40229943 0.58747107 -0.32614818 0.5139861 -0.13352086 -0.17306891 -0.22202964
-0.2054146 0.24312338 -0.06754583 0.20068443 -0.4862364 0.07041932 0.29256442 -0.50920886
0.08410936 -0.60637003 -0.08010132 -0.24563116 -0.0009607291 -0.35331747 0.09727118 0.76932114
-0.25309786 0.0583855 0.12053849 0.08034646 -1.0268067 0.164788 -0.18468504 -0.20129298
0.1385455 -0.08002749 -0.30809048 -0.6696397 0.014999079 0.101050206 0.32591504 -0.13536291
-0.3493491 0.17390259 -0.18899791 0.5080963 0.23554446 -0.044771094 -0.013164597 -0.023004472
-0.49385366 0.52204955 0.5283217 -0.23071337 0.2606288 0.052312974 -0.23907022 0.109169215
0.037448216 -0.59711176 0.13229148 -0.13358223 -0.37711936 -0.24020858 0.059082266 -0.28898504
-0.8141369 0.29546854 0.08262565 -0.6074738 -0.12692496 -0.5398309 -0.83542633 -0.09700147
0.34296125 0.05814296 0.3946787 0.26861715 0.3681194 0.029277066 -0.14716238 -0.7828358
0.41500995 0.10374578 -0.256384 0.39668366 0.31372347 -0.28045484 -0.25689906 -0.055845443
-0.15514669 -0.012215926 -0.18315205 0.49662107 0.34108016 0.010170312 0.069948174 0.22318916
00000000: 8a01 8f3e eaa1 bb3d 3a26 9f3e 1fc4 133d
00000010: 20ef 28be 2806 a2be 9f75 dd3e 4ea8 b43d
00000020: b8f6 b33d 1c55 ff3c a4b7 b7bd 7324 83bf
00000030: b228 20bc cade 183f 6a8c 773e 0be0 e83e
00000040: 5425 9bbe 67a9 c03e 1225 833e 15d7 423d
00000050: 4f11 013f 04fe 1d3e 7af7 2b3f 01f5 5a3e
00000060: 9bc4 c8be 9614 43bf 01e9 adbd 08e7 eabe
00000070: 1ae8 dcbd 1a94 483e 7480 2cbe 4272 513d
00000080: ff72 9e3d 0c76 5f3e 9286 c5be 3e86 86be
00000090: cf45 85be a109 9a3e b88f bb3d 8ba2 f03d
000000a0: 4c9f 1b3f 5240 69bd 1851 ffbe 7276 84bd
000000b0: e51b c7bd 587b 5ebe d0b8 8cbf 1c46 403e
000000c0: a678 713e 26c4 43be 2fd2 4a3f c115 a93d
000000d0: 45cb a03e dd4b 143d 087b 92be 792e f03e
000000e0: d1de c03e f970 023e 73a4 23bf c415 f73e
000000f0: 6183 1ebf e25a e6be 854f f23d b0e1 d5bd
00000100: ab3c 2bbe 675f 3abf 33d7 223f 2068 36be
00000110: f048 923e 4ca2 e93e a1df 89bf f3ad 0f3f
00000120: bd3c ffbd e24b fbbe 8bb4 293e 606c 9e3e
00000130: 21a3 1ebf 4b2c 7bbf 366b 1b3f 0b6d bdbc
00000140: 99ec 9cbe 1ca1 8bbe 413b 36bf 4ce1 a0bd
00000150: 7e66 03be ba94 b03e a99a f8bd 1083 143e
00000160: d788 553e d0dc 803e 74e0 d43e 4806 bbbe
00000170: 20f4 04bf c0fe 69be 25d1 d43e 8b6b 853e
00000180: 3e4b 243e 8468 003e 9e26 0a3e 3666 96be
00000190: 997d 803e e887 adbe bbf8 b1be 1bc0 cb3e
000001a0: 41df 4cbe c284 d03e 0203 903d 3ac0 1e3e
000001b0: 273b a4bd 2a78 723e cac6 a43d 032e 773e
000001c0: b2ee 883e 9a64 91be 3657 ce3e edd6 08bd
000001d0: dd7b 76bf 7049 92be 833f 7ebe 5395 823e
000001e0: 276a 2a3f 4718 74bd 7d34 2cbf 88f1 2f3d
000001f0: 5e92 883d 0b04 d9bb 56f6 93bd 250a eebe
00000200: 2e49 2e3e 560c 97bf 42e0 efbe 2bcb 9abe
00000210: 5f44 4cbe 8ab0 a53d fe3d b33e 0a43 25bb
00000220: 7398 09be 44e4 32be b09d 09bf 1b5d b4bc
00000230: 5fca 65be d918 44bf b299 233f bd08 b4be
00000240: c65c 713e d9c4 c13e e993 d0be 1bd0 72bf
00000250: 34c2 0b3d be63 4d3e d02d 213e aac0 81be
00000260: 4c86 adbd 2979 66bf 0ef4 babe 776c 51be
00000270: 8586 0e3b 278d dfbd fdb6 bb3e f64b ae3d
00000280: 6b7c 50bf 31fa cdbe 8164 163f e5fc a6be
00000290: 9894 033f b1b9 08be fa38 31be bd5b 63be
000002a0: 3458 52be 56f5 783e 7855 8abd 3880 4d3e
000002b0: faf3 f8be 0138 903d 01cb 953e 835b 02bf
000002c0: 8741 ac3d 113b 1bbf 290c a4bd bc86 7bbe
000002d0: 70d9 7bba 07e6 b4be 1d36 c73d 3bf2 443f
000002e0: 0b96 81be a225 6f3d e2dc f63d af8c a43d
000002f0: 676e 83bf 2fbe 283e 131e 3dbe bf1f 4ebe
00000300: dfde 0d3e 74e5 a3bd 09be 9dbe 826d 2bbf
00000310: b2be 753c 69f3 ce3d 56de a63e 939c 0abe
00000320: e3dd b2be 8513 323e ab88 41be 9912 023f
00000330: 9132 713e e561 37bd 52b0 57bc e073 bcbc
00000340: 63da fcbe 0aa5 053f 1740 073f 2040 6cbe
00000350: 2371 853e 2146 563d d3ce 74be 1c94 df3d
00000360: 4d63 193d 51dc 18bf 6b77 073e c8c9 08be
00000370: ca15 c1be 3df9 75be 3f00 723d d9f5 93be
00000380: 476b 50bf a747 973e a337 a93d 6783 1bbf
00000390: 9ef8 01be 5c32 0abf 80de 55bf b5a8 c6bd
000003a0: 9e98 af3e 5027 6e3d 5413 ca3e 3088 893e
000003b0: 257a bc3e 75d6 ef3c bcb1 16be ed67 48bf
000003c0: 2f7c d43e ab78 d43d c344 83be 1f1a cb3e
000003d0: 5da0 a03e c797 8fbe 4688 83be 31be 64bd
000003e0: c6de 1ebe 4f25 48bc 368c 3bbe 1e45 fe3e
000003f0: 0fa2 ae3e 61a1 263c fd40 8f3d b38b 643e

c3/W f4 [16, 8, 2, 2]
0.087937154 0.048767574 0.20513159 -0.1940247 -0.11665556 -0.25332958 0.096984245 -0.04816636
0.33826682 -0.089018255 0.08933931 -0.17069164 -0.1140775 0.14763984 0.7672743 0.0018933845
0.37187707 0.4692376 -0.04859571 -0.30116674 0.41830066 -0.18953083 -0.072426595 0.17801538
-0.19058062 0.23234192 0.15383045 -0.25930285 -0.74894387 0.011106988 0.21741828 -0.293002
0.18044627 0.24823308 -0.44761616 -0.11301305 0.10110763 0.2687174 -0.02010685 0.4054867
0.041484468 0.24283938 0.24844505 -0.25593385 0.070449926 0.095961824 -0.17702055 0.29412296
0.12067933 0.14579687 -0.33482188 -0.21985559 0.070878275 -0.12144372 0.25566742 -0.10228377
0.20458846 0.13676211 -0.405117 -0.29126826 -0.059293013 -0.038064398 -0.053785685 -0.6902201
-0.017715143 -0.045043025 0.057123404 0.011394759 -0.13970584 -0.09552998 -0.19247149 0.07733801
0.04230289 -0.1539626 -9.524761e-05 -0.51089066 -0.20153193 0.18053626 0.019565744 -0.099752896
-0.060297303 -0.23060574 0.042930458 -0.27317002 0.03919326 0.22293024 0.0045354534 -0.024558531
-0.24756326 -0.15090981 -0.038049888 -0.022265458 -0.108967245 -0.20155595 0.0610114 0.21953511
-0.30156416 0.21554637 0.2100468 -0.010849875 0.19731696 -0.5385461 -0.29379493 -0.01903777
-0.066662975 0.014277265 0.39978507 -0.14520459 -0.14440009 -0.5126206 0.47756836 -0.009797079
0.48294744 -0.42326057 0.044212885 -0.30501094 0.065071605 0.122158885 -0.3613604 -0.09738595
-0.28624117 -0.16559556 -0.038514804 0.37317047 -0.0074216793 0.042343073 -0.025081152 -0.41264376
-0.0025794883 0.056828838 -0.31452948 -0.22432448 0.2192507 -0.22423272 0.17846833 0.14829329
-0.035302572 0.1803293 -0.12314306 0.48136485 -0.3729135 -0.13788238 -0.595718 -0.28445747
0.22277568 -0.44085455 -0.35013288 -0.31435445 -0.06617438 -0.3345485 0.057085235 0.20984426
0.08964204 -0.026010398 0.096591346 -0.055610355 -0.15270872 0.05550183 0.19253972 0.054116193
0.07616298 -0.27131352 -0.21510604 0.65709215 0.13318823 0.4807946 0.15289427 -0.112231016
0.0838923 0.1587982 0.12286101 -0.3304049 0.23606491 -0.15978532 -0.049339477 -0.4643799
0.027291805 -0.09772358 -0.15137771 -0.3636308 0.29524508 0.03715908 0.21248338 0.18978502
-0.09218109 -0.096855395 -0.11589654 -0.35277703 0.09973862 0.54439944 -0.41670293 -0.19064778
0.3026542 -0.19831273 0.31519797 -0.0373859 -0.5877316 0.33786327 -0.09367236 0.12225873
-0.24173434 0.08360865 0.069415845 -0.0053039207 -0.14533274 -0.17433372 0.5755009 0.035701018
-0.008740724 -0.099307805 0.39743888 -0.043286636 0.20054343 -0.10014602 0.027064273 -0.17898487
0.50357276 0.011034494 0.4899779 -0.050819356 0.20617865 -0.02744106 -0.4794884 -0.05327505
-0.11499643 -0.33541468 0.078727625 -0.018100165 0.11923809 -0.4740679 -0.11819386 0.71312815
-0.41307148 -0.20839816 -0.11313247 0.3370959 0.005502329 -0.4224122 -0.12659182 0.11748295
-0.31785634 0.2594867 -0.078114584 0.29614353 -0.33914733 0.013334563 -0.14738472 -0.099579975
0.091567 -0.14698267 0.0010952516 0.3099992 0.3414367 0.15055735 -0.16949755 0.10579326
00000000: 6518 b43d 82c0 473d 040e 523e 69ae 46be
00000010: 1ce9 eebd 6ab4 81be ad9f c63d 174a 45bd
00000020: 4f31 ad3e 344f b6bd 87f7 b63d cac9 2ebe
00000030: 77a1 e9bd e62e 173e 176c 443f 712b f83a
00000040: ac66 be3e e93f f03e 4c0c 47bd 8732 9abe
00000050: 812b d63e 5f14 42be 6554 94bd aa49 363e
00000060: 9127 43be 0aeb 6d3e bb85 1d3e 58c3 84be
00000070: c9ba 3fbf 16fa 353c e6a2 5e3e 5c04 96be
00000080: e8c6 383e d030 7e3e f22d e5be 6373 e7bd
00000090: 8411 cf3d 5495 893e 1fb7 a4bc f49b cf3e
000000a0: 9eeb 293d e3aa 783e 6168 7e3e c309 83be
000000b0: 0d48 903d a287 c43d e044 35be 4997 963e
000000c0: b926 f73d c64b 153e c66d abbe d321 61be
000000d0: a128 913d 7cb7 f8bd d7e6 823e 277a d1bd
000000e0: a37f 513e 5e0b 0c3e 7f6b cfbe 1d21 95be
000000f0: 3bdd 72bd 6ae9 1bbd 614e 5cbd 44b2 30bf
00000100: 591f 91bc 097f 38bd 3bfa 693d 15b1 3a3c
00000110: 0c0f 0fbe 39a5 c3bd 3f17 45be 6463 9e3d
00000120: cc45 2d3d 5fa8 1dbe acbf c7b8 bbc9 02bf
00000130: 635e 4ebe 7fde 383e 5748 a03c 3f4b ccbd
00000140: 4efa 76bd e923 6cbe d9d7 2f3d f1dc 8bbe
00000150: 1d89 203d d347 643e 249e 943b f92e c9bc
00000160: 3981 7dbe 1a88 1abe 33da 1bbd 0d66 b6bc
00000170: 382a dfbd af64 4ebe 17e7 793d d0cd 603e
00000180: 9e66 9abe 30b8 5c3e 8216 573e adc3 31bc
00000190: 750d 4a3e 28de 09bf 4a6c 96be 19f5 9bbc
000001a0: 9986 88bd 31eb 693c a1b0 cc3e 83b0 14be
000001b0: 9edd 13be 1b3b 03bf d783 f43e ed83 20bc
000001c0: e344 f73e 9cb5 d8be 9218 353d 652a 9cbe
000001d0: 4344 853d 702e fa3d 3b04 b9be 4972 c7bd
000001e0: 348e 92be e291 29be b3c1 1dbd 3310 bf3e
000001f0: 8f31 f3bb ee6f 2d3d fd76 cdbc 0b46 d3be
00000200: a20c 29bb 5bc5 683d 020a a1be 51b5 65be
00000210: 4183 603e 439d 65be 67c0 363e 32da 173e
00000220: 6e99 10bd 3ea8 383e 6e32 fcbd 7475 f63e
00000230: 85ee bebe 0a31 0dbe fa80 18bf 69a4 91be
00000240: 4f1f 643e b0b7 e1be 9e44 b3be 11f3 a0be
00000250: 6f86 87bd f149 abbe 35d2 693d 6ae1 563e
00000260: 3f96 b73d c213 d5bc afd1 c53d afc7 63bd
00000270: ad5f 1cbe e355 633d 2229 453e f1a8 5d3d
00000280: 56fb 9b3d 9be9 8abe c244 5cbe 3137 283f
00000290: 7f62 083e b62a f63e 5190 1c3e 60d9 e5bd
000002a0: bacf ab3d ff9b 223e 8e9e fb3d d52a a9be
000002b0: 00bb 713e c39e 23be 3118 4abd 34c3 edbe
000002c0: 1093 df3c 4d23 c8bd c202 1bbe d12d babe
000002d0: 5d2a 973e 1f34 183d 3e95 593e 0157 423e
000002e0: 70c9 bcbd 1f5c c6bd 2a5b edbd 319f b4be
000002f0: c343 cc3d c35d 0b3f 165a d5be 2c39 43be
00000300: 7ef5 9a3e 7e12 4bbe a161 a13e f521 19bd
00000310: 9475 16bf 6afc ac3e 4bd7 bfbd c962 fa3d
00000320: 3589 77be 033b ab3d e529 8e3d 83cc adbb
00000330: 1bd2 14be 8a84 32be 0754 133f 3b3b 123d
00000340: 4135 0fbc e461 cbbd 1c7d cb3e 544d 31bd
00000350: 425b 4d3e 5b19 cdbd e5b5 dd3c cf47 37be
00000360: 25ea 003f 06ca 343c 62de fa3e f527 50bd
00000370: 7f20 533e 13cc e0bc 817f f5be f036 5abd
00000380: 4083 ebbd 79bb abbe f33b a13d cc46 94bc
00000390: 1a33 f43d 07b9 f2be 9f0f f2bd 918f 363f
000003a0: 1b7e d3be 5466 55be ffb1 e7bd d597 ac3e
000003b0: e24c b43b 6946 d8be 49a1 01be e79a f03d
000003c0: 11be a2be 71db 843e 8afa 9fbd 20a0 973e
000003d0: b8a4 adbe 3679 5a3c 05ec 16be 96f0 cbbd
000003e0: 7b87 bb3d a082 16be 8c8e 8f3a 37b8 9e3e
000003f0: cbd0 ae3e b52b 1a3e c490 2dbe 23aa d83d

l5/b f4 [16]
-0.01996525 0.045436338 0.0208637 0.08690278 0.046104003 -0.036473844 -0.028252658 0.083196744
0.055560544 -0.03547252 -0.022862883 -0.02218625 0.08368853 0.08388401 0.025763487 -0.019910397
00000000: 2a8e a3bc 741b 3a3d 5aea aa3c 16fa b13d
00000010: 8dd7 3c3d 9965 15bd 1e72 e7bc 0e63 aa3d
00000020: 7493 633d a24b 11bd f14a bbbc f0bf b5bc
00000030: e464 ab3d 61cb ab3d f30d d33c 211b a3bc

c1/b f4 [4]
0.29111707 0.2923783 -0.2836908 -0.24843106
00000000: 4c0d 953e 9cb2 953e ec3f 91be b664 7ebe

l4/b f4 [256]
0.3391171 0.043807086 -0.026950099 -0.11072653 -0.2888517 -0.08133472 0.06973438 0.019917723
0.06576898 0.1327728 0.33787543 0.2761235 0.005486511 0.07038161 -0.044417094 -0.06327352
0.038968224 0.07731115 0.13969243 0.01933413 0.32166493 0.0637239 -0.06930635 0.11126769
-0.08440055 0.28664365 0.18842244 -0.017602688 0.104906544 0.06503679 0.36479744 -0.07790597
0.123771414 -0.2834642 -0.48590288 0.13501717 -0.12662004 0.0025499265 -0.0133759575 -0.20808522
-0.39876413 -0.12829758 0.13456787 0.025032556 -0.022615973 -0.13724846 0.024183195 -0.03462799
-0.12096456 -0.043663263 -0.0374736 -0.19133608 0.08396799 -0.06959222 0.12751476 -0.28305933
0.1037628 0.01802394 -0.13209236 0.02048913 -0.31611243 0.010185897 0.22150147 -0.20510013
0.035567842 -0.23676543 0.36516723 0.01902021 -0.23680294 -0.39461115 0.08221014 -0.14967886
0.12592901 -0.13989843 0.15422449 -0.06446262 0.10452205 -0.022960229 0.010231836 -0.022161402
-0.24563855 -0.119730905 -0.03933191 -0.34748173 -0.38122785 0.10573287 0.0102228075 -0.19311339
0.0022177065 -0.19928452 0.21975163 -0.11559205 -0.1440545 0.007821938 -0.13507421 0.025235724
-0.21681422 0.10315903 -0.1459301 0.24655448 0.14814661 0.22683507 0.16824937 0.08819623
0.12633574 -0.13979946 -0.07136408 0.21965167 -0.3678914 -0.016967956 -0.4827357 0.13887157
0.23808323 -0.19275524 0.11737916 0.02227285 -0.23615539 -0.02039958 0.122071624 0.021504665
0.35853422 -0.080909856 -0.094403766 -0.1551258 0.0039436924 0.18204473 0.080118515 -0.1560652
-0.103891306 -0.16911559 0.07231313 -0.0076169786 -0.19055896 -0.04758758 -0.13893692 0.2251693
0.23250653 -0.11044903 -0.0020498163 -0.10021475 -0.16653582 -0.0022615911 -0.08900457 -0.10083779
-0.110621326 0.09639961 -0.0447397 -0.18652472 0.16582254 -0.061916303 0.030324768 -0.0075330283
-0.2679999 0.010991367 0.13852559 -0.18489319 -0.021678058 -0.2421714 -0.28527823 0.038418632
0.16836017 -0.1308409 -0.2863464 0.09160025 -0.19852799 -0.22232416 -0.074669026 0.16949075
-0.27121213 -0.50195 -0.030082297 0.1647562 0.045495175 -0.1053812 -0.22903359 0.170693
-0.004493337 -0.18093032 0.04178606 -0.2496267 0.24783106 -0.23332617 0.058439367 0.032560427
0.09008894 0.41867357 -0.0518045 -0.085242994 0.058489703 -0.004476588 0.10397256 0.14298984
0.022621742 -0.03578277 0.16776723 0.36469248 -0.09104483 -0.0015140944 -0.085300766 0.10155431
-0.38780203 0.04237348 -0.06774251 0.48529235 -0.0011378849 -0.104948945 0.0068916096 0.13165109
-0.3074435 -0.08694972 0.035819314 -0.34410304 0.051129755 -0.19890307 -0.11233335 -0.1119451
-0.09144811 0.02291207 -0.16764173 -0.06635291 0.13528265 0.067431994 -0.04856513 -0.20105615
-0.10503222 -0.13114676 0.06600699 -0.18654864 0.2061179 0.05230759 -0.008278377 -0.06936579
-0.14718488 -0.22248639 -0.08378269 0.094985746 -0.16645393 -0.115710534 -0.17064665 -0.2827179
0.15747975 -0.017827937 -0.11201779 -0.15348929 0.48037 0.116534166 0.046329122 -0.27431083
-0.028102525 0.035505176 -0.15305384 -0.16294685 -0.20868805 -0.19842896 -0.27355438 -0.0777856
00000000: c2a0 ad3e 0f6f 333d 74c6 dcbc 97c4 e2bd
00000010: 5fe4 93be d192 a6bd e6d0 8e3d 7e2a a33c
00000020: e3b1 863d 98f5 073e 02fe ac3e 0f60 8d3e
00000030: 31c8 b33b 3c24 903d b3ee 35bd 8c95 81bd
00000040: 259d 1f3d 4f55 9e3d 880b 0f3e 9c62 9e3c
00000050: 44b1 a43e ad81 823d 7df0 8dbd 51e0 e33d
00000060: 32da acbd f5c2 923e d0f1 403e 8333 90bc
00000070: 3ed9 d63d 0232 853d bbc6 ba3e 2a8d 9fbd
00000080: de7b fd3d 3822 91be 43c8 f8be f141 0a3e
00000090: afa8 01be ab1c 273b d526 5bbc 4b14 55be
000000a0: d02a ccbe 7160 03be 29cc 093e 1311 cd3c
000000b0: 2245 b9bc dc8a 0cbe d61b c63c 14d6 0dbd
000000c0: 44bc f7bd 40d8 32bd eb7d 19bd 9bed 43be
000000d0: 69f7 ab3d 5e86 8ebd 3b93 023e 27ed 90be
000000e0: 9781 d43d f1a6 933c 3843 07be d2d8 a73c
000000f0: 7dd9 a1be c0e2 263c 48d1 623e c505 52be
00000100: 96af 113d a372 72be 33f7 ba3e 45d0 9b3c
00000110: 787c 72be 790a cabe ca5d a83d 6a45 19be
00000120: 89f3 003e 8941 0fbe 06ed 1d3e fa04 84bd
00000130: a80f d63d 1717 bcbc 6ea3 273c d48b b5bc
00000140: ac88 7bbe 7a35 f5bd 7f1a 21bd 20e9 b1be
00000150: 4c30 c3be 7a8a d83d 907d 273c 84bf 45be
00000160: f156 113b 3e11 4cbe 9206 613e 86bb ecbd
00000170: 0683 13be 9627 003c e550 0abe 26bb ce3c
00000180: 8c04 5ebe 0b45 d33d b36e 15be c778 7c3e
00000190: bfb3 173e 7447 683e 9049 2c3e 3aa0 b43d
000001a0: 285e 013e 9727 0fbe 5527 92bd 5eec 603e
000001b0: 435c bcbe 6200 8bbc 2229 f7be 5934 0e3e
000001c0: 17cc 733e a161 45be 7c64 f03d 8d75 b63c
000001d0: b8d2 71be 051d a7bc b000 fa3d 8d2a b03c
000001e0: cc91 b73e 11b4 a5bd c356 c1bd 4cd9 1ebe
000001f0: 173a 813b ef69 3a3e 2d15 a43d 8ecf 1fbe
00000200: f7c4 d4bd a32c 2dbe e818 943d d997 f9bb
00000210: e321 43be 32eb 42bd 7b45 0ebe c892 663e
00000220: 3116 6e3e 1a33 e2bd 3656 06bb 643d cdbd
00000230: 5e88 2abe 3437 14bb 0748 b6bd 0b84 cebd
00000240: 6f8d e2bd 296d c53d fa40 37bd 5600 3fbe
00000250: 62cd 293e f39b 7dbd a66b f83c 9fd7 f6bb
00000260: 4837 89be 2215 343c a7d9 0d3e a454 3dbe
00000270: 2f96 b1bc c8fb 77be fd0f 92be db5c 1d3d
00000280: 9c66 2c3e 28fb 05be ff9b 92be e998 bb3d
00000290: ec4a 4bbe f2a8 63be 13ec 98bd fc8e 2d3e
000002a0: 51dc 8abe cc7f 00bf 266f f6bc d9b5 283e
000002b0: 2659 3a3d 19d2 d7bd c887 6abe 25ca 2e3e
000002c0: d83c 93bb cc45 39be dc27 2b3d 249e 7fbe
000002d0: 6dc7 7d3e 0eed 6ebe 1e5e 6f3d 155e 053d
000002e0: 8d80 b83d 625c d63e f530 54bd e193 aebd
000002f0: e692 6f3d 58b0 92bb 91ef d43d ee6b 123e
00000300: 3b51 b93c f490 12bd 2ccb 2b3e f9b8 ba3e
00000310: b675 babd 9474 c6ba 2bb2 aebd b5fb cf3d
00000320: fd8d c6be d08f 2d3d 96bc 8abd 3d78 f83e
00000330: 1525 95ba 79ef d6bd 03d3 e13b 8bcf 063e
00000340: 3c69 9dbe b212 b2bd 46b7 123d 462e b0be
00000350: 6f6d 513d 3fad 4bbe 070f e6bd 7943 e5bd
00000360: 2649 bbbd 18b2 bb3c 46aa 2bbe 09e4 87bd
00000370: 8987 0a3e c919 8a3d 3bec 46bd aae1 4dbe
00000380: 221b d7bd 564b 06be ac2e 873d 9b06 3fbe
00000390: 9210 533e 7c40 563d 08a2 07bc a70f 8ebd
000003a0: a2b7 16be 79d3 63be 4296 abbd e387 c23d
000003b0: e672 2abe a5f9 ecbd ffbd 2ebe 67c0 90be
000003c0: 5f42 213e e50b 92bc 9569 e5bd 4c2c 1dbe
000003d0: 0ef3 f53e 77a9 ee3d 9bc3 3d3d 7872 8cbe
000003e0: 4437 e6bc e06d 113d 25ba 1cbe 8adb 26be
000003f0: 52b2 55be f630 4bbe 520f 8cbe 0f4e 9fbd

c2/b f4 [8]
0.1565616 0.20361118 -0.11171191 -0.24620613 -0.2886366 -0.25993598 0.013764723 0.020509407
00000000: af51 203e 737f 503e 37c9 e4bd 761d 7cbe
00000010: 2dc8 93be 5416 85be 6f85 613c 5803 a83c
