examples/ch4/reversi_DQN_CNN/agent_black_12000/model.npz (npz, 35992 bytes, 10 tensors)

c3/b f4 [16]
-0.44274396 -0.31080738 0.0 1.0979304 0.89156955 0.8006625 0.14993908 -0.12729652
0.0 0.019291328 0.48350683 -0.115344666 -0.45461875 -0.028961012 0.33555406 -0.030536396
00000000: 56af e2be 2522 9fbe 0000 0000 fc88 8c3f
00000010: e73d 643f 38f8 4c3f a189 193e 055a 02be
00000020: 0000 0000 d908 9e3c 358e f73e d339 ecbd
00000030: cac3 e8be a53f edbc becd ab3e 7727 fabc

c1/W f4 [4, 1, 2, 2]
1.047964 -0.6638518 -1.0034617 0.20882162 -0.7648499 0.089629464 -0.38801855 0.5851539
0.6117091 0.20419632 0.21409449 -0.032447226 -0.082861155 0.2501045 0.18941693 0.67388546
00000000: af23 863f 31f2 29bf 6f71 80bf 56d5 553e
00000010: 34cd 43bf a78f b73d 5eaa c6be a5cc 153f
00000020: f898 1c3f d718 513e 963b 5b3e 62e7 04bd
00000030: 1cb3 a9bd b20d 803e 83f6 413e c283 2c3f

l5/W f4 [16, 256]
-0.70858645 0.271186 -0.2759377 -0.2754949 -0.3030483 -0.30956653 0.17597146 -0.7315657
0.12030407 -0.19746736 0.049685925 -0.09357139 0.2964153 -0.12725309 -0.046331525 -0.39889473
0.54950076 0.15413252 0.048571378 -0.024749123 -0.06364946 0.37130502 -0.486558 -0.5279957
0.049831554 -0.29639977 -0.2019128 -0.30696115 0.8863782 0.23859663 -0.105176575 -0.3157801
0.19235173 0.31441054 0.13113374 -0.060965102 0.04223511 0.21853083 -0.33234024 -0.28094944
-0.2048359 -0.1478962 0.07269662 0.36799625 -0.08721289 -0.013352353 -0.10913431 0.33406097
-0.066122614 -0.46417156 -0.46529418 0.07666529 -0.35109952 0.24206752 0.34318486 -0.3863031
-0.21654901 0.50209135 -0.07688399 0.120036736 0.20053071 0.09886909 0.6385074 0.775999
0.24782671 0.09388324 -0.5975406 -0.00808394 -0.88718015 0.5158215 -0.099801466 0.10986733
0.06773662 0.4013131 -0.36728257 0.53416574 0.30384097 -0.056049783 -0.173276 -0.101422794
0.34199888 -0.24597085 -0.4016317 0.698365 -0.64250094 0.030993339 -0.14265059 0.3681847
0.3358618 -0.13963303 -0.099873535 -0.41284254 -0.0066895196 -0.28039038 -0.73446256 -0.039550755
-0.026236435 0.15655841 0.19551857 0.71365887 -0.030944692 0.07876047 -0.1729478 0.018279249
0.051152762 -0.11364625 0.08113828 -0.6149493 -0.25545353 -0.08180134 -0.1880333 0.60851717
0.5943934 0.23426731 -0.20293139 0.0078388285 0.30398837 -0.17255424 0.4724313 -0.027613878
-0.49489647 0.25639817 0.29965195 0.28889832 -0.25272074 -0.31643644 0.17470708 0.62372416
-0.4750241 0.348255 0.298084 0.42333677 0.80705297 -0.14387985 0.30798683 0.022823317
-0.40143716 -0.39936298 0.43315464 -0.69159395 0.081369355 -0.26349804 -0.49914065 -0.37449765
0.06353889 0.42961308 0.050304577 -1.0405552 0.4555281 0.20146486 -0.20353459 0.064073905
-0.45230475 -0.22386257 0.9559856 0.37530676 0.049734514 1.1132133 0.105266824 0.5006025
-0.4295882 -0.028538905 -0.47924337 0.4982318 0.105792515 -0.5633811 0.05471331 -0.3100423
0.30089214 -0.7812179 -0.185314 0.2254012 -0.032867197 -0.20902081 -0.013756199 0.16667944
-0.26121294 -0.08172337 -0.88673425 0.022300605 0.43487456 -0.47555548 0.5734174 -0.8497999
0.059104796 0.6013822 0.028621037 -0.52861625 -0.50103974 0.7152996 0.5262536 0.67563134
-0.43141097 0.27137083 0.8130023 -0.77480376 0.1800671 -0.6352535 -0.5508496 -0.45211294
-0.13082917 0.2812297 0.5543903 0.29762125 0.10378237 -0.3449106 -0.2752877 -0.22153665
-0.55767924 -0.2243372 -0.117411874 -1.0537219 -0.3631483 0.7163762 0.16825485 0.9509084
0.39101884 -0.3170982 -0.46459845 -0.0805328 0.53048474 0.076867685 -0.82077074 -0.87453616
0.035432864 0.321792 -0.44616258 0.06925164 0.22326192 -0.33192697 0.12137648 -0.25100645
-0.10903927 -0.12207542 -0.053598117 0.46479064 0.30491933 -0.53734946 0.2977156 0.70978177
-0.5762888 -0.40090296 -1.0663643 0.11948281 -0.5939584 -0.23375793 0.6725613 -0.048890434
0.26522082 0.22293073 -0.7022163 -0.5811857 0.37559348 -0.34041128 -0.45603648 0.5267468
00000000: ec65 35bf e4d8 8a3e b547 8dbe ab0d 8dbe
00000010: 2629 9bbe 817f 9ebe dd31 343e e447 3bbf
00000020: fb61 f63d e234 4abe 7883 4b3d 5ba2 bfbd
00000030: bfc3 973e a24e 02be 20c6 3dbd ee3b ccbe
00000040: 15ac 0c3f ead4 1d3e c8f2 463d acbe cabc
00000050: a65a 82bd b11b be3e 211e f9be ba2a 07bf
00000060: 2c1c 4c3d b6c1 97be 3bc2 4ebe 032a 9dbe
00000070: afe9 623f ad52 743e d166 d7bd eead a1be
00000080: daf7 443e 6bfa a03e ec47 063e 8bb6 79bd
00000090: b9fe 2c3d 8cc6 5f3e 8028 aabe 9bd8 8fbe
000000a0: 81c0 51be 1a72 17be f7e1 943d 016a bc3e
000000b0: ac9c b2bd d4c3 5abc cf81 dfbd 0a0a ab3e
000000c0: 4b6b 87bd e5a7 edbe 0a3b eebe b102 9d3d
000000d0: 51c3 b3be 8ce0 773e edb5 af3e 85c9 c5be
000000e0: 06bf 5dbe 0f89 003f 5a75 9dbd d2d5 f53d
000000f0: ec57 4d3e e17b ca3d 3975 233f dfa7 463f
00000100: 49c6 7d3e db45 c03d 6cf8 18bf 8072 04bc
00000110: 3d1e 63bf e10c 043f b664 ccbd 1f02 e13d
00000120: 7fb9 8a3d e978 cd3e 760c bcbe 16bf 083f
00000130: 0b91 9b3e 7594 65bd 446f 31be c1b6 cfbd
00000140: 7a1a af3e c8df 7bbe aca2 cdbe 0cc8 323f
00000150: f17a 24bf bee5 fd3c ff12 12be b482 bc3e
00000160: 14f6 ab3e f6fb 0ebe 7f8a ccbd 1960 d3be
00000170: c233 dbbb 548f 8fbe bd05 3cbf f9ff 21bd
00000180: cbed d6bc d950 203e 0536 483e 59b2 363f
00000190: b97f fdbc 2b4d a13d 3a19 31be 5dbe 953c
000001a0: 8f85 513d 5dbf e8bd d42b a63d 516d 1dbf
000001b0: ceca 82be 7687 a7bd cd8b 40be c8c7 1b3f
000001c0: 2a2a 183f c5e3 6f3e 3fcd 4fbe 6e6e 003c
000001d0: 5da4 9b3e 0fb2 30be 84e2 f13e 8036 e2bc
000001e0: 1263 fdbe 9f46 833e fb6b 993e 7bea 933e
000001f0: 9d64 81be f503 a2be 6ae6 323e 63ac 1f3f
00000200: 5c36 f3be 7b4e b23e 779e 983e 99bf d83e
00000210: 069b 4e3f 3d55 13be 73b0 9d3e f7f7 ba3c
00000220: 2c89 cdbe 4e79 ccbe 72c6 dd3e 4d0c 31bf
00000230: faa4 a63d 37e9 86be 5d8f ffbe 28be bfbe
00000240: ad20 823d 3ff6 db3e 2c0c 4e3d ea30 85bf
00000250: fb3a e93e ce4c 4e3e 5f6b 50be 2e39 833d
00000260: 7d94 e7be 3b3c 65be 79bb 743f 3528 c03e
00000270: 6bb6 4b3d c67d 8e3f 2296 d73d 7c27 003f
00000280: fcf2 dbbe 6cca e9bc 635f f5be 3d18 ff3e
00000290: bfa9 d83d be39 10bf 101b 603d ddbd 9ebe
000002a0: 890e 9a3e e5fd 47bf f4c2 3dbe 92cf 663e
000002b0: c19f 06bd 8d09 56be ae61 61bc 04ae 2a3e
000002c0: b4bd 85be 955e a7bd 0401 63bf c2af b63c
000002d0: e1a7 de3e 027c f3be 7ccb 123f 7c8c 59bf
000002e0: df17 723d 2ff4 193f aa76 ea3c 6553 07bf
000002f0: 2444 00bf e01d 373f 8eb8 063f 2df6 2c3f
00000300: e6e1 dcbe 1ef1 8a3e eb20 503f 8a59 46bf
00000310: 8363 383e f99f 22bf 7b04 0dbf 597b e7be
00000320: 15f8 05be 57fd 8f3e 86ec 0d3f d061 983e
00000330: da8b d43d 1f98 b0be 82f2 8cbe 81da 62be
00000340: 11c4 0ebf a7b8 65be a375 f0bd 5ce0 86bf
00000350: 93ee b9be 6e64 373f 004b 2c3e bc6e 733f
00000360: 9f33 c83e b25a a2be d9df edbe 61ee a4bd
00000370: d9cd 073f ce6c 9d3d 081e 52bf 9ae1 5fbf
00000380: 0d22 113d ecc1 a43e 6c6f e4be ced3 8d3d
00000390: c69e 643e 55f2 a9be 3b94 f83d eb83 80be
000003a0: fb4f dfbd ae02 fabd b389 5bbd 0af9 ed3e
000003b0: 631e 9c3e bc8f 09bf 2e6e 983e 42b4 353f
000003c0: aa87 13bf 2743 cdbe a07e 88bf 67b3 f43d
000003d0: a80d 18bf 3d5e 6fbe fa2c 2c3f 5641 48bd
000003e0: 06cb 873e f447 643e 73c4 33bf 96c8 14bf
000003f0: ca4d c03e 634a aebe 9d7d e9be e1d8 063f

c2/W f4 [8, 4, 2, 2]
-0.259549 0.78650695 -0.31876272 0.65758353 -0.42173702 -0.028836146 0.3247248 -0.107309856
0.5635189 -0.29269502 -0.2322181 0.499054 0.47471705 -0.20327152 0.06520581 -0.40061647
0.19948237 0.26778665 0.072729275 -0.045311555 0.48429453 -0.40919167 0.7033295 0.31082425
-0.36618483 0.30128568 -0.020920308 0.47601202 0.32590908 0.709026 -0.5235955 0.1884209
-0.18468115 -0.5196634 0.7130545 0.12420889 0.23222765 -0.59553874 0.451657 0.8779717
0.41375944 0.28532502 0.3380655 -0.39969084 0.15258113 0.66358685 -0.047088783 -0.41454467
-0.6343748 -0.1537943 0.040784784 0.539092 -0.7179435 0.24020568 -0.06819145 -0.6624003
0.4098835 0.39895496 -0.49594912 0.15770754 -0.42668387 0.15210606 0.45743576 0.36554012
-0.39200673 -0.010983994 -0.80328166 -0.22297151 -0.42565608 0.27807236 -0.69118255 -0.11125992
0.565251 -0.37841624 0.38376936 0.34601915 0.28463018 0.12676616 -0.047331084 0.43930182
-0.08628856 0.9750959 -1.9141695 -0.29965183 -0.42992112 -0.67159045 0.035000946 -0.24693914
0.47508454 0.012651128 0.24332426 -0.5429549 -0.22241837 -0.31906673 0.3321174 -0.18655165
-0.11730904 0.51072955 0.16539957 -0.5955138 -0.06370038 -0.103599586 -0.7584294 0.48280227
-0.51984775 -0.956272 0.1697962 0.02928511 -0.4998006 0.3745543 0.048561364 0.6133459
-0.11015245 0.66289765 -0.6363308 0.32884637 -0.64000493 1.000935 0.45640427 -0.27001157
-0.4264045 -0.1980774 0.061827816 0.4266908 -0.06612512 0.95461583 -0.65464866 -0.43098778
00000000: 9be3 84be 8558 493f de34 a3be 6557 283f
00000010: eaed d7be c839 ecbc 5442 a63e 45c5 dbbd
00000020: c642 103f 1fdc 95be 95ca 6dbe 0284 ff3e
00000030: 1d0e f33e 6926 50be a08a 853d 9a1d cdbe
00000040: 1b45 4c3e 551b 893e 16f3 943d 9c98 39bd
00000050: 74f5 f73e 9281 d1be 670d 343f 5b24 9f3e
00000060: 947c bbbe 1e42 9a3e 1161 abbc d9b7 f33e
00000070: 8edd a63e ba82 353f 5b0a 06bf 69f1 403e
00000080: 0e1d 3dbe a908 05bf bd8a 363f 3b61 fe3d
00000090: 16cd 6d3e 3a75 18bf 963f e73e c1c2 603f
000000a0: 47d8 d33e 1f16 923e ec16 ad3e 47a4 ccbe
000000b0: 3a3e 1c3e d4e0 293f 2be0 40bd 333f d4be
000000c0: 6366 22bf 417c 1dbe f20d 273d ef01 0a3f
000000d0: 25cb 37bf 7af8 753e f5a7 8bbd 1193 29bf
000000e0: 40dc d13e d343 cc3e 0bed fdbe 167e 213e
000000f0: 4f76 dabe b1c1 1b3e 0535 ea3e 1328 bb3e
00000100: 1bb5 c8be 36f6 33bc dea3 4dbf a552 64be
00000110: 98ef d9be 805f 8e3e 57f1 30bf 3edc e3bd
00000120: 4ab4 103f c6bf c1be 6b7d c43e 6c29 b13e
00000130: 0cbb 913e fdce 013e 3dde 41bd 2bec e03e
00000140: 0eb8 b0bd e39f 793f 8203 f5bf f76b 99be
00000150: 9f1e dcbe 5aed 2bbf 275d 0f3d 9ddd 7cbe
00000160: 483e f33e ad46 4f3c ff29 793e 18ff 0abf
00000170: a4c1 63be b75c a3be 4b0b aa3e 6507 3fbe
00000180: b93f f0bd 2cbf 023f 815e 293e 9873 18bf
00000190: 5875 82bd 052c d4bd 6e28 42bf dc31 f73e
000001a0: be14 05bf 3ece 74bf 0edf 2d3e 54e7 ef3c
000001b0: dde5 ffbe 95c5 bf3e 48e8 463d 3d04 1d3f
000001c0: 9c97 e1bd a9b3 293f 93e6 22bf 8d5e a83e
000001d0: 5dd7 23bf a31e 803f d2ad e93e f53e 8abe
000001e0: b151 dabe cdd4 4abe 2a3f 7d3d 3777 da3e
000001f0: 9b6c 87bd b461 743f 0e97 27bf 6eaa dcbe

l4/W f4 [256, 16]
0.49811396 -0.17692992 0.31083852 -0.37320396 -0.03447401 -0.49746093 0.6099517 -0.11647857
0.08787292 0.12920767 -0.38462365 -1.1189013 0.4827339 0.59781265 0.11450459 0.45391124
-0.7300216 0.5566416 0.2561422 -0.58985716 0.43611202 0.16722268 0.17909802 -0.21701786
-0.39212498 -0.7332287 -0.090873875 -0.14717056 -0.13994975 0.19531776 -0.4745014 0.050014596
0.28421754 0.13155639 -0.38579232 -0.87001985 0.39134216 -0.074551165 0.39658958 0.41148606
0.6078994 0.011594871 -0.54628575 -0.05715334 -0.29394892 -0.2175305 -1.7836493 0.18734168
0.13605407 -1.3852816 0.79226965 -0.102595694 0.10219359 -0.07974636 -0.19202888 0.4548805
0.37669995 0.1308887 -0.05180774 0.7947197 -0.8092507 -0.4499672 -0.14164399 -0.10433157
-0.680114 -0.3427829 0.6360962 0.19018188 0.2555491 0.2667388 -0.6690246 0.19853513
-0.12462757 -0.5751972 0.074685164 0.76267385 -0.9650075 -0.9811344 0.0061915442 -0.023113813
-0.552514 -0.07371513 -0.71184164 -0.14937647 -0.5527185 0.0754827 0.17084226 -0.0057906657
0.20852982 0.32395893 0.45480585 -0.114246234 -0.6054791 -0.22759014 0.40435734 0.26061025
0.22025909 0.40557605 0.13491294 -0.17846544 0.078149155 -0.52550805 -1.209983 0.20463844
-0.2000704 0.50328475 -0.21056342 0.3063681 0.10275925 0.23658997 -0.025805457 0.2419002
0.20775685 -0.054492887 0.40300912 0.59439963 -1.3077836 -0.22268817 -0.560245 0.39886042
0.66568226 -0.058809325 -1.1305752 0.3938032 -0.024332805 -0.007949027 -0.21387371 -0.46492115
0.41990486 -0.82868326 -0.46850783 0.01466056 -0.6788959 0.092012204 0.6157469 -0.7317352
-0.13437061 -0.18757515 -0.51488644 -0.060354527 -0.57045764 -0.7660552 0.4951785 -0.35162917
0.2210315 0.4123642 -0.40737846 -0.91147846 -0.18001413 0.14587283 -0.038489148 -0.58506274
-0.08472881 -0.88939124 -0.24370973 -0.20291737 -0.15760249 -0.10893546 0.26184073 0.08567297
-1.6163507 -0.5705591 0.58747107 -0.8845895 0.094591066 -0.34569848 -0.12980652 -0.28966492
-0.2054146 0.25009853 0.12792495 -0.08166223 -0.039822288 0.07135434 0.056141015 -0.50920886
0.011595074 -1.0122591 -0.08010132 -0.56112313 -0.3432804 -0.39325786 -0.029815793 0.6619473
-0.25309786 0.07754047 0.385284 0.24170847 -0.73417425 0.1639682 -0.013262521 -0.20157437
0.31845462 -0.074250005 -0.30809048 -0.5932941 -0.49838722 0.26001045 0.39314884 -0.3855688
-0.3493491 0.19782573 -0.10134016 0.1988784 -0.18139623 -0.044681527 0.040722057 -0.023170143
-0.4019273 0.62038255 0.5283217 -0.5836053 0.50842524 -0.065710485 -0.40994418 0.043347392
0.037448216 -0.6671827 -0.20781815 0.022547476 -0.027017899 -0.240341 -0.15174834 -0.28909734
-0.24175754 0.30924845 0.08262565 -0.73994917 -0.060831323 -0.8789101 -0.1667179 0.19499832
0.34296125 0.08527459 0.6014408 0.20938745 0.010389239 0.029300412 -0.32342082 -0.7826928
-0.14848381 0.2646805 -0.256384 0.488315 0.23867457 -0.5604478 -0.33774233 -0.18802933
-0.15514669 -0.036212027 7.793623e-06 0.511079 0.20362446 0.009974822 0.082424805 0.22317167
00000000: cb08 ff3e 1e2d 35be 3a26 9f3e 9714 bfbe
00000010: 9f34 0dbd 33b3 febe cb25 1c3f 518c eebd
00000020: b8f6 b33d 044f 043e 64ed c4be 2838 8fbf
00000030: e628 f73e 400a 193f 6281 ea3d 0e67 e83e
00000040: b2e2 3abf 1080 0e3f 1225 833e e100 17bf
00000050: 134a df3e 6c3c 2b3e 7965 373e ee39 5ebe
00000060: 9bc4 c8be e0b4 3bbf 151c babd e1b3 16be
00000070: fd4e 0fbe 6101 483e d9f1 f2be 1bdc 4c3d
00000080: f684 913e b8b6 063e 9286 c5be 9fb9 5ebf
00000090: 005e c83e 48ae 98bd ca0d cb3e 4dae d23e
000000a0: 4c9f 1b3f 6af8 3d3c 62d9 0bbf 9f19 6abd
000000b0: 7980 96be 51c0 5ebe 9f4e e4bf 7fd6 3f3e
000000c0: c251 0b3e e850 b1bf 2fd2 4a3f b11d d2bd
000000d0: df4a d13d 0f52 a3bd 38a3 44be 19e6 e83e
000000e0: d1de c03e b007 063e 5a34 54bd c072 4b3f
000000f0: 0e2b 4fbf 1a62 e6be 1f0b 11be caab d5bd
00000100: f31b 2ebf 3e81 afbe 33d7 223f 0abf 423e
00000110: 55d7 823e fd91 883e 3245 2bbf cb4c 4b3e
00000120: bd3c ffbd 2040 13bf 89f4 983d 983e 433f
00000130: bb0a 77bf a02b 7bbf 70e2 ca3b 2e59 bdbc
00000140: 8f71 0dbf f5f7 96bd 413b 36bf 25f6 18be
00000150: f67e 0dbf ac96 9a3d 46f1 2e3e a0bf bdbb
00000160: d788 553e f2dd a53e 50dc e83e eef9 e9bd
00000170: ae00 1bbf 640d 69be ed07 cf3e b56e 853e
00000180: 998b 613e aaa7 cf3e 9e26 0a3e a5bf 36be
00000190: aa0c a03d b287 06bf b9e0 9abf bd8c 513e
000001a0: 41df 4cbe 45d7 003f f09d 57be 48dc 9c3e
000001b0: 7173 d23d a444 723e f765 d3bc b0b4 773e
000001c0: 36be 543e ef33 5fbd 3657 ce3e 932a 183f
000001d0: 7465 a7bf 5e08 64be 376c 0fbf 6f37 cc3e
000001e0: 276a 2a3f 0ce2 70bd b0b6 90bf 93a0 c93e
000001f0: 9755 c7bc a33c 02bc b601 5bbe 250a eebe
00000200: c5fd d63e 9624 54bf 42e0 efbe d832 703c
00000210: 1fcc 2dbf e570 bc3d 97a1 1d3f 0053 3bbf
00000220: 7398 09be b313 40be 99cf 03bf 4f36 77bd
00000230: 8309 12bf 321c 44bf 0988 fd3e bd08 b4be
00000240: 1556 623e 6721 d33e e993 d0be a756 69bf
00000250: a055 38be b05f 153e cca6 1dbd acc6 15bf
00000260: 4c86 adbd 25af 63bf 0b8f 79be 92c9 4fbe
00000270: 8c62 21be 8e19 dfbd fd0f 863e 4f75 af3d
00000280: 94e4 cebf 2910 12bf 8164 163f 7574 62bf
00000290: f6b8 c13d 64ff b0be 00ec 04be f64e 94be
000002a0: 3458 52be ea0c 803e c2fe 023e 873e a7bd
000002b0: b21c 23bd 3922 923d 1ff4 653d 835b 02bf
000002c0: 44f9 3d3c b591 81bf 290c a4bd c4a5 0fbf
000002d0: 73c2 afbe 1859 c9be 4040 f4bc 6175 293f
000002e0: 0b96 81be 8acd 9e3d f243 c53e 6d82 773e
000002f0: d8f2 3bbf 48e7 273e 0b4b 59bc 8369 4ebe
00000300: 7c0c a33e 6310 98bd 09be 9dbe 1fe2 17bf
00000310: 9c2c ffbe 1720 853e ce4a c93e 4669 c5be
00000320: e3dd b2be d492 4a3e 6e8b cfbd c7a6 4b3e
00000330: efbf 39be fa03 37bd 2ccc 263d 50cf bdbc
00000340: 6ac9 cdbe 64d1 1e3f 1740 073f 2867 15bf
00000350: 2828 023f 3893 86bd 34e4 d1be 098d 313d
00000360: 4d63 193d 7ccc 2abf 48ce 54be 7cb5 b83c
00000370: a454 ddbc f31b 76be eb63 1bbe 9104 94be
00000380: 4a8f 77be d055 9e3e a337 a93d 4f6d 3dbf
00000390: 442a 79bd 4100 61bf 19b8 2abe a4ad 473e
000003a0: 9e98 af3e 72a4 ae3d 06f8 193f aa69 563e
000003b0: a037 2a3c 6b07 f03c 6a97 a5be 8e5e 48bf
000003c0: 240c 18be 3484 873e c344 83be 6c04 fa3e
000003d0: 1b67 743e 8279 0fbf 90ec acbe c38a 40be
000003e0: c6de 1ebe 1053 14bd 5bc1 0237 13d6 023f
000003f0: ee82 503e 706d 233c 56ce a83d 1d87 643e

c3/W f4 [16, 8, 2, 2]
0.31042618 0.028478526 0.0500352 -0.1842642 -0.06371217 -0.4587154 0.21379557 0.12340847
0.3274586 -0.48560056 -0.13266043 -0.15993273 0.31858486 -0.37817296 0.60251385 -0.02752377
0.7532908 0.65096587 0.057333995 -0.08950818 0.29568827 -0.29693967 0.2028858 0.13996321
-0.43382266 -0.15604912 -0.43212256 -0.28407767 -0.82844645 0.17379846 0.6239773 -0.309807
0.23381823 0.31729746 -0.36336884 -0.15168652 0.09297506 0.40499774 0.09664847 0.71317804
0.059651505 0.39913875 0.34312358 -0.8061953 0.30167934 0.3560327 0.024473067 0.15420416
0.19511634 0.12194215 -0.5444622 -0.48543385 0.5876022 -0.3209537 -0.6597371 -0.51775634
0.047146175 0.20731282 -0.7297622 0.2752661 0.025472226 0.080925055 -0.3751279 -0.8026185
-0.017715143 -0.045043025 0.057123404 0.011394759 -0.13970584 -0.09552998 -0.19247149 0.07733801
0.04230289 -0.1539626 -9.524761e-05 -0.51089066 -0.20153193 0.18053626 0.019565744 -0.099752896
-0.060297303 -0.23060574 0.042930458 -0.27317002 0.03919326 0.22293024 0.0045354534 -0.024558531
-0.24756326 -0.15090981 -0.038049888 -0.022265458 -0.108967245 -0.20155595 0.0610114 0.21953511
-0.5856762 0.254917 -0.07746743 0.017473796 0.44344145 -1.0863534 -0.340213 0.33600184
-0.023016084 0.28119093 0.3457846 -0.39645943 0.2292103 -0.19511802 0.40094617 -0.7717374
0.74361044 -0.8513764 0.06443896 -0.06767804 0.6492183 -0.090067916 -0.25609958 -0.48214698
0.07082211 -0.7434462 -0.93466854 0.6755733 0.5874278 -0.23315692 0.012298761 -0.18186761
0.46728095 0.29497698 -0.6951547 0.014230623 -0.14089032 -0.3897341 0.06299212 0.2086351
-0.65970474 0.6688925 0.13504764 0.3500314 -0.44344625 0.22433126 -1.0134678 -0.6342077
-0.53513867 -0.36595112 0.3235035 -0.11724681 -0.54289657 -0.08335579 -0.76458406 -0.7848686
0.5651516 -0.3428735 -0.33640936 -0.11281314 -1.1264571 0.6658562 0.7661517 -1.1723785
-0.031620253 -0.39909446 -0.53099155 0.97639287 -0.12555441 0.593591 0.03062261 -0.3493595
-0.15263833 0.39248016 -0.21446446 0.062269587 0.74984574 -0.2721446 -0.06586862 -0.4122677
0.13292237 0.038743004 -0.073354445 -0.1524851 0.16955413 0.14578211 0.3592434 -0.057364877
-0.114795335 0.21108109 -0.20319727 -0.61755055 0.38180283 0.34774098 -0.3779681 0.788165
0.4631904 -0.32099435 0.5319988 -0.21200702 -0.7815499 0.3320538 -0.107487485 0.12773606
-0.63623786 0.40895337 0.42907885 -0.50787926 -0.3062033 0.6239114 0.54107845 0.36034974
0.03496566 0.039315403 0.21229257 0.05312728 0.41904506 0.13733126 -0.3956673 -0.24794447
0.6632503 -0.11423248 0.7280646 0.15548176 -0.17235495 -0.06268786 -0.52296025 -0.38071343
-0.120089516 -1.0211574 0.08287865 0.032734953 0.4393379 -0.6126112 -0.4705685 1.1568527
-0.0926954 0.02348884 -0.03335372 0.039030828 -0.17132036 -0.40341222 -0.05626402 0.49108422
-0.41863883 -0.01545185 0.26947027 0.32571816 -0.45388785 -0.038381927 0.19108939 -0.014327308
0.14609253 -0.34747624 -1.0259978 0.483281 0.11313896 0.24882229 0.06849022 0.75427896
00000000: 2ef0 9e3e cc4b e93c b6f1 4c3d c1af 3cbe
00000010: 877b 82bd bfdc eabe 3aed 5a3e 94bd fc3d
00000020: a7a8 a73e a3a0 f8be 23d8 07be 68c5 23be
00000030: 8e1d a33e e39f c1be 593e 1a3f 8879 e1bc
00000040: aad7 403f b3a5 263f 0dd7 6a3d 1150 b7bd
00000050: 7464 973e 7a08 98be 4cc1 4f3e 8452 0f3e
00000060: 011e debe 57cb 1fbe 2b3f ddbe a172 91be
00000070: 1115 54bf 39f8 313e fabc 1f3f 069f 9ebe
00000080: 0c6e 6f3e d074 a23e 7b0b babe b653 1bbe
00000090: b569 be3d dd5b cf3e a2ef c53d d692 363f
000000a0: 2355 743d ea5b cc3e e5ad af3e d162 4ebf
000000b0: b775 9a3e eb49 b63e be7b c83c b2e7 1d3e
000000c0: 94cc 473e cebc f93d e061 0bbf c98a f8be
000000d0: 196d 163f 0b54 a4be 88e4 28bf ae8b 04bf
000000e0: 591c 413d d049 543e b2d1 3abf aeef 8c3e
000000f0: 21ab d03c 09bc a53d c410 c0be 6878 4dbf
00000100: 591f 91bc 097f 38bd 3bfa 693d 15b1 3a3c
00000110: 0c0f 0fbe 39a5 c3bd 3f17 45be 6463 9e3d
00000120: cc45 2d3d 5fa8 1dbe acbf c7b8 bbc9 02bf
00000130: 635e 4ebe 7fde 383e 5748 a03c 3f4b ccbd
00000140: 4efa 76bd e923 6cbe d9d7 2f3d f1dc 8bbe
00000150: 1d89 203d d347 643e 249e 943b f92e c9bc
00000160: 3981 7dbe 1a88 1abe 33da 1bbd 0d66 b6bc
00000170: 382a dfbd af64 4ebe 17e7 793d d0cd 603e
00000180: e0ee 15bf 7b84 823e 3ea7 9ebd 3525 8f3c
00000190: c20a e33e a10d 8bbf 6630 aebe 6f08 ac3e
000001a0: 3a8c bcbc 42f8 8f3e ae0a b13e bbfc cabe
000001b0: 1bb6 6a3e 05cd 47be d148 cd3e 9590 45bf
000001c0: 415d 3e3f cef3 59bf 93f8 833d c99a 8abd
000001d0: 2c33 263f 8775 b8bd 7c1f 83be f8db f6be
000001e0: 2f0b 913d 7d52 3ebf 7046 6fbf 5ff2 2c3f
000001f0: ab61 163f b0c0 6ebe be80 493c 813b 3abe
00000200: 733f ef3e 3907 973e a9f5 31bf 8f27 693c
00000210: 8d45 10be 3a8b c7be 0302 813d 71a4 553e
00000220: 69e2 28bf 8a3c 2b3f ee49 0a3e 5137 b33e
00000230: 630b e3be 18b7 653e 50b9 81bf 705b 22bf
00000240: d9fe 08bf f25d bbbe 40a2 a53e 181f f0bd
00000250: 45fb 0abf 71b6 aabd c8bb 43bf 26ed 48bf
00000260: c6ad 103f 1e8d afbe d93d acbe 930a e7bd
00000270: bf2f 90bf 8d75 2a3f 8522 443f 8010 96bf
00000280: 3d84 01bd 1c56 ccbe 10ef 07bf e2f4 793f
00000290: 5691 00be 94f5 173f 45dc fa3c 40df b2be
000002a0: 394d 1cbe 29f3 c83e 929c 5bbe 650e 7f3d
000002b0: e4f5 3f3f 8956 8bbe 21e6 86bd c114 d3be
000002c0: cd1c 083e fcb0 1e3d db3a 96bd 0e25 1cbe
000002d0: 999f 2d3e e847 153e c0ee b73e 6ff7 6abd
000002e0: d119 ebbd a425 583e f212 50be cb17 1ebf
000002f0: a97b c33e 1b0b b23e 0985 c1be 2ec5 493f
00000300: 4b27 ed3e 5f59 a4be 1331 083f 5e18 59be
00000310: a713 48bf f502 aa3e 6622 dcbd 3ecd 023e
00000320: 7ce0 22bf 5662 d13e 39b0 db3e 6004 02bf
00000330: aec6 9cbe a8b8 1f3f 1e84 0a3f c37f b83e
00000340: 2738 0f3d 3009 213d 3963 593e fe9b 593d
00000350: 138d d63e 91a0 0c3e e894 cabe 28e5 7dbe
00000360: c6ca 293f b8f2 e9bd 7162 3a3f 9c36 1f3e
00000370: d17d 30be 7e62 80bd b9e0 05bf dfec c2be
00000380: 7ef1 f5bd 49b5 82bf 48bc a93d 1615 063d
00000390: e6f0 e03e 16d4 1cbf 5bee f0be c013 943f
000003a0: 16d7 bdbd ab6b c03c e99d 08bd cade 1f3d
000003b0: 9b6e 2fbe 0c8c cebe 1a75 66bd 646f fb3e
000003c0: d457 d6be c229 7dbc 02f8 893e 88c4 a63e
000003d0: fd63 e8be 5e36 1dbd f0ac 433e 16bd 6abc
000003e0: 4899 153e 68e8 b1be e553 83bf 9b70 f73e
000003f0: 66b5 e73d 45cb 7e3e 9a44 8c3d 6d18 413f

l5/b f4 [16]
-0.18462387 -0.3368685 -0.118684925 0.09179469 -0.43933514 -0.31792134 -0.3643619 -0.20385307
0.08425217 -0.36216864 -0.30037817 -0.2956161 0.04308345 -0.04925753 -0.27629504 0.09092691
00000000: 0a0e 3dbe 077a acbe 1511 f3bd dbfe bb3d
00000010: 89f0 e0be 96c6 a2be a58d babe dcbe 50be
00000020: 678c ac3d 2b6e b9be 2bcb 99be fe5a 97be
00000030: 4678 303d 44c2 49bd 8b76 8dbe e337 ba3d

c1/b f4 [4]
0.30040434 0.35411593 -0.41697064 -0.27335107
00000000: 99ce 993e af4e b53e 2d7d d5be acf4 8bbe

l4/b f4 [256]
0.7424356 0.38219008 0.23528033 -0.2506286 -0.629383 -0.31995797 0.06939078 0.07947555
-0.49669248 0.47653902 0.9400899 0.36717847 -0.57788515 0.6457371 -0.5190708 -0.18128173
0.009393186 0.20308919 -0.04537816 0.33315808 0.76252186 0.050929308 -0.53643167 -0.092596605
0.3850952 0.43397272 0.5700296 -0.46452978 0.0470659 0.02819455 0.3355833 0.12489643
-0.03892646 -0.87281054 -0.9710512 -0.16649975 -0.15682179 0.51415014 -0.32334313 -0.31820613
-1.0048258 -0.13660172 0.33147198 0.22275849 -0.26360247 -0.24117169 -0.27350545 -0.018122457
0.034718532 -0.45898327 -0.40816298 0.3620862 0.29693124 -0.107058585 0.043952573 -0.40693256
0.077863395 -0.3016991 0.04555503 0.3997915 -0.0970409 0.74755025 0.46698043 -0.5028043
-0.37355983 0.22064431 0.74490434 -0.19362874 -1.5781007 -1.0158007 0.28295234 -0.5343471
0.14079553 -0.5909105 0.565881 0.46175197 -0.22541146 -0.027057122 0.14674097 -0.13192677
-0.07374765 -0.46293136 0.78756654 -0.32024 -0.57444024 -0.07452284 -0.070780195 -0.33949715
-0.43444625 0.12095726 0.06833992 -0.32042474 0.14454046 0.42998034 -0.43240017 -0.080475315
-0.22122724 0.050243206 0.09981727 0.41376257 0.024318587 0.80913615 0.8552585 0.32981852
0.4809526 -0.3602245 -0.21175608 0.38267833 -0.18101828 -0.27237552 -0.18512413 -0.5762133
0.36484906 -0.32525268 -0.5248634 0.20482375 -0.6961018 0.19805634 -0.46527255 -0.14808406
0.028017005 0.2575491 0.16213682 -0.21864921 -0.5192165 0.5908905 -0.12279725 -0.908049
0.5616574 -1.1412141 -0.42114875 0.61246127 -0.3940766 0.20566711 -0.3695424 -0.16759863
0.5732086 -0.19385678 -0.19689716 -0.147192 -0.6911121 0.019541183 0.1452743 0.058051523
-0.11033822 -0.043821707 0.31702378 -1.01793 0.6191776 0.04693976 -0.17606626 -0.15190248
-0.27608222 -0.11307685 0.8582608 -0.20981081 -0.027190726 -0.44082087 -0.777738 0.71976227
0.60817075 -0.2575409 -0.35847506 0.29991636 0.24203853 -0.8471607 -0.21610035 0.3498181
-0.024769926 -0.99321026 -0.36540204 0.18786532 0.26991147 -0.25605658 -0.15653878 0.78416103
-0.27594256 -0.81853145 -0.023840789 -0.9304663 0.021012988 -0.49530473 -0.32137063 -0.072602145
0.2229517 0.76377356 -0.11979943 -0.43447128 0.58030784 0.24188742 0.19674745 -0.6544026
-0.30174378 0.054666683 0.50012916 0.22394903 0.14711407 -0.12743817 -0.33915251 -0.16667418
-0.60176384 0.25157937 -0.30535343 0.5934158 0.23114517 -0.37180004 -0.05805674 0.76331466
-0.7398025 0.020925632 -0.18378149 -0.89639175 0.29143262 -1.1257063 -0.5633377 -0.2643941
0.06630231 -0.06049943 -0.96944815 0.104492284 -0.13148278 0.5365931 -0.880484 -0.2578897
-0.2965582 -0.49676412 0.6068441 0.005657088 0.33973494 0.14029035 -0.285623 -0.045410734
-0.17834389 -0.8559492 -0.1434007 -0.22648005 -0.376749 -0.40210968 -0.5473269 -0.8756996
0.42238382 -0.24632038 -0.59577703 -0.10385731 0.8351862 0.3667374 0.7803656 -0.36714762
0.24384871 0.42622596 -0.39940894 -0.051850922 -0.16018523 -0.5713017 -0.5411044 -0.031450763
00000000: 4210 3e3f 6bae c33e 54ed 703e 6452 80be
00000010: 3f1f 21bf 88d1 a3be c11c 8e3d 14c4 a23d
00000020: 7a4e febe ecfc f33e bba9 703f d1fe bb3e
00000030: 48f0 13bf 074f 253f d3e1 04bf eba1 39be
00000040: e1e5 193c 9df6 4f3e 73de 39bd b293 aa3e
00000050: a234 433f 409b 503d 9653 09bf 4aa3 bdbd
00000060: 332b c53e ac31 de3e 76ed 113f d9d6 edbe
00000070: 2cc8 403d 42f8 e63c 93d1 ab3e b3c9 ff3d
00000080: 5a71 1fbd 8370 5fbf d096 78bf e97e 2abe
00000090: e495 20be 589f 033f 3b8d a5be eaeb a2be
000000a0: 229e 80bf 52e1 0bbe b2b6 a93e cd1a 643e
000000b0: e7f6 86be b6f5 76be e808 8cbe 8c75 94bc
000000c0: 0535 0e3d dbff eabe bdfa d0be 5d63 b93e
000000d0: 5f07 983e 8841 dbbd 9d07 343d 7759 d0be
000000e0: d876 9f3d 4e78 9abe e997 3a3d 79b1 cc3e
000000f0: 61bd c6bd 745f 3f3f 0f18 ef3e c8b7 00bf
00000100: 3c43 bfbe 95f0 613e 0db2 3e3f 9d46 46be
00000110: 34ff c9bf c205 82bf 21df 903e f9ca 08bf
00000120: b42c 103e e945 17bf 94dd 103f c16a ec3e
00000130: 43d2 66be e6a6 ddbc 4443 163e d017 07be
00000140: 0209 97bd 5705 edbe f69d 493f 7ff6 a3be
00000150: 840e 13bf 6e9f 98bd 35f5 90bd 92d2 adbe
00000160: bd6f debe 71b8 f73d cdf5 8b3d b60e a4be
00000170: 6a02 143e 6226 dc3e 8e63 ddbe 3ed0 a4bd
00000180: 6589 62be d2cb 4d3d ff6c cc3d b0d8 d33e
00000190: c637 c73c 8c23 4f3f 39f2 5a3f f9dd a83e
000001a0: 6b3f f63e 586f b8be 96d6 58be 6aee c33e
000001b0: db5c 39be ce74 8bbe 2e91 3dbe b782 13bf
000001c0: 7fcd ba3e 8587 a6be 735d 06bf 51bd 513e
000001d0: ba33 32bf 48cf 4a3e 3438 eebe 59a3 17be
000001e0: eb83 e53c 7add 833e 3207 263e 94e5 5fbe
000001f0: 5feb 04bf 9a44 173f 207d fbbd e675 68bf
00000200: c8c8 0f3f 4e13 92bf cfa0 d7be 43ca 1c3f
00000210: 68c4 c9be 669a 523e a934 bdbe fa9e 2bbe
00000220: ccbd 123f 6482 46be 699f 49be 80b9 16be
00000230: b9ec 30bf d514 a03c c9c2 143e 6fc7 6d3d
00000240: 01f9 e1bd 647e 33bd f150 a23e 884b 82bf
00000250: 6c82 1e3f e843 403d b74a 34be 538c 1bbe
00000260: a65a 8dbe d694 e7bd fbb6 5b3f a5d8 56be
00000270: 16bf debc 46b3 e1be d619 47bf 5742 383f
00000280: 14b1 1b3f 67dc 83be 0b8a b7be a38e 993e
00000290: f3d8 773e 86df 58bf 6949 5dbe 5c1b b33e
000002a0: 4dea cabc 0743 7ebf fa15 bbbe c45f 403e
000002b0: d631 8a3e d919 83be b44b 20be c7be 483f
000002c0: 5848 8dbe 478b 51bf c24d c3bc 0a33 6ebf
000002d0: 6e23 ac3c 9598 fdbe b18a a4be 6fb0 94bd
000002e0: 734d 643e aa86 433f 6759 f5bd 0573 debe
000002f0: 0e8f 143f 56b1 773e 2a78 493e ee86 27bf
00000300: 297e 9abe 2cea 5f3d 7708 003f e552 653e
00000310: 12a5 163e 277f 02be 66a5 adbe a3ac 2abe
00000320: 320d 1abf 03cf 803e 4957 9cbe 19ea 173f
00000330: 52b1 6c3e 935c bebe e7cc 6dbd 9768 433f
00000340: b263 3dbf 3b6c ab3c 3731 3cbe ee79 65bf
00000350: a836 953e 2517 90bf e636 10bf aa5e 87be
00000360: 81c9 873d 40ce 77bd c12d 78bf 0d00 d63d
00000370: 6ca3 06be 2a5e 093f 6667 61bf 1e0a 84be
00000380: 7ad6 97be de57 febe 235a 1b3f 185f b93b
00000390: bdf1 ad3e 46a8 0f3e 2e3d 92be 9b00 3abd
000003a0: c89f 36be 7d1f 5bbf a2d7 12be 63ea 67be
000003b0: 3fe5 c0be 52e1 cdbe 9e1d 0cbf d92d 60bf
000003c0: b142 d83e 693b 7cbe d884 18bf 24b3 d4bd
000003d0: c3ce 553f 01c5 bb3e 0ac6 473f c6fa bbbe
000003e0: 7ab3 793e 4a3a da3e 547f ccbe a261 54bd
000003f0: 9907 24be d440 12bf d185 0abf 84d2 00bd

c2/b f4 [8]
0.13039127 0.017062359 -0.4289226 -0.16171715 -0.15990062 -0.21696398 0.17241721 -0.33959547
00000000: 4a85 053e 5cc6 8b3c be9b dbbe 2e99 25be
00000010: fdbc 23be ce2b 5ebe 238e 303e 75df adbe
