examples/ch4/reversi_DQN_CNN/agent_black_12000/target_model.npz (npz, 35973 bytes, 10 tensors)

c3/b f4 [16]
-0.441431 -0.30691543 0.0 1.0976813 0.89487004 0.8035671 0.14802592 -0.13039388
0.0 0.026191255 0.4818377 -0.11090011 -0.45018995 -0.022214131 0.33208603 -0.030536396
00000000: 3e03 e2be 0524 9dbe 0000 0000 d280 8c3f
00000010: 3416 653f 93b6 4d3f 1b94 173e f985 05be
00000020: 0000 0000 0b8f d63c 6eb3 f63e 991f e3bd
00000030: 4c7f e6be 69fa b5bc 2e07 aa3e 7727 fabc

c1/W f4 [4, 1, 2, 2]
1.0478394 -0.65604013 -1.0030456 0.2081708 -0.77159923 0.09150657 -0.3817619 0.5834375
0.6111147 0.20387699 0.22019367 -0.03275055 -0.08154616 0.2455557 0.19346826 0.673447
00000000: 9a1f 863f 3ff2 27bf cc63 80bf ba2a 553e
00000010: 8787 45bf cc67 bb3d 4c76 c3be 295c 153f
00000020: 0372 1c3f 21c5 503e 737a 613e 7125 06bd
00000030: ac01 a7bd f472 7b3e 8b1c 463e 0667 2c3f

l5/W f4 [16, 256]
-0.6857429 0.26136205 -0.27241492 -0.25623855 -0.29113093 -0.30801794 0.1712381 -0.7344565
0.1336005 -0.19602567 0.066723436 -0.08327648 0.30580464 -0.13330519 -0.059554193 -0.38491812
0.56920624 0.15395345 0.048566375 -0.014242444 -0.07151408 0.37441424 -0.46642235 -0.5349774
0.056788396 -0.29991034 -0.206542 -0.30522373 0.9006989 0.24972577 -0.104164764 -0.31558797
0.20149511 0.31636956 0.12765895 -0.06706836 0.04718196 0.20567088 -0.3364171 -0.27773252
-0.21319436 -0.15501216 0.069994986 0.36024454 -0.084368385 0.004304207 -0.11723859 0.3238422
-0.08345209 -0.48216298 -0.46102586 0.06666684 -0.32615885 0.25197205 0.3478039 -0.38589367
-0.22637376 0.53047526 -0.061417773 0.110626794 0.20354243 0.08643408 0.6461276 0.7828965
0.23986837 0.09351632 -0.5966151 -0.016430156 -0.8760603 0.50817364 -0.09352897 0.120516986
0.052889057 0.41734424 -0.3581853 0.52646345 0.30621192 -0.069438584 -0.15677257 -0.08328918
0.3396706 -0.27159175 -0.40721318 0.7080522 -0.6370984 0.044496775 -0.13092135 0.36452982
0.32707712 -0.13845778 -0.08884418 -0.40637526 -0.011748572 -0.29884636 -0.7187248 -0.028973011
-0.022836393 0.17535596 0.20488901 0.71982217 -0.002126481 0.061819557 -0.18238956 0.012763921
0.041422047 -0.13407283 0.10722332 -0.6158199 -0.25434053 -0.07422388 -0.1786602 0.6017982
0.59126204 0.23770165 -0.22442521 0.0023611037 0.3020256 -0.14442289 0.47815648 -0.026613029
-0.50168604 0.24722591 0.28818053 0.29663017 -0.25661197 -0.30070692 0.16862452 0.64192903
-0.47250202 0.3402345 0.3001951 0.44445145 0.8004585 -0.17749733 0.29916963 0.032209203
-0.38891116 -0.38831908 0.41868886 -0.6874712 0.07929177 -0.26169956 -0.5103857 -0.39928156
0.05377111 0.421532 0.050709978 -1.0165045 0.4660219 0.1665515 -0.19685665 0.06428075
-0.4538518 -0.20985879 0.9600315 0.37339747 0.049734514 1.0984054 0.12343759 0.49707752
-0.4078006 -0.028534997 -0.48475748 0.49488387 0.11342672 -0.5461781 0.046214793 -0.30378732
0.30672324 -0.7798203 -0.17609864 0.23851465 -0.03394467 -0.19827817 -0.012093476 0.14726825
-0.2813459 -0.081435695 -0.8834926 0.008985221 0.43806952 -0.45101416 0.5768319 -0.8539497
0.04987932 0.5961749 0.04052865 -0.5153101 -0.48238614 0.7323131 0.53862756 0.684922
-0.4535662 0.25292456 0.8122864 -0.75933737 0.17893377 -0.63399076 -0.5493122 -0.4502494
-0.14422764 0.2958263 0.5737854 0.28188774 0.120556995 -0.3518861 -0.24347147 -0.2117153
-0.5748816 -0.20943697 -0.11084865 -1.044628 -0.38434148 0.71941686 0.17451563 0.95325315
0.38355452 -0.30141222 -0.481134 -0.083079204 0.5281718 0.07270993 -0.7867206 -0.88560957
0.042772297 0.32531297 -0.45531866 0.08106597 0.23908931 -0.35469353 0.12912588 -0.24681611
-0.10491364 -0.11079396 -0.08871522 0.4714944 0.31328338 -0.52149934 0.29086202 0.71697414
-0.5778164 -0.39917108 -1.0698248 0.12412121 -0.5880681 -0.21894316 0.6720594 -0.023254447
0.23653284 0.2041395 -0.6928362 -0.5616858 0.3897082 -0.33964863 -0.43574396 0.53218925
00000000: d98c 2fbf 3fd1 853e f879 8bbe b331 83be
00000010: 1d0f 95be 87b4 9dbe 0a59 2f3e 5705 3cbf
00000020: 92ce 083e f4ba 48be 4ca6 883d dc8c aabd
00000030: 6d92 9c3e 2881 08be 19ef 73bd fd13 c5be
00000040: 80b7 113f f9a5 1d3e 89ed 463d 2459 69bc
00000050: f975 92bd 39b3 bf3e e9ce eebe 47f4 08bf
00000060: f39a 683d d98d 99be bf7f 53be 4946 9cbe
00000070: 3494 663f 1db8 7f3e 5654 d5bd bf94 a1be
00000080: bc54 4e3e 31fb a13e 07b9 023e 235b 89bd
00000090: df41 413d 639b 523e dd3e acbe f532 8ebe
000000a0: 9f4f 5abe 82bb 1ebe 8859 8f3d f971 b83e
000000b0: 55c9 acbd 4e0a 8d3b c91a f0bd a5ce a53e
000000c0: eee8 aabd 11de f6be 950b ecbe a088 883d
000000d0: 4bfe a6be 7b02 813e 5a13 b23e db93 c5be
000000e0: 86ce 67be 3acd 073f 3491 7bbd 4d90 e23d
000000f0: 6d6d 503e 5a04 b13d 9e68 253f e86b 483f
00000100: 0ea0 753e 7c85 bf3d c4bb 18bf 8998 86bc
00000110: 7d45 60bf ab17 023f 1e8c bfbd 9cd1 f63d
00000120: 32a2 583d 25ae d53e 1064 b7be 4fc6 063f
00000130: cfc7 9c3e d135 8ebd fd88 20be 8593 aabd
00000140: 4ee9 ad3e 130e 8bbe 3f7e d0be e942 353f
00000150: e118 23bf 4042 363d 3f10 06be a7a3 ba3e
00000160: a776 a73e e0c7 0dbe f0f3 b5bd 6b10 d0be
00000170: 157d 40bc 6402 99be 59fe 37bf cf58 edbc
00000180: 6313 bbbc 8390 333e 6dce 513e 4446 383f
00000190: 6e5c 0bbb 8136 7d3d 54c4 3abe c41f 513c
000001a0: 2aaa 293d 634a 09be e697 db3d 5fa6 1dbf
000001b0: ec38 82be b102 98bd b3f2 36be 720f 1a3f
000001c0: f35c 173f 1068 733e b9cf 65be bfbc 1a3b
000001d0: 19a3 9a3e 98e3 13be edd0 f43e 9103 dabc
000001e0: 7f6e 00bf ca28 7d3e 668c 933e e9df 973e
000001f0: a562 83be 42f6 99be e8ab 2c3e 7655 243f
00000200: c9eb f1be 3733 ae3e 2cb3 993e 248f e33e
00000210: d9ea 4c3f dcc1 35be c32c 993e cced 033d
00000220: 5d1f c7be c2d1 c6be 635e d63e 1dfe 2fbf
00000230: b963 a23d 7cfd 85be a3a8 02bf a26e ccbe
00000240: 183f 5c3d 0bd3 d73e 44b5 4f3d d21c 82bf
00000250: 6c9a ee3e 7a8c 2a3e ca94 49be a0a5 833d
00000260: 435f e8be 39e5 56be a0c4 753f f42d bf3e
00000270: 6bb6 4b3d 8c98 8c3f d9cc fc3d f280 fe3e
00000280: 3ecb d0be 3ac2 e9bc 2232 f8be 6b61 fd3e
00000290: 454c e83d 54d2 0bbf b94b 3d3d 038a 9bbe
000002a0: d40a 9d3e 4ea2 47bf 3453 34be 2f3d 743e
000002b0: 9109 0bbd 6f09 4bbe b723 46bc 7dcd 163e
000002c0: 920c 90be c2c7 a6bd 922c 62bf c036 133c
000002d0: a64a e03e 54eb e6be 41ab 133f 739c 5abf
000002e0: 424e 4c3d eb9e 183f 5f01 263d 5deb 03bf
000002f0: 51fb f6be df78 3b3f 7fe3 093f 0c57 2f3f
00000300: d439 e8be 547f 813e 00f2 4f3f ef63 42bf
00000310: 6a3a 373e 384d 22bf b99f 0cbf 1787 e6be
00000320: 69b0 13be 8b76 973e 9ae3 123f 9753 903e
00000330: 96e6 f63d 6a2a b4be 9650 79be e5cb 58be
00000340: 712b 13bf a576 56be 9e04 e3bd 5fb6 85bf
00000350: 68c8 c4be b42b 383f 3ab4 323e 6608 743f
00000360: 4261 c43e b452 9abe 3257 f6be 6e25 aabd
00000370: 4436 073f f2e8 943d 8566 49bf 4fb7 62bf
00000380: 0132 2f3d 6c8f a63e 871f e9be ea05 a63d
00000390: d4d3 743e 649a b5be 9339 043e 5dbd 7cbe
000003a0: f6dc d6bd f2e7 e2bd 53b0 b5bd b767 f13e
000003b0: ae66 a03e fb80 05bf deeb 943e 9e8b 373f
000003c0: c7eb 13bf 2760 ccbe 05f0 88bf 4333 fe3d
000003d0: a28b 16bf a332 60be 160c 2c3f 1c80 bebc
000003e0: aa35 723e f209 513e b75d 31bf a4ca 0fbf
000003f0: d587 c73e 6de6 adbe d519 dfbe 8e3d 083f

c2/W f4 [8, 4, 2, 2]
-0.26337272 0.78708357 -0.31581795 0.6610476 -0.42642304 -0.023416243 0.33802414 -0.112258315
0.5606031 -0.2793613 -0.23286037 0.49492863 0.47173885 -0.19198693 0.06370895 -0.40380144
0.18865007 0.26482996 0.072758585 -0.046388753 0.48222637 -0.39909887 0.70616585 0.32048774
-0.36154196 0.2825368 -0.020450022 0.48157665 0.3225204 0.72284853 -0.52261555 0.18333462
-0.17371127 -0.5146939 0.7036758 0.121627286 0.23073189 -0.59256965 0.46110502 0.8912399
0.40955144 0.27773464 0.33806372 -0.40322298 0.1451885 0.66160446 -0.043305945 -0.4052047
-0.6447601 -0.15462011 0.04326372 0.53803384 -0.70857286 0.22085965 -0.06084833 -0.67943996
0.4148187 0.40728688 -0.50315726 0.15694895 -0.42392296 0.14658725 0.4552966 0.35380208
-0.39502648 -0.018838892 -0.7955901 -0.22631407 -0.4141445 0.29353705 -0.7148545 -0.10643484
0.56803024 -0.3776004 0.3857677 0.34765103 0.28585258 0.12740406 -0.04881871 0.43494916
-0.09735639 0.9696697 -1.9050573 -0.31476048 -0.42877686 -0.6695487 0.021715274 -0.2778058
0.46244365 -0.010132326 0.25354528 -0.5416657 -0.22476646 -0.32096356 0.32735136 -0.18375672
-0.12796831 0.49329588 0.15436588 -0.5860086 -0.07573546 -0.09154037 -0.7492321 0.48003164
-0.5262131 -0.94635415 0.16898182 0.025519297 -0.50155556 0.3834221 0.046495344 0.6164088
-0.124486186 0.65511143 -0.64490026 0.31811345 -0.64825964 0.9779427 0.45046872 -0.27493528
-0.41849184 -0.18360019 0.058446996 0.43573153 -0.061402585 0.9567811 -0.6363973 -0.43232438
00000000: cad8 86be 4f7e 493f e4b2 a1be 6a3a 293f
00000010: 1f54 dabe 6cd3 bfbc 8011 ad3e b0e7 e5bd
00000020: af83 0f3f 7208 8fbe f372 6ebe 4967 fd3e
00000030: c187 f13e 3998 44be d779 823d 10bf cebe
00000040: 7c2d 413e cb97 873e 7402 953d 2202 3ebd
00000050: 60e6 f63e b056 ccbe 49c7 343f f816 a43e
00000060: 071c b9be aaa8 903e ce86 a7bc 3791 f63e
00000070: 6521 a53e 9a0c 393f 22ca 05bf 12bc 3b3e
00000080: 5ee1 31be fbc2 03bf 1924 343f ba17 f93d
00000090: fb44 6c3e a5b2 17bf f515 ec3e 4c28 643f
000000a0: bab0 d13e 3c33 8e3e b016 ad3e 3e73 cebe
000000b0: 4bac 143e e95e 293f 9361 31bd fe76 cfbe
000000c0: ff0e 25bf bc54 1ebe 4c35 313d 96bc 093f
000000d0: 0865 35bf 0829 623e 193c 79bd c7ef 2dbf
000000e0: 1e63 d43e e887 d03e eace 00bf 3ab7 203e
000000f0: 6e0c d9be f81a 163e a31c e93e 8c25 b53e
00000100: e940 cabe 0554 9abc cbab 4bbf e0be 67be
00000110: bf0a d4be 7d4a 963e b400 37bf 82fa d9bd
00000120: 6e6a 113f d754 c1be 5883 c53e 51ff b13e
00000130: 455b 923e 3676 023e 21f6 47bd a8b1 de3e
00000140: c962 c7bd 463c 783f ebd8 f3bf 4928 a1be
00000150: a488 dbbe 8b67 2bbf 3be4 b13c 903c 8ebe
00000160: 6ac5 ec3e 0e02 26bc b0d0 813e 9aaa 0abf
00000170: 2e29 66be 5655 a4be 999a a73e b92a 3cbe
00000180: 200a 03be 4791 fc3e 1712 1e3e a904 16bf
00000190: 311b 9bbd 8479 bbbd adcd 3fbf b5c6 f53e
000001a0: e7b5 06bf 4444 72bf 9209 2d3e d80d d13c
000001b0: f265 00bf e74f c43e e771 3e3d f8cc 1d3f
000001c0: 9df2 febd 62b5 273f 2f18 25bf c4df a23e
000001d0: 58f4 25bf 745a 7a3f d6a3 e63e 51c4 8cbe
000001e0: 9044 d6be b001 3cbe 1e66 6f3d 3418 df3e
000001f0: 4781 7bbd 9bef 743f efea 22bf 9f59 ddbe

l4/W f4 [256, 16]
0.49358696 -0.16970812 0.31083852 -0.3824045 -0.031214071 -0.4821454 0.6055375 -0.10847392
0.08787292 0.13020459 -0.37957612 -1.1128215 0.5104448 0.59857273 0.1282069 0.45391124
-0.734265 0.55576456 0.2561422 -0.5948225 0.42937207 0.1716842 0.1834598 -0.22016713
-0.39212498 -0.7455286 -0.097389854 -0.12964341 -0.15848406 0.19582288 -0.457782 0.050014596
0.2819689 0.13637668 -0.38579232 -0.86181945 0.4114134 -0.06596077 0.39105248 0.4243048
0.6078994 0.042483855 -0.53152895 -0.050098754 -0.3057813 -0.21734756 -1.7746652 0.18734168
0.14212929 -1.3958368 0.79226965 -0.09570927 0.09894822 -0.097892724 -0.17571694 0.42148986
0.37669995 0.11592574 -0.05181059 0.8005651 -0.8113748 -0.44991213 -0.13390763 -0.10433157
-0.6609349 -0.34176618 0.6360962 0.20484388 0.21975683 0.26569122 -0.68078023 0.19109026
-0.12462757 -0.5718433 0.072727665 0.7684068 -0.94388 -0.98113865 -0.0028125532 -0.023113813
-0.54839915 -0.07764622 -0.71184164 -0.1603381 -0.52475023 0.08635195 0.19690865 7.78323e-05
0.20852982 0.33003598 0.47475824 -0.1157275 -0.5355782 -0.22784142 0.40584126 0.26061025
0.21999557 0.40725547 0.13491294 -0.17984451 0.061414115 -0.5243164 -1.2017214 0.19485238
-0.2000704 0.50101894 -0.2100704 0.30482426 0.09796151 0.23677842 -0.018070376 0.2419002
0.19911885 -0.0709648 0.40300912 0.60134184 -1.2958457 -0.24569811 -0.5713744 0.40854543
0.66568226 -0.05754575 -1.0996947 0.4057935 -0.023086395 -0.0066160364 -0.20718426 -0.46492115
0.4200374 -0.8231637 -0.46850783 0.022172028 -0.679736 0.08619271 0.60184586 -0.73788726
-0.13437061 -0.18595912 -0.5145771 -0.056122873 -0.55189514 -0.76600045 0.5054513 -0.35162917
0.22414951 0.38651106 -0.40737846 -0.9210196 -0.14779407 0.13830061 -0.058443785 -0.6105447
-0.08472881 -0.8917071 -0.24775821 -0.19135544 -0.13132969 -0.10913363 0.26228034 0.08567297
-1.6071769 -0.5672206 0.58747107 -0.88365877 0.09476059 -0.34486702 -0.1294974 -0.29232237
-0.2054146 0.25131884 0.12383094 -0.08421063 -0.029232047 0.07068852 0.043499358 -0.50920886
0.019337587 -1.0139774 -0.08010132 -0.5234317 -0.3455806 -0.42219228 -0.019893752 0.66722196
-0.25309786 0.07353194 0.38258272 0.23882063 -0.7329355 0.16435184 0.0071677854 -0.20157437
0.32371107 -0.06960455 -0.30809048 -0.58675575 -0.48834768 0.25256914 0.4050814 -0.38346425
-0.3493491 0.19447479 -0.08956922 0.19846368 -0.17655683 -0.0447449 0.044897072 -0.023170143
-0.41615787 0.61899054 0.5283217 -0.57082146 0.4961216 -0.08131057 -0.43395698 0.033651747
0.037448216 -0.65407807 -0.21280244 0.026016615 -0.03255643 -0.24037085 -0.13556723 -0.28909734
-0.24341226 0.32164425 0.08262565 -0.73338836 -0.05570701 -0.87909776 -0.13633859 0.20305277
0.34296125 0.087156616 0.6091754 0.21220835 -0.008232014 0.029277066 -0.3183092 -0.7826928
-0.14325507 0.26164025 -0.256384 0.48268646 0.23012337 -0.55016273 -0.3365256 -0.17872505
-0.15514669 -0.031975195 -0.003667869 0.5072221 0.18292105 0.010001185 0.07898699 0.22317167
00000000: 6eb7 fc3e f7c7 2dbe 3a26 9f3e 86ca c3be
00000010: a7b4 ffbc c3db f6be 8104 1b3f 9327 debd
00000020: b8f6 b33d 5a54 053e cd57 c2be ef70 8ebf
00000030: 83ac 023f 103c 193f ab48 033e 0e67 e83e
00000040: cbf8 3bbf 9646 0e3f 1225 833e 4a46 18bf
00000050: a8d6 db3e fccd 2f3e e3dc 3b3e 7e73 61be
00000060: 9bc4 c8be f6da 3ebf 5574 c7bd 3ec1 04be
00000070: a549 22be cb85 483e 6762 eabe 1bdc 4c3d
00000080: 3a5e 903e 54a6 0b3e 9286 c5be 33a0 5cbf
00000090: c7a4 d23e 7116 87bd 0838 c83e 7b3e d93e
000000a0: 4c9f 1b3f 8d03 2e3d 4812 08bf 5a34 4dbd
000000b0: 5e8f 9cbe 5c90 5ebe 3b28 e3bf 7fd6 3f3e
000000c0: 578a 113e c8aa b2bf 2fd2 4a3f 3903 c4bd
000000d0: 5da5 ca3d fb7b c8bd 24ef 33be 85cd d73e
000000e0: d1de c03e 796a ed3d 5737 54bd d6f1 4c3f
000000f0: 42b6 4fbf e25a e6be 151f 09be caab d5bd
00000100: 0833 29bf fafb aebe 33d7 223f 98c2 513e
00000110: ef07 613e ae08 883e 9d47 2ebf 2aad 433e
00000120: bd3c ffbd 5364 12bf 3ef2 943d 4fb6 443f
00000130: 1fa2 71bf e72b 7bbf d052 38bb 2e59 bdbc
00000140: e363 0cbf fb04 9fbd 413b 36bf ac2f 24be
00000150: 0856 06bf 4bd9 b03d 6ca2 493e e639 a338
00000160: d788 553e 7afa a83e 8313 f33e 8a02 edbd
00000170: a71b 09bf 434f 69be 6dca cf3e b56e 853e
00000180: 8546 613e ca83 d03e 9e26 0a3e 2929 38be
00000190: 5e8d 7b3d 9939 06bf 02d2 99bf 6287 473e
000001a0: 41df 4cbe c742 003f b21c 57be ed11 9c3e
000001b0: 0ba0 c83d 0b76 723e 5308 94bc b0b4 773e
000001c0: d0e5 4b3e fe55 91bd 3657 ce3e 8af1 193f
000001d0: 46de a5bf 4998 7bbe 9845 12bf de2c d13e
000001e0: 276a 2a3f 18b5 6bbd ccc2 8cbf 2ac4 cf3e
000001f0: ae1f bdbc 56cb d8bb 1c28 54be 250a eebe
00000200: 240f d73e dbba 52bf 42e0 efbe 1da2 b53c
00000210: 2e03 2ebf ce85 b03d 9212 1a3f 2ee6 3cbf
00000220: 7398 09be 116c 3ebe 53bb 03bf 19e1 65bd
00000230: 0049 0dbf 9b18 44bf 4265 013f bd08 b4be
00000240: 7387 653e c7e4 c53e e993 d0be f1c7 6bbf
00000250: 5457 17be ad9e 0d3e c062 6fbd a84c 1cbf
00000260: 4c86 adbd eb46 64bf 54b4 7dbe aef2 43be
00000270: 4a7b 06be 7481 dfbd 9c49 863e 4f75 af3d
00000280: f9b7 cdbf 5f35 11bf 8164 163f 7637 62bf
00000290: d711 c23d 6992 b0be f79a 04be 47ab 95be
000002a0: 3458 52be ddac 803e 139b fd3d 9f76 acbd
000002b0: 0c78 efbc 25c5 903d 622c 323d 835b 02bf
000002c0: dc69 9e3c 03ca 81bf 290c a4bd 9fff 05bf
000002d0: f1ef b0be 9629 d8be 39f8 a2bc 0fcf 2a3f
000002e0: 0b96 81be ea97 963d e2e1 c33e 658d 743e
000002f0: a9a1 3bbf d94b 283e bedf ea3b 8369 4ebe
00000300: 75bd a53e d58c 8ebd 09be 9dbe a035 16bf
00000310: b508 fabe be50 813e d466 cf3e 6d55 c4be
00000320: e3dd b2be 6624 473e 1170 b7bd 103a 4b3e
00000330: 50cb 34be 6e46 37bd fee5 373d 50cf bdbc
00000340: a512 d5be 2a76 1e3f 1740 073f 5b21 12bf
00000350: a603 fe3e 2886 a6bd 9c2f debe 6ad6 093d
00000360: 4d63 193d a971 27bf e2e8 59be cc20 d53c
00000370: e459 05bd c723 76be 23d2 0abe 9104 94be
00000380: 1041 79be 8eae a43e a337 a93d 57bf 3bbf
00000390: 092d 64bd 8d0c 61bf 589c 0bbe 11ed 4f3e
000003a0: 9e98 af3e 2b7f b23d ebf2 1b3f 254d 593e
000003b0: 92df 06bc 75d6 ef3c 6cf9 a2be 8e5e 48bf
000003c0: 75b1 12be b6f5 853e c344 83be ae22 f73e
000003d0: 76a5 6b3e 77d7 0cbf 154d acbe b303 37be
000003e0: c6de 1ebe 6cf8 02bd a160 70bb 4fd9 013f
000003f0: a84f 3b3e 03dc 233c eec3 a13d 1d87 643e

c3/W f4 [16, 8, 2, 2]
0.31320736 0.03685213 0.049950384 -0.18739666 -0.07080565 -0.4625209 0.20973203 0.12726381
0.3450203 -0.49416503 -0.13418865 -0.16518374 0.32217747 -0.3624596 0.6066939 -0.036197368
0.7564802 0.6427554 0.042018253 -0.08832439 0.30575877 -0.29087612 0.226088 0.14273952
-0.43710038 -0.1506614 -0.45598632 -0.29484004 -0.80828315 0.1603998 0.6141071 -0.32209542
0.23308524 0.32590353 -0.35978484 -0.14891939 0.10185356 0.41437212 0.09356089 0.71684617
0.06812842 0.4032517 0.3404376 -0.8033811 0.3007387 0.357407 0.025895009 0.15883835
0.19849294 0.12975048 -0.5455864 -0.48885474 0.58577925 -0.3057938 -0.6721647 -0.5066324
0.051986184 0.20510763 -0.71922827 0.29389426 0.013389758 0.08396139 -0.3444535 -0.80917865
-0.017715143 -0.045043025 0.057123404 0.011394759 -0.13970584 -0.09552998 -0.19247149 0.07733801
0.04230289 -0.1539626 -9.524761e-05 -0.51089066 -0.20153193 0.18053626 0.019565744 -0.099752896
-0.060297303 -0.23060574 0.042930458 -0.27317002 0.03919326 0.22293024 0.0045354534 -0.024558531
-0.24756326 -0.15090981 -0.038049888 -0.022265458 -0.108967245 -0.20155595 0.0610114 0.21953511
-0.58344436 0.25512153 -0.06513506 0.019508481 0.44597965 -1.0893327 -0.3432563 0.33540216
-0.024349334 0.26629582 0.33850524 -0.40004987 0.2266463 -0.1956829 0.41204834 -0.7702851
0.7532521 -0.84808254 0.062141825 -0.053945035 0.646951 -0.07199487 -0.27900264 -0.47920483
0.067160696 -0.7268852 -0.91251516 0.67858213 0.57637763 -0.21793965 0.022910915 -0.17973483
0.46295863 0.2911224 -0.67673546 0.0027634287 -0.15195325 -0.36801887 0.06683609 0.20797072
-0.6621916 0.66304076 0.13683255 0.35508907 -0.46175855 0.22176546 -0.9865482 -0.61478436
-0.5298948 -0.37368533 0.33435127 -0.12091701 -0.5346247 -0.083189376 -0.753253 -0.7524048
0.5945059 -0.34395763 -0.355634 -0.07176123 -1.1204551 0.65403616 0.7651201 -1.1779252
-0.028412294 -0.39767793 -0.53890455 0.9727531 -0.12793003 0.58974373 0.030023335 -0.349467
-0.15339626 0.4082073 -0.21044847 0.06997897 0.7517019 -0.26731014 -0.0733089 -0.4268749
0.1288814 0.038032647 -0.050197884 -0.15265134 0.14612773 0.1761622 0.35421184 -0.055901036
-0.11355092 0.21107386 -0.17929065 -0.62610775 0.37433514 0.35687184 -0.3770257 0.7625729
0.46464318 -0.3206031 0.52947855 -0.20742057 -0.7828464 0.33076268 -0.1045417 0.13313337
-0.6363204 0.4014657 0.42776397 -0.5122383 -0.30036014 0.6296158 0.5380241 0.36870667
0.035989452 0.037970893 0.2017338 0.048506387 0.42187142 0.11672459 -0.39642835 -0.23286507
0.65062594 -0.110982865 0.71710396 0.15041322 -0.17308062 -0.04259626 -0.5048314 -0.38508052
-0.13321263 -1.0141197 0.095252626 0.022533974 0.4376459 -0.6093747 -0.46948242 1.149802
-0.087352626 0.02341873 -0.040071785 0.041723892 -0.16180122 -0.42287472 -0.05259281 0.4982379
-0.4246602 -0.015246223 0.25244075 0.3260715 -0.47765997 -0.02898759 0.18586835 -0.030889459
0.13987823 -0.351086 -0.9907217 0.47872972 0.12062751 0.23450427 0.046163548 0.7495854
00000000: b75c a03e 42f2 163d c698 4c3d e9e4 3fbe
00000010: 8d02 91bd 8acf ecbe fec3 563e 7251 023e
00000020: 80a6 b03e 3303 fdbe c068 09be ed25 29be
00000030: 72f4 a43e 4e94 b9be 4b50 1b3f b143 14bd
00000040: b0a8 413f 9e8b 243f 551b 2c3d 6be3 b4bd
00000050: 6a8c 9c3e b7ed 94be 9d83 673e 4f2a 123e
00000060: 9fcb dfbe fb46 1abe 0a77 e9be 46f5 96be
00000070: a5eb 4ebf d83f 243e 1f36 1d3f b1e9 a4be
00000080: e6ad 6e3e d4dc a63e b835 b8be 537e 18be
00000090: 9998 d03d 9528 d43e da9c bf3d 3b83 373f
000000a0: ea86 8b3d 0277 ce3e d64d ae3e 62aa 4dbf
000000b0: 6cfa 993e 0dfe b63e c521 d43c 85a6 223e
000000c0: bc41 4b3e 4fdd 043e 8dab 0bbf 2b4b fabe
000000d0: a1f5 153f 0191 9cbe fc12 2cbf a9b2 01bf
000000e0: 77ef 543d bc07 523e 581f 38bf 4f79 963e
000000f0: b760 5b3c f3f3 ab3d 365c b0be 5526 4fbf
00000100: 591f 91bc 097f 38bd 3bfa 693d 15b1 3a3c
00000110: 0c0f 0fbe 39a5 c3bd 3f17 45be 6463 9e3d
00000120: cc45 2d3d 5fa8 1dbe acbf c7b8 bbc9 02bf
00000130: 635e 4ebe 7fde 383e 5748 a03c 3f4b ccbd
00000140: 4efa 76bd e923 6cbe d9d7 2f3d f1dc 8bbe
00000150: 1d89 203d d347 643e 249e 943b f92e c9bc
00000160: 3981 7dbe 1a88 1abe 33da 1bbd 0d66 b6bc
00000170: 382a dfbd af64 4ebe 17e7 793d d0cd 603e
00000180: 9c5c 15bf 4a9f 823e 8865 85bd 40d0 9f3c
00000190: 7257 e43e 416f 8bbf 4abf afbe d5b9 ab3e
000001a0: 4178 c7bc ed57 883e 8f50 ad3e 56d3 ccbe
000001b0: f815 683e 1961 48be 00f8 d23e 6831 45bf
000001c0: 21d5 403f f01b 59bf 6d88 7e3d 78f5 5cbd
000001d0: 959e 253f 0c72 93bd 6fd9 8ebe 565a f5be
000001e0: 8c8b 893d 2615 3abf 989a 69bf 8fb7 2d3f
000001f0: 7c8d 133f 922b 5fbe acaf bb3c 680c 38be
00000200: ea08 ed3e ff0d 953e 893e 2dbf a41a 353b
00000210: a299 1bbe f86c bcbe 5ce1 883d 47f6 543e
00000220: 6485 29bf 0abd 293f d51d 0c3e 3cce b53e
00000230: 9e6b ecbe 7c16 633e 6c8e 7cbf 8262 1dbf
00000240: 30a7 07bf af53 bfbe 1730 ab3e 56a3 f7bd
00000250: 2add 08bf 315f aabd 30d5 40bf 9a9d 40bf
00000260: 8a31 183f 371b b0be a915 b6be 8df7 92bd
00000270: 136b 8fbf ea6e 273f e9de 433f 41c6 96bf
00000280: e6c0 e8bc 719c cbbe a6f5 09bf 5906 793f
00000290: 1700 03be 72f9 163f 7ff3 f53c 57ed b2be
000002a0: e913 1dbe 8c00 d13e ce7f 57be 2251 8f3d
000002b0: 896f 403f e0dc 88be fa22 96bd 598f dabe
000002c0: 7cf9 033e 1fc8 1b3d 4c9c 4dbd a250 1cbe
000002d0: 82a2 153e dd63 343e 415b b53e 7cf8 64bd
000002e0: 628d e8bd bf23 583e f897 37be 9948 20bf
000002f0: dba8 bf3e e8b7 b63e 8309 c1be fa37 433f
00000300: b6e5 ed3e 1726 a4be e88b 073f 0f66 54be
00000310: 9f68 48bf ba59 a93e f519 d6bd 1d54 083e
00000320: e5e5 22bf ea8c cd3e e103 db3e 0d22 03bf
00000330: cec8 99be 802e 213f f3bb 093f 1fc7 bc3e
00000340: ad69 133d 5e87 1b3d 4e93 4e3e a2ae 463d
00000350: 88ff d73e 4d0d ef3d a8f8 cabe 2e74 6ebe
00000360: 6c8f 263f fc4a e3bd 2094 373f ec05 1a3e
00000370: 0c3c 31be 6a79 2ebd a13c 01bf 4629 c5be
00000380: e468 08be adce 81bf cf13 c33d 2b99 b83c
00000390: 2013 e03e fbff 1bbf 0060 f0be b62c 933f
000003a0: efe5 b2bd a3d8 bf3c 5022 24bd ace6 2a3d
000003b0: 38af 25be 0983 d8be 8f6b 57bd 0a19 ff3e
000003c0: 106d d9be 4bcb 79bc ea3f 813e d8f2 a63e
000003d0: d98f f4be 6277 edbc 4654 3e3e e40b fdbc
000003e0: 3d3c 0f3e 8bc1 b3be f09f 7dbf 101c f53e
000003f0: 8e0b f73d e321 703e fd15 3d3d d4e4 3f3f

l5/b f4 [16]
-0.1779863 -0.32870767 -0.117593825 0.085820384 -0.4423644 -0.31821093 -0.36471358 -0.20215288
0.091447 -0.36020073 -0.29886323 -0.2939108 0.042780004 -0.04931202 -0.2774692 0.08624965
00000000: 0a42 36be 5f4c a8be 08d5 f0bd 99c2 af3d
00000010: 967d e2be 8bec a2be bdbb babe 2a01 4fbe
00000020: 9148 bb3d 3b6c b8be 9a04 99be 7a7b 96be
00000030: 163a 2f3d 67fb 49bd 7110 8ebe a8a3 b03d

c1/b f4 [4]
0.29781345 0.35455516 -0.41325122 -0.2732653
00000000: 017b 983e 4188 b53e aa95 d3be 6ee9 8bbe

l4/b f4 [256]
0.7432726 0.37452 0.23855306 -0.23799129 -0.6317574 -0.30392128 0.078006834 0.085072234
-0.49311078 0.4760567 0.941457 0.3704105 -0.5696977 0.63472736 -0.50165707 -0.18103112
0.0034994506 0.19615978 -0.04905319 0.34439656 0.7760686 0.04537044 -0.5336389 -0.09034953
0.38230696 0.43245357 0.5554568 -0.4530235 0.04914388 0.040645953 0.3439321 0.1245272
-0.05337655 -0.8688666 -0.9654037 -0.15502197 -0.1486157 0.51612145 -0.3169948 -0.3285012
-1.0009948 -0.13473783 0.3353199 0.22629184 -0.2605745 -0.23554602 -0.26879716 -0.031178186
0.032757767 -0.46297237 -0.4031873 0.35967252 0.29276034 -0.1170927 0.032830503 -0.4020513
0.08180715 -0.31360972 0.04937922 0.41199028 -0.094058305 0.7419955 0.4655489 -0.51530445
-0.38004705 0.21712095 0.74382114 -0.20044398 -1.5828991 -1.0059575 0.26992628 -0.53087765
0.14750911 -0.58537406 0.5491352 0.46168834 -0.23297444 -0.039488602 0.1405128 -0.13384598
-0.06732403 -0.4532425 0.7948649 -0.3313319 -0.55048084 -0.07221994 -0.07077395 -0.33697787
-0.43342033 0.1234823 0.06272952 -0.32399362 0.15832481 0.4187245 -0.42861015 -0.08058856
-0.21858723 0.0447405 0.105134316 0.41394436 0.030020278 0.7921568 0.8651369 0.323935
0.49182877 -0.3488246 -0.21413666 0.38076288 -0.17953461 -0.2820662 -0.19026826 -0.5740407
0.36509624 -0.3248672 -0.51094157 0.19627774 -0.69713926 0.19961627 -0.46370757 -0.15414952
0.042035628 0.26080567 0.15037255 -0.22750953 -0.52428687 0.591784 -0.13084428 -0.9177041
0.56947035 -1.1416118 -0.41251892 0.59157723 -0.39450133 0.21285719 -0.36923537 -0.1733982
0.5516257 -0.19079365 -0.18420103 -0.1366759 -0.6816734 0.020190466 0.15238099 0.05783247
-0.110751964 -0.060903553 0.3144501 -1.0242817 0.6203182 0.043356963 -0.17073523 -0.15191694
-0.27601346 -0.13008563 0.8537286 -0.20089628 -0.027190726 -0.4399515 -0.7776671 0.70127743
0.61565834 -0.26878846 -0.3579408 0.29449117 0.23546529 -0.84417707 -0.21769917 0.34845054
-0.03403517 -0.99602985 -0.3661592 0.18215747 0.27296096 -0.25961855 -0.14207706 0.7820903
-0.265613 -0.8129474 -0.019145329 -0.92823464 0.031745605 -0.50236475 -0.3133679 -0.065025255
0.21497431 0.7664623 -0.12043352 -0.4363099 0.58496845 0.23929352 0.19927205 -0.64001113
-0.28887618 0.049216717 0.49493402 0.21964528 0.14751875 -0.13796926 -0.33702788 -0.17079695
-0.6136108 0.25961012 -0.29383573 0.5881446 0.23598862 -0.36004606 -0.06455788 0.75435424
-0.7428303 0.028387878 -0.17577258 -0.8986833 0.30674866 -1.1283898 -0.558202 -0.26523238
0.068474054 -0.05043113 -0.9743502 0.10677171 -0.1379889 0.52600753 -0.86537075 -0.25690567
-0.29530475 -0.5121692 0.60783905 0.004317657 0.34995672 0.13323067 -0.27927426 -0.041638862
-0.18443277 -0.863152 -0.14426981 -0.22632901 -0.38566294 -0.39790067 -0.5452892 -0.8789579
0.42793503 -0.2455584 -0.59627795 -0.10543442 0.82769567 0.38041815 0.7690103 -0.3686313
0.24335887 0.42333105 -0.40099505 -0.04769054 -0.14832163 -0.5580191 -0.52993643 -0.050942495
00000000: 1d47 3e3f 16c1 bf3e 4147 743e fdb3 73be
00000010: daba 21bf 929b 9bbe 0cc2 9f3d 5a3a ae3d
00000020: 0479 fcbe b4bd f33e 5303 713f 72a6 bd3e
00000030: b5d7 11bf 7e7d 223f 996c 00bf 3960 39be
00000040: 0a57 653b 1cde 483e ffeb 48bd bf54 b03e
00000050: 6fac 463f 5bd6 393d 8f9c 08bf 2d09 b9bd
00000060: bdbd c33e 8e6a dd3e 6b32 0e3f b2f2 e7be
00000070: 184b 493d 5f7c 263d de17 b03e 1e08 ff3d
00000080: 5fa1 5abd 0b6e 5ebf b224 77bf 14be 1ebe
00000090: b72e 18be 8920 043f 244d a2be 4f31 a8be
000000a0: 9920 80bf b7f8 09be 0daf ab3e 0cb9 673e
000000b0: 056a 85be fa32 71be c89f 89be 6569 ffbc
000000c0: 022d 063d b70a edbe 916e cebe ff26 b83e
000000d0: afe4 953e 4cce efbd 4779 063d abd9 cdbe
000000e0: 828a a73d 7491 a0be dd41 4a3d 64f0 d23e
000000f0: a4a1 c0bd 6bf3 3d3f 6d5c ee3e feea 03bf
00000100: 8795 c2be f454 5e3e 106b 3e3f 3041 4dbe
00000110: 709c cabf 37c3 80bf c733 8a3e 99e7 07bf
00000120: a10c 173e 13db 15bf 2094 0c3f 6a62 ec3e
00000130: da90 6ebe cdbe 21bd 96e2 0f3e ec0e 09be
00000140: 2ee1 89bd 670f e8be 447c 4b3f 56a4 a9be
00000150: 50ec 0cbf 0ce8 93bd eff1 90bd 5d88 acbe
00000160: 45e9 ddbe 4ae4 fc3d 5678 803d 7ee2 a5be
00000170: e61f 223e 0f63 d63e ca72 dbbe 9d0b a5bd
00000180: 55d5 5fbe d141 373d a950 d73d 84f0 d33e
00000190: 16ed f53c caca 4a3f 9d79 5d3f cfda a53e
000001a0: fbd0 fb3e 2399 b2be a446 5bbe 5af3 c23e
000001b0: ecd7 37be fb6a 90be afd5 42be 55f4 12bf
000001c0: e5ed ba3e fe54 a6be 11cd 02bf 08fd 483e
000001d0: b877 32bf 3568 4c3e 146b edbe 5fd9 1dbe
000001e0: 8d2d 2c3d 5288 853e 43fb 193e 42f8 68be
000001f0: aa37 06bf 287f 173f 0bfc 05be a8ee 6abf
00000200: cfc8 113f 5620 92bf ae35 d3be 9b71 173f
00000210: 14fc c9be 3cf7 593e 6b0c bdbe 4c8f 31be
00000220: 5837 0d3f 695f 43be 329f 3cbe c4f4 0bbe
00000230: 2682 2ebf 7a66 a53c c309 1c3e bde1 6c3d
00000240: edd1 e2bd 0176 79bd 9aff a03e aa1b 83bf
00000250: 2ccd 1e3f 1297 313d 37d5 2ebe 1d90 1bbe
00000260: a351 8dbe 2b35 05be f58d 5a3f c1b7 4dbe
00000270: 16bf debc 5341 e1be 3115 47bf eb86 333f
00000280: c99b 1d3f a49e 89be 0444 b7be 8cc7 963e
00000290: d01d 713e fd1b 58bf 88ec 5ebe 1c68 b23e
000002a0: 7668 0bbd d0fb 7ebf 3879 bbbe 7d87 3a3e
000002b0: 8ac1 8b3e b9ec 84be a67c 11be 1237 483f
000002c0: 6dfe 87be 521d 50bf aad6 9cbc c9a0 6dbf
000002d0: ae07 023d fa9a 00bf c271 a0be f62b 85bd
000002e0: 3a22 5c3e e036 443f d9a5 f6bd 0364 dfbe
000002f0: 7ec0 153f 5c09 753e f90d 4c3e c5d7 23bf
00000300: 94e7 93be 7897 493d fe67 fd3e b1ea 603e
00000310: 280f 173e d047 0dbe eb8e acbe 65e5 2ebe
00000320: 9915 1dbf 9eeb 843e a371 96be a590 163f
00000330: 00a7 713e f557 b8be ec36 84bd 5c1d 413f
00000340: 202a 3ebf b28d e83c bafd 33be 1c10 66bf
00000350: 290e 9d3e 146f 90bf 54e6 0ebf 8acc 87be
00000360: 203c 8c3d df90 4ebd 046f 79bf 20ab da3d
00000370: f64c 0dbe 6ea8 063f f088 5dbf 2489 83be
00000380: 2f32 97be 851d 03bf 579b 1b3f 227b 8d3b
00000390: 872d b33e 9f6d 083e 09fd 8ebe 838d 2abd
000003a0: f2db 3cbe 88f7 5cbf 77bb 13be cbc2 67be
000003b0: 9d75 c5be a3b9 cbbe 1398 0bbf 6303 61bf
000003c0: 4d1a db3e a973 7bbe aca5 18bf 00ee d7bd
000003d0: dde3 533f 2bc6 c23e dcdd 443f 3ebd bcbe
000003e0: 1133 793e d9be d83e 394f cdbe 2857 43bd
000003f0: a0e1 17be 57da 0ebf eaa9 07bf 14a9 50bd

c2/b f4 [8]
0.13951436 0.01778238 -0.42770165 -0.16889605 -0.16399509 -0.22091839 0.16916873 -0.34601545
00000000: dadc 0e3e 5bac 913c b6fb dabe 16f3 2cbe
00000010: 54ee 27be 6e38 62be 913a 2d3e f028 b1be
