examples/ch4/reversi_DQN_DNN/agent_black_16000/target_model.npz (npz, 522039 bytes, 8 tensors)

l2/b f4 [256]
000000 eb 2a 8c bd f3 a3 15 3d 98 fb ee 3c b7 8b 94 3c
       -0.068441235 0.036533307 0.029172704 0.018133027
000010 d0 3c 78 bc 61 a1 b3 bd 0a c2 c4 3c 34 8a 01 3d
       -0.015151218 -0.08771015 0.024018306 0.03162594
000020 f0 98 52 bb d4 7c a0 3c c8 2b b3 bd b4 cb 61 3c
       -0.0032134615 0.019590773 -0.08748585 0.013781477
000030 56 69 4a 3d eb d8 27 bd 46 c4 e7 bb ce 50 83 3c
       0.049416862 -0.040978353 -0.007072958 0.016029742
000040 6c 92 86 bd 17 89 a5 bd 31 20 cd 3c 38 e1 c9 3b
       -0.065708965 -0.080827884 0.025039764 0.0061608814
000050 b7 5f cb 3c 58 02 be 3d 23 a9 dc 3d 9a b6 b6 3c
       0.024825914 0.09277791 0.10774448 0.022303868
000060 3f bc 9e bc 70 d9 fe 3d 0b 3b d9 3c 7d 69 d2 3c
       -0.019376872 0.12443817 0.026517412 0.025685066
000070 60 09 6e bd 74 31 7d bd 0a 5f c7 bc 45 3c 24 3d
       -0.05811441 -0.06181474 -0.02433731 0.04009654
000080 e7 75 3b 3c c2 74 3e bd ee 73 71 3d be 77 0d bd
       0.011441684 -0.046498068 0.05894845 -0.034538023
000090 04 81 01 bd 28 09 c7 bb 10 42 c6 3c c3 ec 53 bc
       -0.03161718 -0.0060740896 0.024201423 -0.012934866
0000a0 d1 6c 03 be 65 79 63 3b 9b c8 08 3c c7 58 8f 3d
       -0.12834479 0.0034709808 0.008348609 0.06999355
0000b0 0c 17 1e bd 55 02 35 bc 6d f9 42 3b ad fc e8 bd
       -0.038596198 -0.011047919 0.002975072 -0.11376319
0000c0 a4 e0 5a bd fb 94 2e 3d bc 23 7c 3d ae 3f 87 bc
       -0.05343689 0.042622548 0.061557516 -0.016509857
0000d0 90 5a 5f bc 8e 7f 66 bc a0 e4 98 bc a7 a8 99 3c
       -0.013632432 -0.014068497 -0.018663704 0.018757178
0000e0 ba 65 27 bc 51 6b 07 3c 95 c9 ba bd d3 b0 75 3c
       -0.010217125 0.008265332 -0.0912048 0.014995771
0000f0 33 16 41 bd 9e c6 9b 3c 9d 81 46 bd a8 f2 70 3d
       -0.04714031 0.019015606 -0.048463453 0.058825165
000100 61 e3 c9 bc 5b a6 38 3b 01 e4 8c bb 1a 9a ca 3c
       -0.024644556 0.0028175327 -0.004299641 0.024731684
000110 c0 ca 04 3c 45 6f 60 3d be d1 6b 3d 02 df ae 3d
       0.00810498 0.054793615 0.057573073 0.08538629
000120 0b 7e 12 3c f6 10 4b 3d 9b 70 4a bc d7 99 8d bc
       0.008941184 0.049576722 -0.012355949 -0.01728527
000130 92 1c b8 bc 5c 3a 35 3d 4f 41 a9 bc b5 26 59 bd
       -0.02247456 0.04424511 -0.020661024 -0.05301543
000140 86 b1 38 3c 90 56 84 bb 21 d4 a2 bc 71 68 fb bc
       0.011272794 -0.0040386394 -0.019876542 -0.03068945
000150 73 dd 83 bd ba 76 20 bc ed bb d7 bd 69 a5 2c 3d
       -0.064387225 -0.009793932 -0.10533891 0.042149935
000160 cf 9f 99 bd 17 ee b2 bc 53 dc 56 3d a3 08 1c bd
       -0.07501184 -0.021842046 0.05245621 -0.038094174
000170 09 f3 85 bc 66 46 81 3a d3 99 e5 bc 6c 5a 76 bd
       -0.01635124 0.0009862899 -0.02802745 -0.060144827
000180 e7 f0 03 3e a6 63 c8 bd 42 b7 aa bd fd 4f 96 bd
       0.12884866 -0.097846314 -0.08335735 -0.07339475
000190 3d 0f 6e 3b 87 c5 35 bd 87 f9 56 3d af 23 03 bc
       0.0036325 -0.04437783 0.05248406 -0.008004113
0001a0 01 5e a7 3d cb b3 16 3b 63 9e 2e 3b 78 fb 7f bd
       0.08172227 0.0022995349 0.0026644699 -0.06249568
0001b0 b3 4c 8a bc 81 ab 10 bc ff 7b bb bc e6 67 40 bc
       -0.016882276 -0.008829952 -0.022886274 -0.011743521
0001c0 a3 2f 79 bd c7 15 42 3d 33 ab 02 bd 13 61 d2 bc
       -0.060836446 0.04738405 -0.03190155 -0.025681054
0001d0 13 51 98 bd 2a e5 aa bc 18 88 c1 bc 70 8a d3 3c
       -0.07437339 -0.020861227 -0.023624465 0.025822848
0001e0 df fa e4 3a 8f 6a 95 3b a8 39 40 3d 17 c9 ca bb
       0.0017469785 0.004559822 0.046929985 -0.0061885226
0001f0 b3 de 68 3d b1 32 61 bd 3a 26 4f bd 01 82 8c bd
       0.056853008 -0.054979984 -0.050573565 -0.06860734
000200 e1 6d ba bd 83 f7 46 3c 3a 6b 7d bb 05 c1 96 bc
       -0.09102989 0.012143972 -0.0038668648 -0.018402586
000210 5e 8f 82 3d 85 ed bf bd af 05 d5 bb d0 99 45 3a
       0.06375001 -0.09371475 -0.0065009217 0.00075378735
000220 c6 e7 9d 3d d7 db be bc 29 bc 0d bc 0a 59 a2 bc
       0.07710223 -0.023298187 -0.008650818 -0.019817848
000230 96 d4 b4 bb df 7c 22 3d 65 16 cd bb f2 8d 1e 3d
       -0.0055185063 0.039669868 -0.006258773 0.03870959
000240 13 a4 88 3d ad b8 27 bd f4 99 90 bd bb 4f 3f bd
       0.0667192 -0.040947605 -0.07060614 -0.046706896
000250 a4 ae b9 bb e5 36 ec 3c f2 8e 89 bc f3 0e 4b 3c
       -0.0056665707 0.02883477 -0.016791794 0.012393701
000260 f3 34 09 3d c8 04 93 bd 92 b5 fa bc e9 5e 78 bd
       0.033497762 -0.07178646 -0.030604158 -0.06063739
000270 5f 04 c7 bd 8d 88 81 bd ff 17 1a bd 9a 2e 8f bd
       -0.097176306 -0.06324873 -0.03762054 -0.069913104
000280 1c 84 a4 bc 1b 56 a5 3c 3b 77 9d bc dc 74 72 3c
       -0.020082526 0.02018266 -0.019221893 0.014798369
000290 2e 6d 63 bd f4 2c 98 3c b2 44 66 bd 42 3a 44 3d
       -0.055524044 0.018576123 -0.056217857 0.04790712
0002a0 6a 19 24 3d 3a 7d 0c bd f0 77 6b bc 55 03 83 3c
       0.0400633 -0.034299113 -0.014371857 0.0159928
0002b0 f1 c3 27 3d a6 32 3f 3c a1 cb 15 3d c4 b8 42 bd
       0.04095835 0.01166979 0.03657115 -0.047539487
0002c0 12 22 34 3c 60 c6 82 3d 0a ce f2 bc e1 ba 22 3d
       0.010994451 0.06385493 -0.029639263 0.039729003
0002d0 6f b4 d2 bc 55 72 81 bd 5d 46 02 bd 76 e4 2c 3c
       -0.025720803 -0.06320635 -0.031805385 0.010552516
0002e0 56 8a d1 bc 46 f2 51 bd ce 43 d4 bd c1 8d 40 3d
       -0.025578659 -0.05125644 -0.10364495 0.047010187
0002f0 aa 5a 1d 3d 9f cd a4 3c f2 f2 a8 bd 1a 1b 9e bc
       0.038416542 0.020117579 -0.08249463 -0.019300032
000300 07 42 88 3d 03 fa 2e bd f5 e0 51 3d a3 4f d9 3a
       0.06653219 -0.0427189 0.051239926 0.001657952
000310 98 54 63 bd 8b db 96 bd ca 6d 5f bd 19 3e a7 bd
       -0.055500597 -0.07366093 -0.054548062 -0.08166141
000320 af 56 e7 bc 67 55 89 3d 68 52 55 bc 50 8f a6 3c
       -0.028239576 0.06705742 -0.013020135 0.020332009
000330 8d c5 6d 3d 06 d4 a6 bc 3f 5a a5 3a 1d 1d 6d bc
       0.058049727 -0.020364773 0.0012615396 -0.014472273
000340 b6 a9 91 bd cd 77 36 bd 95 3d 81 3b 76 34 87 bd
       -0.07112448 -0.044547845 0.0039441087 -0.06601803
000350 4a ff aa bd 01 6f c2 bd b6 87 8d bc 31 be 63 bd
       -0.08349474 -0.094938286 -0.017276626 -0.055601303
000360 42 0a 8e 3d 3d 36 bb 3d 12 fd cf bb 3f 5e 70 bd
       0.0693555 0.091412045 -0.006347307 -0.05868363
000370 64 a4 ea 3c 65 cb 66 bd e9 78 d7 bc ec 85 f4 bc
       0.02864284 -0.056346316 -0.026302772 -0.029849015
000380 da 25 41 3c dc d9 8c 3d d6 6a a9 bd 85 a0 2a bd
       0.01178881 0.06877491 -0.082723305 -0.04165699
000390 da fa 98 3b d1 0d 5e bd 5c f9 f3 bc 85 c6 24 bd
       0.0046685757 -0.054212395 -0.02978199 -0.040228385
0003a0 76 a8 a1 3c 53 35 e8 bc ce 9f f8 bc 0d 5b 92 3d
       0.019733649 -0.02834574 -0.030349638 0.07146273
0003b0 4c 1f b8 3d 18 ac 06 3c 66 61 97 bc ed 8c 56 3c
       0.089903444 0.008219741 -0.01847906 0.013095123
0003c0 5d be 90 bc 9f ad a8 3d 96 b9 96 3d c2 41 02 bd
       -0.017668897 0.082362406 0.073596165 -0.031800993
0003d0 de 19 14 bd b5 08 74 bd aa 30 1d bc b3 08 85 bc
       -0.03615748 -0.059578616 -0.009594122 -0.0162395
0003e0 4d d7 05 bd f7 ee 0d 3c 0b a0 36 bc ce e1 61 3d
       -0.03267603 0.008662931 -0.011146556 0.055146985
0003f0 cd 62 ba 3c 14 fd 33 3d 94 4b 6b bd f0 57 92 bd
       0.02275219 0.043942526 -0.057445124 -0.07145679

l1/W f4 [256, 16]
000000 45 5d 3c 3e ec e0 c6 be e2 3b 47 3e 75 48 b2 3e
       0.18394955 -0.38843477 0.19456437 0.34820905
000010 50 66 e0 be f1 8b 9a be 53 44 83 3e 62 d9 fd 3e
       -0.43828058 -0.30184892 0.25638065 0.49579912
000020 e5 b4 3c be a9 ed 07 bf ce 04 19 3f 96 3a 92 be
       -0.18428381 -0.53097016 0.59772956 -0.28560323
000030 59 76 b7 3c f4 ae 74 be d7 6d fc 3e c3 0c 45 3b
       0.0223953 -0.23894864 0.4930255 0.003006742
000040 70 5a d4 3e 48 9b f2 be 98 7a cb 3d 87 59 c9 be
       0.41475248 -0.47384095 0.09935492 -0.39326116
000050 5f 67 33 bd ee 9c 08 bf 44 67 3d be a3 64 57 3e
       -0.043799754 -0.53364456 -0.18496424 0.21034484
000060 9b ea d4 3e 36 9c 13 bf ef ca 0f 3f c1 9b f8 ba
       0.4158524 -0.57660234 0.5616903 -0.0018967317
000070 33 02 59 3f 15 2f 6c 3e b0 66 20 3e 1c 3a 15 be
       0.8476898 0.23064835 0.15664172 -0.14572948
000080 9c 37 8e be a1 b0 c2 be cd e8 ce be 7f 34 1f 3e
       -0.27776802 -0.38025382 -0.40411988 0.1554737
000090 7a cc 79 bd c5 61 9c bb 13 ce 12 be 78 e9 a3 3e
       -0.06098602 -0.004772397 -0.14336424 0.3201406
0000a0 0e 7a bb be fb 21 40 bc 3d 5a cd be 8c f6 8a 3c
       -0.36616558 -0.011726852 -0.4010791 0.016963266
0000b0 51 b0 40 be b9 f6 b3 3d 84 43 3d be 21 ab 5d 3f
       -0.1881726 0.08787293 -0.18482786 0.86589247
0000c0 9e ff 29 3e d5 f8 0b bf d3 b9 5a be 34 2a 25 3d
       0.16601416 -0.5467656 -0.21359949 0.04032345
0000d0 70 ab 1f be eb 11 f2 be 33 e4 27 3f 22 e4 b6 be
       -0.15592742 -0.47279295 0.6558258 -0.35720927
0000e0 4e 8b 27 3f bd 84 33 3f 59 49 58 3e db 4f 2c bf
       0.6544694 0.7012442 0.2112173 -0.6730935
0000f0 f7 0c b5 be be 8e 01 bf c1 6c 19 3e 91 4b 31 3f
       -0.35361454 -0.5060843 0.14982893 0.6925593
000100 82 9a fc bc 23 63 2a 3e 95 2e c9 be d4 df 44 be
       -0.030835394 0.1663938 -0.39293352 -0.19226009
000110 a7 72 88 bd d7 eb 48 be d9 bf d6 3e 93 4c 61 3f
       -0.06662493 -0.19621216 0.41943243 0.8800747
000120 89 a0 6a bd d6 2f 8f bd a9 c2 4a 3e 10 6e 8c bf
       -0.057282005 -0.06991546 0.1980082 -1.0971088
000130 ea 6f 07 bc 67 86 ea 3e 2c d3 d8 be 2c 80 d0 be
       -0.0082664285 0.45805666 -0.4234861 -0.40722787
000140 05 2b e4 3e ac f2 c6 be 1c 93 83 be c4 52 2a 3e
       0.4456407 -0.3885702 -0.25698173 0.16633135
000150 26 67 05 be 30 02 4e bf f8 4e e1 3e 26 e3 06 3f
       -0.1302763 -0.8047209 0.4400556 0.5269035
000160 71 7e ef be 48 e3 ec 3e 26 df ab be 66 8d 45 3e
       -0.46776155 0.46267152 -0.33568686 0.1929222
000170 83 8c b9 3e a2 27 01 bf 3b 68 01 3e 67 2a 02 3f
       0.36240014 -0.504511 0.12637417 0.5084595
000180 30 eb 86 3c 85 e5 cc 3c 03 e2 23 3d cf 1d 1a 3f
       0.016469568 0.025011787 0.040010463 0.60201734
000190 1a 90 4a bf 76 26 6d 3e ef ed 21 3f df ac e6 bc
       -0.7912613 0.23159203 0.6325368 -0.028158603
0001a0 3a 8f dc 3d 76 e4 2d be a0 19 7c bd 44 e2 18 bd
       0.10769506 -0.16981682 -0.061547875 -0.03732516
0001b0 ae e6 17 3e 89 7b d6 be a8 33 48 3e 7d 7d 29 3e
       0.14834091 -0.41891125 0.19550955 0.16551776
0001c0 3f f0 05 3f fe e1 96 bc 57 a8 55 3e f4 35 e0 3d
       0.5231971 -0.018418308 0.20864998 0.10947791
0001d0 4f e6 4f be 61 1d d5 be 17 5d 77 bf 5e 32 f6 be
       -0.203027 -0.41623977 -0.9662642 -0.48085302
0001e0 af 71 02 be 49 96 f7 3d c3 b3 4d 3e f0 28 35 3e
       -0.1273868 0.120892115 0.20088105 0.17691398
0001f0 79 2b 33 3e 0f 35 f6 3e 7e 65 19 3e a5 da fb 3d
       0.17497052 0.48087355 0.14980122 0.122975625
000200 c8 4f 01 bf bc d2 f3 be db eb c6 3d f6 80 24 3f
       -0.5051236 -0.47621715 0.097129546 0.6425928
000210 e9 08 9a 3d 72 ad 71 be 5d 1a fb 3e f6 f7 76 be
       0.07521231 -0.2360132 0.4904355 -0.24118027
000220 52 60 8e be b3 cc 0c 3f 9f b8 9d be 5b a1 8b 3e
       -0.27807862 0.54999846 -0.30804917 0.27271542
000230 cd 78 7d bf 47 2a da 3c b1 0a 0f 3e 22 70 d0 bd
       -0.9901245 0.026631488 0.13968922 -0.10177638
000240 b3 b0 2b 3e 5f 6e 9c 3d 05 2c f4 be 69 dd be 3b
       0.16766624 0.07638239 -0.47689834 0.005824734
000250 ad 8e 03 3f 34 4a 70 3e 1d cf 8e 3e 96 66 58 be
       0.5138958 0.23465806 0.2789239 -0.21132883
000260 be 1c d7 3d 7d 7f 9d be ac ef d5 be 1d 97 89 be
       0.10503529 -0.30761328 -0.41784418 -0.26873103
000270 81 48 31 3f d8 40 12 3f b4 5a 92 bd 49 a5 43 3c
       0.6925126 0.57130194 -0.071462065 0.0119412625
000280 7a ad 30 3f 38 4f b2 3c 5b 88 de bc 9b 73 e1 be
       0.69014704 0.02176629 -0.027164629 -0.44033512
000290 5d 54 13 3e 44 36 47 be 17 83 17 be ab fc 64 3d
       0.14387651 -0.19454294 -0.147961 0.055905025
0002a0 df 3b 5f bf b9 1b 01 be 5c c0 5a 3e 3d bd f3 be
       -0.8720073 -0.12608232 0.21362442 -0.47605315
0002b0 5a e0 3a 3f 46 73 3c be 3c df f4 3d d6 15 40 be
       0.72998583 -0.18403348 0.11956641 -0.1875833
0002c0 b6 60 ea be 20 80 69 bf c4 5a bf 3e 07 67 a9 be
       -0.4577691 -0.9121113 0.37373936 -0.33086416
0002d0 5b c6 44 3f 13 f8 80 be f6 d0 23 3e 4e f3 61 3f
       0.76865166 -0.25189266 0.15997681 0.8826188
0002e0 cc ab 8e 3d 17 5c be 3e e2 6b 57 be 70 1b 02 3e
       0.069663614 0.37179634 -0.21037248 0.12705779
0002f0 3d c7 f6 be 17 79 c9 be 7f 8c 1b bf aa 87 d1 bd
       -0.48198882 -0.39350197 -0.60761255 -0.10230954
000300 56 22 bc 3d 43 40 9d 3e ea 28 cb 3d 85 05 13 3e
       0.091862366 0.3071309 0.09919913 0.14357574
000310 3a 4a c9 bd b2 b7 55 be 6a 44 ad b9 d1 f1 17 bd
       -0.09828611 -0.20870855 -0.00033048104 -0.03709585
000320 0e 99 62 3c 77 15 9c be d1 e9 22 3d 80 17 15 be
       0.013830436 -0.30485126 0.039773766 -0.14559746
000330 27 1c 09 3d 86 83 0d bc 4e 7d 8c be 7c 56 0c 3f
       0.033474114 -0.008637315 -0.2743935 0.54819465
000340 5c bf c5 bc a4 a5 4c bc 74 c6 16 bf e2 02 5c be
       -0.024139099 -0.012490664 -0.58896565 -0.21485475
000350 8b c2 d6 be 81 de 8b 3c 27 a0 1e bf cb bd ca 3d
       -0.419453 0.017073872 -0.61963123 0.098994814
000360 52 b1 49 be 05 f1 2e bf 44 93 73 3e cd 76 4b be
       -0.19696549 -0.68336517 0.23786646 -0.19869538
000370 77 94 2b bf 1c 65 c5 3e 39 43 21 3f 41 00 08 3d
       -0.67023414 0.38553703 0.629932 0.033203367
000380 95 4a 40 bf 54 68 92 be a8 9a f4 3d c4 96 81 be
       -0.75113803 -0.2859522 0.11943561 -0.25310338
000390 e1 70 7d 3d 7a d0 e3 3e 5c 6b 2a 3e f7 f3 70 bd
       0.061875228 0.44494992 0.16642517 -0.058826413
0003a0 74 ea df 3e 05 08 ac 3e b6 eb 5e 3e ad e4 61 3e
       0.4373356 0.33599868 0.21769604 0.22059889
0003b0 db a6 2d bf 06 cc 38 3e 26 21 3b 3e 94 97 03 bf
       -0.67832726 0.18046579 0.18274364 -0.51403165
0003c0 48 85 47 be a0 e4 a7 bd bc c0 1b 3f 7f dd 85 3e
       -0.19484437 -0.08197904 0.60840964 0.2614555
0003d0 4a e5 ab 3d 49 59 a8 bf ce 77 ed bd 1a 7c 08 bf
       0.08393343 -1.3152248 -0.115951166 -0.53314364
0003e0 44 03 c9 3e c6 07 98 3b 6d bc 12 3f 7f 18 d9 3e
       0.39260304 0.0046395985 0.57318765 0.42401502
0003f0 93 da 86 be a7 d7 98 be 54 74 a7 3e af 35 b0 3e
       -0.26338634 -0.2985203 0.3270594 0.34415957

l3/W f4 [256, 256]
000000 1c 85 07 bd 5d fb 5b be 01 ca ee 3d a2 0d a9 bd
       -0.033085927 -0.21482606 0.11659623 -0.082545534
000010 36 70 d9 bc 66 13 38 be 0b 0b d8 bd a5 10 3e bd
       -0.026542764 -0.1797615 -0.10548981 -0.046402592
000020 2b a8 bb bd cc 6f 56 3c 52 64 12 be 07 cb 5a bc
       -0.09162935 0.013088178 -0.14296082 -0.01335407
000030 70 e2 07 3e 59 3e 83 bd a4 42 38 3e b3 86 f5 3d
       0.13269973 -0.06408376 0.17994171 0.119885825
000040 0c f9 fe bd df 1c 83 bc 5d 75 40 be f6 ad 81 bb
       -0.12449846 -0.016004978 -0.1879477 -0.0039575053
000050 05 6c a3 3d d4 c6 23 bc 67 23 57 3e 04 6e 66 3c
       0.079795875 -0.009996135 0.21009599 0.014064316
000060 2c 54 22 3d 23 ae 3d be aa 5a 2b bb b7 06 0c 3c
       0.039631054 -0.18523459 -0.002614657 0.008546523
000070 64 79 aa 3d f7 68 c5 bd 56 56 b5 3d 2e 73 97 bd
       0.08323935 -0.09639161 0.08854358 -0.07395016
000080 f2 76 5b 3d b7 62 d1 bd c7 25 ff 3c 64 c1 59 3d
       0.053580232 -0.102239065 0.031145943 0.053162947
000090 08 fc e8 bc 32 9f 90 3d fb 08 06 3e 00 cb a8 3d
       -0.02844049 0.07061614 0.13089363 0.08241844
0000a0 d9 10 38 be f8 c8 98 bd 01 5d f3 bd 13 03 1a bd
       -0.17975177 -0.07460207 -0.118829735 -0.037600588
0000b0 c9 42 ea 3c ca f0 aa 3d 8a ad b6 bd c8 6c bb 3b
       0.028596299 0.08346708 -0.08919819 0.005719755
0000c0 d4 63 a5 bd 27 fe 1d 3e 83 5a c3 bd 60 e4 29 3d
       -0.08075681 0.15428983 -0.09538748 0.04147756
0000d0 e5 23 da 3d 0c 30 48 bc 67 29 e8 3d db d6 66 3d
       0.106513776 -0.0122184865 0.11336022 0.056357246
0000e0 10 e4 da 3d 68 98 16 be e1 ec 4c bd 5c 56 60 3d
       0.10688031 -0.14706576 -0.050030593 0.05476986
0000f0 18 ae 1c be f6 99 06 bd 6f 54 fe bd 90 9d c0 3d
       -0.15300786 -0.032861672 -0.12418448 0.09405053
000100 2f 75 87 bc 17 cf 11 bd 98 f4 41 bd c3 4c db 3e
       -0.01653537 -0.035597887 -0.047352403 0.42832002
000110 ed f5 7b bd 43 ca b3 bd f4 ad 7c 3d 7c e3 9c bd
       -0.06151383 -0.08778813 0.061689332 -0.07660577
000120 c3 39 a3 3b 9e 23 ca 3d 1a 6a b3 3d f4 dc e0 3d
       0.004981251 0.09870075 0.08760472 0.109796435
000130 1c 82 f8 3c be 86 4f 3d e4 10 89 be d3 a0 89 bd
       0.030335478 0.05066561 -0.267707 -0.06720128
000140 b8 3d a1 bc f5 71 44 be 91 4a f3 bd 69 3c 07 3d
       -0.01968275 -0.19184096 -0.11879457 0.033016596
000150 63 2c 71 3d 24 64 cc 3c c5 c6 10 be fc 8a 92 bd
       0.05888022 0.024950095 -0.14138325 -0.071554154
000160 2d a4 14 3e a5 86 19 3e 0d 11 e5 bc 1f 2e 7c 3d
       0.14515753 0.14992769 -0.027962232 0.061567422
000170 e7 80 4b 3e 82 23 d1 3b 46 3b 38 bd 19 ce 62 bd
       0.19873391 0.0063824067 -0.044978403 -0.05537233
000180 36 81 38 3e 61 7a 7f bd bb 4d f9 bd c4 e4 2d 3d
       0.1801804 -0.06237257 -0.12173029 0.042454496
000190 99 1d 5d 3e 81 bb d6 bc a1 1a 91 3d 04 dc e8 bd
       0.21593322 -0.026212456 0.07085157 -0.1137009
0001a0 5e d0 f1 3d c7 f0 06 be 68 ca 03 3e 91 24 06 bc
       0.11807321 -0.13177787 0.1287018 -0.008187429
0001b0 3d e7 11 be a5 54 ad bd c0 bc cb bd 01 9c cc bc
       -0.14248367 -0.0846341 -0.099481106 -0.024976732
0001c0 80 15 22 bd 1c 99 39 be 66 82 89 3c 8f de 46 bc
       -0.039571285 -0.18124813 0.016785812 -0.012138023
0001d0 5a 98 17 bd 0a ee e9 bd 13 0c c0 bd 30 03 77 3d
       -0.03701053 -0.114223555 -0.09377303 0.060305774
0001e0 5c b8 06 be 2a 2c cc bd 41 a3 7d 3d 30 3e 38 3d
       -0.13156265 -0.09969361 0.06192327 0.04498118
0001f0 17 0b 5d bd 1f 7b 0b be c5 44 40 be c8 71 01 be
       -0.053965654 -0.13621186 -0.18776233 -0.1264106
000200 c8 8b b6 bc 0f e1 21 be 76 fe 5b 3d 9b df 49 3e
       -0.02228345 -0.1580851 0.05370947 0.19714205
000210 f8 aa f6 bd 7e 29 6a bb 60 bd ae 3d 29 10 80 3d
       -0.120443285 -0.0035730298 0.08532214 0.06253082
000220 db c3 1e be 48 2b a8 3d 4c 5f 13 3e c7 1c 2f 3d
       -0.155044 0.0821138 0.14391822 0.042752054
000230 2b a1 66 bd 41 de a4 3c eb 78 ca 3d 9e fa 8b bd
       -0.056306046 0.02012551 0.098863445 -0.06834911
000240 e1 dc 87 bc d4 ed 25 bd f2 4c c3 bd 62 26 d5 3b
       -0.016584815 -0.040510014 -0.095361605 0.0065048197
000250 dc 79 c4 3b b0 5b 8f bd 61 56 24 3e 5e 8a 09 3c
       0.005995972 -0.0699991 0.16048576 0.008394806
000260 34 26 88 be 91 0d 83 3b e0 93 94 bd a1 93 e8 bd
       -0.26591647 0.00399942 -0.072547674 -0.11356283
000270 48 a9 01 bd bd 4b 86 bd 8e fa ce 3c c9 c5 3f bb
       -0.03165558 -0.06557415 0.025265958 -0.0029262176
000280 c7 2c b8 3d dd bd 04 3e 81 7d 29 bd b6 89 e6 3d
       0.089929156 0.12963052 -0.041379455 0.11256735
000290 00 9c 9b bd 55 31 34 bc 81 4d 8f bd 4c 61 dd 3d
       -0.07598114 -0.01099809 -0.069972046 0.108095735
0002a0 eb e0 48 bd cf c6 56 3e 02 fd 26 3d 83 02 f7 3c
       -0.049042623 0.20974277 0.04076863 0.030152565
0002b0 d7 cc 0b be ea bb a3 bc 29 df 8c 3d c5 62 4a bd
       -0.13652359 -0.019987065 0.06878502 -0.0494106
0002c0 4c df 55 3d 34 10 6a 3c 0f 69 c8 bc b6 41 d4 3d
       0.052214906 0.01428609 -0.024464158 0.10364096
0002d0 32 98 fb 3c cc 1d 35 bd 69 8c a4 bd fd 5e 15 bd
       0.03071222 -0.04421787 -0.080345936 -0.03646754
0002e0 a6 d9 45 3c db 7a 40 be 37 65 db 3d 55 c3 d6 3d
       0.012075817 -0.18796866 0.107126646 0.104864754
0002f0 4e fc 06 be 2e af 0f be ce f0 f8 3d 61 bb 13 3e
       -0.13182184 -0.1403167 0.12155305 0.14426948
000300 07 9a 24 3d 16 59 83 bd 0d ea fc 3d 6c c8 99 bd
       0.040185954 -0.06413476 0.12349329 -0.075089306
000310 0a 3d 3e be c6 7d c1 be f0 21 99 3d 6c 3c e8 3d
       -0.18577972 -0.3779127 0.07477176 0.113396496
000320 be 09 61 bd 75 6e bd 3d a4 82 9d bd 20 d0 02 be
       -0.05494093 0.09249584 -0.07690933 -0.12774706
000330 16 0b a6 bd 84 6b 24 bd 20 5b 1e be e0 21 de bd
       -0.08107583 -0.040141597 -0.15464449 -0.10846305
000340 6c 2a 36 3d d5 55 69 be b9 d7 20 be 99 35 5e bd
       0.04447405 -0.22786649 -0.15707292 -0.054250333
000350 71 f2 94 38 2e e8 18 3e 02 52 55 be 4f da 57 bd
       7.102348e-05 0.1493232 -0.20832065 -0.05269843
000360 d7 e1 e4 3c b2 1b ae ba 58 70 fe 3e bc 06 07 bd
       0.02793972 -0.00132834 0.49695086 -0.032965407
000370 4e 3e 22 bd 66 94 e9 3c ca 0d e7 3d 00 0c d7 3d
       -0.0396102 0.028513145 0.11281927 0.10500336
000380 6c cf af bd 2f a5 23 bd 11 af 35 3d a6 fb 4d bd
       -0.085844845 -0.039952453 0.04435641 -0.05028882
000390 62 05 2a bb 16 2e 32 be e8 73 d8 bd e3 43 29 bd
       -0.002594315 -0.17400393 -0.10568982 -0.041324507
0003a0 bb 07 29 3e 61 b2 a4 be a0 9a d8 bd 9a 3e 72 bd
       0.16506855 -0.32167342 -0.105763674 -0.059141733
0003b0 8c 1d 9f bc 77 41 49 bd 0a bc 09 be af ab 26 3e
       -0.019423269 -0.049134698 -0.13450637 0.1627643
0003c0 8a 29 36 3e df 5d dc bd f0 79 65 bd 9f 48 3b be
       0.17789283 -0.10760092 -0.05602449 -0.18289421
0003d0 59 c3 68 3d e0 25 2b be 8e e2 de 3d 77 56 58 3e
       0.056826923 -0.16713667 0.108830556 0.21126734
0003e0 89 a7 ca bd af 58 01 be ad c9 01 3e 3b b5 8c bd
       -0.09895236 -0.12631486 0.1267459 -0.068705045
0003f0 02 c3 96 3e 01 56 b7 3d 51 7a fc 3d 2c b8 fd 3c
       0.29445654 0.08951951 0.123280175 0.030971609

l4/W f4 [16, 256]
000000 8f c8 13 3e f3 17 0d 3e 98 07 83 3d fa ae 18 bd
       0.14431976 0.13778667 0.06397933 -0.037276246
000010 a7 01 9e be 42 40 a7 be 51 03 7e be 4f b3 a8 be
       -0.30860636 -0.32666212 -0.24805953 -0.32949302
000020 c0 25 13 be 90 40 8a 3e c4 da 45 be 70 7e 46 bc
       -0.14369869 0.27002382 -0.19321734 -0.012115106
000030 cc d1 0c 3d 08 a6 9e be 02 fa 4d 3e 36 3b ab 3d
       0.034379765 -0.30986047 0.20114902 0.08360903
000040 15 44 a4 3d cd da b7 bc f9 7e fa 3c 8a 8d c1 be
       0.08020798 -0.0224432 0.030578123 -0.37803298
000050 f5 e4 82 3e 5d d1 dd be ed 69 86 bd fa ae 01 3d
       0.25565305 -0.43323794 -0.065631725 0.03166101
000060 b5 87 81 bd 06 bd 9e 3e d6 c1 9d bc 40 4d c4 3e
       -0.06324712 0.31003588 -0.019257467 0.38340187
000070 52 ac 5e 3d be ef 23 3e 28 9f e5 3a e3 c9 02 bd
       0.054363556 0.16009423 0.0017518746 -0.031930815
000080 d9 f0 bb 3d 08 ca de 3d 91 55 d4 3d 46 a9 30 3e
       0.091767974 0.10878378 0.10367883 0.17252073
000090 49 46 af 3e 7f 8f 94 3d 35 48 b7 3e 49 07 4d be
       0.3423331 0.07253932 0.35797277 -0.2002231
0000a0 d5 66 c4 3e 49 ab 6e 3e 78 77 66 bd c4 c8 84 3e
       0.38359705 0.23307528 -0.056266278 0.25934422
0000b0 e0 d0 55 bd ee df f3 3d 4d 04 b0 3e 91 be 07 3e
       -0.05220115 0.119079456 0.3437828 0.13256289
0000c0 e1 3e 5c 3e 6d e2 21 3e 09 6d 24 bd 26 f0 9d 3c
       0.21508361 0.15809031 -0.040143047 0.01927955
0000d0 33 37 32 bd 36 64 74 3e ee 54 d0 be 4b dd 6c 3d
       -0.043509673 0.23866352 -0.40689796 0.05782823
0000e0 5f f5 89 3e 72 8d 22 bd 03 18 f1 bd d7 f8 c9 be
       0.26945016 -0.039685674 -0.11772158 -0.39447662
0000f0 d1 6f 57 be b5 a7 40 3e d6 cb b0 bd 11 fb 3e be
       -0.21038748 0.18813975 -0.086326286 -0.18650462
000100 b7 d3 21 be 9b af 21 bc db b9 0f be 78 41 6b be
       -0.15803419 -0.009868528 -0.14035742 -0.22974193
000110 8d a3 74 3d 4e ee a7 3e 5a a1 97 3d d4 ee b5 3e
       0.059726287 0.32799 0.07403822 0.35533774
000120 64 4b ba be ac 35 bd 3d 51 eb b3 be 0f 9d 26 bd
       -0.36385643 0.09238753 -0.3514047 -0.040677126
000130 50 e8 f5 bd 57 62 a5 3d 6a ea 0a be 1b 09 2a 3e
       -0.12007201 0.080753975 -0.13565984 0.16605036
000140 0b ef 48 be 46 1f a4 be a6 41 dc bc 18 a7 ea be
       -0.19622438 -0.3205511 -0.026886772 -0.45830607
000150 b6 86 3f be 73 4c af bd 31 84 10 3d e0 4f 63 bd
       -0.18703732 -0.085595034 0.035282318 -0.055496097
000160 5d cd ba be fb 37 a1 3b 9e 85 ba 3e 5c 54 0e be
       -0.36484805 0.0049200035 0.36430067 -0.13899368
000170 8a 32 62 3e 53 99 ce 3d 66 c8 9a 3e ef 8b b4 3e
       0.22089592 0.10087838 0.30231017 0.3526301
000180 7d d2 de 3c ae 70 b8 bd 43 42 c7 bd 5d e9 59 be
       0.027199978 -0.09005867 -0.09729435 -0.21280427
000190 d9 82 3d bd 47 9c 58 3c 89 0e f8 bd 56 2f d2 3d
       -0.046267364 0.013220853 -0.12112147 0.10262935
0001a0 f8 d1 4e 3d 6b 6c cf bd 6b 13 3b bd 33 d0 86 3d
       0.05049321 -0.10128101 -0.045672815 0.065826796
0001b0 5c 7a ca 3b f6 5b 0a 3e fb 2b 10 be 5c 7c 25 be
       0.006179137 0.13511643 -0.14079277 -0.1616072
0001c0 95 ca 8e be be d2 ac bd 29 df e0 3d d3 67 e4 3e
       -0.27888933 -0.084386334 0.109800644 0.44610462
0001d0 ab 17 ae 3e f3 39 88 3d 0d 02 a2 be 8a d7 62 be
       0.34002432 0.06651678 -0.3164219 -0.22152534
0001e0 b6 2e 16 be e0 4a 1b be 40 17 7b 3e 66 ca e1 3d
       -0.14666256 -0.15165281 0.24520588 0.110249326
0001f0 28 c3 32 3d e4 b4 5d 3e f2 83 d9 be c7 52 5a 3d
       0.043643147 0.21651036 -0.4248348 0.0533016
000200 f3 49 ce 3c 0c 24 a4 3d 0e bf ae 3d 1f 6e 00 3e
       0.025181746 0.08014688 0.085325345 0.12542008
000210 26 ab 2b 3e f6 ae 0e 3e 15 8b 84 3e aa 2a 04 be
       0.16764507 0.1393393 0.2588736 -0.129069
000220 f5 ef 69 bb 75 39 05 bf 20 7a 1a 3d 98 84 95 3b
       -0.0035696004 -0.520408 0.037714124 0.0045629255
000230 ab f6 0a 3e 62 34 ee be d0 f7 84 be 81 fc 5c 3e
       0.13570659 -0.4652434 -0.25970316 0.21580698
000240 a8 41 4e bd 4d c8 96 be 0d 93 9b 3c 6d fe c0 bc
       -0.050355583 -0.29449692 0.018991018 -0.02355882
000250 7a f7 2b 3e f9 08 0f 3e 6f 15 2a be e2 d7 d9 be
       0.16793624 0.13968267 -0.16609739 -0.42547518
000260 20 6c 2a 3e 49 ed da bd 99 a9 72 bd 02 0a 3c be
       0.16642809 -0.1068979 -0.059243772 -0.18363193
000270 70 4f d0 bd 9d 8b 7b 3d 73 da a3 3e 97 bc 1d 3e
       -0.101714015 0.061412442 0.320026 0.15403973
000280 8e ea 7b be 9d 08 7e be b6 70 44 3e 35 a5 7c 3d
       -0.24601194 -0.24807973 0.19183621 0.06168099
000290 57 5c ca bd 68 76 26 3e ed 2c 27 be e7 d6 64 3e
       -0.09880894 0.16256106 -0.16325732 0.22347604
0002a0 e0 98 4a be 4a fa 72 3d 71 f8 56 3e 0c 0e 85 be
       -0.1978488 0.059320726 0.2099321 -0.2598728
0002b0 d4 c7 88 3d 5d dd 34 be e4 7a 80 3e 65 35 dc 3c
       0.06678739 -0.17662568 0.25093758 0.02688093
0002c0 3a a2 14 3d 9c 77 23 3e 2c f3 ee 3d be b2 aa be
       0.036287524 0.15963596 0.11667475 -0.33339494
0002d0 42 e7 c4 3d 0b 4a 74 be 07 61 f3 bd 35 ab 67 3d
       0.096144214 -0.2385637 -0.11883741 0.05655976
0002e0 62 e3 0d bd d5 dc 96 be f6 26 52 3e 35 9a 6a be
       -0.034640677 -0.29465356 0.20522675 -0.22910388
0002f0 42 af 22 3d ef ee f1 be 31 16 80 3e 75 d0 da 3c
       0.03971792 -0.47252604 0.2501693 0.026710728
000300 16 eb 03 bf 67 fa 96 3d ef 35 d2 3d 1f bf 46 be
       -0.5153059 0.07371979 0.10264193 -0.19408844
000310 2f e6 19 3e 34 77 1c 3e f4 77 4f 3c 23 8b af be
       0.15029214 0.15279847 0.012662876 -0.3428584
000320 09 84 2b bd f7 f1 2e 3e a6 f7 9d be 3f bf ee bd
       -0.041873965 0.1708449 -0.30853003 -0.11657571
000330 b1 bf 83 be 9e 4a b1 3d 4f 66 f9 3e 9d 94 33 be
       -0.25732186 0.0865681 0.48710868 -0.1753716
000340 95 c7 95 bb 22 1b 1a be b6 6a 87 bc 6d 01 f7 bd
       -0.004570911 -0.15049413 -0.016530376 -0.12060819
000350 41 10 8d be 60 a4 5e 3d 03 08 97 be 65 32 1e 3e
       -0.27551463 0.05435598 -0.294983 0.15448911
000360 61 68 30 3d ee d1 1e be c4 a9 6d 3e 2f 2d 32 be
       0.043068293 -0.1550977 0.23209292 -0.17400049
000370 2f 39 39 3e 52 b9 72 3e 92 ae 52 3e 9b 9b 98 3d
       0.1808822 0.23703507 0.20574406 0.074515544
000380 af f8 33 3e 16 72 a8 be 75 d0 b5 bd 1c b5 0c bf
       0.17575334 -0.3289954 -0.08877651 -0.5496385
000390 79 fe 13 be bb d8 16 3e e8 57 01 3d b1 0b e3 3d
       -0.14452542 0.14731114 0.031577975 0.11086214
0003a0 68 45 d2 3d 49 82 ab bd b5 42 01 3e 47 2f 97 3d
       0.102671444 -0.08374459 0.12623103 0.07382064
0003b0 23 c7 8e bd 0b 4b 08 be cc c2 e3 be 89 be b0 3e
       -0.06971576 -0.13309877 -0.44484556 0.34520367
0003c0 62 27 58 3e f0 41 27 be 1a f4 56 3e 3b d0 9d 3e
       0.21108773 -0.16333747 0.20991555 0.3082293
0003d0 4c fd 08 3d 12 9a be bd cf 6a 7b 3e 10 92 50 3e
       0.033444688 -0.0930673 0.24552463 0.20368218
0003e0 86 bb 33 be 74 58 87 bd 7b d5 af bd 9a 90 09 3e
       -0.17552003 -0.06608668 -0.0858564 0.13434067
0003f0 81 a9 0a bd 58 59 21 3e 98 17 0d be fa b3 c5 bd
       -0.033853058 0.15756738 -0.13778532 -0.096534684

l2/W f4 [256, 256]
000000 57 82 98 3b 68 cf 31 be 6d 5b 43 bd 78 ef 3f 3e
       0.0046542096 -0.17364275 -0.047694612 0.18743694
000010 e8 16 7b 3d 41 c3 8d 3c cb 97 a9 b9 86 7f 10 bc
       0.061301142 0.017305018 -0.00032347286 -0.008819466
000020 6b c5 03 3e 97 a1 6e be 1f ab 94 bd a5 fc c6 3d
       0.12868278 -0.23303829 -0.07259201 0.09716157
000030 4c 8c a7 bd 8f 78 0c 3e 39 7c 94 bd e9 77 b8 3d
       -0.081810564 0.13717864 -0.07250256 0.09007246
000040 48 db 59 3e 99 3d fe 3d 95 8a 4f be 08 14 b0 bd
       0.21275055 0.124140926 -0.20267709 -0.08597571
000050 b3 ec 34 3a 9c 56 e6 3d 92 75 87 be bb e6 0c bc
       0.0006901726 0.11246988 -0.26456887 -0.008599932
000060 c1 7f 05 3e 62 e9 fc bd 6f 20 1e bc cb ab 03 be
       0.13037015 -0.12349202 -0.009651287 -0.12858503
000070 c4 48 d7 3d d1 29 db bc 45 76 9f 3d 5e 6a 0d be
       0.10511926 -0.026753338 0.0778623 -0.13810107
000080 d6 e1 fd bd a4 52 9b bc bf d3 99 bd 9e 1e a8 bd
       -0.123965904 -0.018960305 -0.075110905 -0.08208965
000090 37 a8 a3 bc c2 8a 62 bb f5 89 8f bd b6 fb 17 be
       -0.019977672 -0.003456757 -0.07008735 -0.14842114
0000a0 ae 18 1e bd 1a 38 20 3e 1e 5f 52 bd be 30 d8 bd
       -0.038597755 0.15646401 -0.051360242 -0.10556172
0000b0 f1 2b d3 3d be d5 17 bc fa 87 0c 3d c7 00 0b 3d
       0.103111155 -0.009267269 0.034309365 0.03393629
0000c0 3d 27 ca 3c b1 a5 75 3c 6e 28 4e bd 73 36 bd 3d
       0.024676913 0.014993117 -0.050331526 0.09238901
0000d0 49 1d 1e 3e 16 d8 35 bd 0e a4 f0 3d fb 52 22 3e
       0.15440859 -0.04439553 0.11750041 0.15851967
0000e0 d5 73 b5 bd be d5 14 3e b6 4f e3 bc f1 cd cd bd
       -0.08859984 0.14534661 -0.02774797 -0.10049046
0000f0 a6 70 09 bd 2d ff d0 3c b9 c7 9c bc 58 1f df bb
       -0.033554696 0.025512302 -0.019138204 -0.0068091564
000100 3e 59 18 3d 88 03 a3 bd ef 8d a5 3e 56 73 6b 3d
       0.037194483 -0.07959658 0.3233485 0.05748304
000110 f9 6a 6b 3d 7f 85 fc bd 4c c8 0f be 61 bc 4b 3e
       0.057475064 -0.1233015 -0.14041251 0.1989608
000120 4d 59 1a bd 4b 91 1b be 7d fc 8b 3e bb 6f 6c bd
       -0.03768282 -0.15192144 0.2734107 -0.057723742
000130 18 2a 8c 3d 45 2b 61 bc 6d 32 4d 3e db d7 78 bd
       0.06843966 -0.013743226 0.20038767 -0.06075273
000140 33 bd 94 bc e5 77 10 bd af e6 fb bb 37 95 07 be
       -0.018156623 -0.03527059 -0.0076874117 -0.13240515
000150 77 03 e3 bc bc f4 a9 3d ce f0 1a 3d 1d 97 c6 3d
       -0.027711613 0.082986325 0.037827305 0.09696791
000160 da 6f 29 bd 6e 75 d2 3d 54 60 8e be fc f0 12 3d
       -0.041366436 0.10276304 -0.27807868 0.03587435
000170 95 f2 5b 3d 79 99 2b bd 95 5f 85 be 24 22 4b be
       0.05369814 -0.04189441 -0.26049486 -0.19837242
000180 ba c0 ea bc 69 59 4f bd a5 dd cc 3c 09 40 22 3e
       -0.028656352 -0.050622378 0.025008032 0.1584474
000190 70 cd be 3c bd 11 b8 be 13 c0 35 3d 6f 45 04 be
       0.02329132 -0.35951033 0.04437263 -0.12917112
0001a0 00 cd a3 bc 9f c5 6b 3d a1 c6 15 3e 0d 3d 35 3d
       -0.019995213 0.057561513 0.14626552 0.044247676
0001b0 16 e6 01 3e 27 8f b7 3d e5 84 a8 3c d9 e0 1d be
       0.12685427 0.08962851 0.020571182 -0.15417804
0001c0 15 3c a3 3c ff ea 03 3e c6 d3 3c 3d f8 f8 2d 3e
       0.01992611 0.12882613 0.0461004 0.16989505
0001d0 44 45 ff 3d d5 2d 88 3d a8 d2 88 bd 81 5c fb bd
       0.12464383 0.06649367 -0.066808045 -0.12273503
0001e0 31 91 8c 3d 8e 00 9e 3d 8f 2e ba bd 95 f8 31 3c
       0.068636306 0.077149495 -0.090909116 0.010862489
0001f0 84 20 c4 bd 6f 01 44 be 1f c4 13 3c e5 51 77 3e
       -0.09576514 -0.19141172 0.009018927 0.24152334
000200 3a ca b0 bd dc 6f 8e bc ea 32 c4 bd 99 50 a7 3d
       -0.08632322 -0.017387323 -0.095800236 0.0816967
000210 45 49 97 be 8f 03 02 3d 69 74 94 ba dc bb aa bd
       -0.29548088 0.031741675 -0.0011326197 -0.083366126
000220 c4 47 04 3e b5 5b 9d bc 9b 4c f2 3d b8 ae f6 bc
       0.12918001 -0.019208768 0.118310176 -0.03011261
000230 6c fb 13 3e b9 e4 57 3e e7 33 32 3e d5 8d 23 be
       0.14451379 0.21083345 0.17402612 -0.15972073
000240 f5 d6 06 be 10 58 3f bc 71 1b c1 bd b6 69 34 3d
       -0.13167937 -0.011678711 -0.09429062 0.044046126
000250 20 08 b1 bd 27 7d c4 bd 40 bd 81 ba 52 8c 1f be
       -0.08644128 -0.095941834 -0.000989832 -0.15580872
000260 a4 77 86 3c 0a 46 89 bc 7f f2 2c 3e 35 2f 1d 3d
       0.016414471 -0.01675703 0.1688938 0.0383751
000270 1a d5 ef bd b9 5a 3e 3d 09 5e 1b bd b1 d4 75 bd
       -0.11710568 0.04647324 -0.037931476 -0.06001729
000280 9e fe 76 be 08 fe 9e 3d a8 a2 aa bd 82 68 d8 bd
       -0.24120566 0.07763296 -0.083318055 -0.10566808
000290 02 66 52 bd 59 61 ce 3c cd 1b 88 bc 9e 96 9a bd
       -0.051366813 0.025192903 -0.016614819 -0.07548259
0002a0 41 4a 2d be f9 80 09 3e 6f 5d 24 bd 90 1c b9 bd
       -0.16922857 0.13428105 -0.040128168 -0.09038651
0002b0 3f 88 84 bd c0 30 8f bd 4c 75 4e 3d f6 81 5a be
       -0.064712994 -0.0699172 0.05040483 -0.21338639
0002c0 fd e1 1f bc 61 66 81 bc d3 d0 c4 bc 20 02 a2 ba
       -0.00975847 -0.015795888 -0.024025356 -0.0012360252
0002d0 d6 e1 52 3e 1b 01 2d 3d d3 de 73 3e b8 47 30 be
       0.20593962 0.042237382 0.2381547 -0.17214859
0002e0 b3 1a 08 be a5 48 8b bc b8 6e 4e 3c 4e a5 1d 3d
       -0.13291435 -0.017002413 0.01259964 0.038487725
0002f0 3a 90 90 3d 6f e3 26 3e 11 a1 58 3c b5 91 3a 3c
       0.07058759 0.16297697 0.013221995 0.011387278
000300 83 53 b9 bc 2f 04 2f 3c 9e 49 a1 3d 36 ec 86 be
       -0.02262283 0.01068215 0.078753695 -0.2635209
000310 af f9 b1 bd ef 45 77 3d be d6 a4 bd 49 10 48 bd
       -0.086902015 0.06036943 -0.08048771 -0.048843656
000320 64 81 34 bd 8b 6c 2a 3e 0a e1 07 3e 19 b7 73 3e
       -0.04406871 0.16642968 0.1326944 0.23800315
000330 c9 82 0c 3d 59 f6 a0 3d 3b 13 ca bd ac 06 34 bd
       0.034304414 0.07859487 -0.09866949 -0.043951675
000340 99 f3 e3 bd c3 44 10 be 5f 57 1f 3e 57 74 c3 3d
       -0.11130447 -0.1408873 0.15560673 0.095436744
000350 3a 13 36 bb b2 2c 87 3d 6c 74 06 be 96 4c 3c be
       -0.0027782456 0.06600322 -0.13130349 -0.1838859
000360 e0 32 18 bd 1c 81 4c 3e b5 db a4 3c 62 3c a0 bd
       -0.037157893 0.19971126 0.020124296 -0.07824017
000370 23 cd 1a bd b9 42 18 3e 64 b3 74 3a bd 5b b5 3d
       -0.03779329 0.14869203 0.00093345926 0.08855388
000380 3e a8 4a be ba bb 0f 3e ed d6 52 3c 08 4f 4d bd
       -0.19790742 0.14036456 0.012868625 -0.0501242
000390 cf ba 21 be 28 8d 64 be 19 ed b9 3d 9b 8d 76 bd
       -0.15793918 -0.22319472 0.09078426 -0.06019364
0003a0 d1 c4 ba bb ab a3 b5 3d 07 e0 45 3e d6 a6 26 3d
       -0.005699732 0.08869108 0.19323741 0.04068645
0003b0 a0 0b a6 bd e3 a4 30 be e3 2c 8c 38 ab 92 5b 3d
       -0.08107686 -0.172504 6.684081e-05 0.05360667
0003c0 df 3e c8 bd f2 af 6b bd 44 c4 2f bd e8 5d 22 3e
       -0.09777617 -0.05754084 -0.042911783 0.15856135
0003d0 66 c5 d4 bc 7f fc 9e 3c 91 12 2b 3d 0c c0 b7 bd
       -0.025973033 0.019407509 0.041765753 -0.08972177
0003e0 0e 0f 98 3d 3b e4 0e be 62 a3 21 be b8 4e dd bd
       0.074247465 -0.1395425 -0.15784982 -0.1080603
0003f0 3d 32 a1 bb 94 ef e9 bd 72 6f 3c be 90 ae 55 3d
       -0.004919319 -0.11422649 -0.18401888 0.05216843

l1/b f4 [256]
000000 ef b2 42 bd dc f2 16 be e8 7b 04 3d f5 c8 00 be
       -0.047533926 -0.14741081 0.03234473 -0.12576659
000010 0c d4 9e bc 8b f7 c0 bb 25 51 22 be e8 d3 d5 3c
       -0.019388221 -0.0058888844 -0.15851267 0.026102021
000020 bf d3 a3 bb 8c 2b 82 be ca 97 73 3e 49 80 0b 3e
       -0.0049996073 -0.2542385 0.23788372 0.13623156
000030 67 ab 3a be 40 8d e8 3b b7 cd 86 be a0 8e 33 bd
       -0.18229447 0.0070969164 -0.26328823 -0.04383719
000040 22 d6 99 bd 84 b4 bf 3d dc ff 5a 3d dc d1 79 bd
       -0.07511546 0.093606025 0.053466663 -0.060991153
000050 2a f3 cc be b8 35 f5 3d e6 ea 01 be 22 0b 0e be
       -0.4002927 0.11973137 -0.12687263 -0.13871434
000060 78 4c 94 bd 99 db 7f 3c 3e 21 b8 3b b3 12 96 3d
       -0.07241148 0.015616321 0.005619197 0.07327785
000070 00 00 00 00 86 9e 44 bc 95 28 b2 3c 08 62 0f bd
       0.0 -0.012000686 0.021747867 -0.0350056
000080 cc af 6a be 9b 8e 87 3d 7a 64 83 be 0a 1a 71 bc
       -0.22918624 0.06618997 -0.25662595 -0.014715681
000090 27 d5 ea bb 69 18 85 3c 6f ae 6f 3d 24 55 8b bb
       -0.007166523 0.016246991 0.058515962 -0.004252093
0000a0 e4 5c 94 3d bc 27 0b bd 2e ae 99 be 6e c1 f9 bd
       0.0724428 -0.03397344 -0.300157 -0.12195097
0000b0 0e ba a5 3d 5b 6b 08 be a9 b0 16 3c 64 10 8f 3c
       0.08092128 -0.13322203 0.0091973925 0.01746387
0000c0 de 1e 1c 3d 7c 02 51 3d fc 4e 7a bd cc b7 a3 3d
       0.038115375 0.05102776 -0.06111048 0.07994041
0000d0 91 b3 ef be f0 d1 3b 3d 1a 7b 9b bd 7b 7e 0c 3d
       -0.46816686 0.04585451 -0.07591839 0.03430031
0000e0 42 ea 7f be 1e e4 ea 3c 50 7d fb bc 01 8a cd bd
       -0.24991706 0.028673228 -0.030699402 -0.10036088
0000f0 a2 09 0e be 13 5a 3a 3d 17 f1 b6 3d 1f ae 49 3c
       -0.13870862 0.045496058 0.08932703 0.01230958
000100 e6 f5 eb 3c 3d e0 bd 3b 94 7c 2e bd 04 c9 e4 3b
       0.028803777 0.0057945536 -0.042599276 0.0069819707
000110 d3 0c e8 bd 79 3c 19 3d 15 e2 8d 3c b1 de e1 bd
       -0.11330571 0.037411187 0.017319718 -0.11028803
000120 7a 34 f9 bc ab f4 8d 3d 9f af 95 bd 46 cd 88 3d
       -0.03042053 0.06931432 -0.07308888 0.06679778
000130 1c 29 ba bd 40 d6 eb bc ee 98 e2 bc 5c 51 1b be
       -0.09089872 -0.028788686 -0.027660813 -0.15167755
000140 c1 c6 2f 3d 34 eb d6 3b 5f 6a 74 be bf 9c fe 3b
       0.042914156 0.0065588 -0.23868702 0.0077701504
000150 f5 fa df bb f9 bd 05 3e ee c4 8b bd 90 44 d4 3c
       -0.0068353363 0.1306075 -0.06824671 0.0259116
000160 b6 a0 bf bd 97 1e 95 be 84 bb c9 be 15 92 d5 3d
       -0.09356825 -0.291249 -0.39400876 0.104282536
000170 1a 37 c6 bd b7 5c 0e 3e bf 49 a7 bb 45 07 ad bc
       -0.096784785 0.13902555 -0.0051052268 -0.02112163
000180 e0 81 8e be be cb 7e bd ce 6e 53 bc 92 9c 89 3d
       -0.27833462 -0.062206022 -0.012904836 0.067193165
000190 aa ee c2 3b eb 63 ca bb a7 15 86 3c 10 19 8f 3d
       0.005948861 -0.006176462 0.016367747 0.06987202
0001a0 2d 9c d2 bd e4 00 6c 3c b0 c6 f9 3d 35 fd dc 3b
       -0.102836944 0.014404509 0.121961 0.006744052
0001b0 f4 2d 90 3d 7e 65 6e bd 1e 4d eb bb ea 5e f1 bd
       0.07040015 -0.05820226 -0.007180824 -0.117856815
0001c0 9b a0 ea 3d 1e 1b 3e 3d b9 3d b8 be 52 ab 28 3c
       0.11456414 0.04641258 -0.3598459 0.010294752
0001d0 4e 4d e3 3d a0 09 7d bd d3 09 cd 3c 71 d3 92 be
       0.11098729 -0.061776757 0.025029099 -0.28676942
0001e0 15 cb 9d bc 6c 39 b3 3d 4e f7 13 bd b8 0b 59 3b
       -0.019261876 0.08751187 -0.03612452 0.0033118557
0001f0 35 9f 78 3c 00 9a ba 33 f4 87 8b 3d fb 66 2e 3e
       0.015174677 8.6893124e-08 0.068130404 0.17031471
000200 9a 75 da 3c 02 e5 4e 3d 09 7b d1 bd 5f 9e 1a 3e
       0.026667405 0.050511368 -0.10228545 0.15099476
000210 c0 f5 67 be bb 36 b3 3c 5f 87 08 bd 3f be 3c be
       -0.2265234 0.021876683 -0.033332225 -0.18431948
000220 13 2e 48 3b 90 d9 73 bd 28 98 d7 bd 2c aa a0 3d
       0.003054504 -0.059533656 -0.105270684 0.07844958
000230 03 9e 95 3c d0 4d 4d 3d 92 33 46 3d 1f 6d aa 3d
       0.018263822 0.050123036 0.048389025 0.083215944
000240 be 47 13 bd c7 96 aa 3d ce 38 ae 3d 86 51 91 be
       -0.03595709 0.0832954 0.085069284 -0.2838251
000250 2f 20 0b 3d 3f 8b 9b 3d e7 f3 47 be f2 8e f3 bd
       0.03396624 0.075949185 -0.19526635 -0.11892499
000260 62 65 86 3c 64 c8 bf be 2a b9 4a 3d de d0 58 bc
       0.016405765 -0.37457573 0.049492992 -0.013233392
000270 78 58 36 3e 07 63 f9 bd fb 5f 22 3e 43 7e 4b bc
       0.17807186 -0.12177091 0.15856926 -0.01242024
000280 49 f9 63 bc 91 3f 86 3c 3c 99 8f 3d 7a dc e2 bc
       -0.013914415 0.016387733 0.07011649 -0.027693022
000290 c6 2e 1c be a7 9e 90 be 5d 31 e1 3d d8 73 04 3e
       -0.15252218 -0.28246042 0.109957434 0.12934816
0002a0 61 a6 9c bd 6f 17 7a bd f9 2a b8 3d 28 5d 2d be
       -0.07648922 -0.061057504 0.089925714 -0.16930068
0002b0 2b 15 dd 3c ac 61 aa 3c ce b8 ea bc 85 8f 78 be
       0.026987633 0.020798527 -0.028652575 -0.24273498
0002c0 91 4c b7 be 11 a0 09 3d 2d 04 46 3d db 43 3f be
       -0.35800603 0.033599917 0.048343826 -0.18678229
0002d0 d2 86 17 3e 50 fc 64 be ec c3 50 be 11 9e 5a bd
       0.14797524 -0.22361875 -0.20387238 -0.0533734
0002e0 14 9d 73 bd c3 8c 90 be 61 e2 57 be 72 74 97 bb
       -0.059475973 -0.28232393 -0.2108245 -0.0046220357
0002f0 60 17 89 3a 65 36 86 3d 20 73 ae 3d 89 8f 9c be
       0.0010459237 0.06553344 0.08518052 -0.3057826
000300 e3 0f f6 3c b0 41 12 bd d2 68 37 ba ba d1 0b 3d
       0.030036872 -0.035707176 -0.00069965154 0.034135558
000310 7d 5a 4d 3e 3a 6a d8 bd b6 15 3e bd 4f c7 b2 3d
       0.2005405 -0.10567136 -0.046407424 0.08729421
000320 60 c3 09 be 9b 68 ee 3d 8d f6 f2 3c 73 15 18 3d
       -0.13453436 0.11641046 0.02965858 0.03712983
000330 1c b8 bf 3d 7c 79 25 3e 60 f0 55 3c ef 6c 25 3e
       0.09361288 0.16159624 0.013057798 0.16154836
000340 1b 20 a5 ba 12 2d ca 3d 43 c2 5a be db 3b 62 3d
       -0.0012598069 0.09871878 -0.21363167 0.055232864
000350 b2 bc bb 3d 41 d0 d3 3c ce a4 97 be c3 6b d8 3d
       0.0916685 0.02585614 -0.29617923 0.10567429
000360 75 63 86 bd 56 25 d0 bc 61 51 45 3d 67 df f7 bc
       -0.06561939 -0.025408428 0.048173312 -0.030257894
000370 b2 24 b2 be 77 05 80 3d a6 a6 b6 3c 6b 63 85 3d
       -0.3479362 0.06251042 0.022296261 0.06513103
000380 e2 1c 2d 3d 0b 08 3e bc 19 e6 3d be 01 0a 2f bc
       0.042263873 -0.011598597 -0.18544807 -0.010683537
000390 17 ab d4 bd bd bc 10 3d 68 27 f5 3d 7b 0b b0 3d
       -0.10384195 0.035336245 0.11970407 0.0859594
0003a0 ac a6 bf bd ea f2 64 be c7 84 98 3c bb 12 f4 3b
       -0.09357962 -0.2235829 0.018618 0.007448522
0003b0 6f dc 9e bd 85 0d 32 3d 9f 39 d3 bd 76 da c8 bc
       -0.07756888 0.043469924 -0.10313725 -0.024518233
0003c0 1c 4b ee 3d ce 69 48 be 03 2c b4 bc 0b e3 85 3d
       0.1163542 -0.19571611 -0.021993643 0.06537446
0003d0 56 2f bc bd e3 0d 40 3d 73 a2 1d be 2c d2 60 bd
       -0.09188716 0.046888243 -0.15394 -0.054887936
0003e0 f8 45 78 bc d5 7b d3 3d db 6e b5 bd 0c 76 3c 3c
       -0.015153401 0.103263535 -0.08859035 0.011502754
0003f0 60 e8 b2 be c9 0a 91 be a0 0f c7 bd ca aa 37 be
       -0.34942913 -0.2832854 -0.09719777 -0.17936245

l3/b f4 [256]
000000 36 ef d1 3d 25 bd c2 bc 2c 9f 30 bd 21 9b 25 bd
       0.10250704 -0.023771832 -0.043120548 -0.040431146
000010 0a 3f 9a bd 1d 89 83 3d d8 ba a4 bc 73 85 86 bb
       -0.07531555 0.06422637 -0.020108625 -0.004105264
000020 6d fc 26 bd 31 e7 1b 3c bf e7 00 3d 63 f4 97 bc
       -0.040768076 0.00951557 0.03147101 -0.01854915
000030 e4 41 5f 3d 01 83 8d bd 2a 44 4b 3d 5e 2e d5 3c
       0.054506198 -0.06909753 0.049625553 0.026023086
000040 14 bf ea bc ac da 88 bd 35 0d 4e 3c a3 3a 79 3d
       -0.028655566 -0.06682333 0.012576391 0.060846936
000050 ab 06 2f 3d bc aa b1 bd a1 60 48 bd b2 e7 b9 bc
       0.04273097 -0.08675143 -0.048920278 -0.022693489
000060 73 c3 c0 3c e9 53 89 3d 41 24 23 3d ce 16 bc bd
       0.023530697 0.06705458 0.039829496 -0.09184037
000070 85 28 c6 3c b4 83 fb bc 0c e6 4a 3d 8c df 50 bd
       0.024189243 -0.03070245 0.049535796 -0.05099444
000080 f7 d4 0e bd fa 90 da bd d6 75 8a bd 02 e1 19 3d
       -0.034871068 -0.10672183 -0.06760757 0.0375681
000090 15 68 d0 bd 65 cf 6f 3d 24 39 a2 bb 07 ca a8 bd
       -0.10176102 0.058547396 -0.0049506593 -0.08241659
0000a0 84 df da 3d 85 d0 c6 3d 51 b0 78 3b 5d 6a f7 3c
       0.106871635 0.09707741 0.003794689 0.030202085
0000b0 15 ea d0 bc 4c fa cd bb 46 6c 49 bd f4 35 5e bc
       -0.025502244 -0.006285941 -0.049175523 -0.013562668
0000c0 20 49 a3 3d ee 81 91 bd 29 45 63 bd 54 08 1d 3d
       0.07972932 -0.0710486 -0.05548588 0.03833802
0000d0 5e 8c 45 bc 70 ee e3 3d 04 ef da bb dd 36 89 3c
       -0.012057392 0.11129463 -0.006681325 0.016749794
0000e0 f9 0d 2f bc ef 90 29 bb b8 68 0e 3d 9d b0 fa bd
       -0.010684484 -0.002587374 0.034767836 -0.122407176
0000f0 dd 9c fc 3b a3 87 b1 bb ad 08 16 bd 22 57 a4 bd
       0.0077091292 -0.0054177805 -0.036629368 -0.08024432
000100 03 4b 3f bd 6d 4e 1f 3c 1f 42 84 bd 7f a5 93 bc
       -0.046702396 0.009723288 -0.06457924 -0.01802325
000110 a6 2d 3a bd 86 91 63 3d 5d 8c 19 3d 3f e1 5b bd
       -0.04545369 0.055558704 0.037487376 -0.05368161
000120 7d 46 94 bd c0 59 1a bd 2f b0 8e bd 2d 57 27 3d
       -0.07240007 -0.03768325 -0.06967198 0.04085462
000130 42 3c d8 bc 85 23 78 3d 39 33 0b 3d fa 02 d9 bc
       -0.02639592 0.06058075 0.033984397 -0.026490677
000140 6a 19 62 3d d2 c7 c6 bc 18 1b cf 3c 4e 8c 01 be
       0.055200018 -0.024265204 0.025281474 -0.12651178
000150 c7 f2 7d 3b 3c d5 ff 3c 7b fd 28 bd 0e e3 23 3c
       0.0038749443 0.031229608 -0.041257363 0.0100028645
000160 7f 45 65 bd a5 b0 c0 bd 79 91 a2 bd 59 f5 9b bc
       -0.05597448 -0.09408692 -0.07937903 -0.01903789
000170 ff 82 85 3d 66 50 5b bc 81 4f ab 3d 69 18 5a bc
       0.06519126 -0.013385868 0.083647735 -0.013311484
000180 1f 99 60 bb 4a 7b f8 3c 39 37 62 3c da 25 02 bb
       -0.0034270955 0.030332226 0.013807111 -0.0019858987
000190 58 a5 b4 3c 32 bc 05 bc 38 6d 60 bd 0c f5 45 bd
       0.022051498 -0.008162545 -0.05479166 -0.048329398
0001a0 71 b6 03 bd df bd 94 bd 5b bd 33 bd af ff c3 bc
       -0.03215641 -0.072627775 -0.043881755 -0.02392563
0001b0 42 3c 12 bd fd d5 64 3d e8 fe 68 bd 33 09 bc 3c
       -0.035701998 0.055868138 -0.056883723 0.022953605
0001c0 e2 16 de bd 02 af b2 bd 6e 8b 39 bd 3d 43 b7 bc
       -0.10844208 -0.08724786 -0.045298986 -0.022370929
0001d0 5d 04 17 bd 69 c3 29 bd 42 e2 1a bc 80 2c 93 3c
       -0.036869396 -0.041446123 -0.009453358 0.017965555
0001e0 89 d8 fa bc e6 06 a6 bc 05 42 3a 3d bb 0a 4e bd
       -0.03062083 -0.020266961 0.045473117 -0.050303202
0001f0 0c 59 92 3c 8e 38 ee bc 43 7e 4a bd cb 62 16 bd
       0.017864726 -0.029079702 -0.04943682 -0.03671531
000200 b6 52 b7 bc b5 49 fc bc 92 59 51 3d 0f 28 fa bb
       -0.022378307 -0.030796865 0.05111081 -0.00763417
000210 d6 16 9a bc 39 96 39 3d 10 5a eb bd 0a 45 a9 3d
       -0.018809717 0.04530928 -0.114917874 0.08265121
000220 9f 8c ff bc 27 00 39 bd 86 8d 8e 3d 52 e3 29 bc
       -0.031194983 -0.04516616 0.06960587 -0.010369139
000230 b5 64 40 3c 11 fd 4d bd 1c fa b4 3b 74 34 7a 3d
       0.01174276 -0.05029017 0.0055229794 0.06108518
000240 12 91 5f bc 70 af a1 3b da ff 4d bc 64 f0 70 bc
       -0.013645427 0.004934244 -0.012573207 -0.014705751
000250 28 2b 0c bd 5e e0 2f 3d 33 c6 43 bb e5 4c b7 bc
       -0.034220845 0.042938583 -0.0029872775 -0.022375533
000260 4c 5c cb bb 6a 09 0d 3d 0e bf 17 bc ee 85 86 bd
       -0.006206071 0.034432806 -0.00926186 -0.06568514
000270 b3 b9 0a be 1a e6 f7 bb e1 a9 b9 3c 7d 81 0b bd
       -0.13547401 -0.007565272 0.022664012 -0.034059037
000280 fb 6e e4 bc 51 70 88 bc 8e 31 bb bc a4 56 d6 bc
       -0.02788495 -0.01665512 -0.022850778 -0.02616436
000290 8f 07 52 bd 48 a5 fd bc 3f f2 78 bc 08 5d f7 3b
       -0.05127674 -0.030962601 -0.015194475 0.007548932
0002a0 61 43 98 3d 62 e8 5e bd 00 bf 64 bc 2e 7e 4b bd
       0.074347265 -0.054420836 -0.013961554 -0.04968088
0002b0 59 d1 60 bd d2 c0 d0 bc cb d9 b5 bd 11 6a e8 ba
       -0.05488715 -0.025482569 -0.08879431 -0.0017731806
0002c0 c7 96 95 3d 6b 4f 83 bc 46 2c 51 bd 57 98 3f bd
       0.07304149 -0.01602908 -0.051067613 -0.046776142
0002d0 57 d8 c6 bd 77 0a 43 bd 0d 81 34 bd 53 0b bf bb
       -0.09709232 -0.047617402 -0.044068385 -0.0058302074
0002e0 cc 47 fb bc 02 c9 28 3c 1b 4a 51 bb d8 33 d6 bd
       -0.030673884 0.01030183 -0.003193504 -0.10459107
0002f0 1c 65 5c bd 0a 31 01 bd 74 09 12 3d f8 4c 47 bd
       -0.053807363 -0.031540908 0.035653546 -0.048657387
000300 61 25 f4 3c 3b 34 fe 3c 98 31 45 bc 55 e1 77 bc
       0.02980298 0.031030765 -0.01203575 -0.015129407
000310 e0 68 2e bd f0 de 10 bd e3 53 72 bd 47 63 12 bd
       -0.042580485 -0.03536886 -0.05916203 -0.03573921
000320 bb 06 01 bd d3 7c 19 39 bd f2 de bc c0 70 ff bb
       -0.03150056 0.00014637718 -0.027215356 -0.0077954233
000330 ef 23 f2 3c eb db ac 3d 50 0a 76 bb 34 a0 16 3a
       0.02955815 0.084403835 -0.0037542768 0.0005745918
000340 88 48 55 3d dc b1 41 3c ef b1 8a bc d3 f1 7b bd
       0.052071124 0.01182219 -0.016930548 -0.06150992
000350 70 48 ab 3d a2 47 49 bd 2e a5 50 bd 46 87 f1 bb
       0.08363426 -0.04914058 -0.050938778 -0.007370862
000360 75 30 e0 bc 83 41 1a 3d a0 2d cc 3c 2e ba b3 bd
       -0.027366856 0.037660133 0.0249241 -0.08775745
000370 de e5 fd bc 5b 89 c8 bc 13 d6 51 bd a0 76 2f 3d
       -0.030993398 -0.024479559 -0.051229548 0.04283774
000380 93 93 dd bc 48 81 6d bd 37 6d a1 3d ff cc c2 bd
       -0.027047908 -0.05798462 0.07882159 -0.09511756
000390 27 af c9 bc 4a 06 9c b8 90 fb e6 bc 93 9d 1a 3d
       -0.024619652 -7.439831e-05 -0.028196126 0.03774793
0003a0 f4 8b df 3c a5 2c c8 bd 18 c1 ba 3c 36 67 a5 3d
       0.027288415 -0.0977414 0.022797152 0.080763265
0003b0 24 f0 58 bd 20 60 b5 bb ab 51 f4 bd 9e f6 23 bd
       -0.05296339 -0.0055351406 -0.119296394 -0.040030114
0003c0 dc 20 2b bd 17 e4 0c 3b 8e ff 49 3d ed a7 29 3d
       -0.041779384 0.0021498257 0.04931598 0.041419912
0003d0 09 ac c4 3d 1b 4a a3 bd c9 54 30 3d 4f ca b1 3c
       0.096031256 -0.07973119 0.043049607 0.021702914
0003e0 c3 d5 2c bd be 68 fd 3b 44 20 f9 bc 38 6b 3c 3d
       -0.042196047 0.0077334335 -0.030410893 0.04600069
0003f0 4c c8 47 bc 34 3b db 3c 0d b5 7a bd 59 84 a8 3c
       -0.012193751 0.026761629 -0.06120782 0.02057092

l4/b f4 [16]
000000 cc 9d 0c be e5 c8 73 be 68 f3 e1 bd 9a 0d 13 be
       -0.1373207 -0.23807104 -0.11032754 -0.14360657
000010 66 9b b2 bd 1e 74 7d be 92 09 59 be 98 08 bc bd
       -0.08721046 -0.24751326 -0.21195057 -0.09181327
000020 b6 b8 a3 bd 57 13 5c be bf 3e 5a be d0 0c 0d be
       -0.07994215 -0.21491753 -0.21312998 -0.13774419
000030 13 49 5f bd 3b 76 5f bd 38 d0 b9 bd dc b7 9d bd
       -0.05451305 -0.054556113 -0.09072918 -0.07701084
