examples/ch4/reversi_DQN_CNN/agent_black_20000/target_model.npz (npz, 35952 bytes, 10 tensors)

c3/b f4 [16]
0	0xbee39bdc	-0.4445485
1	0xbea675e7	-0.32511827
2	0x00000000	0.0
3	0x3f89a94e	1.0754793
4	0x3f5e39a3	0.86806697
5	0x3f32786e	0.6971501
6	0x3c89c264	0.016816325
7	0xbeb543ed	-0.35403386
8	0x00000000	0.0
9	0x3e3b3fd0	0.18286061
10	0x3f1421ed	0.57864267
11	0xbd6d931a	-0.058001615
12	0xbf440576	-0.7657083
13	0x3e704edd	0.23467584
14	0x3ec48b00	0.383873
15	0xbdaa10d0	-0.08303988

c1/W f4 [4, 1, 2, 2]
0	0x3f6c2783	0.9224779
1	0xbf18cfc8	-0.5969205
2	0xbf630643	-0.8868143
3	0x3e6d3d91	0.23168017
4	0xbf3798f9	-0.7171779
5	0x3d72a3a3	0.059238087
6	0xbeb8c8f3	-0.36090812
7	0x3f028add	0.5099314
8	0x3ee4ea86	0.44710177
9	0x3e1cd5a1	0.15315868
10	0x3e427669	0.18990482
11	0xbd5e1e51	-0.05422813
12	0xbd36fe8c	-0.04467635
13	0x3e3d680b	0.1849672
14	0x3e30d8ef	0.17270254
15	0x3f06ee9e	0.5270785

l5/W f4 [16, 256]
0	0xbef4f377	-0.47842
1	0x3e976895	0.29571977
2	0x3b50b913	0.0031848594
3	0xbe9f057f	-0.3105888
4	0xbec857d7	-0.39129516
5	0xbeb4871f	-0.3525934
6	0xbd0cf51c	-0.034413442
7	0xbf269079	-0.650642
8	0x3e05efe5	0.13079794
9	0xbea5f98d	-0.32416955
10	0xbe5be6d8	-0.21474779
11	0xbc2dc891	-0.010606901
12	0x3ef1f649	0.47258213
13	0xbe8557d8	-0.26043582
14	0x3e7e93ac	0.2486102
15	0xbeafafd5	-0.34313837
16	0x3ed89e7a	0.42308408
17	0x3d83305a	0.06405707
18	0x3ce82306	0.028337013
19	0xbd138b02	-0.03602124
20	0xbe3fea95	-0.1874183
21	0x3f3a2db4	0.7272599
22	0xbf11f1ae	-0.570094
23	0xbeec4375	-0.46145216
24	0xbe0e4429	-0.13893189
25	0xbef760ed	-0.48316136
26	0xbe93ff97	-0.28905937
27	0xbeb9f21e	-0.36317533
28	0x3f35dd31	0.71040636
29	0xbced0b20	-0.028935969
30	0xbe57dde2	-0.21080735
31	0xbef203b7	-0.4726846
32	0xbb8ae43d	-0.004238634
33	0x3f3833c8	0.7195401
34	0x3d976f30	0.07394254
35	0xbdeecb06	-0.116598174
36	0x3e230ae8	0.15922129
37	0x3e54f85d	0.20797868
38	0xbec257fb	-0.3795775
39	0xbe50eb67	-0.20402299
40	0xbe07d34c	-0.13264197
41	0x3ea30181	0.31837085
42	0x3e6194ae	0.22029373
43	0x3ea1460b	0.3149875
44	0x3edc63ca	0.43044883
45	0x3e6a981a	0.22909585
46	0xbcf470ad	-0.029838884
47	0x3f8a5665	1.0807616
48	0xbdb376ef	-0.08762919
49	0xbf058405	-0.5215457
50	0xbf06c934	-0.5265076
51	0x3d5db7f0	0.054130495
52	0x3e02f3f4	0.12788373
53	0xbe33fb54	-0.17576343
54	0x3f01ec32	0.5075103
55	0xbf37b675	-0.7176278
56	0xbd4f7293	-0.050646376
57	0xbde09070	-0.10965049
58	0xbeb8d4e7	-0.36099932
59	0x3daf24ae	0.08551918
60	0x3e2ab27c	0.16669649
61	0x3de61c40	0.11235857
62	0x3f32a242	0.69778836
63	0x3f0e75e8	0.5564866
64	0x3eb2bf7a	0.3491171
65	0x3ea150d9	0.31506994
66	0xbeac3de5	-0.33640972
67	0x3e23fbda	0.16014042
68	0xbfa696ba	-1.3014748
69	0x3ed82289	0.42213848
70	0xbdeef2bf	-0.11667394
71	0x3f091002	0.5354005
72	0x3e3e1e26	0.18566188
73	0x3e4a4e5f	0.19756459
74	0xbf4c2154	-0.79738355
75	0x3e8dd287	0.27699682
76	0x3e6181c2	0.22022155
77	0x3e7fe4a7	0.24989568
78	0xbe2ce535	-0.1688431
79	0xbe1c13db	-0.1524195
80	0x3ecfe450	0.40603876
81	0xbe8ca2e6	-0.27468032
82	0xbf2400fb	-0.64063996
83	0x3f838738	1.027564
84	0xbf3f1006	-0.74633825
85	0xbe2f12bc	-0.1709699
86	0xbe21a280	-0.15784645
87	0x3edb6e10	0.4285741
88	0x3f0fcb06	0.56169164
89	0xbea5ab1c	-0.3235711
90	0xbd9b9756	-0.075972244
91	0xbf1599aa	-0.584376
92	0x3e8f351d	0.2797021
93	0xbeaae987	-0.33381292
94	0xbf66cc1f	-0.90155214
95	0x3e55a013	0.20861845
96	0xbdd24367	-0.10266762
97	0x3ea76e76	0.32701463
98	0x3e2456f7	0.160488
99	0x3f2e37b3	0.6805374
100	0xbe65598e	-0.22397444
101	0x3e1b7683	0.15181927
102	0xbead36fd	-0.33831015
103	0xbda50775	-0.08058063
104	0x3d1d1b13	0.038355898
105	0xbeecb466	-0.46231383
106	0x3c98bc0a	0.018644352
107	0xbf533adc	-0.8251169
108	0xbe01ce27	-0.12676297
109	0xbec215d9	-0.37907293
110	0xbe18c270	-0.14917922
111	0x3f1140cd	0.56739503
112	0x3d01d535	0.03169747
113	0x3e27d731	0.16390683
114	0x3eabd2cc	0.33559263
115	0xbd68a8c7	-0.056801584
116	0x3e7eac77	0.24870478
117	0xbeb045c5	-0.3442823
118	0x3f12f2c5	0.57401687
119	0xbe2e00d7	-0.16992508
120	0xbf21612b	-0.6303889
121	0x3eca7fe5	0.395507
122	0x3ef56899	0.47931364
123	0x3eaccd24	0.3375026
124	0xbf0b9eea	-0.5453936
125	0xbdef8ee8	-0.11697179
126	0x3dc372fc	0.09543416
127	0x3da22092	0.079163685
128	0xbee0604b	-0.43823466
129	0x3e0211b3	0.12702064
130	0x3df53175	0.11972324
131	0x3f3cd8a9	0.737681
132	0x3f64022e	0.89065826
133	0xbf133561	-0.57503325
134	0xbebfeb76	-0.3748433
135	0x3e1bd4d6	0.15217909
136	0xbe87a7fa	-0.26495343
137	0xbec142aa	-0.37746173
138	0x3f3f73b5	0.7478593
139	0xbf46d7bb	-0.7767293
140	0x3d84cf3b	0.064848386
141	0xbe5f1211	-0.21784236
142	0xbee0251d	-0.43778315
143	0xbeacc33e	-0.33742708
144	0x3eea6a75	0.45784345
145	0x3ed42705	0.4143602
146	0xbd4fb012	-0.050705023
147	0xbfaf3cca	-1.3690426
148	0x3e8a05e5	0.26957622
149	0x3ea112cf	0.31459662
150	0x3dec3d32	0.115351096
151	0x3d80a5b6	0.06281607
152	0xbec02409	-0.37527493
153	0xbe2927f8	-0.16519153
154	0x3f75bb10	0.9598856
155	0x3ea54c34	0.322847
156	0x3d4bb66b	0.049734514
157	0x3f8092cd	1.00448
158	0x3e1b9dde	0.1519694
159	0x3ea88507	0.32913992
160	0xbef87c44	-0.48532307
161	0x3da1c315	0.07898537
162	0xbee649b6	-0.44978112
163	0x3e6fe29d	0.2342629
164	0xbcea839e	-0.028627213
165	0xbf07e132	-0.53077996
166	0xbc8d7bc9	-0.01727094
167	0xbebe0be3	-0.37118444
168	0x3eb83ab9	0.35982302
169	0xbf477121	-0.77906996
170	0xbdece1bc	-0.11566493
171	0x3e0f6847	0.14004622
172	0x3d337f24	0.043822423
173	0xbdb712ab	-0.089391075
174	0x3e41042e	0.1884925
175	0x3ea94bde	0.33065695
176	0xbe8d2d26	-0.27573508
177	0xbee470a7	-0.44617197
178	0xbf2a22c9	-0.6645933
179	0xbe991e51	-0.29905942
180	0x3e03d69b	0.12874834
181	0xbe61e63e	-0.22060487
182	0x3f04bb46	0.51848257
183	0xbf177f9c	-0.5917909
184	0x3d123117	0.035691347
185	0x3efe5833	0.49676666
186	0xbe06968b	-0.13143365
187	0xbf375f6b	-0.7162997
188	0xbf1b8c12	-0.60760605
189	0x3f3572eb	0.70878476
190	0x3f307846	0.6893352
191	0x3effacb9	0.49936464
192	0xbe68ec78	-0.22746456
193	0x3edeaed7	0.43492767
194	0x3f4fe77b	0.81212586
195	0xbf253dd0	-0.64547443
196	0x3dd8c3bc	0.10584208
197	0xbf0b5609	-0.54428154
198	0xbf1011de	-0.56277263
199	0xbe930e69	-0.28721932
200	0xbf27a4bf	-0.6548576
201	0x3ecb1826	0.3966686
202	0x3f43aa99	0.76432186
203	0x3eb575f4	0.35441554
204	0x3decaeae	0.11556755
205	0xbe877d87	-0.26462957
206	0xbf4bfacc	-0.7967956
207	0x3e3adbec	0.18247956
208	0xbf407368	-0.75176096
209	0xbee7f16a	-0.45301372
210	0x3e9ec06c	0.3100618
211	0xbf6ab18a	-0.91677153
212	0x3e123304	0.14277273
213	0x3f3061be	0.6889914
214	0x3e25ac1e	0.16178939
215	0x3f268ca9	0.6505838
216	0x3ed42fb7	0.41442654
217	0xbea86244	-0.3288747
218	0xbf503aaa	-0.81339514
219	0xbdb46024	-0.088074
220	0x3f02f8cc	0.51160884
221	0xbef3a815	-0.47589174
222	0xbf202627	-0.62558216
223	0xbf96bd4a	-1.1776516
224	0x3e4fcd49	0.20293154
225	0x3e4f78eb	0.2026097
226	0xbe946246	-0.28981227
227	0x3f1d2281	0.61380774
228	0x3e800aa2	0.25008112
229	0xbed40ea1	-0.4141741
230	0xbdba7b64	-0.09105566
231	0xbe4fb60c	-0.20284289
232	0xbe7d5bbf	-0.2474203
233	0x3e2b5895	0.1673301
234	0xbe8d40a9	-0.27588394
235	0x3e216118	0.15759695
236	0x3e9c6d29	0.30552033
237	0xbf043cc0	-0.516552
238	0x3ecb98a1	0.39764884
239	0x3f63c035	0.8896516
240	0xbef42623	-0.47685346
241	0xbe4ce55c	-0.20009369
242	0xbf81202e	-1.0087945
243	0x3ed0bb42	0.40767866
244	0xbf28d90e	-0.659562
245	0xbdd33b22	-0.10314013
246	0x3f442ec8	0.7663388
247	0xbe394edd	-0.1809649
248	0x3f4fbbe4	0.81146073
249	0x3e8be6f7	0.2732465
250	0xbf39f80b	-0.7264411
251	0xbf416c9c	-0.7555635
252	0x3ef5e568	0.48026586
253	0xbead09f0	-0.33796644
254	0xbf20d08e	-0.6281823
255	0x3f0a9fd9	0.5415016

c2/W f4 [8, 4, 2, 2]
0	0xbe3dc42a	-0.18531862
1	0x3f3765d2	0.7163974
2	0xbebe70e3	-0.371955
3	0x3f101c2a	0.56292975
4	0xbec8bed1	-0.3920808
5	0xbb763113	-0.0037565872
6	0x3ebfccc0	0.374609
7	0xbe541f24	-0.20715004
8	0x3f19a074	0.6001046
9	0xbeaac5e8	-0.33354115
10	0xbe5a0db7	-0.21294294
11	0x3ee1e826	0.44122428
12	0x3f2d51c4	0.6770289
13	0xbe71902d	-0.23590155
14	0x3bcaf75a	0.0061940374
15	0xbeca9800	-0.39569092
16	0x3e0c0047	0.13671981
17	0x3e6aeba5	0.22941454
18	0x3dedb7a8	0.11607295
19	0x3b4b9b16	0.003106778
20	0x3ee399c7	0.4445326
21	0xbeb96dee	-0.36216682
22	0x3f216a9f	0.63053316
23	0x3e4e5788	0.20150578
24	0xbeb052d8	-0.34438205
25	0x3ea2a6e0	0.3176794
26	0xbbc03d03	-0.005866648
27	0x3ef19cc8	0.47189927
28	0x3e3f17ad	0.18661375
29	0x3f3b7f1b	0.7324082
30	0xbf05d5ac	-0.5227916
31	0x3e7131cc	0.23554152
32	0xbe44f3bb	-0.19233601
33	0xbeedf1ac	-0.46473444
34	0x3f2cab59	0.67448956
35	0x3dcd894c	0.10035953
36	0x3e035c5f	0.12828206
37	0xbf143674	-0.5789559
38	0x3ed70be1	0.4200125
39	0x3f586a47	0.84537166
40	0x3ed5d994	0.4176756
41	0x3e8648a1	0.26227286
42	0x3eab8b5b	0.33504757
43	0xbed187ef	-0.40924022
44	0x3e77ad31	0.24187161
45	0x3f4e5047	0.80591244
46	0x3cbb5eba	0.022872318
47	0xbeea3bc6	-0.4574873
48	0xbf0fc5ee	-0.5616139
49	0xbdea375d	-0.11436341
50	0xbc8658e7	-0.016399814
51	0x3f022ce9	0.5084978
52	0xbf1d1912	-0.6136638
53	0x3e4c22b9	0.1993512
54	0xbdad77c5	-0.0847011
55	0xbf1486ce	-0.58018196
56	0x3ede4a30	0.43415976
57	0x3ee0b232	0.43885952
58	0xbf15cfc8	-0.58520174
59	0x3e53f692	0.20699528
60	0xbef08b49	-0.46981266
61	0x3e550eac	0.20806378
62	0x3eb8a6df	0.36064813
63	0x3ecc3163	0.3988143
64	0xbec18c76	-0.37802476
65	0x3adc1c05	0.0016793018
66	0xbf4da054	-0.80322766
67	0xbe30f5b2	-0.17281225
68	0xbed6bba8	-0.41940045
69	0x3e78f1c6	0.24310979
70	0xbf1fa3a2	-0.6235906
71	0xbe20da2a	-0.15708223
72	0x3f18ed42	0.59737027
73	0xbee424e1	-0.44559386
74	0x3e965b87	0.29366705
75	0x3eb50be2	0.35360628
76	0x3e9fa668	0.31181645
77	0x3e0a1ed2	0.1348832
78	0xbd295d80	-0.041348934
79	0x3ef38720	0.4756403
80	0xbe090394	-0.13380271
81	0x3f65a95b	0.8971154
82	0xbfe614d6	-1.7975109
83	0xbf264a41	-0.6495705
84	0xbe8af41a	-0.2713936
85	0xbf6d2267	-0.9263062
86	0xbe1dd6d5	-0.15413983
87	0xbebf2c52	-0.373385
88	0x3f2f10e1	0.6838513
89	0xbd93d511	-0.072183736
90	0x3e36b18d	0.17841168
91	0xbf22d91d	-0.6361254
92	0xbe80dc38	-0.25168014
93	0xbe665c4e	-0.22496149
94	0x3eb604e9	0.3555062
95	0xbe7f1580	-0.24910545
96	0xbe17309d	-0.14764638
97	0x3ef31a6f	0.47481105
98	0x3e0a3eab	0.13500468
99	0xbed7b845	-0.42132774
100	0xbe08fb4e	-0.13377115
101	0xbd3ad23a	-0.045610644
102	0xbf3acb5d	-0.7296656
103	0x3ed178ab	0.40912375
104	0xbf0812b9	-0.5315357
105	0xbf802909	-1.0012523
106	0x3e171ded	0.1475751
107	0x3e44f894	0.1923545
108	0xbf2ef28c	-0.6833885
109	0x3eb69026	0.35656852
110	0xbcbade5e	-0.022811111
111	0x3f2101c4	0.6289332
112	0xbce12356	-0.02748267
113	0x3f26f34e	0.65215003
114	0xbf25162e	-0.6448697
115	0x3e7badce	0.2457802
116	0xbef413c8	-0.47671342
117	0x3f89d61f	1.076847
118	0x3ef6d758	0.4821117
119	0xbe502413	-0.20326261
120	0xbf0e2fcb	-0.55541676
121	0xbe0c9a20	-0.13730669
122	0x3e911dc8	0.28343034
123	0x3edfd0e4	0.43714058
124	0x3c57d1a7	0.013172544
125	0x3f88ac80	1.0677643
126	0xbf50d8d3	-0.8158085
127	0xbf089209	-0.5334783

l4/W f4 [256, 16]
0	0x3f111735	0.56676036
1	0xbe05b383	-0.1305676
2	0x3e9f263a	0.31083852
3	0xbe6d4e36	-0.23174366
4	0x3e175bce	0.14781114
5	0xbebc3428	-0.36758542
6	0x3f015b2a	0.5052973
7	0x3cfea5a0	0.031084836
8	0x3db3f6b8	0.08787292
9	0x3f2cf832	0.67566216
10	0xbf10ad63	-0.5651457
11	0xbf91bac7	-1.1385125
12	0x3f1c5f9d	0.61083394
13	0x3e8deeb2	0.27721173
14	0xbc89a463	-0.016802019
15	0x3eaaa719	0.3333061
16	0xbf86c549	-1.0528957
17	0x3f17109d	0.59009725
18	0x3e832512	0.2561422
19	0xbf30ff1b	-0.6913926
20	0x3ee72356	0.45144147
21	0x3e3d78ea	0.18503156
22	0x3eb37531	0.35050347
23	0xbed5ea4f	-0.41780326
24	0xbec8c49b	-0.39212498
25	0xbf67a748	-0.90489626
26	0xbe2f196e	-0.17099544
27	0xbb8e334e	-0.004339612
28	0xbe0d529e	-0.13801047
29	0xbe99f45c	-0.30069244
30	0xbf10bfd8	-0.5654273
31	0x3d770df4	0.06031604
32	0x3ea6f8f2	0.32611805
33	0x3e5d0dce	0.21587297
34	0xbec58692	-0.38579232
35	0xbf756ba8	-0.95867395
36	0x3f2cb388	0.6746144
37	0xbcb93481	-0.022608044
38	0x3ed53ca0	0.41647816
39	0x3eb9a3dd	0.3625783
40	0x3f1b9f4c	0.6078994
41	0x3e60a7d8	0.21939027
42	0xbf2edb37	-0.68303245
43	0xbda15ccd	-0.078790285
44	0xbe3ff6db	-0.18746512
45	0xbdd8bc66	-0.10582809
46	0xbffc77e3	-1.9724087
47	0x3e6e6d31	0.2328384
48	0x3d90b121	0.07065035
49	0xbfb693e6	-1.4263885
50	0x3f4ad22f	0.79226965
51	0xbd7acb71	-0.061229173
52	0x3e1969f2	0.14981821
53	0xbd1dd6ec	-0.038535044
54	0xbd993758	-0.07481259
55	0x3f0a1f7f	0.5395431
56	0x3ec0ded1	0.37669995
57	0x3ea38726	0.31939048
58	0xbe09f9a3	-0.13474135
59	0x3f55a731	0.8345824
60	0xbf638e28	-0.8888879
61	0xbefa1bdb	-0.48849377
62	0xbe1ae0e4	-0.15124851
63	0xbdde2cc1	-0.1084838
64	0xbf4d2cd7	-0.80146545
65	0xbe724b68	-0.23661578
66	0x3f22d733	0.6360962
67	0xbd1bee61	-0.038069133
68	0x3f0ba07b	0.5454175
69	0x3ea087b2	0.31353527
70	0xbf2fa8ef	-0.6861715
71	0x3dd89c79	0.1057672
72	0xbdff3cbd	-0.12462757
73	0xbf00c08c	-0.50293803
74	0x3df85b6d	0.12126813
75	0x3f49a191	0.78762156
76	0xbfa3c621	-1.2794839
77	0xbf71cef2	-0.944564
78	0xbdddd7d6	-0.10832183
79	0xbcb22623	-0.0217467
80	0xbee1aa89	-0.4407542
81	0xbe7c8703	-0.24660878
82	0xbf363b41	-0.71184164
83	0xbda3375e	-0.07969545
84	0xbf20e1c6	-0.628445
85	0xbd2254ba	-0.039631583
86	0x3eb6dc4f	0.35714957
87	0xbe0b4293	-0.13599615
88	0x3e5588d7	0.20852982
89	0x3ea69c91	0.32541326
90	0x3ed4f1b2	0.4159065
91	0x3d91f847	0.07127433
92	0xbf3eaade	-0.7447947
93	0xbddadaac	-0.106862396
94	0x3efd9cda	0.4953373
95	0x3e74d22a	0.23908296
96	0x3e9af026	0.30261344
97	0x3f1beb72	0.60906136
98	0x3e0a269e	0.13491294
99	0xbe7daf32	-0.24773863
100	0x3dad494c	0.08461246
101	0xbf15c27d	-0.5849989
102	0xbfc00a95	-1.5003229
103	0x3e261b60	0.1622138
104	0xbe4cdf41	-0.2000704
105	0x3ee4f22b	0.4471601
106	0xbe7192e3	-0.23591189
107	0x3ed144f3	0.40872917
108	0x3e5abc8f	0.21360992
109	0x3e2ab5cd	0.16670914
110	0xbd886464	-0.06659773
111	0x3e779123	0.24176459
112	0x3ebfdd65	0.37473598
113	0x3d6fd950	0.058556855
114	0x3ece5736	0.40300912
115	0x3f109951	0.5648394
116	0xbfbf98a8	-1.4968462
117	0xbe294869	-0.16531529
118	0xbf3e398b	-0.74306554
119	0x3ef0c0a1	0.47021964
120	0x3f2a6a27	0.66568226
121	0xbe20a2f2	-0.15687159
122	0xbfaacf49	-1.3344508
123	0x3ed1d140	0.40979958
124	0xbd3391a6	-0.043840073
125	0x3dbb03cf	0.09131586
126	0xbe931340	-0.28725624
127	0xbeee0c27	-0.46493647
128	0x3edaf771	0.42766908
129	0xbf73006e	-0.9492253
130	0xbeefe042	-0.46850783
131	0xbebf84cd	-0.37406006
132	0xbf4e9387	-0.8069386
133	0x3c93c30b	0.01803734
134	0x3f44b6fd	0.7684172
135	0xbf10b499	-0.5652557
136	0xbe099873	-0.13437061
137	0xbd12c075	-0.035828073
138	0xbeaf5090	-0.34241152
139	0x3c8686fe	0.016421791
140	0xbf809fd7	-1.0048779
141	0xbf17248c	-0.5904014
142	0x3ee27ec5	0.44237342
143	0xbeb36a24	-0.35041916
144	0x3e58e3f0	0.21180701
145	0x3ecdeac5	0.40218177
146	0xbed093e9	-0.40737846
147	0xbf66ea61	-0.90201384
148	0xbe349f90	-0.17638993
149	0x3ea0b521	0.3138819
150	0x3e00359b	0.12520449
151	0xbf0980de	-0.5371226
152	0xbdad864c	-0.08472881
153	0xbeef814d	-0.46778336
154	0xbe5789cc	-0.21048659
155	0xbe262dbf	-0.16228388
156	0xbe78ef71	-0.2431009
157	0xbe1ee3a0	-0.1551652
158	0x3e985f27	0.29760095
159	0x3ced8867	0.028995706
160	0xc02004eb	-2.5003002
161	0xbf50846d	-0.81452066
162	0x3f166481	0.58747107
163	0xbf602e81	-0.8757096
164	0x3e49e67c	0.19716829
165	0xbe34c3de	-0.17652842
166	0x3efc1496	0.49234456
167	0xbeeadf46	-0.4587347
168	0xbe525834	-0.2054146
169	0x3f20e5d4	0.6285069
170	0x3e4da519	0.20082511
171	0x3de869b9	0.1134829
172	0xbea19e24	-0.31565964
173	0xbf45fff1	-0.7734366
174	0xbe6497bb	-0.22323506
175	0xbf04785f	-0.5174617
176	0x3e40054f	0.18752025
177	0xbf976db1	-1.183035
178	0xbda40c29	-0.08010132
179	0xbeedf72f	-0.4647765
180	0xbf2c33e5	-0.67266685
181	0xbeacfe78	-0.33787894
182	0x3ce7ad0a	0.028280754
183	0x3f1c46c3	0.61045474
184	0xbe81960b	-0.25309786
185	0x3e212e6a	0.15740362
186	0x3ea12d87	0.31480047
187	0x3ee45625	0.44596973
188	0xbf0f6efe	-0.56028736
189	0x3e8be6a7	0.2732441
190	0xbd330ea0	-0.04371512
191	0xbe4654ad	-0.19368239
192	0x3ed68a77	0.41902515
193	0x3d7f2fa3	0.06230129
194	0xbe9dbe09	-0.30809048
195	0xbf252b28	-0.64518976
196	0xbf6f892d	-0.9356869
197	0x3ec9017f	0.39258954
198	0x3e466000	0.19372559
199	0xbe921d21	-0.2853785
200	0xbeb2dde3	-0.3493491
201	0xbed2de9c	-0.41185462
202	0xbda89b79	-0.08232779
203	0x3e2ae3b6	0.16688427
204	0x3e2db482	0.1696339
205	0x3de1358d	0.10996542
206	0x3df80a4d	0.1211134
207	0xbbbf4f45	-0.005838307
208	0xbeb5030d	-0.3535389
209	0x3f08d72f	0.53453344
210	0x3f074017	0.5283217
211	0xbf4e5b0c	-0.80607677
212	0x3ebe3be1	0.3715506
213	0xbdd58512	-0.10425772
214	0xbf1bdc8e	-0.60883415
215	0xbdaa29f7	-0.083087854
216	0x3d19634d	0.037448216
217	0xbf0b6828	-0.54455805
218	0xbe0f950a	-0.14021698
219	0x3cd1f641	0.025630118
220	0x3dd69b1c	0.104788035
221	0xbc40f53b	-0.0117772175
222	0xbe582a5a	-0.21109906
223	0xbe938ac1	-0.28816798
224	0xbe15d05d	-0.14630266
225	0x3e15f358	0.1464361
226	0x3da937a3	0.08262565
227	0xbf9c554b	-1.2213529
228	0xbe12aa7c	-0.14322847
229	0xbf98bb5b	-1.1932176
230	0xbe7930e6	-0.2433506
231	0xbb910586	-0.0044257073
232	0x3eaf989e	0.34296125
233	0x3e97c9f3	0.29646263
234	0x3f308f2a	0.6896845
235	0x3e9d11eb	0.30677733
236	0x3deb3e70	0.114865184
237	0xbe12e594	-0.1434539
238	0xbe89bb29	-0.26900604
239	0xbf485aca	-0.78263533
240	0xbe8d185b	-0.27557644
241	0x3ef6ac97	0.4817855
242	0xbe8344c3	-0.256384
243	0x3eaea00b	0.34106478
244	0x3e12fc07	0.14353953
245	0xbf3c554b	-0.73567647
246	0xbecd78f1	-0.40131333
247	0xbeb2cb9e	-0.34920973
248	0xbe1edec6	-0.15514669
249	0x3d37bc69	0.044857416
250	0xbd3df426	-0.046375416
251	0x3f358ab2	0.7091476
252	0xbe092982	-0.1339474
253	0x3e4a0082	0.19726756
254	0x3e1f6149	0.15564455
255	0x3e591dcb	0.21202771

c3/W f4 [16, 8, 2, 2]
0	0x3ede75b8	0.43449187
1	0x3bcbd2f3	0.0062202155
2	0x3c08205c	0.008308496
3	0xbe18ee96	-0.14934763
4	0xbd8fc60e	-0.07020198
5	0xbee74d8e	-0.45176357
6	0x3e86dd88	0.2634089
7	0x3e055273	0.13019733
8	0x3ec1b4cd	0.37833253
9	0xbf3ba44b	-0.73297566
10	0xbdcc56cf	-0.09977495
11	0xbe27cf37	-0.1638764
12	0x3ed28828	0.41119504
13	0xbe5d7577	-0.2162684
14	0x3f26894a	0.65053236
15	0xbe191ac4	-0.14951617
16	0x3f3786c0	0.7168999
17	0x3f35fe4f	0.7109117
18	0x3e0f7d85	0.14012726
19	0xbde5f434	-0.11228219
20	0x3e31a041	0.17346288
21	0xbea3b47a	-0.3197363
22	0xbd8c6d70	-0.06856811
23	0xbc12ab2d	-0.008951944
24	0xbef22efa	-0.47301465
25	0xbe7feee0	-0.24993467
26	0xbecb5396	-0.39712209
27	0xbe0aac9c	-0.13542408
28	0xbf033131	-0.51246935
29	0x3e1b232f	0.1515014
30	0x3ef0e229	0.47047547
31	0xbe705de5	-0.23473318
32	0x3df880fe	0.12133978
33	0x3eb2b528	0.34903836
34	0xbeb22cba	-0.3479975
35	0xbd9fa19b	-0.07794496
36	0x3e0f9c30	0.14024425
37	0x3f004942	0.5011178
38	0x3d5bcc80	0.053661823
39	0x3f4be4fe	0.7964629
40	0xbb3ccea0	-0.0028809682
41	0x3ebd8dda	0.37022287
42	0x3ea91af9	0.3302839
43	0xbf38b849	-0.72156197
44	0x3ee15a9d	0.44014445
45	0x3e91bb86	0.28463382
46	0x3b11efec	0.0022268249
47	0x3e537728	0.20650923
48	0x3ea787e3	0.3272086
49	0xbce3ce11	-0.027808221
50	0xbf26ecfa	-0.6520535
51	0xbeba067a	-0.36333066
52	0x3ed21185	0.4102899
53	0xbeb89995	-0.36054674
54	0xbf0aecf7	-0.5426783
55	0xbed0ea8c	-0.40803945
56	0xbe338db3	-0.17534523
57	0x3e96d783	0.29461297
58	0xbed68eef	-0.41905925
59	0x3e61b8d5	0.22043164
60	0x3d177816	0.036979757
61	0x3cad5158	0.021156952
62	0xbe9dee94	-0.30846083
63	0xbf825d45	-1.0184714
64	0xbc911f59	-0.017715143
65	0xbd387f09	-0.045043025
66	0x3d69fa3b	0.057123404
67	0x3c3ab115	0.011394759
68	0xbe0f0f0c	-0.13970584
69	0xbdc3a539	-0.09552998
70	0xbe45173f	-0.19247149
71	0x3d9e6364	0.07733801
72	0x3d2d45cc	0.04230289
73	0xbe1da85f	-0.1539626
74	0xb8c7bfac	-9.524761e-05
75	0xbf02c9bb	-0.51089066
76	0xbe4e5e63	-0.20153193
77	0x3e38de7f	0.18053626
78	0x3ca04857	0.019565744
79	0xbdcc4b3f	-0.099752896
80	0xbd76fa4e	-0.060297303
81	0xbe6c23e9	-0.23060574
82	0x3d2fd7d9	0.042930458
83	0xbe8bdcf1	-0.27317002
84	0x3d20891d	0.03919326
85	0x3e6447d3	0.22293024
86	0x3b949e24	0.0045354534
87	0xbcc92ef9	-0.024558531
88	0xbe7d8139	-0.24756326
89	0xbe1a881a	-0.15090981
90	0xbd1bda33	-0.038049888
91	0xbcb6660d	-0.022265458
92	0xbddf2a38	-0.108967245
93	0xbe4e64af	-0.20155595
94	0x3d79e717	0.0610114
95	0x3e60cdd0	0.21953511
96	0xbf1d082e	-0.61340606
97	0x3e7b2b42	0.2452822
98	0xbd388146	-0.04504516
99	0x3da9ad1e	0.082849726
100	0x3ec39885	0.382023
101	0xbf8e866f	-1.1134776
102	0xbed38708	-0.41313958
103	0x3ee552ab	0.44789633
104	0x3a637a01	0.0008677543
105	0x3e55636b	0.20838706
106	0x3eb104f7	0.345741
107	0xbecd77c9	-0.4013045
108	0x3ee3ca4e	0.44490284
109	0xbea562ba	-0.32301885
110	0x3ead464a	0.3384269
111	0xbf3c4d0f	-0.7355508
112	0x3f3da62a	0.7408167
113	0xbf831866	-1.0241821
114	0x3d363439	0.044483397
115	0xbd0f3f4d	-0.034972478
116	0x3ef13186	0.47108096
117	0xbdae98f5	-0.08525268
118	0xbef190bb	-0.47180733
119	0xbe5287c8	-0.20559609
120	0xbd3673fa	-0.044544198
121	0xbf31369e	-0.69223964
122	0xbf4e9d07	-0.80708355
123	0x3f78df83	0.9721605
124	0x3f092eda	0.53587115
125	0xbeddf6b2	-0.43352276
126	0x3d2ddbd5	0.042445976
127	0xbf149c65	-0.5805114
128	0x3f2d5b7f	0.67717737
129	0x3ed7f78b	0.42181048
130	0xbf63613f	-0.8882026
131	0xbccd39ba	-0.02505194
132	0xbdf7142c	-0.12064394
133	0xbf0b70c5	-0.5446895
134	0xbc38e1a4	-0.011284266
135	0x3e58b60e	0.21163198
136	0xbf289755	-0.65855914
137	0x3f41b1ff	0.75662225
138	0x3e1f6c9f	0.1556878
139	0x3f003cb7	0.50092643
140	0xbf228437	-0.63482994
141	0x3dec409e	0.11535762
142	0xbfa23e0b	-1.2675184
143	0xbf0c17b9	-0.547237
144	0xbf28cffd	-0.65942365
145	0xbee1e3b2	-0.4411903
146	0x3f1f66cc	0.6226623
147	0xbd5cb7bd	-0.053886164
148	0xbf139e2b	-0.5766322
149	0xbe2314cb	-0.159259
150	0xbfe346f6	-1.775603
151	0xbf2799c8	-0.65469027
152	0x3f0dcf03	0.55394
153	0xbf0ae5ee	-0.54257095
154	0xbe82ed8e	-0.25571865
155	0xbe943831	-0.2894912
156	0xbf883fae	-1.0644433
157	0x3f134f37	0.5754275
158	0x3f7f3c3f	0.99701303
159	0xbfb9e6f4	-1.4523606
160	0x3a341120	0.0006869007
161	0xbeeacb97	-0.45858452
162	0xbf14a2e7	-0.5806107
163	0x3f91399b	1.1345705
164	0xbe15beea	-0.14623609
165	0x3f2ebcf2	0.6825706
166	0xbc82d7e6	-0.015972089
167	0xbefd94ea	-0.49527675
168	0xbe2c920d	-0.16852589
169	0x3ec1b78f	0.37835357
170	0xbe63ae9c	-0.22234577
171	0x3e128bb8	0.14311111
172	0x3f4612dc	0.7737253
173	0xbe92ab44	-0.2864629
174	0xbcf011fb	-0.029305449
175	0xbe9f195f	-0.31074044
176	0x3db4354c	0.08799228
177	0x3dec66b5	0.11543027
178	0xbd39e2ee	-0.045382433
179	0xbe482b93	-0.19547872
180	0x3df71f77	0.12066548
181	0x3e87da86	0.26533908
182	0x3eeaf95e	0.45893377
183	0x3cd82a5e	0.02638739
184	0xbe2c6a2d	-0.16837378
185	0x3e9b4e96	0.30333394
186	0xbe2ab20e	-0.16669485
187	0xbf09f61c	-0.5389116
188	0x3eb53e17	0.35398933
189	0x3eaba54b	0.33524546
190	0xbeb2ac79	-0.3489721
191	0x3f908876	1.1291645
192	0x3f00621a	0.5014969
193	0xbea5f8ad	-0.32416287
194	0x3ef7ec24	0.48422348
195	0xbe366b3c	-0.17814344
196	0xbf63988d	-0.8890465
197	0x3ecafa9d	0.39644328
198	0xbde87127	-0.11349707
199	0x3cea42de	0.028596338
200	0xbf1d489b	-0.6143891
201	0x3eb750f6	0.35803956
202	0x3f01e220	0.50735664
203	0xbebabf2f	-0.36473987
204	0xbeb708c3	-0.35748872
205	0x3f33af01	0.7018891
206	0x3f01a00d	0.50634843
207	0x3f02e8e9	0.5113664
208	0x3cbd492a	0.023106176
209	0xbda6d2b8	-0.0814566
210	0x3e641f10	0.22277474
211	0x3e15187e	0.14560124
212	0x3eef51ee	0.46742195
213	0x3d5e1a9f	0.054224607
214	0xbed49997	-0.4152343
215	0xbe06d7e4	-0.13168293
216	0x3f31b4e1	0.69416624
217	0xbd95e6b9	-0.073193975
218	0x3f6f442c	0.934634
219	0x3dd2ca25	0.10292462
220	0xbe8c09f0	-0.27351332
221	0xbe81ea33	-0.25373992
222	0xbf14b151	-0.58083063
223	0xbefc58c9	-0.49286488
224	0xbd997351	-0.07492698
225	0xbf895458	-1.0728865
226	0x3da28e8a	0.079373434
227	0x3e461635	0.19344409
228	0x3ee25352	0.44204193
229	0xbf4b2d6c	-0.79366183
230	0xbf089d89	-0.5336538
231	0x3fb64b38	1.4241705
232	0xbdbd2d23	-0.09237125
233	0x3e58215f	0.2110648
234	0xbd4d3996	-0.050103746
235	0x3db91af9	0.09038348
236	0xbeaa6b73	-0.33285102
237	0xbedf1c43	-0.4357625
238	0x3e0e840c	0.1391756
239	0x3e919294	0.28432143
240	0xbf0c540e	-0.5481576
241	0xbc7de6e5	-0.015496944
242	0x3ea1fc5a	0.3163784
243	0x3ef9061f	0.48637483
244	0xbf155305	-0.583298
245	0xbd9b2270	-0.07574928
246	0xbee12aa7	-0.43977854
247	0x3d82041f	0.06348442
248	0x3e5efd93	0.21776418
249	0xbe72a5f8	-0.23696125
250	0xbf74b563	-0.95589274
251	0x3eda77b0	0.4266944
252	0x3e145833	0.1448677
253	0x3ec26fdf	0.37975976
254	0x3cdf686f	0.027271478
255	0x3f2ec171	0.6826392

l5/b f4 [16]
0	0xbeacf78e	-0.3378262
1	0xbf199592	-0.5999385
2	0xbe7b2f90	-0.24529862
3	0x3e0d0f82	0.13775447
4	0xbf17c655	-0.59287006
5	0xbee110d9	-0.43958166
6	0xbedb1e89	-0.42796734
7	0xbec8f8f7	-0.39252445
8	0x3e1d3970	0.15353942
9	0xbee82a62	-0.45344836
10	0xbeb9345c	-0.3617276
11	0xbef97962	-0.4872542
12	0x3e264709	0.16238035
13	0xbe2cacec	-0.1686284
14	0xbea8f46f	-0.32998988
15	0x3e641627	0.22274075

c1/b f4 [4]
0	0x3e4628b5	0.19351466
1	0x3ed4b117	0.4154136
2	0xbeb6c494	-0.35696852
3	0xbe94d59e	-0.29069227

l4/b f4 [256]
0	0x3f258db3	0.6466934
1	0x3f05b009	0.52221733
2	0x3e8f6cac	0.28012598
3	0xbe742ae9	-0.23844494
4	0xbf13bbf9	-0.577087
5	0xbea6f01d	-0.32605067
6	0xbdc18715	-0.09449593
7	0xbdbdfb55	-0.092764534
8	0xbf36f4b3	-0.7146713
9	0x3ed48f6c	0.41515672
10	0x3f4522a6	0.77005994
11	0x3e9357e4	0.28777993
12	0xbf3e59c9	-0.7435575
13	0x3f5921e2	0.84817326
14	0xbe9623a6	-0.29324073
15	0xbd062467	-0.03274956
16	0xbe6231fb	-0.22089379
17	0x3e987fb4	0.2978493
18	0xbe54249d	-0.20717092
19	0x3e3be018	0.18347204
20	0x3f22742d	0.6345852
21	0x3e98ba4c	0.29829633
22	0xbf3d8577	-0.74031776
23	0xbdbe0892	-0.092789784
24	0x3d6cf6c8	0.057852536
25	0x3f053ca0	0.5204563
26	0x3f0b5500	0.54426575
27	0xbf1c98d6	-0.6117071
28	0x3d06e139	0.032929633
29	0x3e09ce43	0.13457589
30	0x3e4f639a	0.20252839
31	0x3e592032	0.21203688
32	0x3dee340f	0.11631023
33	0xbf820cdf	-1.0160178
34	0xbf57d3c9	-0.84307534
35	0xbe957b73	-0.29195747
36	0x3e1cbaa4	0.15305573
37	0x3f32e9db	0.69888085
38	0xbed213ee	-0.4103083
39	0xbea17d9b	-0.31541142
40	0xbf5862ef	-0.8452596
41	0x3e9d6825	0.30743518
42	0x3dc4f8be	0.09617756
43	0x3dfb2782	0.12263395
44	0xbec5a7a6	-0.38604468
45	0xbeaae722	-0.33379465
46	0xbec70be3	-0.38876256
47	0x3e01cfb0	0.12676883
48	0x3dc71a4f	0.09721815
49	0xbf0d83a7	-0.5527901
50	0xbe87f478	-0.26553702
51	0x3ec353e1	0.38149932
52	0x3ec4e4ab	0.3845571
53	0xbe3ff1af	-0.18744539
54	0xbe1b6cac	-0.15178174
55	0xbe769492	-0.24080113
56	0xbe92e8d8	-0.2869327
57	0xbd2d9273	-0.042375993
58	0xbdf8c218	-0.121463954
59	0x3ebca374	0.36843455
60	0x3da8df66	0.08245735
61	0x3f47e2b2	0.78080285
62	0x3efe911b	0.49720082
63	0xbf041b5a	-0.51604235
64	0xbea0b2f4	-0.3138653
65	0xbd4d4b64	-0.050120726
66	0x3f676ce8	0.9040055
67	0xbeb068d9	-0.34454992
68	0xbfe9cdb2	-1.8265898
69	0xbf8072d4	-1.0035043
70	0x3eff9063	0.49914846
71	0xbf43043e	-0.7617835
72	0x3e62f223	0.2216268
73	0xbf25a59c	-0.64705825
74	0x3f2187ec	0.63098025
75	0x3df46241	0.11932803
76	0x3e4e2df7	0.20134722
77	0xbdf16c89	-0.117882796
78	0x3e8202d2	0.25392777
79	0x3db6ab04	0.089193374
80	0xbeadc4dc	-0.33939254
81	0xbf6747c5	-0.90343887
82	0x3f827953	1.0193275
83	0xbe3cbfef	-0.18432592
84	0xbf3ed25c	-0.7453973
85	0x3cec5626	0.028849673
86	0xbe27d361	-0.16389228
87	0xbeefc0b0	-0.46826696
88	0xbf16b2a9	-0.58866364
89	0x3e844d5a	0.25840265
90	0x3bcc864e	0.0062415963
91	0xbebf3627	-0.37346002
92	0x3e5a39ba	0.21311083
93	0x3ecd9b0d	0.40157357
94	0xbf172a6b	-0.590491
95	0x3d3fc818	0.046821684
96	0xbdd8faea	-0.10594733
97	0x3ea5ee1c	0.32408226
98	0x3e87e6d5	0.26543298
99	0x3f0c6dcb	0.5485503
100	0xbd9fd49a	-0.078042224
101	0x3f87098d	1.054979
102	0x3f580073	0.84375685
103	0x3ed59739	0.41716936
104	0x3f043b68	0.51653147
105	0xbf07cce2	-0.53047
106	0x3c76ff60	0.015075535
107	0x3ed8180e	0.42205852
108	0xbe5e62ec	-0.21717423
109	0xbed73323	-0.42031202
110	0xbdaec983	-0.08534529
111	0xbf10a8a8	-0.5650735
112	0x3efab9e5	0.4896995
113	0xbe601d2b	-0.21886127
114	0xbece8224	-0.40333664
115	0x3ea8069a	0.32817537
116	0xbedfbaf2	-0.43697315
117	0x3dae97fe	0.08525084
118	0xbf5c9456	-0.8616384
119	0xbe0cce6c	-0.13750619
120	0xbdbcce95	-0.0921909
121	0x3db65663	0.08903196
122	0xbdf364b2	-0.118844405
123	0xbd43d2ed	-0.047808576
124	0xbf35f156	-0.71071374
125	0x3f38ab2c	0.7213619
126	0x3e2b30ae	0.16717789
127	0xbf9c56fb	-1.2214044
128	0x3ed27961	0.4110823
129	0xbf8c91e1	-1.0982019
130	0xbf1c37cc	-0.6102264
131	0x3f4a2778	0.78966475
132	0xbf30c213	-0.69046134
133	0x3f1f12c9	0.6213804
134	0xbe45db66	-0.19321975
135	0xbe1a43c5	-0.15064915
136	0x3f15717d	0.58376294
137	0x3d8c37d3	0.06846585
138	0xbef6fa3f	-0.48237798
139	0xbe8e6ea0	-0.27818775
140	0xbf29d107	-0.66334575
141	0x3e6aad7b	0.2291774
142	0x3da57091	0.08078111
143	0x3e030310	0.12794137
144	0x3de91850	0.1138159
145	0x3d469b3c	0.048487887
146	0x3db5e218	0.088810146
147	0xbf9e397a	-1.236129
148	0x3ed14e76	0.40880173
149	0x3e079d5b	0.1324362
150	0xbeaabfa6	-0.3334934
151	0xbe364db2	-0.17803076
152	0xbed41908	-0.41425347
153	0x3c6b8fd7	0.014377556
154	0x3f4b20b6	0.7934679
155	0xbd84be9b	-0.064816676
156	0xbcdebf16	-0.027190726
157	0xbeaee83a	-0.3416155
158	0xbf3ac348	-0.72954226
159	0x3f2fbc3e	0.6864661
160	0x3f166cbf	0.58759683
161	0xbd344692	-0.044012614
162	0xbf03becf	-0.51463026
163	0x3e9ae08c	0.3024944
164	0x3e90b23b	0.2826098
165	0xbf6a73f3	-0.91583174
166	0xbee79977	-0.45234272
167	0x3eb5346b	0.35391554
168	0xbe10d9f6	-0.14145645
169	0xbf2b4ac8	-0.6691098
170	0xbea4e52a	-0.32206088
171	0x3e9e7d92	0.30955178
172	0x3e438a38	0.19095695
173	0x3c6699be	0.014074741
174	0x3e9eda9b	0.31026158
175	0x3f8132c6	1.009362
176	0xbecc583d	-0.3991107
177	0xbf8e7d43	-1.1131977
178	0xbda0eccb	-0.07857665
179	0xbf82c3ef	-1.0216044
180	0x3de03d47	0.10949188
181	0xbef53d42	-0.47898299
182	0xbf0cb0f7	-0.54957527
183	0xbe3180ef	-0.1733434
184	0x3e98c8b7	0.29840633
185	0x3f511b49	0.8168226
186	0xbe2c0146	-0.16797361
187	0xbed529a0	-0.4163332
188	0x3ef56825	0.47931018
189	0x3e49809c	0.19677967
190	0x3e16478e	0.14675733
191	0xbf1482a9	-0.5801187
192	0xbed73710	-0.42034197
193	0x3daa1a83	0.08305838
194	0x3ed4f6ed	0.4159464
195	0x3e9dbd85	0.30808654
196	0x3da0a130	0.07843244
197	0xbe92e9b4	-0.28693926
198	0x3ce7a017	0.028274579
199	0x3cec948e	0.02887943
200	0xbefe5dcf	-0.49680945
201	0x3e93a513	0.2883688
202	0xbe81ffe7	-0.2539055
203	0x3e969059	0.29407004
204	0x3f15d844	0.5853312
205	0xbf16ce65	-0.58908683
206	0xbe02ceb9	-0.12774171
207	0x3f397ca2	0.724558
208	0xbf4506e1	-0.7696362
209	0x3d5799e1	0.052636985
210	0xbe62970a	-0.2212793
211	0xbf4e198e	-0.80507743
212	0xbd0797a4	-0.0331036
213	0xbf82d0c9	-1.0219966
214	0xbf4132eb	-0.7546832
215	0xbe0ba18b	-0.13635843
216	0xbe21ff81	-0.15820123
217	0x3d98c715	0.07459847
218	0xbf96c45a	-1.1778672
219	0x3e75d406	0.24006662
220	0xbd8d3cc7	-0.06896358
221	0x3f1ab99f	0.60439485
222	0xbf89ad3f	-1.0755996
223	0xbe26bf3e	-0.1628389
224	0xbd534452	-0.051578827
225	0xbec91fe0	-0.3928213
226	0x3f3dce55	0.7414296
227	0xbe92de6b	-0.28685316
228	0x3d42aa74	0.047525838
229	0x3e2f97c8	0.17147744
230	0xbee19ddb	-0.44065747
231	0xbd87df94	-0.06634441
232	0xbdf151d5	-0.11783186
233	0xbfb92a46	-1.4466026
234	0x3d69a89c	0.057045564
235	0xbef158cc	-0.4713806
236	0xbe7414e3	-0.23836093
237	0xbf17f578	-0.5935893
238	0xbee9b547	-0.45646116
239	0xbf6dd1db	-0.9289834
240	0x3e93adb9	0.28843477
241	0xbe1aa1ea	-0.15100828
242	0xbf260a8c	-0.64859843
243	0xbe2651f0	-0.16242194
244	0x3f54ecbb	0.8317372
245	0x3e68b166	0.22723922
246	0x3f5812d7	0.8440375
247	0xbdf7bbe6	-0.12096386
248	0x3f01b16a	0.5066134
249	0x3ee78f85	0.45226684
250	0xbec34470	-0.3813815
251	0x3e1df710	0.15426278
252	0xbe619708	-0.2203027
253	0xbf36d5ed	-0.71420175
254	0xbeb0cfd3	-0.34533557
255	0x3d39cd0a	0.045361556

c2/b f4 [8]
0	0x3d818dfa	0.06325908
1	0x3d13c351	0.03607494
2	0xbef7f4a1	-0.48428825
3	0xbc3ac899	-0.011400365
4	0x3aac415f	0.0013142041
5	0xbd9e5eff	-0.07732963
6	0x3e78a6e2	0.2428241
7	0xbedf8d56	-0.43662518
