examples/ch4/reversi_DQN_DNN/agent_white_6000/target_model.npz (npz, 521910 bytes, 8 tensors)

l2/b f4 [256]
00000000: b298 1ebd 3d0c b33b 55b0 223d 714f 883c
00000010: 3a5f 0bbc 145c 8ebd 2393 9b3d 0092 f03c
00000020: 3b1a 45bb 63ff 5c3c f2a8 81bd ff62 f73c
00000030: 1bf6 503d de5d 09bd dda8 563a 02cc 2b3c
00000040: 56bd 78bd d014 f5bc d396 2c3c 8914 a23c
00000050: ce7a e03c 9999 713d 6ce0 c03d c76a 1fbc
00000060: 2d5b 35bc 6815 813d 9a2f b73c c483 9c3c
00000070: 563d 2cbd 00dc 0bbd 7e40 58bb b61e 333d
00000080: d6a0 0a3d ebd5 80bc 438d 5f3d 6389 3ebd
00000090: 8036 60bc d867 acbb ad3a 213d 95dc 95bb
000000a0: f89b 01be ba90 14bb 0f39 9ab9 1d81 b23d
000000b0: 7084 7cbd ef89 cabc 5dc7 8cbb aeab 3abd
000000c0: 59a5 47bd 9e58 0b3d 365c 853d f878 8c3c
000000d0: 3653 923c 56d7 3c3c e2bf 47bc 994d d43c
000000e0: 611a 8b3c 6b79 14ba 9b59 8abd 1558 0abc
000000f0: bf6c 22bc 5df5 0bbb 3c0f 7cbc 29bf 7f3d
00000100: feed fdbb 7b7e 0cbb 2f69 aa3b 3b1b c93c
00000110: c165 5ebb 9cd0 433d 234f 503d ad01 743d
00000120: fefa c0bb b06c 433d 99b6 4f3b 8086 2b3c
00000130: bda2 963a 9e07 ca3c 5e1c 83bd e1b8 42bd
00000140: 9d8a 2b3d 4136 edbb 20f9 afbc 38c7 f5bc
00000150: b7af f0bc 5e05 b7b9 124a 87bd e002 b73c
00000160: 9cba 5bbd 93a4 80bc f8a4 8f3d 9205 04bd
00000170: e9a6 d9bb eef6 8bbb a523 87b9 c2f0 12bd
00000180: 894c a03d 6bbf 6abd d8ad 58bd af11 2abd
00000190: b0d9 5c3c 32bf 6fbd b570 063d 376d 55bc
000001a0: cbb1 bf3d 6e00 e6bc bb7b 123b 3e82 efbc
000001b0: bc15 c13c 68c7 5f3b 4481 9cbc b8f7 f8bb
000001c0: 260f 47bc 6e7b 903d ecd5 8abd 45b8 f0bb
000001d0: 170e 31bd 1b52 063c 123e e6bc 9a94 073d
000001e0: cf78 22bc 027f a13b 6243 4a3d 2093 0bbb
000001f0: 4403 5c3d 6e77 37bd d87e 49bd ca5d 47bd
00000200: 3d6a 72bd 245e 02bc 4e9d b13a 989a bebb
00000210: 0391 7d3d 14ee aebd 6bd0 1c3c dafe 733c
00000220: 6b86 d23c d8ce acbc a91f 233d 75b5 c4bc
00000230: 45b2 463c af80 953c 3eff 23bc 11ef 323d
00000240: f73b 823d 7816 98bd a3f3 72bd be5c 42bd
00000250: e869 2f3c d8e4 4c3c 6681 403c 8989 3a3d
00000260: 7127 2d3d c713 6abd 3ad2 40bc ed42 f5bc
00000270: 3da1 78bd e91f 8dbd af0e 83bc 688c 47bd
00000280: da1b 9dbc be7e c13c 964e a9bc 3ba8 523d
00000290: 9b2b 0cbc 6eb6 85bc 554f 6bbd 190e 443d
000002a0: 801c 693c 514d a7bc b303 9abc 4f9d d83c
000002b0: b4ae 0b3d 8434 35bc 786c 483d f1e2 b3bc
000002c0: f72a 1e3d 06d9 593d 60c3 80bc e162 353d
000002d0: 24ce 65bc 74f5 d4bc 17ae 92bc 583f 013d
000002e0: 48cd 3abd 5803 87bd 79d5 82bd 6606 b73d
000002f0: 5691 0c3c 9e29 b23b a3af bcbd edce dcbc
00000300: 5ae0 1a3d 7f28 2dbc 8636 2d3d d6c8 f7bc
00000310: 608c 02bd 0bbd d9bc 92df 33bd 85b8 91bd
00000320: 2e2a bfbc 3ac7 8b3d d53a 8ebb c135 153d
00000330: f424 8fbb c530 02bd 1527 2f3c 1ec6 12bb
00000340: e4a8 bdbc ee36 6fbd 375c 243c f156 6e3b
00000350: 53b3 92bd 6adb 98bc 2457 fc3c b440 39bd
00000360: 1af5 943d 6865 983d b0e2 b13c e57c 8abd
00000370: 0cdf ce3c 8aba 3abd 89e6 9abc b688 33bd
00000380: b983 703c 5ff5 8c3d 9ec8 56bd a9a9 f8bc
00000390: 1574 2aba 8bc5 b4bc 1b8b 96bd 8107 f8bc
000003a0: d968 073d 9124 36bc 8f23 cdbc 98ae 593d
000003b0: 8db7 da3d 8c38 043d ca1a d2bc cc3d a138
000003c0: 2198 41bc 5745 223d 1520 6d3d 7f51 73bc
000003d0: fc07 593c 1bda 22bc 5139 95bc 5c05 7fbb
000003e0: 02ac a7bc 1cd6 ca3a 7735 f5bc 8828 663c
000003f0: 3952 893b 977b f63c 2d1c 2ebd bd4a 8ebd
-0.03871984 0.0054641054 0.039718945 0.016639443 -0.0085065905 -0.06951156 0.075964235 0.029366493
-0.003007545 0.013488623 -0.06331052 0.030198572 0.051015954 -0.033536784 0.0008188615 0.010485651
-0.06072744 -0.02991715 0.010534006 0.019785183 0.027402308 0.058984373 0.09417805 -0.009730048
-0.011069101 0.06302911 0.022361565 0.0191058 -0.042050682 -0.034145355 -0.0032997425 0.04373046
0.03384479 -0.015727004 0.054578077 -0.04651774 -0.013684869 -0.0052614026 0.0393626 -0.0045734146
-0.12657154 -0.0022669272 -0.0002941568 0.08716033 -0.06164974 -0.024723975 -0.004296227 -0.045573883
-0.048741672 0.03402006 0.065117285 0.017147526 0.017861944 0.011525949 -0.0121917445 0.025915908
0.016980352 -0.00056638446 -0.06755372 -0.008443852 -0.009913622 -0.0021355965 -0.0153844915 0.062438164
-0.007749318 -0.0021437693 0.005200527 0.024549117 -0.0033935162 0.047806367 0.05085672 0.05957191
-0.0058892956 0.047711074 0.003169453 0.010469079 0.0011492592 0.024661835 -0.06401895 -0.047539596
0.04188024 -0.0072391336 -0.021481097 -0.030002221 -0.029380662 -0.0003490848 -0.06605925 0.022340238
-0.05364476 -0.015703475 0.07013887 -0.032231875 -0.0066422117 -0.0042713797 -0.00025775764 -0.035874136
0.07827098 -0.057311457 -0.052900165 -0.04152077 0.013479635 -0.058531947 0.03282233 -0.013026527
0.09360083 -0.028076377 0.002235158 -0.029236909 0.023569934 0.0034145955 -0.019104607 -0.0075978898
-0.012149608 0.07054792 -0.067790836 -0.0073461854 -0.043226328 0.008198286 -0.02810577 0.033100702
-0.009916498 0.0049284706 0.049380668 -0.002129741 0.05371405 -0.04479163 -0.049193233 -0.04867343
-0.059183348 -0.007957015 0.0013550909 -0.005816769 0.061905872 -0.085415035 0.009571175 0.014892304
0.025698861 -0.021094725 0.039825115 -0.024012307 0.012127464 0.018249838 -0.010009585 0.043685023
0.06359094 -0.074261606 -0.05931438 -0.047451727 0.010706402 0.0125057325 0.011749601 0.04554132
0.042273942 -0.057147767 -0.011768872 -0.02993914 -0.060700644 -0.06890852 -0.015998213 -0.048717886
-0.01917832 0.023620006 -0.020667356 0.05142997 -0.008555318 -0.01632234 -0.057448704 0.047865007
0.014227986 -0.02042261 -0.018800592 0.026442198 0.034102157 -0.011059884 0.04893157 -0.0219588
0.038615193 0.053185485 -0.015718162 0.04428375 -0.014026199 -0.025995947 -0.017905278 0.03155455
-0.045605928 -0.06592435 -0.06388373 0.08936767 0.008579573 0.00543709 -0.092131875 -0.026954139
0.037811615 -0.010568737 0.042288326 -0.030247133 -0.031872153 -0.0265794 -0.043914385 -0.071152724
-0.023335543 0.06825109 -0.0043405094 0.036428217 -0.004368419 -0.03178479 0.01069047 -0.002239592
-0.023151822 -0.058401994 0.010031751 0.003636774 -0.0716311 -0.018659312 0.03080327 -0.04522772
0.07273312 0.07441217 0.021714538 -0.06762103 0.025252841 -0.045588054 -0.018908756 -0.04383155
0.014679843 0.06882738 -0.052437417 -0.030354338 -0.0006502283 -0.022066852 -0.07350751 -0.030277016
0.033058975 -0.011117117 -0.02504137 0.05314502 0.10679541 0.03228049 -0.02564754 7.688589e-05
-0.0118160555 0.03961691 0.057891924 -0.014850973 0.0132465325 -0.009939696 -0.018215807 -0.0038913107
-0.020467762 0.0015475187 -0.02993272 0.014047749 0.00419071 0.03008823 -0.04250734 -0.06947849

l1/W f4 [256, 16]
00000000: 269d 3c3e 6f78 cfbe 6bc1 5e3e 3371 9f3e
00000010: 76b2 d8be 4746 98be e81a 473e a607 fc3e
00000020: bb11 61be 2efe 07bf 9ebe 0c3f 4bbb 76be
00000030: 21d1 923c 2601 4abe f017 0a3f 78cc 28bd
00000040: f050 df3e d005 fbbe 6f67 743d dde8 d4be
00000050: 189b 3abd 9ce2 efbe 811f 54be 8383 0c3e
00000060: 4f6f d43e 7ab5 00bf 8957 003f 44eb 793d
00000070: aa0b 553f 038f 933e 12db 533e c423 8ebd
00000080: 11a2 94be d8b1 a3be 04e3 dabe 5018 263e
00000090: f1ff 8bbd 6c74 07bd e3bc 12be f3f6 8d3e
000000a0: c022 bcbe ed3d e53c a202 bebe 0277 343d
000000b0: c7e7 85bd 82f4 a23d 25a9 0cbe 531d 4c3f
000000c0: dd96 0d3e 7368 1dbf d317 61be cacf 443d
000000d0: 2c89 e3bd c32c edbe 8cda 283f c34e e5be
000000e0: 4961 403f 1e14 443f 3cdc 733e 1436 26bf
000000f0: cdde 99be 15c3 fbbe 0768 193e 9d16 273f
00000100: 5d95 fcbc aff9 0f3e 578c b3be 609f 5fbe
00000110: 13bd aabd 4278 4fbe 7e9c c43e f53a 5b3f
00000120: 49b0 f2bc ef86 d8bd f5bc 6e3e dbcd 7abf
00000130: 0963 fd3c 00f2 cf3e 0b78 d9be e9ed abbe
00000140: b05a df3e 1a5a d0be 0e20 9bbe 33ee 063e
00000150: 0ef9 11be cb46 32bf 807b fd3e 4f56 023f
00000160: 9c43 07bf 6732 ea3e b208 a9be 6fa2 7c3e
00000170: af35 c23e 2146 03bf 3444 d93d 6dcf fe3e
00000180: 1e8f 69bc 7482 cbbc d6e1 b23d 43e0 333f
00000190: dfd1 4dbf c530 4e3e f632 2e3f 6e12 2c3d
000001a0: fabb 933d aa4c 27be fa94 11bd 8e53 a0bd
000001b0: 0586 bd3d fecf d9be 7916 663e bdec 393e
000001c0: ff08 fb3e 937a 803d 1338 8a3e 0e66 ed3d
000001d0: b51f 29be 55ea b9be c5cb 77bf b887 eabe
000001e0: 9ff1 15be 099e 453d b5b8 283e c9cd eb3d
000001f0: 7cc8 df3d ecf9 053f bf70 093e 64f3 1c3e
00000200: 14e4 ddbe 56b3 c3be f4d7 703d 82d2 1b3f
00000210: 43d4 8a3d ffa3 4dbe 1b3f db3e 7a24 85be
00000220: 16f7 babe 749e 123f ae2f 68be 120d 8d3e
00000230: 7afe 67bf 9b8e f1bc 6f37 3b3e d500 c2bd
00000240: d1a7 3b3e b395 503d 9b2e efbe f404 243d
00000250: 34b0 043f 6530 623e 3311 9b3e 4ec7 56be
00000260: 2c1f c63d ad1c 89be 441e e4be c654 86be
00000270: 0f09 303f 4861 173f 0a3a 80bc aa3c 253d
00000280: 7457 153f 5bfd 6f3d c0e9 0ebd 0a33 d1be
00000290: 2556 d43d 1dc8 11be d87d 0fbe b27e 4f3c
000002a0: 5f74 53bf ff12 a3bd db34 4e3e 606c e3be
000002b0: 0b08 373f 2b5b debd c9b4 103d 46ce 29be
000002c0: ab28 f4be e474 55bf 8514 ad3e facc b0be
000002d0: 0dc1 343f 050a 5fbe e61b e03d 19ea 593f
000002e0: 3701 233c dbde b83e 934a 39be 5032 0c3e
000002f0: b88c eebe 08fb a5be a0a1 13bf 5b39 9ebd
00000300: 7177 b43d b6fa 853e c011 e23d 0473 003e
00000310: ad79 a9bd 9467 5bbe 2319 2fbd ffb3 5bbd
00000320: 3a58 92bc 2b83 82be 2069 7b3d ab59 0fbe
00000330: f5f1 333d 1cfd 26bc a895 4fbe d1a9 f73e
00000340: b0f1 0dbd 428a 3cbd e5c8 11bf 3f26 39be
00000350: 18d1 c5be ebf4 133d a01a 21bf 8815 8c3d
00000360: b292 38be 58e0 21bf d520 873e e0f1 48be
00000370: fff6 2fbf b60a d13e 07fb 163f af43 833c
00000380: 3175 48bf 82dc c8be 87f4 f53d b484 4cbe
00000390: 16bb 133d 815a e83e b1be 413e ca59 913c
000003a0: 6204 df3e 5352 b83e dab1 983e 6ead 3e3e
000003b0: a715 3dbf b6f5 683e f4a9 3e3e f5f0 fbbe
000003c0: c0e6 c5bd 4f0f adbd ecc7 103f 4da7 863e
000003d0: 7e42 0d3d e38d 9bbf 9039 e2bd a5bc 01bf
000003e0: 916d d23e 37d4 973c 3770 013f 33ff c33e
000003f0: 01d8 5dbe da50 94be 5c24 ac3e 9c78 903e
0.18419322 -0.4052157 0.2175347 0.31141052 -0.42323655 -0.29741117 0.19443858 0.49224585
-0.2197942 -0.5312222 0.5497836 -0.24094884 0.017921986 -0.19727 0.53942776 -0.04121062
0.43616438 -0.49027872 0.059668954 -0.4158391 -0.045558065 -0.46852577 -0.20715143 0.13722043
0.41491172 -0.5027691 0.5013357 0.061015382 0.8322092 0.28820047 0.20689037 -0.069404155
-0.29029897 -0.31971622 -0.42751324 0.16220212 -0.06835926 -0.033070013 -0.14329867 0.2772747
-0.36745262 0.02798363 -0.37111384 0.044058807 -0.06538349 0.079567924 -0.13736399 0.79732245
0.13827081 -0.614875 -0.21981744 0.048049726 -0.11110148 -0.46323213 0.65958476 -0.44786653
0.75148445 0.76593196 0.23814481 -0.64926267 -0.30052796 -0.49172273 0.1498109 0.6526888
-0.03083294 0.1406009 -0.35068008 -0.2183814 -0.08336844 -0.20260718 0.38400644 0.85636836
-0.029625075 -0.105726115 0.23314269 -0.9797036 0.030931013 0.4061432 -0.42474398 -0.3357995
0.43623877 -0.40693742 -0.30297893 0.13176803 -0.14255163 -0.6963927 0.49508286 0.50912946
-0.5283754 0.4574158 -0.33014446 0.24671338 0.37931582 -0.51278883 0.10608712 0.49767628
-0.014255313 -0.024842478 0.08734481 0.7026407 -0.8039836 0.20135792 0.6804651 0.042009763
0.07213588 -0.16337839 -0.035542466 -0.07828437 0.09254078 -0.42541498 0.2246951 0.18156715
0.490303 0.06273379 0.26995906 0.11591731 -0.16516002 -0.36311594 -0.967953 -0.4580667
-0.14642952 0.048246417 0.1647671 0.1151386 0.10926911 0.52334476 0.13421915 0.15327221
-0.43338072 -0.3822276 0.0587997 0.60868084 0.06778767 -0.20082091 0.42821583 -0.26004392
-0.36516637 0.5727303 -0.22674438 0.27549034 -0.90622675 -0.029486945 0.18282865 -0.09472815
0.18325736 0.050924014 -0.46715245 0.040043786 0.51831365 0.22088774 0.3028656 -0.20974466
0.09673914 -0.2677969 -0.4455434 -0.26236552 0.6876382 0.59132814 -0.015652675 0.040341057
0.5833657 0.058591228 -0.03489089 -0.40859252 0.10367993 -0.14236493 -0.1401285 0.012664484
-0.82599443 -0.079626076 0.2013735 -0.4441862 0.7149665 -0.10857233 0.03532866 -0.16582593
-0.47687277 -0.83381486 0.33804718 -0.34531385 0.7060707 -0.21781166 0.10942821 0.8512283
0.00994902 0.36107525 -0.18094854 0.13691068 -0.46591735 -0.32418084 -0.57668495 -0.077257834
0.08811844 0.2616784 0.11038542 0.12543875 -0.08275161 -0.2142623 -0.04274858 -0.053638455
-0.017864335 -0.25490698 0.061379552 -0.1399905 0.04393192 -0.010192182 -0.20271933 0.48371747
-0.03465432 -0.04603029 -0.56947166 -0.18080996 -0.38636088 0.036122244 -0.6293125 0.06840044
-0.1802471 -0.63232946 0.26392236 -0.19623518 -0.6873626 0.40828484 0.5897679 0.016023485
-0.7830382 -0.39230734 0.120095305 -0.19972497 0.03606709 0.4538155 0.18920399 0.01774301
0.4355803 0.36000308 0.2982319 0.18620846 -0.73861164 0.22749981 0.1861952 -0.49207273
-0.09663153 -0.084501855 0.56555057 0.26299515 0.03448724 -1.2152675 -0.110461354 -0.50678474
0.41099218 0.01853381 0.5056185 0.3828064 -0.2166443 -0.28967935 0.3362149 0.28217018

l3/W f4 [256, 256]
00000000: cec1 333c 031e 3ebe 7639 c33d 0f94 54bd
00000010: d365 e3bc ef03 2fbe 9c20 c9bd 3499 85bd
00000020: c92a 813c 06d5 bdbc f375 d5bd 91f6 7cbd
00000030: 3e28 1d3e a296 d5bd ae3a 443e 5be1 ff3d
00000040: 4c14 b3bd ca62 03bc d80d 2ebe 2d06 86bb
00000050: f2db 033e 9fde 3fbd 9762 4b3e 4b3b b83c
00000060: e03a d13d fc40 1dbe f8a9 103d b964 67bc
00000070: e426 ed3d b95b f2bd 6754 143e 213e afbd
00000080: a188 f73d e163 8ebc 8cdd b0bb b057 9f3c
00000090: fffb d7bc edc8 3a3d e0f9 1d3e 4480 463d
000000a0: 5d61 e6bd 3e10 b8bd f507 8abd b346 eabc
000000b0: fed4 6f3b 449f 873d 3da8 ebbd d28b 9fbb
000000c0: 827c fdbc f8dd 073e c8cc c7bd c9bd fc3c
000000d0: 7085 9f3d 1c4f dfbd af42 b13d e021 a63d
000000e0: fa64 c03d 68b3 0ebe 4706 2fbd 1d60 7d3c
000000f0: ef35 21be f85f 43bd f1ca 0dbe 5380 b93d
00000100: 301d 973c 89eb 14bc 4976 9c3b 3469 bf3e
00000110: 3f99 6c3b 995e c5bd f6af b53d 8aa3 99bd
00000120: 18b7 d93c ad92 9f3d 120b 103d a6dc ec3d
00000130: bdb1 9d3c 3eb3 5c3c 886e 6dbe 5b43 f7bd
00000140: 44a2 08bd f07b 46be e28a 05be b304 cd3c
00000150: 9a80 61bc a9b9 7f3d e75a 1bbe cd6d babd
00000160: 7b96 ab3d 0068 af3d 37a5 80bd 287c 793d
00000170: 458e 1e3e ffda cf3c 7454 12bd 416a 013d
00000180: 0005 2b3e cad2 e5bc f1b2 1bbe cdbd 4c3d
00000190: c019 2f3e d1eb 1fbd 5eb9 b03d 361b 87bd
000001a0: cfd4 113e 5268 25be 3eb2 c23d 478a 213d
000001b0: b95b cfbd 7263 c0bd 18e6 b0bd 4fb7 b1bc
000001c0: 94c4 6cbc 32fd ddbd 2d88 0dbc 1852 57bd
000001d0: d04b 98bd 715c c7bd 94f6 84bd d553 953c
000001e0: ab7e fbbd c7a1 3abe cffe 5a3c b7d5 3c3d
000001f0: 6b34 5fbd 76bf acbd 7f61 22be 9fc2 92bd
00000200: 7d59 03bd 5933 d5bd 9a5c 5d3d a831 193e
00000210: 9c6e b2bd 5662 3cbd 57b4 cc3d f226 4e3d
00000220: 0195 03be 9552 723d 5807 303e dfaa 213d
00000230: 81d7 4fbd 0ca4 0b3c 237d 833d 350b 5fbd
00000240: 8c4c 0f3d 02f7 64bd b452 a5bd 647a e23b
00000250: 94b9 773b b731 8abd 3d90 293e 659a 943d
00000260: d4ba 40be 3924 4cbc 9906 23bd 1c4a e5bd
00000270: e9b7 96bd e709 e3bd 7c02 863b cbb5 ec3c
00000280: b672 773d 8bb9 b43d 4b99 21bc 2d8a 123d
00000290: 5aab 1abd 3d25 1dbd 3663 f0bd b7d2 1a3d
000002a0: 214b 92bd aa83 593e f385 6f3d 69f3 2abb
000002b0: c880 28be 7c08 4cbd 3360 893d 9e3d 863c
000002c0: e831 273d 7d9e 643d b572 57bd 84c9 0f3e
000002d0: 2acc 243d 79fc 67bc 29b7 33bc 089c 333d
000002e0: 40db 633d b957 3dbe ea7f c43c 840e ac3d
000002f0: 40c0 e6bd 2552 fabd ce07 9c3d 9870 ec3d
00000300: 16d5 d83c 8161 96bd 3860 453d fa35 34bd
00000310: 23aa 1abe e7b4 9ebe 91ad c13d d5b1 a53d
00000320: 8441 39bd 72da 9a3d 3afb 43bd a3e4 92bd
00000330: a113 bbbd f56a 09bd 0e3c 12be e758 9abd
00000340: 7971 823d 1ff5 4abe e691 01be fe0f 49bd
00000350: 8c4e 99bb 6b35 f33d 4dff d4bd ae58 99ba
00000360: bf54 103e b8d3 c33b fddb f23e 5971 99bb
00000370: 539f aabc df91 803b 73f2 9a3d 10e0 c23c
00000380: 13d1 75bd fc51 94bc 00f3 3a3d ecb4 c2bb
00000390: 5308 a33c eb61 03be 3ad3 f6bd 8373 3abd
000003a0: be0a 1f3e 04d9 91be 4be9 b0bd f0d8 50bd
000003b0: cc42 7cbd d152 f8bc 35c9 91bd b9a5 193e
000003c0: 7005 033e 60aa 00be 4487 cdbd d534 1ebe
000003d0: 746a 1d3c bec4 42be 092a d43d d386 413e
000003e0: 3ff0 debd 19e5 eabd 4267 f13d 24d6 4abc
000003f0: d5af 863e 4f31 1a3d b109 ff3d 4034 0c3d
0.0109715 -0.18566136 0.09532444 -0.051899012 -0.027758515 -0.17091344 -0.09820673 -0.06523362
0.015767472 -0.023172867 -0.10422888 -0.06175858 0.15347382 -0.104291216 0.1916301 0.12494155
-0.08744106 -0.008019159 -0.16997468 -0.0040900917 0.12876871 -0.046843167 0.19861828 0.02248921
0.10216308 -0.15356821 0.035318345 -0.014123135 0.115796834 -0.11833901 0.14485322 -0.08556772
0.12086607 -0.01738161 -0.005397504 0.019450992 -0.026365278 0.045601774 0.15427351 0.048462167
-0.11249039 -0.08987473 -0.06739799 -0.028598165 0.003659546 0.066221744 -0.11506698 -0.004868963
-0.030943159 0.13268268 -0.09755856 0.030852215 0.07789123 -0.10903761 0.08655297 0.0811193
0.0939426 -0.13935626 -0.042730596 0.01546481 -0.1574323 -0.047698945 -0.13846947 0.09057679
0.018446535 -0.009089359 0.004774843 0.3738495 0.0036102084 -0.09637184 0.088714525 -0.07501896
0.026576564 0.07791648 0.035166807 0.11565523 0.019249791 0.013470469 -0.23186696 -0.12073394
-0.033357874 -0.19383216 -0.13041261 0.025026655 -0.013763571 0.06243292 -0.15171395 -0.09102974
0.08378311 0.08564758 -0.06281512 0.06090942 0.15483959 0.02537298 -0.035725072 0.031595472
0.16701126 -0.028054614 -0.1520498 0.049985696 0.17099667 -0.03904325 0.08629106 -0.06596987
0.14241336 -0.16153076 0.09506653 0.039438512 -0.101249166 -0.09393968 -0.08637637 -0.021693854
-0.014451165 -0.10839309 -0.008638424 -0.052568525 -0.07436335 -0.09734429 -0.064923435 0.01822845
-0.122800194 -0.18225776 0.013366415 0.04610225 -0.05449335 -0.08434956 -0.15857504 -0.07166027
-0.032067765 -0.104101844 0.05404339 0.14960349 -0.08712503 -0.045992218 0.099953346 0.05033011
-0.12849809 0.059160788 0.17190301 0.039469596 -0.05074263 0.008522999 0.06420352 -0.054454047
0.03498511 -0.055899628 -0.08072415 0.0069115628 0.0037799822 -0.067477636 0.16558929 0.07256011
-0.1882127 -0.012459808 -0.039801214 -0.11195776 -0.07359297 -0.11085873 0.0040896516 0.02889528
0.06041213 0.08824452 -0.009863208 0.035776306 -0.03776107 -0.03836559 -0.11737673 0.03779861
-0.07143236 0.21241632 0.058477353 -0.0026085025 -0.16455376 -0.04981278 0.06707802 0.016386803
0.04081908 0.05581521 -0.052599628 0.14041716 0.04023377 -0.014159315 -0.010968962 0.043849975
0.055629015 -0.18490495 0.023986775 0.08401206 -0.112671375 -0.12222699 0.07618676 0.11544913
0.026468795 -0.07342816 0.048187464 -0.04399679 -0.15103965 -0.30997393 0.09456933 0.080905594
-0.045228496 0.075611964 -0.04784701 -0.07172515 -0.09134603 -0.033549268 -0.14280722 -0.07536488
0.063692994 -0.19820069 -0.12653312 -0.049087517 -0.004678553 0.11875423 -0.10400257 -0.0011699402
0.14094828 0.0059761666 0.47433463 -0.0046827015 -0.020827925 0.003923639 0.07565775 0.023788482
-0.06001384 -0.0181055 0.0456419 -0.0059419777 0.01990143 -0.12830321 -0.12052007 -0.045520317
0.15531442 -0.28485882 -0.08638247 -0.050988138 -0.06158714 -0.030312927 -0.07118455 0.15004624
0.12795043 -0.12564993 -0.100355655 -0.15449841 0.0096079 -0.19020364 0.1035958 0.18899088
-0.10885667 -0.11469478 0.11787273 -0.012380157 0.26306024 0.03764468 0.1245302 0.034229517

l4/W f4 [16, 256]
00000000: 1ad3 ae3d 0ad5 103e 131f 153e e5ad ac3b
00000010: 6bca 87be 98dc 8abe de5a 98be 8744 c1be
00000020: e217 edbd 9e42 6b3e 13b6 f5bd af0b 0c3b
00000030: 8ade a83c a418 9ebe 3c1b 023e 4081 073e
00000040: c31c b43d b44d 31bd cc61 803d ccd3 aebe
00000050: 3b8c 993e 7204 8fbe 6d5a 9abd b64a fe3c
00000060: bd29 6abd c5a6 873e e883 eabb b7f7 9a3e
00000070: 4fba 1abd ad9b 233e 7600 b93d b9a9 1ebd
00000080: 6cea c93c 19bc 933d 800f 4c3d 8229 e73d
00000090: daec af3e e1e8 d13d 54d7 b43e 2477 69be
000000a0: 4522 af3e 9512 443e 0910 d6bc 3827 6f3e
000000b0: 2eb1 4a3c 9c0c 583d 71c3 a13e 646e 143e
000000c0: 7c98 5f3e 16d4 f93d 3121 12bc 1145 ad3d
000000d0: c7e4 92bc a9f1 693e 70b0 b4be fdb0 903d
000000e0: 39b0 863e 0d06 13be 73ee f9bd 6e47 bbbe
000000f0: 4799 1bbe 9238 1c3e e900 63bd d73a 08be
00000100: 69b1 2dbe 27f8 543c 88d0 04be 01b7 5fbe
00000110: d385 353d a8bc 7d3e f14b b83d 7cb9 653e
00000120: 74b5 adbe 0275 263e c1e0 aabe c836 85bd
00000130: b80e fcbd ed69 a83c c417 f7bd 52ee 5c3e
00000140: 6e16 07be 282c 97be 7408 40bc 90d4 a1be
00000150: 7825 47be 77ce e2bd 8c46 ed3c 8a72 1abe
00000160: 63a5 9bbe cb25 213d 0245 de3e 715b a0bd
00000170: 7f1b 6c3e 266b df3d 6fe9 853e 6f55 8d3e
00000180: b51b 573d 5c5f 08be 610d 9dbb 9f10 50be
00000190: 021a 05bd feb1 92ba 0923 b9bd 7b63 ae3d
000001a0: cd47 383d 29cd b1bd e56c 9b3c 95c4 da3d
000001b0: edf7 423d 486d 2f3e 2e2b 95bd cec4 54be
000001c0: f75f 74be 2390 753c b769 903d 339c e53e
000001d0: d84b 963e ff4c 29bc b8b8 9abe 7acd 5ebe
000001e0: bf79 60be 3f50 57be 6782 683e 3513 ff3d
000001f0: 218d 913d 9c55 383e f3c9 cfbe 35a1 a53d
00000200: 684d dbbc 918d 303e 72d8 0d3e aabe e63d
00000210: f822 043e 952a e93d 1679 1b3e 1eb8 b1bd
00000220: ad95 c7bb a322 e8be fa7b 51bc e04a 61bd
00000230: 0115 d33d aefb d4be f735 0dbe b88f 1e3e
00000240: ae56 57bc e714 9abe b61d 993d 9afe 5fbd
00000250: 75ed 153e d757 de3d ddee 12be 074f 98be
00000260: 4dd8 1c3e 73ba 9fbd 2701 10bd dca9 adbd
00000270: 54f5 24be 29d7 913c 0418 a93e b192 103e
00000280: 5189 4ebe 705c 79be e350 163e 092f f03d
00000290: 3610 0dbe b186 2c3e fe34 31bd 5ef0 693e
000002a0: 854a 36be 5711 b83c 6a4b 453e bce1 88be
000002b0: 03fd 6f3d 3d22 02be 4f39 703e d446 113c
000002c0: a5c5 a33d 464a 1f3e 579c 033e 019a 9ebe
000002d0: 27ba e63d 737d 5ebe c6de d2bd 5677 313d
000002e0: a178 dfbb acf7 48be 3cf8 3d3e e23e 91be
000002f0: d380 64bc e3f2 f0be 8761 773e 731e 143d
00000300: c331 edbe 1e0f 4f3d 205f 903d 7138 44be
00000310: 7395 a93b 2f2c c73d e7ff 673c a19d 97be
00000320: 8eda a8b8 e24e 533e 2308 6ebe f2c0 9dbd
00000330: 47b8 69be c0bd 083e 949c 953e b278 1cbe
00000340: 058a e6bd 325e 09be cd65 e3bb fd0a f5bd
00000350: 565c 97be 8d93 eabc fad0 7fbe 3ef1 d23d
00000360: 5b60 5a3d ca1c b8bd f44c 6c3e a2ac 38be
00000370: a97a 303e 3f13 303e 1b85 283e 8225 bf3d
00000380: 2629 bb3d 70d2 89be c9c9 fabd c783 00bf
00000390: d9ba cfbd 57df 993d 8e93 293d 7771 573d
000003a0: 9438 4f3d 7689 2dbe b655 be3d 2a24 453d
000003b0: 0344 7fbd 7d79 98bd c36b cabe 29e4 ae3e
000003c0: c41c 403e a68a 41be b6c8 303e 9cd7 a43e
000003d0: 77e2 403d f020 8fbd e651 4b3e a950 763e
000003e0: 5266 3dbe 22fe 83bd 05c3 1bbe e282 023e
000003f0: 7d22 543b dd15 523e 15f6 d1bd e4e8 4fbd
0.08536358 0.14143768 0.14562635 0.0052697533 -0.2652162 -0.27121425 -0.29756826 -0.37747595
-0.11576821 0.22974631 -0.119976185 0.0021369269 0.020613927 -0.30878174 0.12705702 0.13232899
0.08794548 -0.043286994 0.06268653 -0.34145963 0.299898 -0.2793308 -0.075367786 0.031041484
-0.05716871 0.26494423 -0.0071568377 0.30267116 -0.037775334 0.15977354 0.09033291 -0.03873608
0.024647914 0.07213611 0.04981947 0.11287214 0.3436039 0.10249496 0.35320532 -0.22799355
0.34205833 0.19147713 -0.026130693 0.23354805 0.0123713445 0.0527464 0.31594422 0.14495236
0.21835512 0.12198655 -0.008919046 0.08460439 -0.017931355 0.22846092 -0.3529086 0.07065008
0.26306322 -0.14357777 -0.12203684 -0.36577934 -0.1519519 0.15255955 -0.05542079 -0.13303696
-0.16962208 0.012998617 -0.12970173 -0.21847154 0.044317078 0.24778998 0.0899886 0.22434038
-0.339275 0.16255572 -0.333746 -0.06504589 -0.12307495 0.020558322 -0.1206508 0.21575287
-0.1319215 -0.29525876 -0.011720765 -0.31607485 -0.19447887 -0.11074536 0.028964303 -0.15082756
-0.30399618 0.039342683 0.43412024 -0.07829941 0.23057364 0.10909109 0.26154658 0.27604243
0.052516658 -0.13317627 -0.0047928547 -0.2031884 -0.032495506 -0.0011191962 -0.090398856 0.08515068
0.04499035 -0.08681709 0.018972823 0.10682026 0.04759972 0.17131531 -0.072836265 -0.207782
-0.23864733 0.014987978 0.070514135 0.44845733 0.2935474 -0.010333299 -0.30219054 -0.2175807
-0.21921442 -0.21026705 0.22705995 0.12454835 0.07106996 0.18001407 -0.40583763 0.080873884
-0.026770309 0.17241503 0.13852099 0.11266835 0.12903965 0.11385075 0.1518291 -0.08677696
-0.006090841 -0.45338926 -0.012785906 -0.055003047 0.103067406 -0.41598266 -0.13790117 0.15484512
-0.013143225 -0.30094072 0.0747637 -0.054686166 0.14641364 0.10856598 -0.14348932 -0.29747793
0.15316887 -0.07799234 -0.03515735 -0.08479664 -0.1610921 0.017802792 0.33026135 0.14118458
-0.2016957 -0.24351668 0.14679293 0.11727721 -0.13775715 0.16848256 -0.043263428 0.22845599
-0.17801864 0.022469206 0.1926705 -0.26734722 0.0585909 -0.12708373 0.23459361 0.008866984
0.07996682 0.15555677 0.12852608 -0.3097687 0.112659745 -0.21727543 -0.10296397 0.0433267
-0.0068198 -0.1962573 0.18551725 -0.28368288 -0.01394673 -0.47060308 0.24158297 0.03616185
-0.46327028 0.050551526 0.07049394 -0.19162156 0.0051752864 0.09725224 0.014160133 -0.2961245
-8.051573e-05 0.2063556 -0.23245291 -0.07702817 -0.22824202 0.13353634 0.29221022 -0.15280417
-0.11256794 -0.13414839 -0.006939626 -0.119649865 -0.29562634 -0.02863481 -0.24982062 0.102999195
0.053314548 -0.08989866 0.2307623 -0.18034604 0.17234291 0.17194842 0.16457026 0.09333326
0.09138708 -0.26918364 -0.12245519 -0.50201076 -0.1014306 0.07513302 0.041400485 0.052598443
0.050591066 -0.16946968 0.09293692 0.04813019 -0.06232072 -0.07445047 -0.3953534 0.34158447
0.18760973 -0.18900546 0.17264065 0.32195747 0.047090974 -0.06988704 0.1985546 0.24054207
-0.18496063 -0.06444956 -0.15211113 0.1274524 0.003236919 0.20516153 -0.102520145 -0.05075921

l2/W f4 [256, 256]
00000000: 46fb dfbc d4ba fdbd 7f4a 56bd ef4e 313e
00000010: b332 ff39 0e78 b3bc 003a 603d 92b8 97bc
00000020: cfc7 c33d ab79 51be a9d9 37bd 30d7 973d
00000030: 26a3 70bd 5f55 0e3e eee1 7ebd ff35 e93d
00000040: 3919 483e e37f 183e c0cb 03be 15af 35bd
00000050: 77cf ff3c 19a5 af3d be03 97be 341d 133d
00000060: 0f13 123e 3a92 c2bd 93f7 02bd b433 0abe
00000070: c448 d73d d430 57bb 9efe 6d3d 1707 12be
00000080: dfac f8bd 1854 a3b9 533b 80bd 9db0 94bd
00000090: a61b bfbc 3ee5 0ebd f868 87bd 8f04 d2bd
000000a0: 15f7 e9bb 62d2 0a3e c072 25bb 2202 cdbd
000000b0: 5542 083e a656 84bb f6fe b13d fd36 0bba
000000c0: 33cf b1bb 262d 3f3d 832d c9bd 63cc 9d3d
000000d0: ae16 173e a95b 033c ead8 f43d a292 7a3d
000000e0: 8ab7 61bd 3271 e93d 6e66 92bd 23d6 d6bd
000000f0: b1b9 61bc 8cd4 c13c f87a 12bc f223 813d
00000100: 51fe 603d 08f5 9fbd 1d32 8a3e 5673 6b3d
00000110: b298 453d da19 0bbe 9cc1 d9bd 39e4 3d3e
00000120: 3444 46bd 8d0f 12be 119c 843e 269d 2dbc
00000130: 5a44 253d e9f9 a4bc 5e0f 3f3e 5ec8 05bc
00000140: 5fd2 7cbc 7f34 c7bc ecff 09bd 5f37 a7bd
00000150: c74c 09bd 8159 8e3d 034b db3c 9ba3 173e
00000160: 144d 0cbd dfcd 093e 32fb 8fbe b4e0 783c
00000170: 7762 0e3d 150e 54bd bd0d 2fbe 4938 32be
00000180: d6a7 263b c54d 4fbd 61ac 023d 89c7 243e
00000190: b383 dc3c 6a45 9abe 817b 873d a2a4 10be
000001a0: a26b 4bbc 0214 213d b71b 1a3e 7b57 0b3d
000001b0: 85f6 113e 8422 a93d 3730 ac3c 8200 18be
000001c0: ff1d 5c3d 5ee1 f43d 6116 5c3d b352 2e3e
000001d0: b985 063e 9850 813c f3b4 74bd 71f1 fdbd
000001e0: d3e7 ba3d 9abb 8a3d d0ba debd 7647 a33c
000001f0: b45f 8cbd e8b3 2cbe 933d 2a3d c72b 5d3e
00000200: 62f3 bebd 49ef 41bb 6898 64bd 7752 b53d
00000210: 361b 8cbe abb3 543d 8af0 89bc ea46 9fbd
00000220: 19f5 043e f2ca ddbc be61 043e f93c 8aba
00000230: 00e5 cf3d 63ad 2d3e 6921 273e 4c53 2cbe
00000240: 62da 0dbe 6d74 c9bc 3e0a bfbd 2d6a 893c
00000250: a33c 5bbd 9e36 fabd 9dba 353b 4206 16be
00000260: 302b 773c dee0 c1bc 0f6a 1c3e 7e13 223d
00000270: 9965 bebd 3dad 033d 29f5 b6bc ea6b 6dbd
00000280: 74e6 3ebe 386d d43d b10b 96bc 193e e9bd
00000290: 86c1 fc3a c736 3f3c ac6d b9bc 01ff 8bbd
000002a0: ca3c 22be 0578 333e c1bc 48bd ba82 8fbd
000002b0: ca3b 81bd 33a1 81bd 57d4 563d e185 68be
000002c0: 13bb 803b e9b3 55bc 9bff b43c 1ccb 45bc
000002d0: 95a0 3b3e 0964 163d 963f 793e 9a06 1fbe
000002e0: 4c57 0bbe 5e08 c23c f0d2 bfbc 7fcd fe39
000002f0: 4b84 313d 278e 2e3e b90a fabb 3cd8 1cbc
00000300: 10cc 0ebd d49c 2b3b 9e49 a13d 8aff 80be
00000310: 2dd5 a7bd e1d3 7b3d 34f5 74bd d148 4abd
00000320: 3fcc d3bc 347c f13d 2603 053e 743d 653e
00000330: 80c2 753c cb42 e83d f425 09be d894 fdba
00000340: 99f3 e3bd 48c5 d8bd fba7 433e 4aa7 863d
00000350: e1ad 49bc 7538 323d ec7f 0bbe 3f87 40be
00000360: 799f 09bd dd7b 1c3e d745 8c3c 00cc 9ebd
00000370: 1d19 67bd 4315 0b3e 1b48 2a3d 28df 9d3d
00000380: 494e 55be 2596 d53d 02ac ad3c 8819 4dbd
00000390: c1e2 13be b1f1 66be 11d9 8a3d c0a8 72bd
000003a0: f577 133d b435 c73d 3c13 563e 0d28 263d
000003b0: ab3c 8fbd 6ba8 00be 8fd0 e0bb 269d 4a3d
000003c0: 9086 a8bd c7d8 4cbd 543f f5bc f1b4 113e
000003d0: b03b b23c a534 c83b 919b ad3d f0f9 d4bd
000003e0: 47d0 003e 2537 06be b8b2 12be 9caa b1bd
000003f0: 4a6e 7e3c 03f9 0ebe 4d40 1bbe 6e77 6c3d
-0.027341496 -0.1238915 -0.05231714 0.17315267 0.00048675164 -0.021907832 0.054742813 -0.018520627
0.09559595 -0.20456569 -0.04488531 0.07414091 -0.05874934 0.13899754 -0.062227182 0.11387252
0.19540872 0.14892535 -0.12870693 -0.044356424 0.031226857 0.08576412 -0.29495043 0.035916522
0.14265083 -0.09500547 -0.031974386 -0.13496286 0.10511926 -0.00328355 0.05810415 -0.14260517
-0.121423475 -0.00031152437 -0.06261315 -0.07260249 -0.023328613 -0.03488659 -0.06611818 -0.10254776
-0.00714005 0.13556817 -0.0025245398 -0.100101724 0.13306554 -0.0040386496 0.08691208 -0.0005310623
-0.0054263114 0.046673916 -0.09823134 0.07704999 0.14754745 0.008017459 0.119554356 0.061174996
-0.055106677 0.113985434 -0.07148443 -0.10490062 -0.013777182 0.02366092 -0.008940451 0.06305684
0.054930035 -0.07810408 0.26991358 0.05748304 0.048241325 -0.1358408 -0.10632631 0.18544091
-0.048404887 -0.14263745 0.2590032 -0.010596549 0.04034839 -0.020138698 0.18658206 -0.008165447
-0.015431016 -0.024317024 -0.03369133 -0.08164858 -0.033520486 0.06950665 0.026769167 0.14808504
-0.034253195 0.1345744 -0.28121334 0.015190292 0.034761872 -0.051771242 -0.17095084 -0.17404284
0.0025429628 -0.050611276 0.031902675 0.16091742 0.026918268 -0.30131084 0.066153534 -0.14125302
-0.012415798 0.03932572 0.15049635 0.034018975 0.14254196 0.082585365 0.021019084 -0.14843944
0.053739544 0.11957048 0.05373228 0.17023735 0.13136949 0.0157855 -0.05974288 -0.12399567
0.09126248 0.067740634 -0.108754754 0.019931536 -0.068541914 -0.16865504 0.041562628 0.21598731
-0.09323765 -0.0029592088 -0.05580941 0.088536195 -0.2736451 0.051929157 -0.01683833 -0.07777198
0.12984122 -0.02707431 0.1292791 -0.0010546736 0.101511 0.16960673 0.16321339 -0.1682865
-0.13852838 -0.024591649 -0.093281254 0.016774261 -0.053524625 -0.12217449 0.0027729638 -0.14650825
0.01508598 -0.023666795 0.15274833 0.03956937 -0.09296722 0.032147635 -0.022333698 -0.057964243
-0.18642598 0.10372394 -0.018316122 -0.11388797 0.0019283749 0.011670775 -0.022635303 -0.068357475
-0.15843502 0.17526253 -0.049008135 -0.07007356 -0.06310232 -0.063295744 0.052448597 -0.22707321
0.003928551 -0.013043382 0.022094538 -0.012072351 0.18322976 0.036716495 0.24340662 -0.15529862
-0.1360752 0.02368563 -0.023416013 0.00048599762 0.043339055 0.17046414 -0.007630673 -0.009573039
-0.034862578 0.0026186006 0.078753695 -0.2519496 -0.08194957 0.06148136 -0.059804156 -0.04938585
-0.025854228 0.11791268 0.12989482 0.22386724 0.014999986 0.11340865 -0.13393384 -0.0019346727
-0.11130447 -0.105845034 0.19107048 0.065748766 -0.012309522 0.043510873 -0.13623017 -0.18801592
-0.03359935 0.15281625 0.017123146 -0.07753754 -0.056420434 0.1358233 0.04157267 0.07708579
-0.20830645 0.104290284 0.021200184 -0.050073177 -0.14441969 -0.22553135 0.067796834 -0.059242964
0.03600307 0.0972704 0.20905775 0.04056554 -0.06993993 -0.12564246 -0.0068607996 0.049466275
-0.08228791 -0.050011422 -0.029937424 0.1422918 0.021756977 0.0061097913 0.084769376 -0.10399234
0.12579452 -0.13106973 -0.14325988 -0.08675119 0.015529225 -0.13962178 -0.15161248 0.057731085

l1/b f4 [256]
00000000: 8c08 60bd 8960 e9bd f7aa bd3c 5858 88bd
00000010: e663 f33c 1106 7d3c cd1d f1bd 39dd 063c
00000020: 4003 3b3a 2a4a 36be a576 4b3e c88f 193e
00000030: 8e35 19be 0fce 673c 9747 35be ba8d 60bc
00000040: 0577 3fbd 33ca 943d 82e5 2a3b 2d4c ccbc
00000050: 078a b5be cfa4 b03d 1ce1 b9bd 4966 bdbd
00000060: fa79 b8bd 596f 3a3d 6896 2a3d 205d 9f3d
00000070: 0000 0000 1c4d 18bc a527 1a3d 8b35 06bc
00000080: 1860 58be db73 713d cbec 43be 9c4c dabb
00000090: 91d8 0ebd 22f9 9b3c 9637 4e3d 98e6 72bb
000000a0: c797 703d 6118 303c 02ed 7fbe 5c0a d3bd
000000b0: 3432 8e3d 6d57 d1bd 3567 373d e34f 893b
000000c0: 8e4c b83c a5e5 b23d 862f 18bb 522c a23d
000000d0: 6483 c7be 55d1 6c3d e088 b0bd 56f6 373c
000000e0: f896 17be d97f 683d 7cd8 543a 0b51 7fbd
000000f0: 97f9 ddbd a2a5 8d3d aa97 903d d867 203d
00000100: 310d f83c c763 5b3c 381e 1bbb 9453 6b3b
00000110: 4102 1dbd 834f fa3c 0e74 ea3c 390a b0bd
00000120: 33b1 0cbd 2c11 b13d 378f 91bd decb 413d
00000130: 3171 aabd ca47 33bd a5e8 eabc 7249 e9bd
00000140: 96b9 bf3d 0d6d 993d 8ccd 7fbe 22d2 ef3c
00000150: 1c83 f03c b20d c93d cccb 65bd 88e2 1f3d
00000160: ac41 adbd fe39 70be 9596 8bbe afb5 9e3d
00000170: 6bdd 61bd d916 bc3d 24af 30bd afa8 14bc
00000180: ca13 37be 3808 42bd e8cf 4c3c 730e 583d
00000190: 9d86 503d 8305 403c 82e6 ee3c 76aa ac3d
000001a0: 2bd2 8bbd ed0e 793c ed8a fb3d 8515 273d
000001b0: 6335 8c3d 6b29 b1bc faba 26bc 6aab eebd
000001c0: e797 cc3d 60a6 233d 90b1 93be fca0 ecba
000001d0: f98c ed3d d976 13bd cc94 c83b 20cf 50be
000001e0: 2d9b e3bb 3b65 c83d 5d6e 313d 347a 333d
000001f0: 6031 69bc 47b8 0ebd 930e 953d e6fa fb3d
00000200: f014 2a3d 2127 543d 437e f0bd 5ea1 e03d
00000210: 2aa8 75be 9b25 623d f13b 183d df33 18be
00000220: 7cb2 1aba d916 cbbc a3ea bfbd 8182 413d
00000230: 0ea5 dd3c 74b7 a83d 692e 933d e2d1 9f3d
00000240: 1495 bb3a eb00 8f3d ac71 6c3d d057 4dbe
00000250: dded 863d 21c0 c43d 2980 08be 03b0 dbbd
00000260: 8d2e 8f3c 0fd0 a0be fae5 943d 85df 17bd
00000270: 4c36 123e 0662 bfbd 1bc0 093e 7bd0 1d3d
00000280: 6e15 45bb 94ce 383d 8d5e 9f3d 446a d3bc
00000290: b89c 7abd 4c40 66be 3264 ad3d 95cc e93d
000002a0: bc91 59bd 8cf2 4fbd 1bef af3d b8c4 24be
000002b0: da35 c43c 6e68 b93c 38c3 603c f640 3cbe
000002c0: 19bf 9dbe a634 1c3d 659e 8a3d 2e54 a1bd
000002d0: 81cb 0c3e 9900 57be df68 60be 1f6d 70bd
000002e0: 5792 90bd 74b7 79be cdb2 29be b8a7 1b3c
000002f0: da63 9bba eea0 753d 1552 873d 4cf3 83be
00000300: e930 933c c47a b6b9 d268 37ba a25a 343d
00000310: b56a 433e 4f8b afbd 649c b2bc 9638 c53d
00000320: 2520 1fbe 118c 963d 888c 6e3d 2200 653d
00000330: e587 c73d 7596 183e 0717 ba3c ae22 e73d
00000340: 1b20 a5ba 9aa4 b13d d29b 3dbe ba06 b03d
00000350: 7846 b33d b4d2 193d e87f 86be 9129 a63d
00000360: 26ae 70bd e23b 7f39 b972 983d 90ee 28bc
00000370: 02ca 8fbe ede6 053d 2372 753d d4e9 863d
00000380: 5fb6 ac3d 3f18 013c e8eb 08be 14ae 0ebc
00000390: 54e1 a2bd bae4 5c3d aaad f43d 966a 253d
000003a0: 5699 7abd 798f 48be 8122 de3c 7dc3 be3b
000003b0: 2eff 93bd 5f60 123d 91f2 adbd d12d 51bc
000003c0: c8f0 ad3d 2963 41be 5254 ecb9 7c48 933d
000003d0: 9d64 b4bd 633f 553d c306 12be b58e 21bd
000003e0: c171 393d d83f a53d d482 4dbd 195f dc3a
000003f0: efcd 9abe ad76 8dbe b9d3 afbd 547c 23be
-0.05469565 -0.11395366 0.023152811 -0.06657475 0.029710721 0.015443341 -0.11773262 0.0082314545
0.0007133968 -0.17801729 0.19869478 0.14996254 -0.14961836 0.014148249 -0.1770309 -0.013705665
-0.046744365 0.07265129 0.0026076739 -0.024938667 -0.3545687 0.08625185 -0.09076139 -0.09248025
-0.0900764 0.045516346 0.041647345 0.07781434 0.0 -0.009295728 0.037635464 -0.008191477
-0.21130407 0.05894838 -0.19133298 -0.0066619646 -0.034874503 0.019039694 0.05034598 -0.0037063714
0.058738496 0.010748 -0.24992755 -0.1030471 0.06943169 -0.10221753 0.04477616 0.0041904314
0.022497442 0.087352075 -0.0023221686 0.0791861 -0.3896743 0.057816822 -0.08619857 0.011228165
-0.14803684 0.05676255 0.0008119417 -0.062333148 -0.10838621 0.069163576 0.070601776 0.039161533
0.030279728 0.013390488 -0.0023669135 0.003590797 -0.038332228 0.030555492 0.028619792 -0.085957
-0.034348678 0.086458534 -0.07107394 0.047313564 -0.08322371 -0.043769635 -0.028675387 -0.11390962
0.093615696 0.07491503 -0.24980754 0.029275004 0.029359393 0.09817065 -0.05610256 0.039034396
-0.084597915 -0.23459622 -0.27263322 0.07749497 -0.0551428 0.09184045 -0.043135777 -0.00907342
-0.17878643 -0.04737112 0.012500741 0.052748155 0.050909627 0.011720064 0.029162649 0.0843095
-0.06827196 0.0152013125 0.12282357 0.040792007 0.0684612 -0.021626195 -0.010176415 -0.116537884
0.099899106 0.03995359 -0.28846407 -0.0018053348 0.11599154 -0.036002014 0.0061212536 -0.20391512
-0.0069459886 0.09784933 0.04331814 0.043817714 -0.014232963 -0.03484371 0.072781704 0.123037145
0.041523874 0.05179513 -0.117428325 0.10968278 -0.23989931 0.055211645 0.03716654 -0.14863537
-0.000590123 -0.024791168 -0.09370925 0.0472436 0.027056243 0.08238116 0.071865864 0.07803704
0.0014311397 0.06982597 0.057725593 -0.20053029 0.065883376 0.09606958 -0.13330139 -0.10726931
0.017478252 -0.31408736 0.07270427 -0.0370784 0.14278525 -0.09344868 0.13452189 0.0385289
-0.0030072588 0.045118883 0.07781706 -0.025807507 -0.061184615 -0.22485465 0.08466376 0.11415974
-0.0531175 -0.05076842 0.085905276 -0.16090667 0.02395146 0.022632804 0.013718419 -0.18384156
-0.30809858 0.038136147 0.067684926 -0.07877384 0.13749506 -0.20996322 -0.21915005 -0.058697816
-0.07059162 -0.24386388 -0.16572113 0.0095004365 -0.001185532 0.059967928 0.06607453 -0.25771558
0.017967658 -0.00034805213 -0.00069965154 0.044031747 0.19083674 -0.08571493 -0.021803088 0.096299335
-0.15539606 0.07350934 0.05823949 0.05590833 0.09742717 0.14901145 0.022716058 0.112859115
-0.0012598069 0.086739734 -0.18516472 0.08595033 0.08753675 0.037554458 -0.2626946 0.08113397
-0.05875983 0.00024341003 0.074437566 -0.010310784 -0.28083807 0.03269093 0.059923302 0.06587568
0.08433222 0.007879316 -0.13371241 -0.008708496 -0.07953134 0.05392907 0.11947186 0.04038485
-0.06118139 -0.1958598 0.027116062 0.005821644 -0.07226406 0.035736438 -0.084935315 -0.012767271
0.08493191 -0.18885483 -0.0004507625 0.0719156 -0.08808253 0.052062403 -0.14260392 -0.039442737
0.0452745 0.08068818 -0.050173596 0.0016813009 -0.3023524 -0.27629605 -0.08585305 -0.15965396

l3/b f4 [256]
00000000: 06c8 ea3d f525 1a3b e424 7dbc 5ece 82bd
00000010: b0b0 65bd 0f90 da3c d981 81bc 20a7 00bd
00000020: 9c8e 3ebd bfd6 9e3a ad65 babb 7a4b cbbc
00000030: e0e9 9b3d a5df 82bd 51ab fe3c f81c 513d
00000040: 5ecc d9bc 25f1 96bd b23f 703c 2507 223d
00000050: e356 213d 9695 89bd 41e8 29bd eb8c b6bb
00000060: 73c6 243d 0398 243d 78d4 583d 8587 85bd
00000070: 7760 213d 3d71 b4bc 595f 443d 60fc 96bc
00000080: 6a91 09bc d99f 96bd 89a6 84bd 9bc4 243c
00000090: 4274 90bd 26fd 5c3d c233 e5bb 81b3 d0bd
000000a0: d841 8f3d 8670 b43d ac24 363c 59fe 253d
000000b0: 16b7 09bd b580 bebc fc6f 05bd 8725 8fbc
000000c0: 8d26 873d 3f85 8dbd 6fea efba ff66 893d
000000d0: df3f 8fbc f683 ac3d ad98 03bc 40ae 3a3c
000000e0: 8a80 253a 1ba7 6a3c 67a2 a93c f62c 8abd
000000f0: 7882 7f3c 100f 263d 2aeb 24bd 5d11 81bd
00000100: 6f13 35bd ec28 143d 665c 51bd acd5 16bd
00000110: adbd febc da26 c23d 6b90 883d cad9 e0bc
00000120: 3d38 27bd 99f2 b3bc 46c6 8bbd be41 ee3c
00000130: 26fd abbc bbab f33c 0560 163d e14a cdbb
00000140: 36e4 433d ead8 2abd 5bd4 813d 0a5f 94bd
00000150: dd81 673b b211 0e3d 00b9 58bc 05d5 643c
00000160: da16 a2bc 4d53 36bd d9c3 94bd 666c 803b
00000170: b588 a43d be2a 03bd 9f16 7a3d 1ef0 c3bc
00000180: 4c08 5cbc 0d0a 373c a060 263c a068 6bbc
00000190: d2ac c63b fa7b cdbc 6559 6fbd 4836 0dbd
000001a0: eea0 b5bc 79de 38bd d195 f2bc 9ce3 1ebc
000001b0: c0de 4b3c 906e 8e3b 9e5b b5bc 98db 1b3d
000001c0: 29c4 69bd f1a8 20bd 089b acbc 3d7c efbc
000001d0: 8572 46bc b9a1 14bd d266 67bc cd4f c9bb
000001e0: 48b8 10bc a71e beba 2cfd 7a3d c1cf 15bc
000001f0: dfaa b13c d187 c53c e43d eebc b744 1abd
00000200: dc5c 73bc c269 a7bb 1c38 553d 5d10 543d
00000210: 9af1 c3bc 5061 573d b100 81bd a316 9e3d
00000220: 6e50 c33b 4853 8ebc d684 6f3d b6d0 183d
00000230: 097c 743c 8978 babc 447a 173c abda 103d
00000240: ab1b 39bc e2b8 243a e921 b83b 2ba6 2abd
00000250: ebeb 53bc e696 d93c 0637 b639 f6db 2bbc
00000260: 4e4e 4d3c e05b 103d a949 45ba caa6 23bd
00000270: cbab d4bd b766 25bc c35e f63c 8915 09bd
00000280: 6a6e cfbc 36a2 cfbc 8d60 b9bc 2a0d 03bd
00000290: 33a1 58bd 9982 25bc 8bfc 97bc 84dc 233c
000002a0: ae2e 1f3d fcfd 11bd ddcf 0abc bf03 dfbc
000002b0: 8f12 0fbd b961 19bc 7cfb 4fbd 3008 ebbc
000002c0: 269a 7e3d 098d 01bc 1f34 27bd 91f9 77bc
000002d0: 6a78 87bd 1c25 c23a cea8 16bd 5ec5 5fbb
000002e0: 775e 3abd 4473 5139 4ba1 9a39 5615 71bd
000002f0: baf5 8ebc bf94 72bc 989b e53c 2f87 f3bc
00000300: d119 353d ffc1 583d 31e5 2e3b 055d c3bc
00000310: 9663 0bbc a824 0fbd a8fd 09bd 3fa2 aabc
00000320: 82ee 8bbc bec0 483b d1c8 60bc 51f8 9ebc
00000330: 1abb 853c f3d5 873d b982 18bc 8920 943b
00000340: f878 4e3d e92b 843c fac3 a6bc 8ab0 ffbc
00000350: a97d 773d b6e2 cebc 0445 2dbd f48e 373c
00000360: b9b9 2abd b249 a73c e855 14bc ac58 a1bd
00000370: c8b5 973b 6b7c d0bc 130c 62bd c819 cb3c
00000380: 8866 86bc 46f1 75bd 193e 8a3d 6545 6fbd
00000390: a489 52bc 2f0c 553c aa0f e1bc 63a7 2c3d
000003a0: 505b 593d 62ee b2bd f713 253d eb41 5a3d
000003b0: 2415 adbc fd21 dfbc 5ef5 98bd a11d 03bd
000003c0: 9bc9 3dbc 4f42 3abb 412a 593d 7c45 803d
000003d0: fe16 be3d e32b 95bd 70ca 0d3d 84eb f43c
000003e0: 7b81 65bc fc02 7eba beae 1b3c 3225 533c
000003f0: dbd9 29bb 68ad 533d bd13 71bd d503 8a3c
0.11463933 0.002352116 -0.01545069 -0.06387018 -0.056076705 0.02668002 -0.015808986 -0.031409383
-0.04652272 0.0012118443 -0.00568839 -0.024816263 0.076129675 -0.06390313 0.03108755 0.051053017
-0.026586708 -0.073702134 0.014663624 0.039557595 0.039389502 -0.067179844 -0.04148126 -0.005570998
0.04022832 0.040184032 0.052937 -0.06519989 0.039398637 -0.022026652 0.047942493 -0.018430889
-0.008396486 -0.07354707 -0.064770766 0.01005664 -0.070534244 0.05395236 -0.0069946954 -0.10190488
0.069949806 0.08810525 0.011117142 0.040525768 -0.03362187 -0.023254732 -0.0325775 -0.01747395
0.0659915 -0.0691018 -0.001830412 0.06709098 -0.01748651 0.08423607 -0.008032006 0.0113940835
0.00063134043 0.014322068 0.020707322 -0.06746857 0.015595071 0.04054171 -0.040263332 -0.0630214
-0.044207986 0.03617184 -0.05111351 -0.036824867 -0.031096304 0.094800666 0.066681705 -0.0274476
-0.040825117 -0.021966266 -0.06824927 0.029084083 -0.020994734 0.029744973 0.036712665 -0.00626503
0.04782506 -0.04171077 0.06339332 -0.0724469 0.0035325207 0.034684844 -0.013227701 0.013966803
-0.019786287 -0.044513036 -0.072639175 0.003919172 0.08033887 -0.032023184 0.06105673 -0.023918208
-0.0134297125 0.01117183 0.010154873 -0.014368206 0.0060630823 -0.02508353 -0.058434863 -0.034475595
-0.022171464 -0.04513404 -0.029612454 -0.009697821 0.012443244 0.004346676 -0.022138413 0.038051218
-0.05707184 -0.039223615 -0.021070018 -0.029234046 -0.0121122645 -0.036287043 -0.014123635 -0.006143546
-0.008832999 -0.0014504985 0.0612766 -0.009143771 0.021687923 0.024112614 -0.029082246 -0.037663188
-0.014853682 -0.005109043 0.052055463 0.051773418 -0.023918916 0.05258304 -0.0629896 0.07719161
0.0059605157 -0.017373696 0.05847629 0.037308417 0.01492215 -0.022762554 0.009245459 0.035364788
-0.0112981 0.0006283653 0.005619277 -0.041662376 -0.012934665 0.026561212 0.0003475474 -0.0104894545
0.012530876 0.03524387 -0.000752593 -0.039953984 -0.103843294 -0.01009529 0.030074483 -0.033467803
-0.025321204 -0.025345903 -0.022629047 -0.031994976 -0.052888107 -0.010101938 -0.018553039 0.0100013055
0.038862877 -0.03564261 -0.00847241 -0.027223466 -0.03492981 -0.009361678 -0.050776944 -0.028690428
0.062158726 -0.007907161 -0.04082119 -0.015135185 -0.06614764 0.0014812085 -0.03678208 -0.003414474
-0.045500245 0.00019974733 0.00029493342 -0.05885824 -0.017451156 -0.014805972 0.028028294 -0.029727546
0.044214074 0.052919384 0.0026686902 -0.023848066 -0.00850763 -0.034947067 -0.03368917 -0.020829318
-0.017081503 0.0030632461 -0.013719753 -0.019405516 0.016324569 0.066326044 -0.00930851 0.00452048
0.050408334 0.01613422 -0.02035712 -0.03121211 0.060422573 -0.025254589 -0.042302147 0.011203516
-0.041681025 0.020420883 -0.009053685 -0.07878241 0.0046298243 -0.025449952 -0.055187296 0.024792567
-0.016406313 -0.06004455 0.067501254 -0.05841579 -0.012850199 0.013003393 -0.02747329 0.04215182
0.053065598 -0.08736874 0.040302243 0.05328552 -0.021128245 -0.027237887 -0.07468675 -0.03201068
-0.011583711 -0.002842087 0.053018812 0.06263253 0.09281729 -0.07283761 0.034616888 0.029897459
-0.014007921 -0.0009689776 0.009502111 0.012887286 -0.0025917205 0.051679045 -0.058856715 0.01684753

l4/b f4 [16]
00000000: 0b27 93bd c49e f4bd c4a2 16bd 7898 b8bb
00000010: 04b5 5abd 659f 03be 680b 1abe 1ee2 8ebd
00000020: b4b3 6fbd a377 05be 1a3b f3bd 0242 64bd
00000030: 2aac 5eba 1be9 053d 9179 cb3b 10da 2cbd
-0.07185181 -0.11944345 -0.03677632 -0.00563341 -0.053395286 -0.12853773 -0.15043414 -0.06976722
-0.058520988 -0.13033919 -0.11876507 -0.055727012 -0.00084942824 0.03269301 0.00620956 -0.042200148
