examples/ch4/lifting_DQN/final_agent_pingpong/target_model.npz (npz, 12161 bytes, 6 tensors)

l0/W f4 [50, 5]
0.26489186 0.3296151 0.29490682 2.5139265 -1.3280857 -0.2577256 0.1495561 -1.4460487
-0.4095721 2.1330216 -2.4423692 -0.25821704 1.714443 -1.7353348 0.21627623 1.182551
0.6952757 -0.22547914 -0.7915015 0.1225046 0.84428173 0.44438735 0.1256314 -0.5925345
-0.32097435 0.11959913 -0.060358226 -0.1231127 -0.18739715 -0.7182404 0.673875 0.09856329
0.8057215 -0.39466047 1.2002202 0.8276078 0.28224477 -3.091804 -0.08357073 0.8857015
0.8273784 -0.4024253 1.6549 1.1314803 0.25580552 -1.1597885 0.009965939 1.157745
-0.529596 0.51065224 0.65398383 0.11403329 -0.5435306 -7.1451035 -0.3300302 0.45506614
0.48492235 2.294736 -1.0635414 -0.12569201 1.5913814 0.45220304 -1.1776679 0.14032999
-0.46734884 -0.28649616 0.053229745 -0.9693072 0.16381426 -1.0846671 1.3407277 0.084953256
-0.4992109 0.77166545 -1.0502849 -1.461999 -0.46669912 1.0566343 1.899565 0.40677136
0.7009254 -0.03580261 -0.089634456 0.25797176 0.15280867 -0.10050164 -0.38419825 -0.60194176
1.0644512 0.28827906 -0.50391316 0.47921035 1.1110076 0.26019305 0.3686151 -0.6799759
-0.33550975 -1.0751176 -0.16445243 -0.38681686 -1.0540653 -0.10760926 -2.491326 1.3268509
2.2225058 1.2946969 -0.13398518 3.896772 -2.253193 -1.225601 2.1301954 0.021759111
-1.7622657 -2.4801314 0.23754841 0.38237837 -0.9996885 -0.124997064 0.5836096 -0.08836169
-0.7449074 0.7276662 1.042381 0.30276135 -0.34457183 0.24731989 0.054520495 0.4633666
0.8874533 0.73764485 -0.9948335 -0.980493 0.41192216 0.53932893 -0.124859735 -0.54252136
0.3977904 -0.33021626 0.5903498 -0.37827802 -1.9573318 -0.18047985 0.49531132 -0.30536646
0.71902996 -0.948982 0.5228383 0.57577085 -3.201686 -0.7467828 1.3117827 -0.33946207
-0.82764506 1.414872 -0.24399023 -0.13216835 0.24891968 -2.5901306 1.507926 -0.5093201
0.045496307 0.012369469 -3.5004117 0.29346365 0.30021405 0.7237571 -0.20121127 1.2899733
0.733829 -1.3202043 -2.447504 -0.42063576 2.0810254 -0.24841551 0.32908878 -1.5524194
-0.16887417 0.64816666 -0.591591 -0.46351886 -1.6730338 -0.1970268 0.019693652 -0.28137746
-0.49617636 -0.6887174 -0.67927605 0.9983346 -1.1369435 0.7001567 -0.40016356 -0.093178175
-2.7433372 0.5997377 -1.4457083 -0.44873285 -0.47080868 0.61174804 0.14805524 -1.0574353
1.1146266 0.30001247 0.5022504 0.7523482 0.25633195 0.14116687 -0.10910476 -1.1488886
1.5020536 0.15604293 2.3414073 0.38212836 -2.7861679 0.5015726 -0.43738404 -1.3282989
-0.24022034 1.7982442 0.3074159 0.19955009 1.0353907 0.32107297 -2.735592 -0.75655866
-0.76353556 1.9599985 0.20429336 -2.2248693 -0.6732272 -0.47020957 -0.19957623 0.082201116
-1.2197753 -0.75774723 -0.9386977 -1.4663093 -0.21273519 1.9200021 2.2912688 0.4145309
0.80472755 0.5315585 -1.4115224 1.1618106 -1.2008051 -0.3842573 -0.15392457 -0.5847317
0.4376493 -0.7250855
00000000: e89f 873e 4fc3 a83e 07fe 963e 2ce4 2040
00000010: b6fe a9bf 9cf4 83be 3c25 193e 2018 b9bf
00000020: 6fb3 d1be 6d83 0840 c74f 1cc0 0635 84be
00000030: de72 db3f 731f debf 8477 5d3e d55d 973f
00000040: 97fd 313f 01e4 66be d89f 4abf b1e3 fa3d
00000050: d922 583f bd86 e33e 85a5 003e 57b0 17bf
00000060: c056 a4be 63f0 f43d 303a 77bd 8322 fcbd
00000070: 0ae5 3fbe 9ade 37bf 1283 2c3f 8ddb c93d
00000080: c443 4e3f f010 cabe d1a0 993f 1bde 533f
00000090: 6382 903e 1ee0 45c0 2227 abbd 55bd 623f
000000a0: 12cf 533f b00a cebe c3d3 d33f 59d4 903f
000000b0: f1f8 823e f373 94bf 2e48 233c fd30 943f
000000c0: 9a93 07bf 1bba 023f 7c6b 273f 498a e93d
000000d0: d224 0bbf b0a4 e4c0 b8f9 a8be 6efe e83e
000000e0: be47 f83e f4dc 1240 2022 88bf 68b5 00be
000000f0: 63b2 cb3f 2887 e73e d2bd 96bf aab2 0f3e
00000100: 5948 efbe a0af 92be 6f07 5a3d 8424 78bf
00000110: edbe 273e 5fd6 8abf f79c ab3f f9fb ad3d
00000120: 9298 ffbe de8b 453f bc6f 86bf c922 bbbf
00000130: 30f3 eebe cb3f 873f f224 f33f 5644 d03e
00000140: d96f 333f c2a5 12bd 4592 b7bd e014 843e
00000150: e079 1c3e ced3 cdbd a2b5 c4be db18 1abf
00000160: f03f 883f 5099 933e 7400 01bf 0f5b f53e
00000170: 7f35 8e3f 0638 853e 1ebb bc3e e712 2ebf
00000180: efc7 abbe 749d 89bf 3866 28be dc0c c6be
00000190: 9deb 86bf 3e62 dcbd e371 1fc0 40d6 a93f
000001a0: 893d 0e40 a1b8 a53f 6933 09be b664 7940
000001b0: 5034 10c0 7ee0 9cbf 1f55 0840 2a40 b23c
000001c0: ec91 e1bf 79ba 1ec0 e43f 733e 19c7 c33e
000001d0: 96eb 7fbf 76fe ffbd 7067 153f f9f6 b4bd
000001e0: 40b2 3ebf 5548 3a3f be6c 853f 8903 9b3e
000001f0: b86b b0be 6d41 7d3e e250 5f3d 633e ed3e
00000200: 2430 633f 4bd6 3c3f 69ad 7ebf 9701 7bbf
00000210: 76e7 d23e 7611 0a3f 76b6 ffbd aee2 0abf
00000220: 2fab cb3e 1b12 a9be 2a21 173f a8ad c1be
00000230: d989 fabf b6cf 38be 7299 fd3e fe58 9cbe
00000240: 5912 383f 7cf0 72bf bbd8 053f b865 133f
00000250: 6ce8 4cc0 282d 3fbf 7fe8 a73f f9cd adbe
00000260: 8ce0 53bf 871a b53f 93d8 79be 2457 07be
00000270: cde4 7e3e b3c4 25c0 b803 c13f cd62 02bf
00000280: 565a 3a3d 50a9 4a3c bf06 60c0 de40 963e
00000290: a8b5 993e 2548 393f 540a 4ebe d81d a53f
000002a0: 38dc 3b3f 74fc a8bf e8a3 1cc0 925d d7be
000002b0: 852f 0540 a360 7ebe 537e a83e aeb5 c6bf
000002c0: 5aed 2cbe 40ee 253f 8272 17bf 5852 edbe
000002d0: f925 d6bf 65c1 49be 9554 a13c b510 90be
000002e0: d40a febe c94f 30bf 09e5 2dbf db92 7f3f
000002f0: 5d87 91bf 783d 333f 3de2 ccbe 33d4 bebd
00000300: d692 2fc0 6988 193f f80c b9bf 50c0 e5be
00000310: d60d f1be 859b 1c3f cb9b 173e 0a5a 87bf
00000320: 16ac 8e3f 3c9b 993e 7b93 003f e499 403f
00000330: f13d 833e 0c8e 103e 5172 dfbd c80e 93bf
00000340: 4b43 c03f b8c9 1f3e 9ed9 1540 54a6 c33e
00000350: 9350 32c0 1067 003f cdf0 dfbe b305 aabf
00000360: 52fc 75be de2c e63f 9e65 9d3e dc56 4c3e
00000370: af87 843f ad63 a43e f013 2fc0 d4ad 41bf
00000380: 1177 43bf 3be1 fa3f 4732 513e 4264 0ec0
00000390: 9e58 2cbf 4fbf f0be b65d 4cbe 0f59 a83d
000003a0: 9921 9cbf b9fb 41bf 7e4e 70bf 06b0 bbbf
000003b0: 41d7 59be a1c2 f53f 26a4 1240 653d d43e
000003c0: a002 4e3f 3814 083f c4ac b4bf 36b6 943f
000003d0: fbb3 99bf 5fbd c4be 679e 1dbe fab0 15bf
000003e0: 9213 e03e 349f 39bf

l0/b f4 [50]
-0.92848366 1.090221 0.6682578 0.49226263 -1.1445138 -0.30644742 -1.2683387 1.8143125
-0.5916273 0.08871376 0.98265904 -1.7250152 0.3070179 1.3010541 -0.24563225 -0.018564433
-0.8642727 1.2905662 -0.9720861 -0.06624709 2.3288069 -1.0537509 -0.51082784 0.009527006
0.70406234 -1.8032752 -0.47380435 0.18401343 2.5981147 -0.0102050835 0.31939593 1.6793327
1.4081328 -0.5994358 -0.25239807 1.2278626 1.2331978 0.96294564 2.831365 -0.18161504
-2.4855437 1.7079499 0.6320498 -0.55834097 1.0958304 -0.686929 1.7483866 -0.9159802
0.26491475 0.7523974
00000000: 1bb1 6dbf 5d8c 8b3f f112 2b3f d909 fc3e
00000010: 6e7f 92bf ade6 9cbe ec58 a2bf 643b e83f
00000020: e374 17bf 8faf b53d 8b8f 7b3f 4ccd dcbf
00000030: 7331 9d3e f188 a63f 0587 7bbe 7014 98bc
00000040: fa40 5dbf 4631 a53f a2da 78bf 8eac 87bd
00000050: 2c0b 1540 4fe1 86bf 9dc5 02bf 2917 1c3c
00000060: 6e3d 343f b9d1 e6bf 7c96 f2be 046e 3c3e
00000070: 8347 2640 3933 27bc dd87 a33e 60f4 d63f
00000080: b23d b43f a074 19bf 523a 81be 9a2a 9d3f
00000090: 6dd9 9d3f 9b83 763f 1635 3540 4bf9 39be
000000a0: 2613 1fc0 1a9e da3f 04ce 213f 6fef 0ebf
000000b0: 2c44 8c3f 94da 2fbf 22cb df3f ae7d 6abf
000000c0: e8a2 873e 1e9d 403f

l2/W f4 [2, 50]
-0.17470133 -0.14858095 1.2803181 0.39106035 -0.22037774 0.74675715 -0.17444059 -1.3623936
0.5441501 -0.65457636 -0.17250085 -0.22943367 -0.4562129 0.35710037 -0.16815412 0.7513015
1.2134666 0.52011454 -0.18913208 0.5155405 -0.4392815 0.3417017 0.27223164 0.19615361
0.49236155 0.3689833 0.38347292 1.0494401 -0.51641494 -0.024275994 -0.10617913 -0.43678033
-0.009988105 0.079458684 -0.5858355 0.11894179 -0.54673684 0.11031894 0.1810466 -0.1663115
-0.25261602 0.00010215184 0.2584874 -0.39819664 0.6791201 -0.4239141 -0.0835609 0.49517182
0.28682598 0.24579431 -0.051743746 -0.20892055 1.6388488 0.5387347 -0.19602789 0.77956593
-0.083621934 -1.7860682 0.70617306 -0.6218589 0.06510312 -0.31370425 -0.526567 0.500275
-0.15772188 0.893826 1.4966848 0.74335223 -0.2263563 0.606755 -0.52986014 0.20171875
0.42681813 0.26974234 0.53458464 0.416783 0.4686765 1.2802427 -0.6502244 -0.007336124
-0.10108345 -0.46510118 0.22678411 0.10840068 -0.70226955 0.17207187 -0.6537809 0.21491249
0.25634512 -0.17391738 -0.24274264 -0.045033116 0.24145627 -0.47450346 0.681334 -0.41773137
0.05489633 0.600708 0.38604787 0.33049893
00000000: e8e4 32be 9b25 18be 77e1 a33f 1039 c83e
00000010: b4aa 61be 7a2b 3f3f 8ea0 32be ea62 aebf
00000020: 6c4d 0b3f 5192 27bf 10a4 30be a9f0 6abe
00000030: bd94 e9be dcd5 b63e 9830 2cbe 4c55 403f
00000040: e052 9b3f 3a26 053f d7ab 41be 76fa 033f
00000050: 81e9 e0be 86f3 ae3e f261 8b3e 7edc 483e
00000060: d016 fc3e 61eb bc3e 9056 c43e 0e54 863f
00000070: c533 04bf 73de c6bc 7274 d9bd aca1 dfbe
00000080: 26a5 23bc 3cbb a23d 51f9 15bf c197 f33d
00000090: f2f6 0bbf e5ee e13d 4864 393e 904d 2abe
000000a0: e356 81be 5a3a d638 7658 843e 6ee0 cbbe
000000b0: d1da 2d3f 450b d9be fa21 abbd 2987 fd3e
000000c0: dbda 923e 81b1 7b3e 40f1 53bd 45ef 55be
000000d0: ccc5 d13f 84ea 093f 89bb 48be a291 473f
000000e0: fa41 abbd e29d e4bf c2c7 343f 2532 1fbf
000000f0: c954 853d d89d a0be 18cd 06bf 0612 003f
00000100: d881 21be c8d1 643f 5e93 bf3f 554c 3e3f
00000110: f2c9 67be 4c54 1b3f eaa4 07bf 5c8f 4e3e
00000120: e887 da3e ab1b 8a3e 8ada 083f 9564 d53e
00000130: 5ef6 ef3e fede a33f 1b75 26bf de63 f0bb
00000140: d704 cfbd be21 eebe 183a 683e 2d01 de3d
00000150: f0c7 33bf 9c33 303e 2f5e 27bf 0512 5c3e
00000160: ab3f 833e 6617 32be 8791 78be a574 38bd
00000170: 5040 773e 1ef2 f2be e86b 2e3f e3e0 d5be
00000180: f9da 603d 00c8 193f 11a8 c53e 2837 a93e

l2/b f4 [2]
0.0434686 -0.07931988
00000000: 210c 323d 7672 a2bd

l1/W f4 [50, 50]
-0.18457317 -0.17261931 -0.13440898 -0.20886427 -0.16348453 -0.09866681 -0.017080197 0.03834368
-0.117989436 0.20579657 -0.1444552 -0.12539989 0.0029571822 -0.2950262 0.05664284 0.14005744
-0.13882303 0.0025830483 0.12868147 0.21817856 0.1389305 0.23823921 0.027505083 -0.029190639
-0.07821292 0.19803968 0.12869777 -0.28926134 -0.086541414 0.04217177 -0.014657401 -0.31460539
0.04999362 -0.3006473 0.20591569 -0.2694206 0.17505729 0.36098376 -0.17842211 -0.08354711
-0.10423336 0.14835891 0.094421275 0.23099025 0.063995495 -0.10605165 0.3318583 0.43310317
-0.2519461 0.033324715 -0.35113993 -0.037830524 -0.0040041045 -0.06605699 -0.120611526 -0.11321086
0.15757996 -0.399035 0.3833016 0.06150852 -0.09055362 0.31085035 0.19462869 -0.020409226
0.01928383 -0.17590974 -0.13083042 0.103916556 0.09351076 0.14821228 0.103468746 -0.1265587
0.0012422118 -0.32511294 0.13846608 -0.31603292 0.07799214 -0.15067878 0.11202038 -0.26436254
0.06078411 -0.12910695 0.08177015 -0.45218977 -0.10198758 -0.031881887 0.24608643 0.1438811
0.05321873 -0.20447132 -0.27953675 -0.13556747 -0.042238485 0.15246384 0.0061176843 -0.26098296
0.059998848 0.017157113 -0.10285396 -0.024003537 -0.30397287 -0.41265237 0.7681146 -0.47593305
-0.5699655 0.35405588 -1.0063186 0.98301494 -0.09868583 0.014858415 0.016332405 0.7571132
0.24865752 0.9468716 0.21197636 0.13444197 -0.31284362 0.41243726 -0.2636865 -0.07120066
1.8555404 2.1624053 -0.03206384 -0.08899036 0.09969535 -1.0175748 -0.0038891619 -0.23172508
0.7932602 0.080994844 -0.020266052 -1.0467423 -0.5977061 -0.64666945 0.67353064 0.4901388
0.46886295 0.29422212 -0.57954043 0.511024 -1.4053084 0.6835843 1.581468 -0.92310077
-0.25584656 0.60575664 1.1990849 -0.7380322 1.0197315 0.71121114 -0.0031280892 0.3645114
-0.6031115 -0.17617573 0.07824736 0.012292371 -0.037480507 -0.18755554 0.12595806 -0.1842258
-1.2760942 -0.12064473 -0.017236361 0.38276157 0.2599083 -0.05949531 -0.269535 0.2777075
-0.07280374 -0.22369058 -0.47903174 -0.123141855 -0.16172215 0.20041475 -0.24124037 -0.46793473
0.23893525 0.05218372 0.14796989 -0.24795897 0.23411949 -0.19624875 -0.18030374 -0.13589263
-0.14401263 0.037376303 -0.1721731 -0.4987294 -0.28095478 0.53489304 0.100734234 0.56056774
0.29592377 -0.31771016 -0.5803019 -0.22891298 0.17450354 -0.21867295 0.10251275 -0.016110444
-0.068620116 0.13343112 0.30930728 0.06722261 0.25595397 0.42536238 0.10256328 0.3265526
0.050384495 -0.15822259 -0.08448382 0.34938133 0.39421165 0.047766 0.15373708 -0.057199396
0.16743594 -0.032963455 -0.15602703 -0.13900708 0.08811042 1.0240911 0.12235616 0.014693216
0.008943086 0.14068249 -0.11673153 -0.20154028 -0.22288026 -0.015150743 0.31071874 -0.25137213
-0.4305323 -0.13689815 -0.43015888 -0.307745 -0.6635488 -0.75425476 -0.34033018 -0.19208989
0.07721384 0.05282167 -0.019751135 -0.3112485 -0.009644381 0.41257545 0.04705292 0.37224203
0.14403298 -0.00068505394 0.71042746 0.7421015 -0.36474717 0.619244 -0.1597655 0.1468142
00000000: c000 3dbe 1ec3 30be 82a2 09be 84e0 55be
00000010: 7d68 27be d311 cabd c5eb 8bbc 430e 1d3d
00000020: 72a4 f1bd 56bc 523e 10ec 13be d468 00be
00000030: 49cd 413b ad0d 97be 5302 683d 386b 0f3e
00000040: a027 0ebe 5c48 293b 13c5 033e 336a 5f3e
00000050: cc43 0e3e fbf4 733e 5752 e13c 3521 efbc
00000060: 182e a0bd eaca 4a3e 59c9 033e 101a 94be
00000070: a03c b1bd 4ebc 2c3d 9825 70bc f513 a1be
00000080: 1cc6 4c3d 71ee 99be 90db 523e 7ff1 89be
00000090: 3842 333e ddd2 b83e 49b4 36be bf1a abbd
000000a0: 4d78 d5bd 66eb 173e f15f c13d b588 6c3e
000000b0: 1210 833d 9c31 d9bd 55e9 a93e b3bf dd3e
000000c0: 14ff 80be 7f7f 083d 9dc8 b3be 2ef4 1abd
000000d0: dd34 83bb e348 87bd 2d03 f7bd 18db e7bd
000000e0: a45c 213e 514e ccbe 1b40 c43e 5cf0 7b3d
000000f0: 2d74 b9bd c727 9f3e be4c 473e 4031 a7bc
00000100: 1ff9 9d3c af21 34be 69f8 05be 34d2 d43d
00000110: 9282 bf3d f6c4 173e 6ce7 d33d 9b98 01be
00000120: b6d1 a23a 3475 a6be 0dca 0d3e 11cf a1be
00000130: 58ba 9f3d 8a4b 1abe f16a e53d 875a 87be
00000140: c2f8 783d 9d34 04be 1c77 a73d 6b85 e7be
00000150: ddde d0bd 9596 02bd 15fe 7b3e 9155 133e
00000160: e2fb 593d ee60 51be 711f 8fbe 33d2 0abe
00000170: 4302 2dbd 7b1f 1c3e db76 c83b 8f9f 85be
00000180: 5ac1 753d 138d 8c3c 19a5 d2bd 11a3 c4bc
00000190: 55a2 9bbe 2c47 d3be 29a3 443f 7fad f3be
000001a0: 42e9 11bf d046 b53e 0ccf 80bf dea6 7b3f
000001b0: cc1b cabd b670 733c 89cb 853c 2cd2 413f
000001c0: 14a0 7e3e 2d66 723f 5510 593e 28ab 093e
000001d0: 0a2d a0be fa2a d33e eb01 87be a7d1 91bd
000001e0: 5982 ed3f d964 0a40 6055 03bd 9440 b6bd
000001f0: 132d cc3d e43f 82bf 4fe1 7ebb 5749 6dbe
00000200: 1a13 4b3f a0e0 a53d fe04 a6bc a7fb 85bf
00000210: 4403 19bf 218c 25bf 816c 2c3f 79f3 fa3e
00000220: ce0e f03e 48a4 963e c35c 14bf 78d2 023f
00000230: 25e1 b3bf 61ff 2e3f 8b6d ca3f 5550 6cbf
00000240: 52fe 82be de12 1b3f 9d7b 993f aeef 3cbf
00000250: 9086 823f ef11 363f a100 4dbb 3da1 ba3e
00000260: 8465 1abf 6967 34be 2740 a03d f165 493c
00000270: 2985 19bd 8f0e 40be 26fb 003e b0a5 3cbe
00000280: 0e57 a3bf 9614 f7bd 4533 8dbc 53f9 c33e
00000290: b312 853e 5bb1 73bd 7e00 8abe ad2f 8e3e
000002a0: 211a 95bd 250f 65be a643 f5be cc31 fcbd
000002b0: 7e9a 25be 8639 4d3e b707 77be 2495 efbe
000002c0: 71ab 743e 99be 553d 6b85 173e f5e8 7dbe
000002d0: 05bd 6f3e 6ff5 48be 8ba1 38be 7027 0bbe
000002e0: 0c78 13be e517 193d 254e 30be 7659 ffbe
000002f0: 4ed9 8fbe c0ee 083f c04d ce3d 5e81 0f3f
00000300: 5283 973e e8aa a2be aa8e 14bf 2a68 6abe
00000310: 0eb1 323e cdeb 5fbe 34f2 d13d 0dfa 83bc
00000320: b488 8cbd 2ba2 083e 865d 9e3e 02ac 893d
00000330: 660c 833e 19c9 d93e b20c d23d e731 a73e
00000340: f95f 4e3d 1a05 22be da05 adbd 1ce2 b23e
00000350: 1cd6 c93e 48a6 433d 416d 1d3e ea49 6abd
00000360: 5474 2b3e b004 07bd 8dc5 1fbe df57 0ebe
00000370: 3c73 b43d 6b15 833f de95 fa3d d1bb 703c
00000380: 0586 123c 120f 103e f110 efbd 9360 4ebe
00000390: b93a 64be d23a 78bc 8716 9f3e d9b3 80be
000003a0: bb6e dcbe 072f 0cbe c93d dcbe c190 9dbe
000003b0: 56de 29bf d716 41bf c23f aebe 36b3 44be
000003c0: 4a22 9e3d 895b 583d 22cd a1bc f75b 9fbe
000003d0: 7703 1ebc 173d d33e 90ba 403d 8296 be3e
000003e0: 627d 133e 3195 33ba 93de 353f 5dfa 3d3f
000003f0: 24c0 babe c686 1e3f 9199 23be 7656 163e

l1/b f4 [50]
-0.040990293 0.35511747 0.17185849 -0.28502613 -0.1235787 -0.6682417 0.08041735 0.42061436
-0.46930134 0.24675812 -0.006377958 0.05320027 0.05017891 0.12693867 0.099991344 -0.08944228
-0.5310548 -1.0662348 0.05539165 0.76456326 -0.77286464 -0.3462651 0.0167986 0.14810817
0.22489065 0.18463163 0.7682317 0.43610406 0.2763941 0.027079508 0.12597443 0.08691221
-0.13744634 -0.11047625 -0.018817618 -0.36624876 -0.0023733834 -0.21853763 0.10539514 -0.1942492
-0.02160011 -0.107074566 -0.028327124 0.15687473 0.2003851 0.16922012 0.05217201 0.17495784
-0.99272645 0.16488712
00000000: 70e5 27bd f5d1 b53e acfb 2f3e f2ee 91be
00000010: d416 fdbd e311 2bbf dab1 a43d c45a d73e
00000020: 4448 f0be 29ae 7c3e 31fe d0bb 87e8 593d
00000030: 6788 4d3d 36fc 013e 43c8 cc3d 842d b7bd
00000040: 35f3 07bf 627a 88bf 5be2 623d 6bba 433f
00000050: 75da 45bf a949 b1be 389d 893c aba9 173e
00000060: bc49 663e 1310 3d3e d5aa 443f 0849 df3e
00000070: 8783 8d3e d8d5 dd3c 71ff 003e 07ff b13d
00000080: bcbe 0cbe 5f41 e2bd 6827 9abc f584 bbbe
00000090: c48a 1bbb 54c8 5fbe 68d9 d73d 43e9 46be
000000a0: b7f2 b0bc e949 dbbd 490e e8bc c5a3 203e
000000b0: c031 4d3e 0a48 2d3e 51b2 553d 2628 333e
000000c0: 5223 7ebf 2bd8 283e
