examples/ch4/reversi_DQN_CNN/agent_black_14000/model.npz (npz, 35989 bytes, 10 tensors)

c3/b f4 [16]
00000000: d8dc f2be 989c adbe 0000 0000 05fe 8a3f
00000010: e73a 613f 84a0 523f 38f1 b13d 5010 43be
00000020: 0000 0000 12ed 783d ee0b 063f db55 c5bd
00000030: f4c8 0dbf 3743 d13a fd35 c33e 7727 fabc
-0.47434115 -0.33908534 0.0 1.0858771 0.879805 0.8227618 0.08688587 -0.19049191
0.0 0.060772963 0.52361953 -0.09635516 -0.55384755 0.0015965466 0.38127127 -0.030536396

c1/W f4 [4, 1, 2, 2]
00000000: d0c0 823f ad51 26bf 5d7f 77bf 8cef 623e
00000010: 0b38 40bf ba9f 9c3d 9b15 c5be 0ca4 0f3f
00000020: f17b 123f 9e6c 293e 2193 5b3e bee6 34bd
00000030: c842 a6bd 65ad 613e 2460 313e 495c 1f3f
1.0215092 -0.6496838 -0.96678716 0.22161692 -0.75085515 0.07647653 -0.38493046 0.5610969
0.5722037 0.1654534 0.21442844 -0.044165365 -0.08118206 0.22038801 0.17321831 0.6225019

l5/W f4 [16, 256]
00000000: 99c7 16bf 73d0 a43e 19dd 25be 125b 3abe
00000010: 10fb 99be 23e4 acbe 9e61 843d 91f4 37bf
00000020: d296 f73d 7b06 21be d42b 113d 2d7e 2fbe
00000030: 4f25 e13e 110c 45be 3649 ab3d ce0a d6be
00000040: 321c 113f a792 003e b173 8a3d 13a2 88bd
00000050: 0dd6 efbd 17d5 0e3f 82d0 04bf e1c9 09bf
00000060: 5ae4 343d a640 91be da83 81be 86e0 76be
00000070: e43d 5a3f 8502 233e 0c41 76be 8cc7 c8be
00000080: a2b0 173e 3ef2 bc3e 3ba1 943d b20d 02be
00000090: 2956 813d a759 a63e 9727 95be 492e 73be
000000a0: b76b 8fbe 0b15 c6bd b952 883d 040d d53e
000000b0: 25c0 a7bd f8a0 ae3d 98c7 59bd d0fe 083f
000000c0: fe39 93bd c167 edbe 0e0f 04bf 94de 623d
000000d0: e717 80be b56d 4f3e 3b88 d53e 8daa f3be
000000e0: 4d4e 93be e2a6 c03e d025 7dbe 1365 a53d
000000f0: 34bc 0a3e 5689 d33d b11b 123f 7b6d 3d3f
00000100: b224 3a3e 687b 163e 7eb2 e0be 4fa1 193d
00000110: f8dd 60bf 15c3 103f 43e2 25bd 4ce4 763e
00000120: 8fb7 6d3d c02c bb3e 845a 19bf af95 0d3f
00000130: 729a 8e3e ccce 063e a3e8 5dbe ec16 6bbe
00000140: 05d3 833e fdfa 59be 57a1 e1be 890f 5e3f
00000150: d2cd 22bf 469e 2ebd 94be 2ebe c849 d23e
00000160: 90f3 c63e ca53 44be cee1 21bd 556e 07bf
00000170: e65b 113e db9c 95be d134 5cbf a582 ae3c
00000180: b47c cdbc 3b18 463e 4a2a 483e ce97 243f
00000190: a52c eebd 7d31 7b3b 317b 9abb a4c2 64bc
000001a0: 4ed5 013d 248a 71be bf96 4e3d 4ceb 30bf
000001b0: f35f 62be 54d7 32bd bc1d 37be 96fa 353f
000001c0: a289 0f3f 3eec 3a3e b370 c63d 272f 343d
000001d0: 36d0 9c3e e3e7 91be ba30 143f dc82 35bd
000001e0: 926c 01bf c922 a33e b53c 8c3e 471a 8d3e
000001f0: 964e b5be 2128 83be 8671 903e 2bd9 fc3e
00000200: ebfe c2be 1709 a33e 78f2 983e 0fa9 ee3e
00000210: fd53 3d3f 1691 7cbe dd00 3f3e 38b1 83bc
00000220: 3b2f cebe 42ca b8be 0d13 0d3f 8a3b 3fbf
00000230: 11f7 9f3d fde7 5fbe 6c86 0cbf f203 62be
00000240: 92e9 543e 4040 e93e 6286 163d bfab abbf
00000250: f50b 813e 7d42 813e c4c6 10be b6a5 803d
00000260: 73d0 c8be dcd9 47be 7849 7e3f a295 bd3e
00000270: 6bb6 4b3d 42b5 873f 8ff3 fb3d dd51 f83e
00000280: 9f18 bebe 5dae 9bbd 1558 07bf 7a54 d53e
00000290: 012d 003e a787 0dbf 1376 2e3e 5e0b cebe
000002a0: 5a96 a93e ed5a 4abf 1d10 3bbe c7d2 833e
000002b0: 7d99 ce3c ace2 28be 20c8 18bd f3e7 473e
000002c0: c39b 84be 44f6 efbd c676 55bf 1aa2 69bd
000002d0: 5ff3 bd3e b4a1 afbe bee6 0a3f d1a2 2abf
000002e0: 2087 3bbd 30aa 343f 6ae9 973b af7c 36bf
000002f0: 9031 1dbf 0f43 203f 206b 063f c163 603f
00000300: 6dbe 71be 1889 833e 15f6 513f 3684 60bf
00000310: 6f53 fe3d a5d2 25bf edd1 1cbf d0df abbe
00000320: 96b2 b1be 7743 a63e 60a6 fb3e 1f2f b33e
00000330: ef25 2f3e f977 cabe 2146 e3be 7ad3 8ebc
00000340: ed8d 0abf 0eb3 85be f8be d2bc b0a5 86bf
00000350: 1ec4 9bbe 6d6d 4a3f 4040 873e d72c 473f
00000360: 9364 fb3e 47d3 a3be 1e35 01bf d2d8 d7bc
00000370: e9d3 373f 4571 afbd 46c2 3dbf e199 71bf
00000380: 6b5a b33d c859 363e d961 cebe e2db 1f3e
00000390: 5ec7 033e bd94 babe 46ea b83d e7fd 8fbe
000003a0: e59b 0dbe 0b94 f8bd 08fd c9bd 5d54 d93e
000003b0: 84ea b23e fd82 12bf 2af8 8b3e c9c7 253f
000003c0: e18b 0cbf 0bd8 c8be e9e2 8abf 8497 633e
000003d0: 5423 29bf ea2c 88be ff75 223f 8291 b9bd
000003e0: 2656 a73e 77c8 033e 133c 36bf 4e5b 1bbf
000003f0: 7ea3 aa3e 6a5a bcbe c1a7 bfbe 14fa ee3e
-0.5889831 0.32190284 -0.16197623 -0.18198803 -0.30074358 -0.33767805 0.064639315 -0.71857554
0.120893136 -0.15725128 0.03544219 -0.17137976 0.43973777 -0.19242884 0.08363573 -0.41805118
0.5668365 0.12555943 0.06760348 -0.06671538 -0.11710749 0.557939 -0.5188066 -0.5382367
0.044163086 -0.28369635 -0.25295907 -0.24109086 0.8525069 0.1591893 -0.24048251 -0.39214742
0.14813474 0.36903566 0.07257315 -0.12700537 0.06315262 0.32490274 -0.29131767 -0.23748125
-0.28011867 -0.096719824 0.06656403 0.41611493 -0.081909455 0.08526796 -0.053168863 0.53513813
-0.071887955 -0.4636822 -0.5158547 0.05538805 -0.25018236 0.20256694 0.41705498 -0.47591057
-0.28770676 0.3762732 -0.24721456 0.08075919 0.13548356 0.10328929 0.57073504 0.7399518
0.1817806 0.14695513 -0.4388618 0.03750735 -0.878387 0.5654767 -0.040498983 0.24110526
0.058036383 0.3655758 -0.5990374 0.55306524 0.27852207 0.13164824 -0.21670775 -0.22957963
0.25746933 -0.2128715 -0.44068405 0.86742455 -0.63595307 -0.04263141 -0.17064887 0.41071916
0.38857698 -0.19172588 -0.039521985 -0.5290273 0.14195213 -0.29221234 -0.8601809 0.02130253
-0.025083877 0.1934518 0.19547382 0.64294136 -0.11629609 0.0038329058 -0.0047143926 -0.013962422
0.031697564 -0.23587853 0.05043673 -0.69109035 -0.22106914 -0.043662384 -0.17882437 0.7108549
0.56069386 0.18254182 0.096894644 0.04399028 0.30627602 -0.28497228 0.5788685 -0.04431425
-0.5055629 0.31862476 0.27390066 0.2755911 -0.3541152 -0.25616553 0.28211612 0.49384436
-0.38085112 0.31842873 0.2987249 0.46613356 0.7395628 -0.24664721 0.18652673 -0.016075715
-0.4027041 -0.3609181 0.55107194 -0.74700224 0.07810796 -0.2186584 -0.5489261 -0.22071818
0.20792225 0.4555683 0.03674925 -1.3411788 0.25204435 0.2524604 -0.14138323 0.06281607
-0.39221534 -0.195167 0.99330854 0.37028223 0.049734514 1.060219 0.123023145 0.48499957
-0.3712816 -0.076016165 -0.5286878 0.41666013 0.12517168 -0.55285114 0.17037229 -0.40243047
0.33122522 -0.7904499 -0.18267865 0.25746748 0.025219673 -0.16492718 -0.03730023 0.19522075
-0.25900087 -0.11716893 -0.8338436 -0.057039358 0.3709974 -0.34303057 0.54258335 -0.6665469
-0.045783162 0.70572186 0.0046359794 -0.71284 -0.6140375 0.62602323 0.5250721 0.8765221
-0.23607798 0.25690532 0.82016116 -0.8770174 0.124182574 -0.64774543 -0.6125782 -0.33569193
-0.34706563 0.32473347 0.49150372 0.34996888 0.17104314 -0.39544657 -0.44389442 -0.017434824
-0.5412281 -0.2611317 -0.025725827 -1.0519314 -0.30423063 0.7907322 0.26416206 0.77802795
0.4910017 -0.3199713 -0.50471675 -0.026348505 0.71807724 -0.08566526 -0.7412456 -0.94375426
0.0875748 0.17807686 -0.40309027 0.15611222 0.12869021 -0.36441603 0.09029059 -0.281234
-0.13829 -0.12137612 -0.09862715 0.42447177 0.34944546 -0.5723112 0.27337772 0.6475797
-0.5490094 -0.39227328 -1.0850497 0.22225767 -0.6606953 -0.26596767 0.634613 -0.090609565
0.32682914 0.1286944 -0.71185416 -0.60686195 0.3332786 -0.3678773 -0.37432674 0.4667517

c2/W f4 [8, 4, 2, 2]
00000000: 5842 63be 1c1a 4c3f 1e38 a4be 4bcf 1e3f
00000010: ccbf c9be 6ba2 99bd 66f3 a83e e52b 22be
00000020: b841 163f ef09 9fbe c6b3 68be a83c f73e
00000030: 5a88 053f 4ae3 58be ae84 403c ac05 c9be
00000040: 1a50 523e effa 7f3e 6693 ef3d 5f40 19bd
00000050: 3ba3 f53e 182e e3be 5ba3 283f 1a33 9c3e
00000060: 2044 b6be 0281 983e fa9e 1dbd 16d5 f03e
00000070: 4144 903e a862 373f f065 06bf 281f 4b3e
00000080: d323 4bbe 349f f9be eaf8 2f3f 5ac8 be3d
00000090: 4ee0 153e f40c 1cbf 2545 033f 80ac 643f
000000a0: 6dd5 c43e cf35 903e 46b8 bb3e aeeb d0be
000000b0: d9e4 4e3e 6c65 363f 6748 53bd 99e5 d9be
000000c0: 148d 28bf 2668 27be d004 903c 24c4 093f
000000d0: 9d41 29bf c1c9 653e 83c1 9ebd f651 25bf
000000e0: 42b7 d63e f27c d03e 22ac 08bf 882a 2d3e
000000f0: 9aff e1be 14d4 223e 1d96 d93e 5c32 b53e
00000100: 6f21 c8be 2b48 993c 9b97 4cbf ec8c 46be
00000110: 6619 c3be eda4 8d3e c5dd 28bf 4998 2fbe
00000120: 300c 0f3f cc82 ccbe 9823 b23e 9dd9 b23e
00000130: c3d6 963e 9225 023e c4f2 0abd 899c e83e
00000140: c294 4ebe 04f2 733f 229c f4bf 5995 9fbe
00000150: a8bc 16bf 2028 0cbf f0a6 53bc ff66 95be
00000160: 96ec 0d3f 62c8 bf3c 4682 ea3d d84c 0bbf
00000170: 05bf 6dbe 93b7 b7be 04a1 c23e 5e5b 76be
00000180: 0bec 16be 79c2 013f be8b 233e 8155 1ebf
00000190: 9aa3 82bd da39 ffbc 0dcf 3fbf a2d5 f03e
000001a0: 89b8 03bf 531d 7cbf 5275 123e 688e be3d
000001b0: c7cf 08bf c0e5 c13e 39da d13c 1d37 1e3f
000001c0: ffbf 26bd 63bf 293f 8271 15bf 6a2c 943e
000001d0: 845f 1bbf b4df 7c3f 8407 f63e 509c 53be
000001e0: 37dc 04bf 381c 17be 4e72 e83d adbd d83e
000001f0: 9c59 1fbd 608f 7a3f 3d9e 2ebf 57de e7be
-0.22193277 0.7972734 -0.32074064 0.62035054 -0.39404142 -0.07501682 0.32998198 -0.15837057
0.5869403 -0.31062266 -0.22724828 0.48288465 0.5216118 -0.21180454 0.011750383 -0.3926214
0.20538369 0.24998067 0.11698036 -0.037414905 0.47976097 -0.44371104 0.6587426 0.30507737
-0.3559885 0.29785925 -0.03848169 0.47037572 0.28177074 0.7163491 -0.52499294 0.19836104
-0.19837885 -0.48754275 0.6873919 0.09315558 0.14636347 -0.60957265 0.5127738 0.89325714
0.3844408 0.28166053 0.36664027 -0.4080481 0.20204486 0.7124851 -0.05158272 -0.42557982
-0.6584027 -0.16348323 0.01758042 0.5381491 -0.6611574 0.22440244 -0.07751753 -0.6457819
0.4193669 0.40720326 -0.53387654 0.16910756 -0.4414032 0.15901214 0.4249734 0.35389984
-0.39088008 0.01871117 -0.7991883 -0.19389695 -0.38105315 0.2766489 -0.65963393 -0.17147936
0.5587797 -0.3994354 0.3479278 0.3493165 0.29460725 0.12709644 -0.033922926 0.45431927
-0.20173934 0.9529116 -1.9110148 -0.3116863 -0.58881617 -0.54748726 -0.012918219 -0.29180142
0.55439126 0.02341098 0.11450629 -0.5441413 -0.232174 -0.35882244 0.3801347 -0.24058291
-0.14738481 0.50687367 0.15971276 -0.6184922 -0.06378861 -0.031155515 -0.7492531 0.4703799
-0.51453453 -0.98482245 0.14302567 0.093045056 -0.53442043 0.37870598 0.025616752 0.61802846
-0.040710445 0.6630766 -0.58376324 0.28940135 -0.6069262 0.98778844 0.4805261 -0.20665097
-0.5189852 -0.14756858 0.11349927 0.4233221 -0.038903818 0.9787502 -0.682102 -0.4528682

l4/W f4 [256, 16]
00000000: f397 0e3f dc26 c0bd 3a26 9f3e 0205 c3be
00000010: afd9 ffbd eec4 09bf de79 0d3f 4437 efb6
00000020: b8f6 b33d e003 843e e144 c5be 2db1 8fbf
00000030: 5936 ff3e 1105 f93e e70a ff3d 0e67 e83e
00000040: eda8 56bf 6341 173f 1225 833e 6956 33bf
00000050: 2098 e13e 5fa3 103e 35a9 143e e96c 74be
00000060: 9bc4 c8be 97df 2abf 3130 0abe 2ee6 f4bd
00000070: 03bd bcbd 4b93 3d3e 4583 eabe 1bdc 4c3d
00000080: 3415 af3e d4ea 363e 9286 c5be b875 62bf
00000090: 3267 1f3f b060 bcbd 47b2 b73e 8f93 c23e
000000a0: 4c9f 1b3f 424d 973c 6bc5 13bf 7fa5 debd
000000b0: bf1d 84be bab7 d6bd 8857 eabf 7fd6 3f3e
000000c0: ed3e 993d 86b8 a7bf 2fd2 4a3f fb7f 2fbd
000000d0: 3471 593d 63b8 44bd 08b1 2cbe d197 eb3e
000000e0: d1de c03e 08d7 c23e 8df7 c8bc 123a 563f
000000f0: 91aa 58bf 69c8 f0be 3589 febd caab d5bd
00000100: efdc 10bf a098 a0be 33d7 223f c644 453e
00000110: d23e 703e 9d8b 8e3e 7f29 35bf b729 0c3e
00000120: bd3c ffbd 1058 17bf 7713 1b3e 34d7 463f
00000130: 5f00 73bf 8e8f 8bbf c2d2 8cbc 2e59 bdbc
00000140: 09c4 18bf 63c0 f8bd 413b 36bf f244 2cbe
00000150: 2c86 18bf ff4e 063e e10f 343e 364b 813d
00000160: d788 553e 188e bb3e 5329 d73e 2c0c 04bd
00000170: 90a9 2dbf f39b 27be b281 cc3e b56e 853e
00000180: 0b1e 633e 35e7 e23e 9e26 0a3e 826a 20be
00000190: 18bc f83d 2bad 0ebf 3711 9fbf 4d87 383e
000001a0: 41df 4cbe f5e3 083f fc40 77be 016a 953e
000001b0: 66cf 653e 76d2 a73e 6113 923d b0b4 773e
000001c0: 66ab 8b3e 3949 9f3c 3657 ce3e 66c1 2a3f
000001d0: 3d23 b0bf b6ca 4abe 590a 19bf a273 ae3e
000001e0: 276a 2a3f 936f 86bd 6b34 9bbf cafe b23e
000001f0: 4429 86bd 2b29 3c3d 7e79 8cbe 250a eebe
00000200: 6c0c ec3e eee0 5fbf 42e0 efbe 4ecc 97bd
00000210: 0551 36bf 0291 dd3d 2ce3 2e3f d75e 37bf
00000220: 7398 09be ebde 16be 1ac4 febe 1169 c3bd
00000230: 6dfa 61bf 980a 44bf 8de5 f93e bd08 b4be
00000240: 6e87 483e 4217 de3e e993 d0be e69a 69bf
00000250: 6dab 07be 06dc 3e3e c71b e3ba 1c7f 26bf
00000260: 4c86 adbd 350b 3dbf 6600 8abe 9a1b 56be
00000270: d586 4cbe 5a45 41be 025b 7d3e 4f75 af3d
00000280: e35f f1bf 144f 37bf 8164 163f e874 3cbf
00000290: 25c5 af3d 03a1 a8be ff79 1a3e 2fc8 94be
000002a0: 3458 52be 895f f83e eeb4 eb3d 9622 0abc
000002b0: 7a06 3ebe 28f4 4fbe 6074 e3b9 835b 02bf
000002c0: 16f7 663d 7d94 86bf 290c a4bd 3034 07bf
000002d0: 7e91 edbe b2e5 b8be 47e9 db3c d65f 2d3f
000002e0: 0b96 81be ccf8 e73d 619f ba3e 9b91 8b3e
000002f0: 886b 31bf e802 803e e75d ddb9 8369 4ebe
00000300: 3ca9 b83e 60b0 b1bd 09be 9dbe e45e 19bf
00000310: 0eec 38bf 22a7 9d3e f43a ab3e e41b d2be
00000320: e3dd b2be cc72 1e3e 834e e5bd aac3 663e
00000330: 9d3b c5bd f315 a3bd ee15 bd3d 50cf bdbc
00000340: a751 babe 5ceb 163f 1740 073f 5f7c 3dbf
00000350: 3117 f83e 67aa 03bd 81d0 e8be 47fd aa3b
00000360: 4d63 193d 19ee 33bf 9b4b 48be 1736 793b
00000370: b287 5ebd aa6f 26be d805 27be 9104 94be
00000380: 9ef3 76bd 427d 303e a337 a93d 9a8a 55bf
00000390: 4bd0 1dbe 01a3 87bf 9c9e 3abe d0ca 013e
000003a0: 9e98 af3e c16f 4f3d 93ba 203f 0f9b 1f3e
000003b0: 3d25 143e 912d 673d 2b53 55be 8e5e 48bf
000003c0: 5d5a 23be 8249 ad3e c344 83be 53a0 bb3e
000003d0: b2f8 673e 2557 34bf 6c26 aabe 3487 7abe
000003e0: c6de 1ebe 1848 86bc 894e 2fbd 0285 143f
000003f0: 5fee 133e 373d b33d 7e8b 103e 1d87 643e
0.55700606 -0.09382412 0.31083852 -0.38089758 -0.12492692 -0.53816116 0.5526408 -7.129189e-06
0.08787292 0.25784206 -0.38529113 -1.1225945 0.4984615 0.48636678 0.12453251 0.45391124
-0.8385151 0.5908415 0.2561422 -0.70053726 0.44061375 0.14124821 0.14517672 -0.23869671
-0.39212498 -0.6674742 -0.13494946 -0.11957966 -0.092157386 0.18513219 -0.45803276 0.050014596
0.34195864 0.17863017 -0.38579232 -0.88460875 0.6226684 -0.09198129 0.35878202 0.38003203
0.6078994 0.018469457 -0.5772311 -0.108714096 -0.25803944 -0.10484262 -1.8307962 0.18734168
0.07482705 -1.3103187 0.79226965 -0.04284666 0.053086475 -0.048027407 -0.16864407 0.46014264
0.37669995 0.3805468 -0.024532104 0.8368236 -0.84635264 -0.470279 -0.12428514 -0.10433157
-0.5658712 -0.31366444 0.6360962 0.19264516 0.23461464 0.2784089 -0.70766443 0.13687788
-0.12462757 -0.5911875 0.15144144 0.77672124 -0.9492244 -1.0903184 -0.01719034 -0.023113813
-0.59674126 -0.1214607 -0.71184164 -0.16823176 -0.5957973 0.13116072 0.17584182 0.063131735
0.20852982 0.36631846 0.42023715 -0.03223817 -0.67836857 -0.16368084 0.399427 0.26061025
0.22179429 0.44317022 0.13491294 -0.1566563 0.12145251 -0.55732983 -1.2427129 0.18020363
-0.2000704 0.53472835 -0.24145883 0.29182437 0.22442397 0.32777756 0.071326025 0.2419002
0.27279204 0.019444095 0.40300912 0.6670135 -1.3760754 -0.1980389 -0.59781414 0.34072596
0.66568226 -0.0656425 -1.2125372 0.34960014 -0.065508395 0.0459377 -0.2743644 -0.46492115
0.46103227 -0.8745259 -0.46850783 -0.07412015 -0.71217376 0.10818674 0.68315387 -0.7162909
-0.13437061 -0.14733474 -0.4975899 -0.09541524 -0.88272744 -0.76578665 0.48807946 -0.35162917
0.19582912 0.4337712 -0.40737846 -0.9125198 -0.13248987 0.1863862 -0.0017327004 -0.65037704
-0.08472881 -0.73845226 -0.2695343 -0.20908967 -0.1997331 -0.18874112 0.24741748 0.08567297
-1.8857387 -0.7160504 0.58747107 -0.73615885 0.08582524 -0.32935342 0.150856 -0.29058978
-0.2054146 0.48510388 0.11509119 -0.0084310975 -0.18557158 -0.20307982 -0.0004338352 -0.50920886
0.056387983 -1.0514065 -0.08010132 -0.52814007 -0.46400064 -0.36112744 0.026844634 0.6772436
-0.25309786 0.11326751 0.3644972 0.27259526 -0.69304705 0.25002217 -0.00042222367 -0.20157437
0.36066616 -0.08676219 -0.30809048 -0.59910417 -0.7223519 0.30791575 0.33443415 -0.41036904
-0.3493491 0.15473479 -0.111966155 0.22535577 -0.09630511 -0.07963171 0.092326984 -0.023170143
-0.3639042 0.5895288 0.5283217 -0.740179 0.48455194 -0.03214493 -0.45471576 0.0052181813
0.037448216 -0.70285183 -0.19560091 0.0038026625 -0.054328628 -0.16253534 -0.16310823 -0.28909734
-0.060290925 0.17235282 0.08262565 -0.83414614 -0.15411489 -1.059662 -0.18224567 0.12675023
0.34296125 0.050643686 0.6278469 0.15586494 0.1446733 0.05643994 -0.20832507 -0.7826928
-0.1595244 0.33845145 -0.256384 0.36645755 0.22653463 -0.7044547 -0.3323244 -0.24465638
-0.15514669 -0.016391799 -0.042799506 0.58015454 0.144464 0.0875191 0.14115712 0.22317167

c3/W f4 [16, 8, 2, 2]
00000000: 01f7 983e e6c9 8e3b 5cae a93d 2c2b 24be
00000010: 8d03 5dbd b1aa e5be ab20 673e 08b9 f23d
00000020: 9223 ba3e d7aa 0cbf c60c dfbd 2ba6 2bbe
00000030: 21e5 c03e 7577 9ebe a0c1 1e3f 81bf 87bd
00000040: d918 353f 9aa8 293f 2ccb 843d d0db cbbd
00000050: 82af 993e e995 a6be effc 143e b06d b83d
00000060: feba e6be e6de 37be 56f7 a3be e4a8 48be
00000070: 8112 4ebf e8bf ee3d a6c3 1c3f 4203 82be
00000080: 8e3d 433e ef34 a53e fb94 babe c227 b7bd
00000090: 0f6a f33d 08bb d23e e6cc 633d d749 463f
000000a0: 5f83 893d 583f b33e eb25 b23e 09e3 42bf
000000b0: 671d aa3e ee44 a53e 3770 863d 24e8 033e
000000c0: fd45 353e d213 ab3d caa4 05bf 9974 d0be
000000d0: 32cd f93e 30e5 a2be f38a 26bf 7f46 efbe
000000e0: 44dd 92bc 4952 7f3e 26c7 28bf 31dc 9b3e
000000f0: 2a6d 793d 92e7 723d c374 d0be c651 50bf
00000100: 591f 91bc 097f 38bd 3bfa 693d 15b1 3a3c
00000110: 0c0f 0fbe 39a5 c3bd 3f17 45be 6463 9e3d
00000120: cc45 2d3d 5fa8 1dbe acbf c7b8 bbc9 02bf
00000130: 635e 4ebe 7fde 383e 5748 a03c 3f4b ccbd
00000140: 4efa 76bd e923 6cbe d9d7 2f3d f1dc 8bbe
00000150: 1d89 203d d347 643e 249e 943b f92e c9bc
00000160: 3981 7dbe 1a88 1abe 33da 1bbd 0d66 b6bc
00000170: 382a dfbd af64 4ebe 17e7 793d d0cd 603e
00000180: bef8 16bf 6867 953e f70b f8bd 8482 1a3d
00000190: 0ab0 dd3e c4b3 90bf 21a9 b7be 9e32 ce3e
000001a0: 95a4 eebc 03a7 833e 910c b93e ccaa cebe
000001b0: 6726 973e 5b79 61be 1787 d53e 0149 4bbf
000001c0: 60ed 3d3f 9759 6ebf 5e77 a13d 2493 73bd
000001d0: e8c3 193f 8edc 00be 8dbe dbbe 88e4 e2be
000001e0: 75ff 883d 789e 19bf 6129 71bf 4587 2c3f
000001f0: 8cc6 1a3f b5ae 9ebe 3959 503d 212c 84be
00000200: ad8e 123f 15b4 883e 237d 50bf 1903 f9bc
00000210: d3e4 a6bd ff49 08bf 2fdb a03c 7ff5 713e
00000220: 0d30 2abf 9c00 2b3f eb6e f63d 3602 df3e
00000230: e333 e3be 749b f73d 8d9a 90bf c730 17bf
00000240: 5f8b 15bf 3e53 bcbe 5dac f53e 58f7 bcbd
00000250: 3a32 20bf 67f0 c7bb 3e00 94bf e48c 58bf
00000260: 452a 0f3f 0021 d5be 03e9 a6be 5d6b 7abe
00000270: 794c 87bf 14f1 1d3f 4d08 653f 8591 94bf
00000280: 1b4b 4ebc 31d7 e9be 341c 0bbf 65f0 823f
00000290: 564b fabd 949e 1c3f b6bb 653c 1df7 aebe
000002a0: 949c 11be e51c b43e 779d 7cbe 7e5a 9b3d
000002b0: 523a 463f 1b24 b0be 93e2 a6bd a715 d3be
000002c0: 4506 213e 2d3b a73d 129e afbd 00e0 2dbe
000002d0: e519 3e3e 55f1 2f3e f772 873e 578f a63c
000002e0: 2935 03be d081 743e 718b 64be 9e34 25bf
000002f0: 4761 9f3e ccec a33e 5916 b7be b9c2 4e3f
00000300: 8bd1 fa3e 50eb 9fbe d525 fd3e 119d 61be
00000310: e72c 3cbf c948 a13e 8ffb 0abe 7409 cd3d
00000320: e030 2bbf 062e cb3e 568e e23e 06e1 fbbe
00000330: 4724 9dbe 6e92 2c3f a396 0b3f 6a8f bd3e
00000340: 18cf 1d3d b5eb 6c3d 8563 623e 692f 1a3d
00000350: 9c74 073f 5971 eb3d c539 dcbe 64f1 43be
00000360: 0010 403f 80d7 89bb 64bb 4a3f 384f 6a3d
00000370: 0155 7dbe 14df d4bd 32d4 09bf d28f c6be
00000380: d676 09be ac63 81bf 4c81 aa3d 0a0f 133d
00000390: e66f ea3e 29ff 22bf 5019 f7be 2bd0 9f3f
000003a0: fd94 bbbd e962 ca3c 3ff7 41bc c383 183d
000003b0: 1631 30be 3a2e c7be ce50 78bd ccf1 e33e
000003c0: 3cb8 e5be a8f8 aebc ed6d a63e 71eb b93e
000003d0: a5b8 fabe dac2 403a 681e c13d 2299 e43d
000003e0: 55c3 4d3e 2859 acbe 6655 87bf 79dc 0a3f
000003f0: 5648 023e 511f 3c3e 4f77 a9bc cb39 333f
0.2987595 0.0043575643 0.082852095 -0.16032094 -0.053958464 -0.4485679 0.22571056 0.11851698
0.36355263 -0.5494818 -0.10891108 -0.16762607 0.3767481 -0.30950513 0.620142 -0.06628323
0.7074104 0.6627289 0.064840645 -0.09954035 0.30016714 -0.32536247 0.14549612 0.09005296
-0.4506454 -0.17956123 -0.3202464 -0.19595677 -0.80496985 0.11657697 0.61236036 -0.2539311
0.1906645 0.32266948 -0.36441788 -0.0894313 0.118854634 0.4115832 0.05561533 0.7745642
0.0671451 0.35009265 0.34794554 -0.7612768 0.33225557 0.32279152 0.06564372 0.12881523
0.1770248 0.0835339 -0.52204573 -0.40713957 0.48789364 -0.3181548 -0.6505577 -0.46733472
-0.017927773 0.24933733 -0.65928876 0.3044143 0.060895123 0.059302874 -0.40714082 -0.81374776
-0.017715143 -0.045043025 0.057123404 0.011394759 -0.13970584 -0.09552998 -0.19247149 0.07733801
0.04230289 -0.1539626 -9.524761e-05 -0.51089066 -0.20153193 0.18053626 0.019565744 -0.099752896
-0.060297303 -0.23060574 0.042930458 -0.27317002 0.03919326 0.22293024 0.0045354534 -0.024558531
-0.24756326 -0.15090981 -0.038049888 -0.022265458 -0.108967245 -0.20155595 0.0610114 0.21953511
-0.589733 0.29180455 -0.12111657 0.037722126 0.4329837 -1.130486 -0.35871223 0.40272993
-0.029131213 0.25713357 0.361424 -0.40364683 0.29521486 -0.2201895 0.41704628 -0.7940827
0.7419033 -0.93105453 0.078840956 -0.059466496 0.60064554 -0.12584135 -0.42918816 -0.4431498
0.066893496 -0.6000743 -0.94203764 0.67393905 0.6045921 -0.30992666 0.05086634 -0.25814918
0.57248956 0.26699892 -0.81440943 -0.030396985 -0.081491135 -0.5323791 0.019635765 0.23628806
-0.6647957 0.66797805 0.12032875 0.43556374 -0.44375524 0.12090197 -1.1297165 -0.59058803
-0.5841579 -0.3678226 0.47983065 -0.092268646 -0.6257664 -0.0061016562 -1.1562574 -0.8458998
0.55923873 -0.4162674 -0.3259965 -0.24455018 -1.0570213 0.6169598 0.8946579 -1.1606909
-0.012591149 -0.4567199 -0.5433991 1.0229613 -0.122214004 0.6117947 0.014021805 -0.34172907
-0.14219886 0.35178295 -0.24669443 0.075856194 0.7743274 -0.34402546 -0.08148684 -0.41227457
0.15725048 0.08165584 -0.085750714 -0.1697998 0.18564565 0.17181905 0.264549 0.020332022
-0.12813248 0.23877645 -0.22318818 -0.6453341 0.31128904 0.320166 -0.35759237 0.80765873
0.48987994 -0.31234217 0.49442926 -0.22032572 -0.73506016 0.31500843 -0.13572524 0.10011569
-0.6687145 0.3968355 0.4424922 -0.49195117 -0.3069174 0.67410934 0.5452673 0.3702348
0.038527578 0.057841975 0.22108276 0.03764287 0.52912307 0.11496229 -0.43012825 -0.19135052
0.75024414 -0.004206598 0.79192185 0.057204455 -0.24739458 -0.10394111 -0.5383941 -0.387816
-0.13424239 -1.0108542 0.08325443 0.035903014 0.45788497 -0.63670594 -0.482615 1.2485403
-0.09159277 0.024705367 -0.011838733 0.037235033 -0.17206225 -0.38902456 -0.060623936 0.44520414
-0.44867122 -0.021358803 0.32505742 0.3631244 -0.48968998 0.0007353254 0.09429628 0.1116202
0.20094045 -0.3366177 -1.0572937 0.54242665 0.12722906 0.18371321 -0.020686774 0.7001006

l5/b f4 [16]
00000000: 6ffd 32be aa1b d9be f2c2 31be c0d7 b03d
00000010: f06e eabe a273 aabe 373b c2be bbb3 46be
00000020: 67e1 8a3d 4ac0 d3be d01f 99be 3aa8 9cbe
00000030: 9bb2 a13d b7f3 78bd 8953 9abe e7f5 ba3d
-0.1747949 -0.42403919 -0.17359522 0.08634901 -0.45787764 -0.33291346 -0.37935802 -0.19404499
0.06781273 -0.41357642 -0.29907084 -0.30597097 0.078953944 -0.0607793 -0.30141857 0.091289334

c1/b f4 [4]
00000000: 919d 803e b685 c03e f881 c2be d314 89be
0.25120214 0.37602013 -0.37989783 -0.267737

l4/b f4 [256]
00000000: 9767 3c3f 0425 013f 7045 743e 9bbb 8dbe
00000010: 3ac5 22bf 95f0 81be 8852 2abd dcb8 3d3d
00000020: 355a 08bf bebd 023f 240b 5c3f 6970 9b3e
00000030: 7592 26bf 8ffa 393f f02b 0ebf 76f1 5bbd
00000040: 6464 fbbc 1b80 5e3e 3332 7cbd 3dc9 803e
00000050: 3601 333f dcac 993d ddf4 14bf dd7b 65bd
00000060: 212f 8f3e acc1 bd3e 3f9c 213f 4417 f7be
00000070: c833 783d 190c d33c 76c9 823e 04ee 343e
00000080: 30d9 653b 0b3a 5ebf 2b76 6dbf 53e7 1cbe
00000090: 3a29 2cbc 99d9 043f 4e91 aabe f102 b7be
000000a0: bae2 73bf 3195 02bd e495 b23e e2de 313e
000000b0: 55f5 c3be 7e97 78be 47dc 81be 4a9a 2abd
000000c0: 7efa 693c 5547 ffbe a4dc e2be a5e2 d93e
000000d0: 923f c93e 94dc dabd 12d6 df3d cef5 b1be
000000e0: bfad b13d b0c3 4bbe 3b4b 89bd 8b99 a53e
000000f0: 4d51 263d 22ca 403f 34e5 ea3e 9598 00bf
00000100: 04f8 d2be a209 1b3e e162 443f a4a9 90be
00000110: c6c9 dcbf e9e5 82bf 2e4d b93e f18e 1dbf
00000120: 20dd 103e 8754 1bbf dd8d 383f 7488 f73e
00000130: 00a6 05be b694 71bd d02e 6c3e 9ab9 1bbe
00000140: 5545 30be 2827 f4be f189 3b3f befd 8abe
00000150: 2786 2abf 0ae0 b9bd 2d60 4abd 8425 a2be
00000160: f040 fabe b054 9a3d 499d 553d a575 ccbe
00000170: c696 033e a0d4 043f 996e 09bf 6812 b4bd
00000180: c6ab 3dbe acd3 883d 15dd 073e e558 f03e
00000190: ad66 e13b 2fbf 553f 8bd9 593f 178d ee3e
000001a0: b343 073f 9dac 99be 4f06 39be 06bf ef3e
000001b0: d3f0 5abe a28d 9cbe fb85 01be 7e75 0fbf
000001c0: bd6f f63e 9fea 69be 2bc3 16bf 3db7 9e3e
000001d0: c1c1 24bf 397f 293e 6cb8 35bf 6068 8cbd
000001e0: 8bea 83bd b73d 553e 5f12 a93d 840d 0ebe
000001f0: 812b 16bf f9e4 263f 849f 793c aaf2 81bf
00000200: ac25 0a3f e9d8 8bbf 3e4a 09bf 5c46 463f
00000210: 3fc6 06bf dd64 863e 8b80 a8be eb2d 17be
00000220: 5348 063f 7c69 30be 25c7 a7be 164a 20be
00000230: 2a5a 2fbf 42d2 403d 44a4 4e3e 0ced 053e
00000240: 4984 a7bd d7c7 bd3b 6c96 5c3e ece7 8dbf
00000250: 6347 093f a407 143d d6a4 9bbe 6268 32be
00000260: 841e 88be 79d8 9ebd e1f1 633f 34cd 6dbe
00000270: 16bf debc 423b c4be baff 32bf 6ece 533f
00000280: 459c 113f dc54 34be efe3 babe e406 743e
00000290: 3e86 ab3e ef1d 69bf 8015 98be 8bd4 b83e
000002a0: 8fa9 23bd 235c 71bf ac98 eabe 1cd0 423e
000002b0: 2445 573e b12f 44be 9eb1 c5bd 15c6 613f
000002c0: e6fc b5be 8668 5cbf f4c2 9ebd daf3 74bf
000002d0: fda3 e03b 5c2b e7be 20dd d0be a96b 1ebe
000002e0: 7041 a33e 213e 423f 8796 39be f2ef e9be
000002f0: 95ba 083f c264 903e 41df 0b3e c68f 32bf
00000300: 6ef0 98be b5aa 4a3d 262a 0e3f 7506 6f3e
00000310: 3dd6 1c3e 0667 65be b477 0dbe 7ffa 4fbd
00000320: c21c 0dbf 55e0 7c3e b357 b4be a6df 073f
00000330: fc38 bf3e 653f fcbe 32f1 d8bd fa50 413f
00000340: 7af7 42bf 1141 9d3b 3665 93be 37b5 60bf
00000350: 302d 3d3e e7df 98bf f678 27bf f979 1bbe
00000360: 60de 063d fbc9 99bd 4018 84bf 21f2 d33d
00000370: 4da4 f1bd 3fa0 093f 05b9 7abf e42a 46be
00000380: 08ae 72be decf babe f92d 133f 9e4c 48bd
00000390: 48c4 753e fbf0 043e 23df a0be cf8a afbd
000003a0: 61c3 38be 191d 79bf da62 9bbd 5963 a0be
000003b0: 571a b3be 6e75 01bf caae fbbe b116 56bf
000003c0: 6a19 f73e fd60 6cbe b583 32bf 7287 dfbd
000003d0: 41f5 6d3f acc7 9e3e b4f3 5c3f 3386 8abe
000003e0: 94d3 ce3d d6ee b13e 8697 01bf af5e dd3d
000003f0: bc2c 4abe 5910 25bf 3272 e5be d44b 60bd
0.73595566 0.50447106 0.23854613 -0.27682194 -0.63582194 -0.25378862 -0.041582614 0.046318874
-0.53262645 0.51070774 0.859545 0.303592 -0.65067226 0.7264795 -0.55535793 -0.053697072
-0.030687518 0.21728556 -0.06157131 0.25153533 0.6992372 0.075036734 -0.5818613 -0.05602633
0.27965644 0.37061822 0.6312904 -0.48259938 0.060596257 0.025762605 0.25544327 0.17668921
0.003507208 -0.86807317 -0.92758435 -0.15322618 -0.010507876 0.5189453 -0.33313984 -0.35744432
-0.9526783 -0.03188056 0.34879982 0.1737018 -0.3827311 -0.2427654 -0.2536337 -0.041651048
0.014280913 -0.4985911 -0.4430896 0.4255573 0.39306313 -0.10686603 0.109295025 -0.34757847
0.086757176 -0.19898868 -0.06703802 0.32343706 0.04060488 0.7530843 0.45877993 -0.5023282
-0.41204846 0.15140393 0.7671338 -0.28254426 -1.7249076 -1.0226413 0.36191696 -0.61546236
0.14146852 -0.60675853 0.72091466 0.48346293 -0.13051605 -0.058979712 0.23064733 -0.1520752
-0.17213948 -0.47686124 0.73257357 -0.27146715 -0.6661095 -0.09075935 -0.049408127 -0.31669247
-0.48877668 0.07535684 0.052151952 -0.39933506 0.12850484 0.5188694 -0.53684384 -0.08792573
-0.18522558 0.06680998 0.1326793 0.4694282 0.006878695 0.8349485 0.8509757 0.46592018
0.52837676 -0.30014506 -0.18068813 0.46825427 -0.2138093 -0.30576807 -0.12648766 -0.56038654
0.48132125 -0.22843407 -0.5889155 0.30999175 -0.64358145 0.16552438 -0.7098453 -0.068558455
-0.0644122 0.20824324 0.08255457 -0.13872343 -0.5866013 0.65193135 0.015235785 -1.015218
0.5396373 -1.0925571 -0.5362891 0.7745111 -0.5264625 0.26248828 -0.3291057 -0.1476361
0.5245411 -0.17227739 -0.32769123 -0.15653262 -0.68496954 0.047075517 0.2017985 0.13078707
-0.08179528 0.005791645 0.21541756 -1.1086402 0.5362455 0.0361401 -0.30399197 -0.17422631
-0.26585782 -0.07756133 0.8904095 -0.2322281 -0.027190726 -0.3832646 -0.6992146 0.8273686
0.56879073 -0.17610496 -0.36502025 0.23830754 0.33500856 -0.910613 -0.29703903 0.36099657
-0.039956626 -0.94281214 -0.45819604 0.190247 0.21022469 -0.19158818 -0.096530184 0.88192874
-0.3554451 -0.8609699 -0.07752028 -0.9568459 0.0068554864 -0.45150268 -0.40793705 -0.15470757
0.31885862 0.7587605 -0.18123828 -0.45690876 0.534097 0.28201872 0.13659383 -0.6975063
-0.29870933 0.049479205 0.55533063 0.23342307 0.153161 -0.22402582 -0.13815194 -0.050776
-0.55122006 0.24694951 -0.3522316 0.53075635 0.37348163 -0.49267116 -0.10592879 0.75514185
-0.7615887 0.0047990163 -0.28788155 -0.8777651 0.18474269 -1.194333 -0.65418947 -0.15183248
0.032926917 -0.07509228 -1.03199 0.10348917 -0.11798916 0.5376014 -0.9793857 -0.19352299
-0.236992 -0.36486715 0.57492024 -0.048901193 0.24000657 0.12982552 -0.3142024 -0.085713975
-0.18043281 -0.97310024 -0.07587214 -0.31325796 -0.34981033 -0.5056981 -0.4915679 -0.83628374
0.48261577 -0.23083873 -0.6973222 -0.10914506 0.9295235 0.31011713 0.8630936 -0.2705551
0.10098949 0.3475253 -0.5062183 0.10809075 -0.19743627 -0.6447807 -0.44813687 -0.054759815

c2/b f4 [8]
00000000: 2288 083e df2f e63c 2344 eebe cf70 b3bd
00000010: 0200 0cbe db42 1abe d0e3 723e 170d bcbe
0.1333318 0.028098999 -0.4653636 -0.08761751 -0.13671878 -0.15064566 0.23719716 -0.36728737
