examples/ch4/reversi_DQN_DNN/agent_white_2000/target_model.npz (npz, 521802 bytes, 8 tensors)

l2/b f4 [256]
0.0067960867 -0.028446972 0.049340922 0.004791243 -0.008722911 -0.029938858 0.13063316 0.02378214
-0.02220502 0.014919566 -0.026627729 0.0409185 0.025604583 0.0014074682 0.00080475217 0.0023726232
-0.047961026 0.020008687 0.0051662573 0.05245488 0.058760364 0.023048041 0.074115396 -0.0057449373
0.020316096 -0.01851372 0.017306782 0.0067568626 0.0015249833 -0.017376827 0.026019419 0.05629056
0.042390935 0.011110975 0.016976843 -0.036295988 -0.006070573 0.0057751387 0.03525513 -0.0117604295
-0.09617599 -0.0012517405 0.001750822 0.069045104 -0.047902614 -0.03871698 0.0014611417 0.0064719226
-0.016843317 0.030769631 0.06918754 0.022308819 0.043645095 0.045877617 0.0020180382 0.017408922
0.008247926 -0.002187373 -0.039226856 -0.012710338 0.012899356 -0.00570933 -0.0064040064 0.07557179
0.033070154 -0.0015266842 0.006127219 0.039950855 0.0028692218 0.024653042 0.024289174 0.02628068
-0.0027110951 0.07906506 0.03525192 0.013322258 0.03337711 0.017451778 -0.052257903 -0.018066376
0.023708094 -0.010062384 -0.018045094 0.0025869373 -0.016836066 0.0018641908 -0.03569276 0.019426102
-0.044829346 0.024951393 0.07555346 -0.024163658 -0.004480004 -0.015193938 -0.0012327741 -0.021466454
0.049679134 -0.02667695 -0.030632757 -0.02018484 0.011377195 -0.045753397 0.010173799 -0.005269573
0.09092235 -0.035860088 0.018288966 0.0048868814 0.055864356 0.0005241651 -0.015711373 -0.027994229
0.0018719953 0.06203444 -0.032751426 -0.0032912907 -0.0161618 -0.006159209 -0.026549282 0.025675211
-0.029232288 -0.005766652 0.033560902 0.001039614 0.035829205 0.0014444485 -0.037126534 -0.011477291
-0.062881954 -0.0205253 0.009453904 -0.011933547 0.04350358 -0.072345406 0.03248531 0.060981285
-0.013437734 -0.020707276 0.048733283 -0.018635482 0.03263359 0.022155048 0.0049320688 0.040870275
0.06345853 -0.049653918 -0.052142628 -0.03940132 0.01763333 0.006303716 0.0305358 0.07280267
0.029004088 -0.01302037 -0.0027091126 -0.0019076702 -0.023978788 -0.053910073 -0.02390581 -0.018609803
-0.011102047 0.012695374 -0.013745459 0.08191216 0.014211928 -0.03375756 -0.014294994 0.049771603
-0.038179554 0.000395611 -0.005914645 0.0357832 -0.020193707 -0.011002015 0.025264483 -0.041147374
0.047893386 0.03619117 -0.0022186956 0.051839873 0.0025515168 -0.00927729 -0.00366287 0.051893145
-0.02315219 -0.031752262 -0.00436893 0.123273246 -0.005543669 0.007277217 -0.0987484 -0.021766707
0.022404365 -0.0027714244 0.026742531 -0.039905433 -0.0051175645 0.0010622155 -0.023843246 -0.026179567
-0.018009054 0.040911783 -4.475001e-05 0.043272093 -0.030983018 0.009380803 0.00470256 0.011980426
-0.005879047 -0.059950817 0.02694498 0.024070332 -0.0462592 0.03321166 0.04170616 -0.008195488
0.099618144 0.046226498 0.0024030644 -0.063673615 -0.007759602 -0.015187154 -0.008869216 -0.035141308
0.015261535 0.100068055 -0.004094213 -0.023329707 0.0030655682 -0.023104643 -0.051553108 -0.0061340244
0.04118238 -0.009390216 -0.02135688 0.04449592 0.10077124 0.05566328 -0.018079463 -0.00054146204
0.0002656216 0.0031198033 0.035832543 0.02594724 0.045555837 -4.6632675e-05 -0.0071999626 0.0
-0.012900235 -0.0071392437 -0.02874239 -0.02041366 -0.00015506231 0.026969908 -0.016625283 -0.066142276
00000000: b5b1 de3b a009 e9bc b519 4a3d dcff 9c3b
00000010: 8aea 0ebc 5642 f5bc b3c4 053e c3d2 c23c
00000020: 4de7 b5bc 3271 743c 6522 dabc 289a 273d
00000030: b4c0 d13c cc7a b83a 01f6 523a 037e 1b3b
00000040: c872 44bd 42e9 a33c b549 a93b eeda 563d
00000050: b5ae 703d 3fcf bc3c d0c9 973d 0740 bcbb
00000060: f16d a63c 16aa 97bc f4c6 8d3c ac68 dd3b
00000070: f3e1 c73a d959 8ebc ad26 d53c ee90 663d
00000080: 1ea2 2d3d cf0a 363c 0513 8b3c 1aab 14bd
00000090: a8eb c6bb 603d bd3b af67 103d d1ae 40bc
000000a0: ebf7 c4bd 7111 a4ba d67b e53a 8567 8d3d
000000b0: 8835 44bd b295 1ebd c883 bf3a 6c12 d43b
000000c0: fffa 89bc 9810 fc3c 32b2 8d3d fcc0 b63c
000000d0: 33c5 323d 2bea 3b3d 1041 043b 289d 8e3c
000000e0: 4f22 073c 075a 0fbb 57ac 20bd 063f 50bc
000000f0: d257 533c 5515 bbbb b3d8 d1bb 62c5 9a3d
00000100: 9274 073d 051b c8ba d7c6 c83b 82a3 233d
00000110: 8e09 3c3b 2df5 c93c 17fa c63c 954a d73c
00000120: a1ac 31bb ddec a13d 5164 103d 9a45 5a3c
00000130: 70b6 083d 08f7 8e3c 620c 56bd f0ff 93bc
00000140: 7a37 c23c b3dc 24bc 4ed3 93bc 9b89 293b
00000150: caeb 89bc dd57 f43a 9232 12bd 7d23 9f3c
00000160: fa9e 37bd dd66 cc3c c6bb 9a3d ddf2 c5bc
00000170: ffcc 92bb ffef 78bc 0995 a1ba 6bda afbc
00000180: 597c 4b3d 9e89 dabc 8cf1 fabc ad5a a5bc
00000190: 6a67 3a3c ea67 3bbd 01b0 263c 62ac acbb
000001a0: 7f35 ba3d 07e2 12bd bed2 953c 2222 a03b
000001b0: 06d2 643d 2068 093a 23b5 80bc 2754 e5bc
000001c0: bd5d f53a d317 7e3d 5c26 06bd b2b2 57bb
000001d0: c065 84bc 31d3 c9bb e17d d9bc d254 d23c
000001e0: 8d78 efbc 2ff6 bcbb 2877 093d a843 883a
000001f0: a5c1 123d a653 bd3a fe11 18bd 3f0b 3cbc
00000200: 41c8 80bd ad24 a8bc 8ce4 1a3c ed84 43bc
00000210: cf30 323d d429 94bd 510f 053d 83c7 793d
00000220: f129 5cbc 4ea2 a9bc 8d9c 473d 70a9 98bc
00000230: cdaa 053d 817e b53c 319d a13b 9767 273d
00000240: 8cf6 813d e861 4bbd 8293 55bd 4763 21bd
00000250: c673 903c 678f ce3b 3726 fa3c 9119 953d
00000260: fb99 ed3c 6453 55bc 5e8b 31bb ca0a faba
00000270: 2a6f c4bc cfd0 5cbd 1ed6 c3bc 9673 98bc
00000280: 5ce5 35bc 4200 503c a234 61bc 90c1 a73d
00000290: 25d9 683c 5e45 0abd 8d35 6abc 4fdd 4b3d
000002a0: 2a62 1cbd 026a cf39 a3cf c1bb 6891 123d
000002b0: 466d a5bc cc41 34bc 76f7 ce3c 268a 28bd
000002c0: db2b 443d 313d 143d 8967 11bb 0c56 543d
000002d0: 5937 273b c6ff 17bc c30c 70bb e88d 543d
000002e0: a9a9 bdbc a90e 02bd 3e29 8fbb af76 fc3d
000002f0: aba7 b5bb b975 ee3b 9a3c cabd 1850 b2bc
00000300: 5c89 b73c c9a0 35bb 2713 db3c e173 23bd
00000310: 3eb1 a7bb 0a3a 8b3a e952 c3bc 8876 d6bc
00000320: b987 93bc 1d93 273d f5b1 3bb8 143e 313d
00000330: 19d0 fdbc f1b1 193c ef17 9a3b 8c49 443c
00000340: 05a5 c0bb fd8e 75bd b8bb dc3c 252f c53c
00000350: 497a 3dbd f308 083d 14d4 2a3d 5e46 06bc
00000360: 9904 cc3d ff57 3d3d bb7c 1d3b 5067 82bd
00000370: 4244 febb 8ad3 78bc 3050 11bc 55f0 0fbd
00000380: 840b 7a3c 7bf0 cc3d bf28 86bb f11d bfbc
00000390: b3e7 483b f345 bdbc 5a29 53bd edff c8bb
000003a0: dbae 283d 6cd9 19bc a0f4 aebc 5b41 363d
000003b0: 2761 ce3d 2eff 633d 621b 94bc e7f0 0dba
000003c0: 2143 8b39 9d75 4c3b 25c5 123d 4e8f d43c
000003d0: c298 3a3d 7497 43b8 aaed ebbb 0000 0000
000003e0: 825b 53bc 51f0 e9bb 2975 ebbc 8c3a a7bc
000003f0: 3998 22b9 ffef dc3c bf31 88bc 9a75 87bd

l1/W f4 [256, 16]
0.106594175 -0.34225348 0.2535908 0.29809648 -0.36711228 -0.28544223 0.18980539 0.53789335
-0.20174317 -0.487188 0.5527981 -0.19855918 -0.0027189166 -0.18873727 0.484198 -0.040058
0.39850163 -0.44682527 -0.0008973592 -0.44236675 -0.056478426 -0.42445147 -0.24151073 0.095685415
0.32570365 -0.4441922 0.49168897 0.07369264 0.8426832 0.30750334 0.32466257 -0.04416614
-0.25314245 -0.34960264 -0.3655496 0.16369724 -0.0703202 -0.063419625 -0.16131933 0.22155493
-0.29515713 0.04544241 -0.36073223 0.014269987 -0.11296165 0.13513386 -0.049369145 0.76517975
0.12377726 -0.66026926 -0.2722228 0.057317864 -0.12679794 -0.4631663 0.70146745 -0.46527317
0.7856239 0.7732155 0.23591536 -0.60779506 -0.25072733 -0.41195205 0.13937418 0.5849476
-0.069090925 0.08310477 -0.30271575 -0.18962502 -0.067878194 -0.23458703 0.3146956 0.8288437
-0.027602967 -0.15080366 0.21917732 -0.973605 0.047451165 0.37369907 -0.38182124 -0.2496159
0.34968507 -0.38327548 -0.28824034 0.13465017 -0.17837933 -0.60552293 0.42801625 0.54784745
-0.5187702 0.47801098 -0.29487625 0.2252864 0.38643363 -0.43283534 0.061312787 0.5689075
-0.059716325 -0.025311992 0.15288998 0.721212 -0.79386884 0.1936488 0.7016839 0.07049742
0.07436881 -0.10160812 0.014611176 0.00190361 0.10686136 -0.40529823 0.21565777 0.11223263
0.4799609 0.10000892 0.2744155 0.12727338 -0.11991681 -0.24212731 -0.9197402 -0.45307118
-0.13020603 0.005453099 0.17668289 0.04886304 0.066495724 0.43208504 0.12457277 0.2204255
-0.36916715 -0.35047615 0.07985489 0.53352296 0.11647533 -0.19175209 0.3917084 -0.30129403
-0.43548506 0.54099774 -0.21222265 0.23695855 -0.8666991 0.00052353065 0.16967395 0.0018734882
0.16698356 0.009430941 -0.45477316 -0.026393935 0.46592498 0.21663187 0.35626376 -0.21723488
0.10013619 -0.2614126 -0.4373256 -0.28340256 0.78247523 0.57640845 0.02743115 0.07226977
0.57553625 0.006667828 -0.014540139 -0.37860596 0.08552545 -0.14052644 -0.18002154 -0.10998198
-0.77654856 0.015298905 0.20809692 -0.49415272 0.633025 -0.007057314 0.005907324 -0.089678384
-0.43995062 -0.7351631 0.31106403 -0.3762687 0.75133604 -0.25983378 0.04023645 0.7711011
-0.035474353 0.33230442 -0.13297203 0.21261516 -0.43959132 -0.36266124 -0.5248441 -0.061725974
0.09019149 0.240913 0.11726656 0.10616598 -0.06219529 -0.23454724 0.042274702 -0.10386913
-0.016869783 -0.18916735 0.12289933 -0.109460406 0.1242039 -0.113280505 -0.17603076 0.43341714
-0.08380388 -0.0042158687 -0.559012 -0.19584326 -0.40331426 0.0090305945 -0.6563405 0.0537353
-0.16261198 -0.6224462 0.22675517 -0.21711744 -0.6765647 0.3617543 0.5396231 -0.02677532
-0.80711675 -0.3878946 0.09826443 -0.15377659 -0.030226074 0.39357346 0.16556667 0.023737898
0.4181873 0.38766527 0.49198994 0.12429796 -0.748698 0.26346374 0.15922455 -0.46737447
0.0011414257 -0.07100855 0.5912851 0.2818887 -0.020266252 -1.1565768 -0.17332007 -0.39260656
0.35957077 0.070696756 0.43720594 0.41106072 -0.23113279 -0.30509895 0.31477872 0.20131347
00000000: 0c4e da3d d93b afbe a7d6 813e 1aa0 983e
00000010: 24f6 bbbe 7c25 92be 585c 423e 61b3 093f
00000020: c395 4ebe b570 f9be 2d84 0d3f 1953 4bbe
00000030: da2f 32bb 5844 41be cde8 f73e db13 24bd
00000040: 6808 cc3e 48c6 e4be c23c 6bba e57d e2be
00000050: ec55 67bd b451 d9be 974e 77be b7f6 c33d
00000060: a1c2 a63e 296d e3be a8be fb3e 2bec 963d
00000070: 16ba 573f 1471 9d3e 2c3a a63e 8ee7 34bd
00000080: e39b 81be 1eff b2be 5129 bbbe 40a0 273e
00000090: 0904 90bd 26e2 81bd e530 25be 4cdf 623e
000000a0: d61e 97be d221 3a3d e5b1 b8be aacc 693c
000000b0: 7058 e7bd 8860 0a3e 4d37 4abd d2e2 433f
000000c0: ef7e fd3d 6807 29bf c960 8bbe 23c6 6a3d
000000d0: 52d7 01be 2224 edbe 5f93 333f 4938 eebe
000000e0: a61e 493f 73f1 453f cc93 713e 7598 1bbf
000000f0: 555f 80be 61eb d2be 1bb8 0e3e 20bf 153f
00000100: 8b7f 8dbd d532 aa3d 8ffd 9abe 102d 42be
00000110: b903 8bbd 9537 70be c81f a13e 1a2f 543f
00000120: 9e1f e2bc 466c 1abe 0570 603e 2d3e 79bf
00000130: 275c 423d 7c55 bf3e 137e c3be 4f9b 7fbe
00000140: ec09 b33e af3c c4be 3d94 93be bce1 093e
00000150: 12a9 36be 8d03 1bbf f224 db3e bb3f 0c3f
00000160: 20ce 04bf dbbd f43e 05fa 96be 7ab1 663e
00000170: a1da c53e 989c ddbe 1e23 7b3d eca3 113f
00000180: 1b99 74bd 185b cfbc 318f 1c3e 5aa1 383f
00000190: fd3a 4bbf df4b 463e 8ea1 333f f460 903d
000001a0: ad4e 983d eb17 d0bd b763 6f3c 8d82 f93a
000001b0: 21da da3d 4083 cfbe 64d5 5c3e 39da e53d
000001c0: 6fbd f53e 7ad1 cc3d 3080 8c3e f453 023e
000001d0: f296 f5bd 39f0 77be 1874 6bbf f2f8 e7be
000001e0: bb54 05be e9af b23b 5cec 343e 9c24 483d
000001f0: e92e 883d 403a dd3e 0220 ff3d 39b7 613e
00000200: 7a03 bdbe 9c71 b3be f68a a33d f694 083f
00000210: 9e8a ee3d a95a 44be 018e c83e 3643 9abe
00000220: e6f7 debe d47e 0a3f e550 59be 43a5 723e
00000230: fedf 5dbf 8c3d 093a 02bf 2d3e d58f f53a
00000240: bdfd 2a3e 3c84 1a3c 07d8 e8be 1838 d8bc
00000250: b88d ee3e bfd4 5d3e 3468 b63e d272 5ebe
00000260: 3414 cd3d dfd7 85be 24e9 dfbe 241a 91be
00000270: 4c50 483f 818f 133f 4bb7 e03c 2c02 943d
00000280: 5856 133f cc7d da3b c339 6ebc a4d8 c1be
00000290: f827 af3d 2ae6 0fbe 9157 38be 3b3e e1bd
000002a0: e3cb 46bf 42a8 7a3c 5c17 553e 9601 fdbe
000002b0: ed0d 223f 0a41 e7bb 3a92 c13b 4da9 b7bd
000002c0: 3541 e1be a633 3cbf c943 9f3e 4ba6 c0be
000002d0: 8f57 403f ef08 85be face 243d e266 453f
000002e0: 8e4d 11bd ce23 aa3e d229 08be cab7 593e
000002f0: 1d12 e1be bcae b9be 2f5c 06bf 60d4 7cbd
00000300: 51b6 b83d e6b1 763e 7329 f03d 8d6d d93d
00000310: 7dc0 7ebd 272d 70be 3d28 2d3d 57b9 d4bd
00000320: 8032 8abc 16b5 41be a5b2 fb3d c72c e0bd
00000330: 9d5e fe3d 9cff e7bd 6841 34be dae8 dd3e
00000340: 5ea1 abbd 4525 8abb 691b 0fbf 238b 48be
00000350: 357f cebe 0ff5 133c ee05 28bf 8c19 5c3d
00000360: c183 26be a258 1fbf 8232 683e 0954 5ebe
00000370: 5833 2dbf dc37 b93e bd24 0a3f ea57 dbbc
00000380: 349f 4ebf 1f9a c6be dd3e c93d 9c77 1dbe
00000390: ac9c f7bc 7682 c93e 4f8a 293e fb75 c23c
000003a0: a51c d63e 107c c63e 1be6 fb3e ee8f fe3d
000003b0: acaa 3fbf b8e4 863e c30b 233e b54b efbe
000003c0: e49b 953a ee6c 91bd 765e 173f b753 903e
000003d0: 6905 a6bc b50a 94bf d17a 31be ba03 c9be
000003e0: a919 b83e 76c9 903d 75d9 df3e 8d76 d23e
000003f0: 13ae 6cbe ee35 9cbe ad2a a13e 1e25 4e3e

l3/W f4 [256, 256]
0.031473845 -0.1482821 0.035057936 -0.025783852 -0.026797712 -0.17643747 0.026850551 -0.09049013
-0.011210693 -0.011999627 -0.051380426 -0.029989138 0.18610625 -0.05618191 0.20609593 0.12187613
-0.10823672 0.05914508 -0.14768972 0.017383298 0.18625061 0.0026470094 0.18516243 0.022789814
0.17550112 -0.11541538 0.026143374 -0.0026513347 0.13265698 -0.11003064 0.16647173 -0.024891704
0.15985501 0.047369137 -0.010694542 -0.041738763 -0.025405172 0.019511662 0.1546375 0.09401618
0.013874003 -0.07270596 -0.094844885 -0.00015791308 -0.057815652 -0.0006948845 -0.11732161 -0.024878325
-0.017694358 0.082941584 -0.03577619 0.12397957 0.13084987 -0.074100025 0.15212905 0.06766799
0.06867153 -0.1421104 0.006957206 -0.08088181 -0.109018184 -0.11083761 -0.12840958 0.09881293
0.03449457 0.046370517 0.019763999 0.26447627 0.05118705 -0.05055822 0.08643241 -0.10580525
0.05131189 0.14327152 0.103970066 0.08051673 0.07755382 0.026193844 -0.16443036 -0.09287388
-0.054369655 -0.15906757 -0.08703558 0.006790411 -0.028429031 0.07699591 -0.15982068 -0.08940324
0.057704255 0.025516111 -0.03743451 0.0586521 0.13307822 0.026234308 -0.034880932 0.04457617
0.105211385 0.0005355537 -0.111062974 0.029193697 0.19606832 -0.042147797 0.021085221 -0.06273671
0.13632353 -0.10959982 0.099492885 0.11345648 -0.06803815 -0.090208195 -0.10114151 0.008108035
0.000117739524 -0.11378348 0.0019783378 -0.06779369 -0.09839568 -0.05997117 -0.073926345 0.039633904
-0.15300995 -0.1319337 -0.022777451 0.04856362 -0.026014011 -0.06208306 -0.012078647 -0.057708327
-0.09667762 -0.014431036 0.0057769744 0.12281725 -0.026974829 -0.12826945 0.12721264 0.1072041
-0.057337075 0.0484941 0.24074362 0.020515418 0.001952308 0.010377078 0.0032522304 -0.06555178
-0.0026577993 0.00015117163 -0.072337374 -0.05077757 0.02822671 -0.05917777 0.13527422 0.22637297
-0.16799287 0.029560357 0.0012375779 -0.14617272 -0.096690275 -0.17606221 0.015334883 0.028128726
0.0409026 0.06930921 -0.015626349 0.04724594 0.018496577 -0.095077254 -0.1271233 0.01605042
-0.07027161 0.24723767 0.043454655 -0.02602115 -0.1930515 -0.09798326 0.085420735 -0.025658347
0.020230131 0.048265554 -0.06820497 0.11493695 0.0499452 -0.021946497 0.040636346 0.012837443
0.0011220359 -0.15890586 -0.038494796 0.18449122 -0.09262997 -0.13634795 0.06330345 0.10410324
-0.023642777 -0.12587976 0.059133843 -0.07038599 -0.110106856 -0.1372799 0.095298514 0.062414665
-0.050805707 0.092725344 -0.044105537 0.0086084595 -0.16502139 -0.010170352 -0.15070248 -0.08050549
0.12183899 -0.17600852 -0.071660556 -0.041153897 0.041527413 0.050264027 0.015581933 0.015613683
0.21088116 0.053852722 0.36476728 0.005712896 -0.03551431 0.036277153 0.09619778 -0.025944091
-0.0379279 0.028517392 0.081641905 -0.020138701 0.002877362 -0.08145051 -0.119208 -0.037273943
0.122486554 -0.24094795 -0.061021935 -0.047845386 0.06424767 0.030745853 -0.010537895 0.1891367
0.013301632 -0.10855134 -0.10988315 -0.068924084 0.025360668 -0.08394969 0.10473361 0.17488615
-0.04606972 -0.08958203 0.039058037 -0.0019920017 0.15847373 0.050798547 0.159747 -0.0062748776
00000000: b8ea 003d 43d7 17be e998 0f3d a838 d3bc
00000010: e086 dbbc 06ac 34be b0f5 db3c e452 b9bd
00000020: 0ead 37bc 159a 44bc 4874 52bd c8ab f5bc
00000030: a392 3e3e 011f 66bd d00a 533e 319a f93d
00000040: 37ab ddbd 1d42 723d f93b 17be 6b67 8e3c
00000050: 7bb8 3e3e 7379 2d3b 389b 3d3e b4b1 ba3c
00000060: 91b6 333e e65e ecbd a12a d63c 04c2 2dbb
00000070: 3bd7 073e bf57 e1bd 9177 2a3e b0e9 cbbc
00000080: 08b1 233e 2406 423d 2938 2fbc 44f6 2abd
00000090: 821e d0bc ecd6 9f3c 4b59 1e3e 8e8b c03d
000000a0: c94f 633c dde6 94bd 093e c2bd 7895 25b9
000000b0: 1bd0 6cbd e928 36ba 5046 f0bd a1cd cbbc
000000c0: c2f3 90bc 47dd a93d 0e8a 12bd 00e9 fd3d
000000d0: 82fd 053e c1c1 97bd b8c7 1b3e 8495 8a3d
000000e0: a9a3 8c3d 6485 11be 46f9 e33b 5da5 a5bd
000000f0: ed44 dfbd d4fe e2bd cd7d 03be 6f5e ca3d
00000100: 2e4a 0d3d 03ef 3d3d 1ce8 a13c 6f69 873e
00000110: 83a9 513d 2316 4fbd 7a03 b13d 6cb0 d8bd
00000120: 6b2c 523d c5b5 123e 42ee d43d f5e5 a43d
00000130: 8ad4 9e3d 7994 d63c 6f60 28be a934 bebd
00000140: b7b2 5ebd 9ce2 22be b63f b2bd 1982 de3b
00000150: 00e4 e8bc 08b0 9d3d 08a8 23be 0c19 b7bd
00000160: 4c5b 6c3d 2a07 d13c ee54 19bd 2f3d 703d
00000170: a845 083e 55e9 d63c 4fdf 0ebd 8195 363d
00000180: 1179 d73d 6764 0c3a fc74 e3bd 9f27 ef3c
00000190: 22c6 483e 2ba3 2cbd eaba ac3c 1b7c 80bd
000001a0: 6598 0b3e df75 e0bd edc2 cb3d df5b e83d
000001b0: 9657 8bbd 13bf b8bd 4823 cfbd 90d7 043c
000001c0: edea f638 5007 e9bd 00a7 013b 6bd7 8abd
000001d0: ad83 c9bd 54a4 75bd b266 97bd 2957 223d
000001e0: a4ae 1cbe a119 07be c797 babc a5ea 463d
000001f0: 561b d5bc cf4a 7ebd 84e5 45bc 915f 6cbd
00000200: ebfe c5bd 2770 6cbc c64c bd3b 9c87 fb3d
00000210: 51fa dcbc 1159 03be 0844 023e d38d db3d
00000220: 48da 6abd c0a1 463d 7f85 763e f30f a83c
00000230: 96e4 ff3a 9f04 2a3c 5f23 553b 0340 86bd
00000240: 792e 2ebb d383 1e39 9e25 94bd 24fc 4fbd
00000250: b43b e73c 6464 72bd 5385 0a3e 51ce 673e
00000260: 5306 2cbe 9028 f23c 3936 a23a 4dae 15be
00000270: 8d05 c6bd a749 34be 293f 7b3c 376e e63c
00000280: 7c89 273d fdf1 8d3d d402 80bc f584 413d
00000290: 2286 973c ddb7 c2bd 9c2c 02be 2c7c 833c
000002a0: 90ea 8fbd df2b 7d3e 82fd 313d 4f2a d5bc
000002b0: 4baf 45be 73ab c8bd 11f1 ae3d 7431 d2bc
000002c0: a9b9 a53c 1ab2 453d 0caf 8bbd 1064 eb3d
000002d0: 5793 4c3d 24c9 b3bc 4c72 263d 2354 523c
000002e0: 4711 933a 38b8 22be b8ac 1dbd 44eb 3c3e
000002f0: c8b4 bdbd cc9e 0bbe 3da5 813d 1434 d53d
00000300: 7fae c1bc a0e6 00be 5436 723d 8826 90bd
00000310: b47f e1bd 1a93 0cbe de2b c33d 85a6 7f3d
00000320: a519 50bd c9e6 bd3d 02a8 34bd 7f0a 0d3c
00000330: 5efb 28be 8ca1 26bc c051 1abe 10e0 a4bd
00000340: b886 f93d 943b 34be c5c2 92bd fd90 28bd
00000350: a618 2a3d a7e1 4d3d 5d4b 7f3c 88d0 7f3c
00000360: 3bf1 573e ac94 5c3d c7c2 ba3e 3f33 bb3b
00000370: 7477 11bd 5a97 143d 5703 c53d b488 d4bc
00000380: 495a 1bbd 4e9d e93c df33 a73d ebf9 a4bc
00000390: 2092 3c3b 86cf a6bd 5323 f4bd 90ac 18bd
000003a0: 3bda fa3d 0fbb 76be 23f2 79bd 86f9 43bd
000003b0: 4894 833d bade fb3c 23a7 2cbc 0dad 413e
000003c0: 17ef 593c 2a50 debd 6b0a e1bd 1228 8dbd
000003d0: 2dc1 cf3c d1ed abbd 937e d63d 5b15 333e
000003e0: 9ab3 3cbd c976 b7bd 52fb 1f3d 3e8c 02bb
000003f0: f046 223e 2312 503d b894 233e 7d9d cdbb

l4/W f4 [16, 256]
0.07492989 0.063154966 0.19008863 0.027417075 -0.12778665 -0.14511119 -0.30770862 -0.19733915
-0.054978892 0.13626264 -0.115081415 -0.03994252 -0.01238077 -0.10653259 0.09435152 0.19701496
0.11124364 -0.04274375 -0.04548641 -0.31596965 0.23518519 -0.19507389 -0.13286158 0.006172116
-0.049625717 0.14871947 0.20021214 0.15501909 -0.08010082 0.18163496 0.14248733 0.005412546
-0.012482396 0.029894754 0.04371605 0.13443929 0.27895302 0.10032438 0.2215886 -0.19854684
0.21347392 0.08409259 -0.0898897 0.19549863 0.11828754 0.03870739 0.18685219 0.12168357
0.09504743 0.098802745 -0.024903707 -0.019198036 -0.010117698 0.22705828 -0.36827815 -0.12724446
0.34439212 -0.27882966 0.005934818 -0.35992378 -0.055424783 0.114075944 -0.044785272 -0.014765488
-0.20288415 0.05388197 -0.031941112 -0.1771816 -0.0347389 0.1956957 0.0024609314 0.20519817
-0.22974405 0.057755593 -0.3103173 0.07203447 -0.0033874952 -0.051523644 -0.07699711 0.19619985
0.028939381 -0.25395086 0.1147529 -0.1893813 -0.13750964 -0.09896366 0.04271574 -0.09819727
-0.13777702 0.0012906847 0.3495566 -0.09652332 0.15744054 0.19039677 0.13558155 0.16683663
-0.055907123 -0.12480416 0.07848162 -0.10825713 -0.15271352 0.115038715 -0.11929508 0.10297812
0.042999312 -0.08181873 0.10610714 0.21296196 0.01668631 0.28614053 -0.04656053 -0.16705514
-0.10113259 0.041535918 0.033359192 0.3446084 0.20517859 0.06884923 -0.17129686 -0.19444214
-0.13978356 -0.21357569 0.10519942 0.013193185 0.050673142 0.1874291 -0.17881408 0.0870294
0.02287932 0.1582408 0.1936074 0.15262327 0.045287192 0.112001374 0.07645618 0.09514717
-0.038570628 -0.1969136 -0.011430024 0.00010121355 0.042673968 -0.22603188 -0.1680352 0.21643199
0.03880167 -0.2663057 0.06675865 -0.08445329 0.119317025 0.01960064 0.044588607 -0.0767319
0.13918035 -0.08874678 -0.07113499 -0.09720298 -0.17753927 0.03712728 0.22699758 0.117355555
-0.052223627 -0.09243326 0.15805848 0.20313312 -0.13371883 0.12917241 -0.05810105 0.08016719
-0.11418508 0.04081658 0.19888267 -0.2742432 0.073787086 -0.1699132 0.17968005 0.014088595
0.08867423 0.20406312 0.05900676 -0.1831085 0.13082394 -0.29151574 -0.027865387 0.01710365
-0.044233873 -0.06995354 0.16673592 -0.32541928 -0.009786553 -0.38036504 0.16231437 0.011952503
-0.35610962 0.0038989813 -0.050433025 -0.13483362 0.0077659865 0.087704614 0.08974308 -0.22749208
0.04345579 0.23236914 -0.1060962 0.0667085 -0.1549667 0.13515556 0.20676756 -0.07389459
-0.04657173 -0.069514535 0.053032298 -0.14213008 -0.1389058 0.035610396 -0.14233744 -0.05281151
0.071114615 -0.06790479 0.11605796 -0.1295271 0.20243514 0.24459614 -0.034641933 0.1805488
0.046669386 -0.17752519 -0.063948095 -0.3613732 -0.042867042 0.07767456 0.029987855 0.014035928
0.073530294 -0.16815116 0.07863725 0.085420795 -0.041387733 -0.06823248 -0.2371502 0.30627036
0.15969431 -0.058043778 0.023561433 0.29901707 0.10454257 0.050635833 0.09336173 0.2557445
-0.175721 -0.069055654 -0.017725846 0.086738415 0.0145339025 0.14988117 -0.03925339 0.062554084
00000000: d874 993d 6457 813d 98a6 423e c699 e03c
00000010: 81da 02be 0798 14be fc8b 9dbe 4613 4abe
00000020: 8c31 61bd 6f88 0b3e ceaf ebbd c59a 23bd
00000030: b7d8 4abc c22d dabd 5f3b c13d 4abe 493e
00000040: b5d3 e33d 1214 2fbd f54f 3abd c6c6 a1be
00000050: 63d4 703e 73c1 47be de0c 08be 763f ca3b
00000060: 5644 4bbd eb49 183e 6904 4d3e 53bd 1e3e
00000070: e60b a4bd 84fe 393e 33e8 113e ba5b b13b
00000080: f782 4cbc d8e5 f43c 9a0f 333d 74aa 093e
00000090: eed2 8e3e de76 cd3d 1fe8 623e dd4f 4bbe
000000a0: e898 5a3e bc38 ac3d 1718 b8bd cb30 483e
000000b0: bd40 f23d a48b 1e3d 2e56 3f3e 3c35 f93d
000000c0: 3aa8 c23d 1859 ca3d dc02 ccbc 3345 9dbc
000000d0: b4c4 25bc f781 683e f48e bcbe 5f4c 02be
000000e0: 2a54 b03e c3c2 8ebe dd78 c23b ee47 b8be
000000f0: 1905 63bd a6a0 e93d c370 37bd f2ea 71bc
00000100: ddc0 4fbe 57b3 5c3d afd4 02bd 186f 35be
00000110: 604a 0ebd 7464 483e 9447 213b 781f 523e
00000120: 0642 6bbe 2191 6c3d e9e1 9ebe cf86 933d
00000130: bd00 5ebb 750a 53bd a9b0 9dbd 9de8 483e
00000140: 4812 ed3c d905 82be 9203 eb3d 2ced 41be
00000150: 54cf 0cbe 76ad cabd b3f6 2e3d a61b c9bd
00000160: 6b15 0dbe 312c a93a 15f9 b23e 05ae c5bd
00000170: 1838 213e 5ff7 423e e4d5 0a3e 39d7 2a3e
00000180: defe 64bd 5399 ffbd f9ba a03d eab5 ddbd
00000190: ef60 1cbe 6b99 eb3d fb50 f4bd 31e6 d23d
000001a0: 0c20 303d 9490 a7bd b34e d93d b312 5a3e
000001b0: bab1 883c 0381 923e 41b6 3ebd 8110 2bbe
000001c0: 9a1e cfbd 9121 2a3d a6a3 083d 8370 b03e
000001d0: 561a 523e d300 8d3d 7268 2fbe d71b 47be
000001e0: 6c23 0fbe 96b3 5abe cb72 d73d 3b28 583c
000001f0: a48e 4f3d 6aed 3f3e 0a1b 37be 783c b23d
00000200: 696d bb3c e009 223e 0541 463e 4649 1c3e
00000210: 107f 393d fa60 e53d 0f95 9c3d 85dc c23d
00000220: 3cfc 1dbd b8a3 49be ff44 3bbc 9c42 d438
00000230: e6ca 2e3d e774 67be 6b11 2cbe 59a0 5d3e
00000240: 80ee 1e3d 3959 88be c2b8 883d d9f5 acbd
00000250: 7c5c f43d 8591 a03c 8ba2 363d 9d25 9dbd
00000260: 4b85 0e3e dfc0 b5bd 39af 91bd 5b12 c7bd
00000270: dbcc 35be c612 183d 0e72 683e 1c58 f03d
00000280: 71e8 55bd a64d bdbd 15da 213e 2102 503e
00000290: 97ed 08be c645 043e 5efb 6dbd b22e a43d
000002a0: ded9 e9bd 492f 273d e6a7 4b3e 9b69 8cbe
000002b0: af1d 973d bafd 2dbe 0cfe 373e dad3 663c
000002c0: d69a b53d ecf5 503e 13b1 713d cb80 3bbe
000002d0: b6f6 053e 8d41 95be f445 e4bc f41c 8c3c
000002e0: 942e 35bd cd43 8fbd d2bc 2a3e 5b9d a6be
000002f0: c757 20bc 35bf c2be bd35 263e 6ed4 433c
00000300: 0054 b6be 0d86 7f3b dc92 4ebd d311 0abe
00000310: d179 fe3b 7a9e b33d 38cb b73d aff3 68be
00000320: b3fe 313d 2df2 6d3e f748 d9bd 779e 883d
00000330: 97af 1ebe 3866 0a3e e0ba 533e 0c56 97bd
00000340: 00c2 3ebd a35d 8ebd 6538 593d 8c8a 11be
00000350: 523d 0ebe 35dc 113d e8c0 11be e250 58bd
00000360: 8aa4 913d ab11 8bbd ccaf ed3d c1a2 04be
00000370: 284b 4f3e 6977 7a3e b3e4 0dbd c9e1 383e
00000380: 6628 3f3d 2ac9 35be 38f7 82bd e805 b9be
00000390: 5a95 2fbd d713 9f3d 17a9 f53c f3f6 653c
000003a0: 0d97 963d d12f 2cbe 910c a13d 19f1 ae3d
000003b0: 2f86 29bd 78bd 8bbd 81d7 72be 78cf 9c3e
000003c0: e886 233e 50bf 6dbd e803 c13c c418 993e
000003d0: 6a1a d63d 8567 4f3d 6f34 bf3d f1f0 823e
000003e0: 35f0 33be 0d6d 8dbd cb35 91bc e9a3 b13d
000003f0: 9b1f 6e3c 737a 193e 2ac8 20bd 5b1c 803d

l2/W f4 [256, 256]
-0.008897369 -0.033964437 -0.04316011 0.14731917 -0.042618703 -0.0046217004 0.06076207 -0.037175104
0.046576906 -0.16426861 -0.014434809 0.060432214 -0.034479 0.1272959 -0.06535429 0.13597162
0.14347504 0.17282362 -0.09280179 -0.060746327 0.049045704 0.10554532 -0.30122235 -0.012887475
0.16644491 -0.096404284 0.0231375 -0.09780912 0.10511926 0.0024488415 0.072251216 -0.07680045
-0.11034263 0.003994687 -0.07992885 -0.048062883 -0.04098444 0.0053081526 -0.058451626 -0.027545625
-0.033232603 0.071598105 0.04858749 -0.09712039 0.14731467 -0.014984765 0.0890007 -0.013415196
-0.008936725 0.04542953 -0.09201059 0.057818163 0.1276547 -0.060052518 0.14021188 -0.020351337
-0.059908245 0.054648165 -0.062189445 -0.025698965 -0.035894472 0.00453543 0.019547924 0.046789948
0.04652524 -0.0877233 0.15428177 0.05748304 0.029121872 -0.15779835 -0.10692046 0.1517531
-0.054874618 -0.14639787 0.22064918 0.0129999975 -0.011749101 -0.022862418 0.20237659 0.03330901
0.009905223 0.070323505 -0.025954004 -0.04236942 -0.018406443 0.06792878 0.02617482 0.13750552
-0.0076412167 0.121635176 -0.2523769 0.01951655 0.030387891 -0.041456107 -0.09778781 -0.09850479
-0.0073165484 -0.053243253 0.049831256 0.16418026 -0.009640969 -0.27123094 0.053834364 -0.099560894
0.018695408 0.024830189 0.1561055 0.014516081 0.15259863 0.08481798 0.025366362 -0.10153607
0.067295864 0.11359998 0.08769313 0.17066297 0.13770537 -0.0042794044 -0.06250251 -0.10951336
0.093672566 0.07366817 -0.06382821 0.06835928 -0.08519786 -0.10061659 0.05286024 0.21733542
-0.08609497 0.035116192 -0.051668722 0.1360109 -0.24002656 0.047564548 -0.028022055 -0.057472978
0.13130942 -0.054520763 0.086406134 0.004349663 0.11207826 0.14437562 0.14660524 -0.18850933
-0.10168149 0.015637636 -0.057801865 0.010128318 -0.05654916 -0.10273885 -0.027089022 -0.09469771
0.012615102 -0.018871516 0.14483254 0.079341665 -0.08488774 -0.024295816 0.008291208 -0.08435544
-0.15835653 0.16306455 -0.014578848 -0.10186048 0.034147374 0.04189467 0.0059617152 -0.060183182
-0.10717508 0.16002436 -0.08610826 -0.061522324 -0.072451144 -0.044689026 0.06202337 -0.18207535
0.044611517 -0.086973526 0.08482482 -0.0009975377 0.15961795 0.0065951548 0.23908208 -0.16849147
-0.08425425 0.009804045 -0.011762938 0.017197901 0.01835961 0.12738691 -0.012638804 -0.025303805
-0.03536114 -0.006422577 0.078753695 -0.20179358 -0.076835394 0.08598279 -0.03962818 -0.041320875
0.016676081 0.09445891 0.10452825 0.1990324 0.057877433 0.13066651 -0.13877676 -0.0062084957
-0.11130447 -0.09598065 0.18387873 0.0016995838 -0.03955615 0.0044366075 -0.16300172 -0.170087
-0.042158917 0.1502382 0.07960204 -0.07732998 -0.054539736 0.10867779 0.014088483 0.07967817
-0.12659194 0.09380727 0.026698135 -0.050124172 -0.08439606 -0.21118556 0.04710256 -0.015495492
0.0029726378 0.14211641 0.22631074 0.044040058 -0.051700022 -0.11922721 0.017562235 0.03630431
-0.10621618 -0.111268304 0.016753104 0.091877684 0.036615204 0.03908309 0.11152148 -0.14664224
0.11331599 -0.10865759 -0.10058595 -0.075290434 0.042842645 -0.08101774 -0.12900531 0.03792372
00000000: 45c6 11bc 4b1e 0bbd a8c8 30bd d6da 163e
00000010: f390 2ebd a271 97bb a6e1 783d ec44 18bd
00000020: 6dc7 3e3d 0836 28be fa7f 6cbc c587 773d
00000030: da39 0dbd db59 023e 78d8 85bd 253c 0b3e
00000040: 1feb 123e adf8 303e dd0e bebd 24d1 78bd
00000050: 26e4 483d 2528 d83d d139 9abe fd25 53bc
00000060: 8970 2a3e 9c6f c5bd db8a bd3c 2650 c8bd
00000070: c448 d73d be7c 203b 72f8 933d 8e49 9dbd
00000080: 51fb e1bd dde5 823b bdb1 a3bd 96dd 44bd
00000090: 4ddf 27bd 03f0 ad3b f96a 6fbd 5da7 e1bc
000000a0: e91e 08bd 07a2 923d ad03 473d 0ee7 c6bd
000000b0: a8d9 163e a982 75bc 0046 b63d 69cb 5bbc
000000c0: 576b 12bc 5114 3a3d 0c70 bcbd bdd2 6c3d
000000d0: eab7 023e a1f9 75bd b493 0f3e d9b7 a6bc
000000e0: 5962 75bd c1d6 5f3d 5cba 7ebd a386 d2bc
000000f0: 1506 13bd f29d 943b f822 a03c d1a6 3f3d
00000100: 4091 3e3d 46a8 b3bd 0afc 1d3e 5673 6b3d
00000110: fe90 ee3c e495 21be 1df9 dabd 2a65 1b3e
00000120: 35c4 60bd 53e9 15be dcf1 613e f1fd 543c
00000130: 4d7f 40bc f749 bbbc cf3b 4f3e 076f 083d
00000140: 8449 223c c505 903d 7e9d d4bc 8f8b 2dbd
00000150: 1cc9 96bc 3f1e 8b3d 936c d63c 3fce 0c3e
00000160: 2c63 fabb dd1b f93d 8c37 81be 2ce1 9f3c
00000170: 07f0 f83c e1cd 29bd fa44 c8bd e1bc c9bd
00000180: a8bf efbb 9915 5abd dc1b 4c3d df1e 283e
00000190: 28f5 1dbc c8de 8abe 6c81 5c3d 95e6 cbbd
000001a0: 1d27 993c ae68 cb3c 1fda 1f3e dbd4 6d3c
000001b0: d142 1c3e 0db5 ad3d 1ecd cf3c 25f2 cfbd
000001c0: 6ad2 893d 1ba7 e83d 7598 b33d 46c2 2e3e
000001d0: a302 0d3e 3f3a 8cbb 5101 80bd 8a48 e0bd
000001e0: 67d7 bf3d 56df 963d 5db8 82bd f3ff 8b3d
000001f0: 377c aebd 1210 cebd fb83 583d 2d8d 5e3e
00000200: 8f52 b0bd ffd5 0f3d 95a2 53bd 7146 0b3e
00000210: 86c9 75be 0bd3 423d 828e e5bc c968 6bbd
00000220: fa75 063e 2a51 5fbd b3f5 b03d 9e87 8e3b
00000230: 4989 e53d 34d7 133e af1f 163e 9708 41be
00000240: 633e d0bd 801a 803c a6c1 6cbd 3ff1 253c
00000250: 18a0 67bd bf68 d2bd cce9 ddbc dff0 c1bd
00000260: 93af 4e3c 7098 9abc fb4e 143e e27d a23d
00000270: a0d9 adbd 0508 c7bc d9d7 073c 8cc2 acbd
00000280: 3728 22be 65fa 263e 1fdc 6ebc 3a9c d0bd
00000290: 1ede 0b3d bf99 2b3d 7e5a c33b a482 76bd
000002a0: 9c7e dbbd 6ddd 233e 8759 b0bd d5fe 7bbd
000002b0: 4461 94bd d70b 37bd 380c 7e3d f671 3abe
000002c0: 91ba 363d 2d1f b2bd a3b8 ad3d d0bf 82ba
000002d0: e372 233e 2b1c d83b efd1 743e 0789 2cbe
000002e0: 7e8d acbd 25a1 203c 57b9 40bc 9de2 8c3c
000002f0: e566 963c b771 023e fc12 4fbc ed49 cfbc
00000300: d8d6 10bd 7b74 d2bb 9e49 a13d faa2 4ebe
00000310: e05b 9dbd bf17 b03d 2951 22bd 1440 29bd
00000320: 479c 883c ac73 c13d e812 d63d 26cf 4b3e
00000330: e310 6d3d 71cd 053e 7f1b 0ebe a370 cbbb
00000340: 99f3 e3bd 8191 c4bd b54a 3c3e 92c4 de3a
00000350: a105 22bd f660 913b ece9 26be 492b 2ebe
00000360: d4ae 2cbd 0bd8 193e 6506 a33d 2e5f 9ebd
00000370: 0f65 5fbd 7692 de3d 61d3 663c 4f2e a33d
00000380: 51a1 01be 071e c03d 0cb6 da3c 014f 4dbd
00000390: d7d7 acbd 0741 58be 9dee 403d cee0 7dbc
000003a0: 96d0 423b f786 113e 01be 673e 5963 343d
000003b0: 67c3 53bd 652d f4bd adde 8f3c d4b3 143d
000003c0: de87 d9bd a3e0 e3bd ce3d 893c 5e2a bc3d
000003d0: d3f9 153d 9715 203d 6065 e43d 6229 16be
000003e0: 3712 e83d df87 debd 0200 cebd df31 9abd
000003f0: c57b 2f3d a1ec a5bd f819 04be e755 1b3d

l1/b f4 [256]
-0.05987495 -0.07000246 0.0059761843 -0.042364024 0.051553797 0.07114336 -0.09972734 -0.029256525
0.028345354 -0.09181324 0.14138867 0.13411991 -0.09959273 -0.014265166 -0.13417259 0.0005712673
0.004391105 0.05726221 0.01895021 0.003437842 -0.25797525 0.07330097 -0.04569924 -0.05973136
-0.048171602 0.060050193 0.07988662 0.08851315 0.0 0.015989792 0.08427435 0.010937839
-0.12513112 0.050917767 -0.137365 -0.014129561 -0.039225638 0.005082204 0.05612761 -0.018874789
0.059263214 0.013748374 -0.21368499 -0.05455905 0.058996662 -0.05470145 0.06779669 0.028815469
0.02551513 0.07699351 0.045130502 0.05623646 -0.28398168 0.10224644 -0.06682374 0.016162273
-0.121993825 0.048564907 0.0050057545 0.007115723 -0.028236145 0.043298043 0.059036728 0.08719468
0.064629674 0.00750676 0.040547997 0.0033382496 0.026136352 0.04223062 0.02989327 -0.07080105
-0.0052925805 0.07746722 -0.038428105 0.008967493 -0.09092272 -0.048560534 -0.023054235 -0.057541516
0.072374985 0.08512352 -0.16836967 0.03092433 0.05335208 0.07493707 -0.009782064 0.010082881
-0.06225269 -0.1558804 -0.20535943 0.076915644 0.012187249 0.077384464 -0.008617557 -0.010792577
-0.113625444 -0.021497665 0.008790753 0.080091745 0.058172736 0.014887349 0.07439825 0.055894397
-0.030587692 0.032207724 0.13233823 0.040971965 0.0968306 -0.005237916 -0.013738978 -0.09048905
0.10234104 0.03255711 -0.1952792 -0.0029624007 0.06961111 -0.053640552 0.0013861961 -0.16786048
0.0069976007 0.13020054 0.08744816 0.04395767 0.038971074 -0.046507023 0.06722944 0.05906942
0.049898405 0.04513279 -0.08974622 0.08504104 -0.22237602 0.06302709 0.02631625 -0.076767445
0.0032173775 0.024133505 -0.12798013 0.040186286 0.012634891 0.095181145 0.07918238 0.08422694
0.004434569 0.051035885 0.061263226 -0.10265231 0.06318317 0.07591143 -0.0782391 -0.069137
0.000988408 -0.2359238 0.09032774 -0.017708143 0.07451512 -0.060220633 0.10961648 0.05049602
0.010695444 0.055302653 0.06028926 0.011835504 -0.048816845 -0.15958084 0.08191028 0.09026831
-0.034429416 -0.043264933 0.022692025 -0.10873267 0.054465238 -0.019027172 0.03571499 -0.15631522
-0.21713237 0.06172518 0.07822625 -0.02997719 0.110069886 -0.12686074 -0.1557391 -0.015755918
-0.03970059 -0.14596877 -0.09243966 0.015077871 -0.021979982 0.05194568 0.06668036 -0.19687064
0.016874613 0.07087741 -0.00069965154 0.06902104 0.112918995 -0.082592435 0.025010781 0.105630435
-0.13237903 0.050725028 0.04958265 0.04317597 0.08384151 0.10611037 0.084331326 0.10772342
0.0 0.11158414 -0.07738715 0.07266644 0.12144917 0.06056305 -0.16232088 0.03963896
-0.056214675 0.02535542 0.07634321 0.022567224 -0.21007034 0.006611534 0.022458373 0.068961985
0.10228218 -0.008226625 -0.084415816 -0.0074158106 -0.049509145 0.04746807 0.092741214 0.059988998
-0.034644876 -0.11539288 0.048229318 0.021950148 -0.07313138 0.029849289 -0.09436222 -0.01156394
0.02974789 -0.100095056 -0.0033640235 0.08703681 -0.04613799 0.05721087 -0.078463234 -0.03963662
0.031906277 0.045670502 -0.048627973 0.02236166 -0.19256356 -0.20671222 -0.04097093 -0.13509887
00000000: 703f 75bd 735d 8fbd ded3 c33b e685 2dbd
00000010: 132a 533d 9cb3 913d d93d ccbd 61ab efbc
00000020: 8434 e83c 9408 bcbd 31c8 103e bb56 093e
00000030: 46f7 cbbd 71b8 69bc 8a64 09be 19c1 153a
00000040: 42e3 8f3b c78b 6a3d 793d 9b3c 6b4d 613b
00000050: 5515 84be d21e 963d 202f 3bbd dfa8 74bd
00000060: 964f 45bd 31f7 753d 999b a33d 6246 b53d
00000070: 0000 0000 06fd 823c 0898 ac3d 9f34 333c
00000080: 5f22 00be 268f 503d 69a9 0cbe ad7f 67bc
00000090: 10ab 20bd 9e88 a63b 11e6 653d 4d9f 9abc
000000a0: fcbd 723d dc40 613c 3dd0 5abe 4f79 5fbd
000000b0: 7ca6 713d a10e 60bd fed8 8a3d 6b0e ec3c
000000c0: 1b05 d13c c6ae 9d3d c3da 383d 3458 663d
000000d0: 0c66 91be 9566 d13d e3da 88bd be66 843c
000000e0: e6d7 f9bd ffeb 463d 5007 a43b 032b e93b
000000f0: 7d4f e7bc 4a59 313d 7fd0 713d 2093 b23d
00000100: 905c 843d 44fb f53b a815 263d 89c6 5a3b
00000110: e71b d63c 04fa 2c3d bbe2 f43c 2400 91bd
00000120: 626d adbb 22a7 9e3d ca66 1dbd 64ec 123c
00000130: b135 babd 69e7 46bd 3cdc bcbc a7b0 6bbd
00000140: 5639 943d 3d55 ae3d 1969 2cbe 0555 fd3c
00000150: b687 5a3d 9b78 993d f344 20bc ab32 253c
00000160: adfc 7ebd 1d9f 1fbe be49 52be f385 9d3d
00000170: 07ad 473c bf7b 9e3d a730 0dbc 59d3 30bc
00000180: 75b4 e8bd df1b b0bc 1707 103c 2407 a43d
00000190: 8946 6e3d 11ea 733c 1c5e 983d 86f1 643d
000001a0: 0a93 fabc 3fec 033d ac83 073e 38d2 273d
000001b0: 1f4f c63d d3a2 abbb 7319 61bc 5352 b9bd
000001c0: 2e98 d13d 9b5a 053d 45f7 47be d624 42bb
000001d0: 4590 8e3d 32b6 5bbd 06b1 b53a 9ee3 2bbe
000001e0: 214c e53b 4a53 053e 0518 b33d f50c 343d
000001f0: 22a0 1f3d 267e 3ebd 97af 893d c7f2 713d
00000200: 4562 4c3d 29dd 383d decc b7bd ff29 ae3d
00000210: 8ab6 63be 5914 813d 2d95 d73c 4038 9dbd
00000220: a3da 523b a1b3 c53c 390d 03be 609a 243d
00000230: 9302 4f3c 55ee c23d 5f2a a23d 2d7f ac3d
00000240: dc4f 913b 010b 513d 26ef 7a3d 603b d2bd
00000250: 2e66 813d 7477 9b3d d23b a0bd b397 8dbd
00000260: 788d 813a 0296 71be c0fd b83d ab10 91bc
00000270: 629b 983d e9a9 76bd 9b7e e03d ead4 4e3d
00000280: f23b 2f3c 0985 623d dff1 763d b4e9 413c
00000290: 2cf4 47bd 2969 23be 94c0 a73d 97de b83d
000002a0: dc05 0dbd 9236 31bd a0e4 b93c 3caf debd
000002b0: f116 5f3d dfde 9bbc e249 123d 1911 20be
000002c0: f357 5ebe 8bd3 7c3d 1635 a03d b992 f5bc
000002d0: 526c e13d c8e7 01be 127a 1fbe 8e12 81bc
000002e0: 169d 22bd d678 15be 0151 bdbd 2d09 773c
000002f0: 5d0f b4bc fec4 543d b68f 883d 7598 49be
00000300: a13c 8a3c 2d28 913d d268 37ba e75a 8d3d
00000310: 1342 e73d 3926 a9bd 69e3 cc3c c554 d83d
00000320: 5e8e 07be 0cc5 4f3d 2d17 4b3d 49d9 303d
00000330: 19b5 ab3d 6550 d93d e7b5 ac3d 199e dc3d
00000340: 0000 0000 3a86 e43d 277d 9ebd 24d2 943d
00000350: 58ba f83d f610 783d 7237 26be 765c 223d
00000360: 5c41 66bd 2bb6 cf3c d459 9c3d e6de b83c
00000370: ae1c 57be 91a5 d83b 9ffa b73c f13b 8d3d
00000380: 5279 d13d f7c8 06bc 33e2 acbd 5400 f3bb
00000390: 1aca 4abd e16d 423d 1bef bd3d 06b7 753d
000003a0: c9e7 0dbd 1a53 ecbd 1b8c 453d ccd0 b33c
000003b0: e8c5 95bd 7f86 f43c fb40 c1bd ae76 3dbc
000003c0: d9b1 f33c a3fe ccbd f376 5cbb 5b40 b23d
000003d0: 30fb 3cbd f255 6a3d 55b1 a0bd 025a 22bd
000003e0: 28b0 023d fe10 3b3d 202e 47bd cd2f b73c
000003f0: 622f 45be 5eac 53be 22d1 27bd 5c57 0abe

l3/b f4 [256]
0.12010266 0.016753305 0.0024716954 -0.032311946 -0.024430908 -0.020761963 -0.027898936 -0.028423753
-0.02958464 0.0056110704 -0.013309103 0.015057526 0.068352066 -0.025656145 0.028268358 0.027852511
-0.029650766 -0.03467362 0.008505265 0.00019759497 0.0054141073 -0.038603343 -0.0041783084 0.0023332073
0.048406612 0.052774742 0.06377227 -0.022619484 -0.005549235 -0.029861521 0.016638258 -0.013853122
0.020198753 -0.019923888 -0.0055055395 0.00941515 -0.00594603 0.026925353 0.0012323484 -0.058292918
0.0917324 0.09599879 -0.021416545 0.071533784 -0.033350814 -0.030542007 -0.009918089 -0.024747418
0.04674844 -0.034638654 0.031231536 0.064552575 0.027105587 0.09182802 0.030038487 0.008445555
0.0020786847 0.05305565 -0.012214513 -0.026873212 0.00557294 0.03959981 -0.02855668 -0.008567116
-0.003947636 0.040429346 -0.02569724 -0.03279932 -0.013946136 0.13421603 0.096327305 -0.0038365568
-0.02735905 -0.0132326735 -0.022125041 0.011040225 0.0033911704 0.011802839 0.00846095 0.008942583
0.014705792 -0.013987131 0.06736573 -0.0455705 0.0049484563 0.052648764 0.006977105 0.008947714
-0.01053396 -0.014936534 -0.019601528 -0.022106282 0.06624442 -0.025536206 0.042931773 0.009749549
0.01280502 0.0021282572 -0.0034755587 -0.0068255407 0.0034515564 -0.030426996 -0.035966273 -0.017711231
-0.026054725 -0.023751803 -0.028409112 0.020632718 0.04587902 -0.024315357 -0.026614876 0.045017205
-0.022662932 -0.009338121 -0.01530659 -0.0058272993 0.021443168 -0.028706001 -0.0120765865 -0.01973437
0.011396236 0.009812561 0.09866797 0.0040182215 0.056831993 0.021734247 -0.010486772 -0.028590195
0.020737633 -0.0014895798 0.05303027 0.09525946 -0.01698831 0.025142362 -0.0050817723 0.041361813
0.0030360639 -0.01296022 0.054877687 0.06882417 0.05981265 -0.011203158 0.004728447 0.06948876
-0.015182728 -0.0018613389 0.0028010125 -0.02300936 0.011103856 0.011486084 0.0054584355 0.0028463874
0.010008915 0.014006058 0.009052265 -0.024981696 -0.039323494 -0.012218856 0.03640461 -0.030560056
-0.041400097 -0.0097433245 -0.013744714 -0.0068656104 -0.015031353 0.005567923 -0.0010503056 -0.009885299
0.0045022257 0.0010618226 0.03260744 -0.015449082 -0.008527788 -0.011065021 -0.0064261556 -0.019606326
0.021607896 0.020188335 -0.037235923 0.0020810612 -0.029380186 -0.010506882 -0.02685386 0.014261939
-0.022481745 0.024700718 0.0033739847 -0.0096083665 0.0013585337 -0.023321502 0.059624717 -0.01820736
0.020103376 0.07222475 0.006083613 0.005949562 0.017626395 -0.0011967687 -0.018631397 -0.01879557
-0.026396675 0.023894371 -0.0037635418 0.010007561 -0.011197607 0.07574919 -0.013326505 0.0068185367
0.048966102 -0.02098378 -0.03649022 -0.0042385114 0.012430641 -0.0075360695 -0.0012934391 0.0070959223
-0.035756044 -0.008515639 -0.0053937733 -0.061365865 -0.002585204 -0.008474155 -0.01568484 0.026077634
-0.006609898 -0.034287114 0.042233672 -0.040071644 -0.009035418 0.012116231 -0.001645303 0.106649935
0.08679878 -0.034166843 0.019811032 0.015358403 -0.00578593 -0.018885626 -0.0101374965 0.011538798
-0.016014706 0.016204612 0.038701836 0.061207574 0.09900508 -0.052616555 0.036232036 -0.0010854702
-0.015366403 0.013634497 -0.010867851 -0.022430943 -0.001440724 0.037907254 -0.066853695 0.0053882855
00000000: 62f8 f53d 3a3e 893c 2bfc 213b 8859 04bd
00000010: 5423 c8bc fe14 aabc 4f8c e4bc eed8 e8bc
00000020: 7d5b f2bc 12dd b73b 6d0e 5abc d7b3 763c
00000030: 2bfc 8b3d d62c d2bc 0b93 e73c f32a e43c
00000040: 2ae6 f2bc ed05 0ebd ab59 0b3c 7f31 4f39
00000050: d368 b13b 8a1e 1ebd 31ea 88bb b9e8 183b
00000060: 0346 463d 542a 583d 099b 823d 7f4c b9bc
00000070: 5bd6 b5bb 26a0 f4bc f54c 883c 34f8 62bc
00000080: db77 a53c 6c37 a3bc d067 b4bb 0042 1a3c
00000090: ead6 c2bb 8f92 dc3c c086 a13a 8ec4 6ebd
000000a0: 32de bb3d 039b c43d c071 afbc 4e80 923d
000000b0: dd9a 08bd 3b33 fabc 7b7f 22bc 19bb cabc
000000c0: 4b7b 3f3d 43e1 0dbd 47d9 ff3c 2434 843d
000000d0: 890c de3c 5410 bc3d 4613 f63c 3a5f 0a3c
000000e0: 8b3a 083b e250 593d 611f 48bc 3625 dcbc
000000f0: 369d b63b 6933 223d b3ef e9bc 175d 0cbc
00000100: 2c5b 81bb 3e99 253d 0583 d2bc 9458 06bd
00000110: 567e 64bc ed6f 093e 4047 c53d be6e 7bbb
00000120: 1620 e0bc dbcd 58bc 933f b5bc 0fe2 343c
00000130: 663e 5e3b b260 413c cc9f 0a3c e983 123c
00000140: 90f0 703c 482a 65bc 0bf7 893d 22a8 3abd
00000150: a926 a23b 3ba6 573d 33a0 e43b 6f99 123c
00000160: a196 2cbc 5db8 74bc 6293 a0bc 3c18 b5bc
00000170: 28ab 873d 4e31 d1bc 3ad9 2f3d 93bc 1f3c
00000180: 26cc 513c 3b7a 0b3b 33c6 63bb c9a8 dfbb
00000190: 8233 623b 0942 f9bc 5f51 13bd 2517 91bc
000001a0: b870 d5bc 2493 c2bc 3aba e8bc f205 a93c
000001b0: a4eb 3b3d 0031 c7bc 7107 dabc f663 383d
000001c0: 9da7 b9bc ebfe 18bc 7ec8 7abc eef2 bebb
000001d0: 95a9 af3c d928 ebbc e0dc 45bc f9a9 a1bc
000001e0: 47b7 3a3c ddc4 203c 6f12 ca3d 49ab 833b
000001f0: aac8 683d 050c b23c b6d0 2bbc fc35 eabc
00000200: f8e1 a93c 013e c3ba 4536 593d 6417 c33d
00000210: 112b 8bbc 5bf7 cd3c ff84 a6bb 016b 293d
00000220: b3f8 463b 1a57 54bc 6dc7 603d b0f3 8c3d
00000230: 1cfe 743d 738d 37bc 17f1 9a3b 1f50 8e3d
00000240: fac0 78bc 2bf8 f3ba 3191 373b 207e bcbc
00000250: f3ec 353c 2130 3c3c addc b23b 758a 3a3b
00000260: 6ffc 233c aa79 653c f44f 143c 6aa6 ccbc
00000270: ac11 21bd 9931 48bc 001d 153d 1559 fabc
00000280: 2693 29bd 77a2 1fbc 8231 61bc eaf8 e0bb
00000290: 1046 76bc 2073 b63b 68aa 89ba f3f5 21bc
000002a0: 6887 933b db2c 8b3a 618f 053d 251e 7dbc
000002b0: 23b8 0bbc 104a 35bc 8092 d2bb 729d a0bc
000002c0: 0b03 b13c 0262 a53c b284 18bd 6a62 083b
000002d0: b7ae f0bc 0f25 2cbc a0fc dbbc e8aa 693c
000002e0: a32b b8bc 2959 ca3c 121e 5d3b 696c 1dbc
000002f0: d410 b23a bc0c bfbc 0c39 743d 9a27 95bc
00000300: d6af a43c 92ea 933d 0b59 c73b 8bf4 c23b
00000310: 3b65 903c e5dc 9cba dfa0 98bc 2bf9 99bc
00000320: d73d d8bc 21be c33c c1a5 76bb c1f6 233c
00000330: 2b76 37bc 6422 9b3d 6a57 5abc 086e df3b
00000340: ae90 483d 2de6 abbc c576 15bd 36e3 8abb
00000350: e3a9 4b3c 22f1 f6bb 9d88 a9ba e984 e83b
00000360: ee74 12bd 2e85 0bbc 40be b0bb c65a 7bbd
00000370: 876c 29bb 2fd7 0abc 7e7d 80bc c3a0 d53c
00000380: d897 d8bb a570 0cbd 37fd 2c3d 2a22 24bd
00000390: 4a09 14bc 2883 463c 35a7 d7ba 486b da3d
000003a0: 8fc3 b13d 88f2 0bbd bf4a a23c d0a1 7b3c
000003b0: e697 bdbb 07b6 9abc be17 26bc 3a0d 3d3c
000003c0: 4631 83bc 89bf 843c d185 1e3d cbb4 7a3d
000003d0: 2dc3 ca3d 7584 57bd 0b68 143d 5646 8eba
000003e0: 5ec3 7bbc 3a63 5f3c 120f 32bc 19c1 b7bc
000003f0: add6 bcba a344 1b3d 97ea 88bd 3790 b03b

l4/b f4 [16]
0.056360543 0.05360252 0.07727897 0.06454179 0.04458336 -0.023245387 -0.026142927 0.043742348
0.055486303 -0.029550673 0.0 0.07387286 0.06614784 0.018747088 0.051990535 0.06346839
00000000: 50da 663d 518e 5b3d 7044 9e3d 7c2e 843d
00000010: 0b9d 363d 1c6d bebc b129 d6bc 2d2b 333d
00000020: 9b45 633d 4114 f2bc 0000 0000 a74a 973d
00000030: 8578 873d 7e93 993c 07f4 543d b7fb 813d
