examples/ch4/reversi_DQN_CNN/agent_white_12000/target_model.npz (npz, 35986 bytes, 10 tensors)

c3/b f4 [16]
-0.44647226 -0.31038982 0.0 1.0995076 0.89416915 0.8033409 0.14315379 -0.12620799
0.0 0.028499575 0.48431703 -0.11541189 -0.45277932 -0.02865909 0.33461082 -0.030536396
00000000: 0398 e4be 6aeb 9ebe 0000 0000 aabc 8c3f
00000010: 45e8 643f c0a7 4d3f e896 123e ab3c 01be
00000020: 0000 0000 f177 e93c 67f8 f73e 125d ecbd
00000030: b1d2 e7be 78c6 eabc 1c52 ab3e 7727 fabc

c1/W f4 [4, 1, 2, 2]
1.0468135 -0.6612561 -1.0021328 0.20706479 -0.76675457 0.087606266 -0.39164782 0.58456624
0.61199594 0.19814342 0.21701568 -0.02767845 -0.08232394 0.24515206 0.19055834 0.67508274
00000000: fcfd 853f 1448 29bf e345 80bf cb08 543e
00000010: 074a 44bf ea6a b33d 1086 c8be 22a6 153f
00000020: c4ab 1c3f 1ce6 4a3e 5c39 5e3e ebbd e2bc
00000030: 7499 a8bd 2409 7b3e ba21 433e 39d2 2c3f

l5/W f4 [16, 256]
-0.6969584 0.26419932 -0.27812055 -0.26296636 -0.2969817 -0.31699795 0.1757249 -0.7333122
0.13648486 -0.194844 0.048017383 -0.085309274 0.29673767 -0.12862982 -0.056335825 -0.39058807
0.5696626 0.1499243 0.04027911 -0.011989455 -0.07035912 0.36940035 -0.47112396 -0.5325362
0.058622345 -0.30293483 -0.19301245 -0.29563934 0.8986874 0.24131279 -0.1079448 -0.3198229
0.19071017 0.3191231 0.13198566 -0.06721388 0.044801332 0.21635897 -0.3347729 -0.27125156
-0.20594978 -0.16150852 0.073111534 0.37090927 -0.08449328 -0.0045188805 -0.1168372 0.3354291
-0.074288175 -0.471805 -0.4638113 0.06686543 -0.32674778 0.24303481 0.33674505 -0.371386
-0.21947265 0.5259951 -0.053661745 0.106424615 0.21479808 0.08925196 0.6460097 0.77949554
0.25231433 0.105489016 -0.59418756 -0.013293528 -0.88150483 0.5130197 -0.09570431 0.11388373
0.06565281 0.40372565 -0.3636239 0.5198256 0.31026417 -0.062282637 -0.15997824 -0.08376588
0.3334832 -0.24708289 -0.412003 0.7121187 -0.6366377 0.039035857 -0.1597191 0.36884472
0.3271487 -0.1493167 -0.097801276 -0.40977412 -0.0097342795 -0.29684764 -0.72276884 -0.03779865
-0.029436665 0.1692608 0.19470915 0.7235337 -0.007262909 0.076115444 -0.18663 0.009991258
0.04632785 -0.11961184 0.08449124 -0.6102133 -0.2593832 -0.08085049 -0.17993683 0.60640335
0.6032402 0.23466203 -0.19949695 0.006538052 0.29549906 -0.16042945 0.47446814 -0.028084217
-0.49228397 0.2505031 0.28678626 0.29865482 -0.24688272 -0.31304076 0.1611421 0.64301527
-0.47389406 0.33816305 0.30703896 0.4442367 0.79730415 -0.14681026 0.29398808 0.023674104
-0.383282 -0.39622742 0.43234277 -0.69200635 0.07774038 -0.2637893 -0.5065664 -0.38538486
0.06578373 0.4317331 0.05096469 -1.0206445 0.44807 0.17410722 -0.20059009 0.06436386
-0.45685676 -0.21105936 0.95362324 0.3791957 0.049734514 1.1067628 0.11672226 0.4899508
-0.41526243 -0.0430669 -0.47165442 0.4918612 0.11037268 -0.5510337 0.0469653 -0.31483227
0.3013369 -0.77962774 -0.17895977 0.23042433 -0.03652947 -0.2023276 -0.01473983 0.15090011
-0.27124026 -0.07647535 -0.8904853 0.018429238 0.4322002 -0.4492791 0.5769609 -0.869551
0.057583448 0.6031642 0.029602068 -0.5259034 -0.4884511 0.73504025 0.5253609 0.68708175
-0.44303802 0.2636274 0.81190944 -0.7730315 0.18522991 -0.63462764 -0.5521756 -0.4393467
-0.1389951 0.28583464 0.55689687 0.28809422 0.11524684 -0.3408964 -0.25870794 -0.20155789
-0.5563335 -0.21356058 -0.11278057 -1.0302398 -0.3707144 0.71539474 0.17235968 0.9473006
0.38109466 -0.30605707 -0.47894973 -0.083567545 0.53719175 0.07655695 -0.7983385 -0.8791223
0.039470207 0.3201166 -0.46319228 0.08803114 0.23103952 -0.35807824 0.13124923 -0.2522339
-0.107891835 -0.12068687 -0.08371268 0.47439224 0.29682913 -0.50989133 0.29958308 0.71484494
-0.5771065 -0.40115073 -1.059124 0.121802695 -0.59116167 -0.21074578 0.6652118 -0.035453442
0.24402541 0.21460094 -0.69179046 -0.5633595 0.3917698 -0.33432442 -0.4381577 0.527376
00000000: de6b 32bf 2245 873e d165 8ebe 87a3 86be
00000010: fc0d 98be 8e4d a2be 3af1 333e 59ba 3bbf
00000020: b0c2 0b3e 2f85 47be e0ad 443d a1b6 aebd
00000030: 00ee 973e 89b7 03be 65c0 66bd 29fb c7be
00000040: 68d5 113f c185 193e b5fb 243d 6b6f 44bc
00000050: 7118 90bd 0b22 bd3e 2937 f1be 4b54 08bf
00000060: fc1d 703d 461a 9bbe 0ea5 45be 0a5e 97be
00000070: 6110 663f b31a 773e 2a12 ddbd d4bf a3be
00000080: 8749 433e 1a64 a33e 4027 073e 6ea7 89bd
00000090: 9a81 373d 358d 5d3e 5b67 abbe 7ce1 8abe
000000a0: 80e4 52be 7d62 25be 80bb 953d d2e7 bd3e
000000b0: d00a adbd 1e13 94bb 5848 efbd 5dbd ab3e
000000c0: 6624 98bd 6d90 f1be ad78 edbe bef0 883d
000000d0: 7c4b a7be 1ede 783e d969 ac3e 4e26 bebe
000000e0: 70bd 60be 9da7 063f 6bcc 5bbd 26f5 d93d
000000f0: 07f4 5b3e bbc9 b63d e460 253f 058d 473f
00000100: 582f 813e a00a d83d ad1c 18bf 19cd 59bc
00000110: 4daa 61bf 4255 033f 9f00 c4bd df3b e93d
00000120: fb74 863d 21b5 ce3e e92c babe 4a13 053f
00000130: f2da 9e3e 141c 7fbd 56d1 23be 728d abbd
00000140: 4fbe aa3e 4c03 7dbe 0ff2 d2be 694d 363f
00000150: b0fa 22bf 10e4 1f3d 678d 23be 37d9 bc3e
00000160: 0980 a73e 7ae6 18be 094c c8bd eacd d1be
00000170: 877c 1fbc 6afc 97be 6107 39bf c2d2 1abd
00000180: 2925 f1bc b452 2d3e d661 473e 8139 393f
00000190: b2fd edbb 6ae2 9b3d ef1b 3fbe 60b2 233c
000001a0: 46c2 3d3d 0df7 f4bd be09 ad3d f036 1cbf
000001b0: e0cd 84be f194 a5bd 5c41 38be 403d 1b3f
000001c0: f36d 1a3f 3e4b 703e ee48 4cbe 283d d63b
000001d0: a74b 973e 9e47 24be 7ded f23e df10 e6bc
000001e0: a50c fcbe f141 803e a6d5 923e 49e9 983e
000001f0: d3ce 7cbe e146 a0be 6f02 253e a69c 243f
00000200: 3ea2 f2be b523 ad3e 3634 9d3e fe72 e33e
00000210: 201c 4c3f 6e55 16be 9b85 963e 32f0 c13c
00000220: 8a3d c4be 52de cabe 085c dd3e 5427 31bf
00000230: 5936 9f3d 640f 87be 56ae 01bf 2a51 c5be
00000240: 9fb9 863d 1f0c dd3e 5ac0 503d 7ba4 82bf
00000250: 6e69 e53e 2a49 323e 7d67 4dbe 33d1 833d
00000260: 21e9 e9be f21f 58be a720 743f f025 c23e
00000270: 6bb6 4b3d 67aa 8d3f 150c ef3d d5da fa3e
00000280: 479d d4be eb66 30bd b07c f1be 3bd5 fb3e
00000290: 120b e23d 8b10 0dbf b05e 403d b231 a1be
000002a0: d548 9a3e af95 47bf 3b41 37be 5bf4 6b3e
000002b0: ed9f 15bd f72e 4fbe 547f 71bc 8f85 1a3e
000002c0: 01e0 8abe 1c9f 9cbd d8f6 63bf eaf8 963c
000002d0: 5849 dd3e e907 e6be b6b3 133f e59a 5ebf
000002e0: 9fdc 6b3d f868 1a3f 0980 f23c 9ba1 06bf
000002f0: 4316 fabe 992b 3c3f 0d7e 063f 97e4 2f3f
00000300: e1d5 e2be 2cfa 863e 4cd9 4f3f 64e5 45bf
00000310: e9ac 3d3e f576 22bf 615b 0dbf 0df2 e0be
00000320: bb54 0ebe eb58 923e cb90 0e3f 1681 933e
00000330: 8906 ec3d f989 aebe 5e75 84be 3165 4ebe
00000340: df6b 0ebf a0af 5abe 80f9 e6bd e6de 83bf
00000350: 47ce bdbe 1c24 373f 0e7f 303e 4b82 723f
00000360: d71e c33e 83b3 9cbe e638 f5be 7625 abbd
00000370: 6685 093f e4c9 9c3d e95f 4cbf 290e 61bf
00000380: 83ab 213d 53e6 a33e 8a27 edbe ac49 b43d
00000390: a095 6c3e 0856 b7be 3366 063e cd24 81be
000003a0: 65f6 dcbd ad2a f7bd 8e71 abbd 8ae3 f23e
000003b0: fdf9 973e 3d88 02bf f462 993e 1400 373f
000003c0: 40bd 13bf a163 cdbe 6091 87bf b173 f93d
000003d0: 5f56 17bf becd 57be 524b 2a3f a137 11bd
000003e0: cce1 793e 59c0 5b3e 2e19 31bf 5438 10bf
000003f0: 0d96 c83e 922c abbe 3556 e0be 1d02 073f

c2/W f4 [8, 4, 2, 2]
-0.25768238 0.7763751 -0.31592172 0.6548766 -0.42171198 -0.0356192 0.33418775 -0.11768038
0.56256795 -0.28698623 -0.23188907 0.49533322 0.47328126 -0.20504238 0.06561919 -0.4004787
0.19700211 0.27148905 0.0759476 -0.03841461 0.4855978 -0.40078548 0.7020675 0.31030977
-0.36384135 0.2831686 -0.014006773 0.4830703 0.3263992 0.72042274 -0.520448 0.18394364
-0.17494336 -0.520272 0.71598125 0.121104315 0.23464991 -0.5964557 0.46450347 0.89041746
0.41823888 0.27601928 0.3341931 -0.40178633 0.14456491 0.66775954 -0.047699668 -0.40717894
-0.6365968 -0.15477921 0.04952185 0.53705513 -0.7180852 0.22969739 -0.059441634 -0.6868548
0.41810542 0.40208298 -0.50306475 0.15991534 -0.42540556 0.1512939 0.45434794 0.35379714
-0.39357817 -0.023972 -0.8018344 -0.21580791 -0.41165617 0.30460414 -0.7011447 -0.10207785
0.5667185 -0.37703207 0.38662776 0.3484188 0.28809297 0.12464773 -0.047906928 0.4363779
-0.09480102 0.9645918 -1.9067469 -0.3111322 -0.43120998 -0.6700436 0.016666656 -0.26603144
0.46702278 -0.0024766868 0.2554692 -0.5370892 -0.22137822 -0.31724158 0.33531988 -0.17932619
-0.12196048 0.50372547 0.15171762 -0.6013185 -0.07055854 -0.105981655 -0.7542584 0.47261012
-0.51731056 -0.94489807 0.16777994 0.029635994 -0.5004684 0.38123876 0.050980072 0.61413634
-0.11470748 0.6595167 -0.6602729 0.32024398 -0.64345527 0.98673326 0.45559365 -0.2585577
-0.42458913 -0.19157 0.051327277 0.42699042 -0.068750225 0.9518157 -0.64907557 -0.43055147
00000000: f2ee 83be 85c0 463f 7ec0 a1be fea5 273f
00000010: a2ea d7be 70e5 11bd a81a ab3e 6902 f1bd
00000020: 7404 103f dcef 92be 5474 6dbe 519c fd3e
00000030: ec51 f23e a1f6 51be 5b63 863d 8b0b cdbe
00000040: ecba 493e 9d00 8b3e 6a8a 9b3d a358 1dbd
00000050: 46a0 f83e c133 cdbe b2ba 333f ece0 9e3e
00000060: 6a49 babe 7afb 903e aa7c 65bc fe54 f73e
00000070: cc1d a73e a06d 383f 153c 05bf b95b 3c3e
00000080: 5a24 33be 8c30 05bf 8c4a 373f 8a05 f83d
00000090: 1148 703e 52b1 18bf 66d3 ed3e 66f2 633f
000000a0: 6823 d63e 6652 8d3e 5c1b ab3e f0b6 cdbe
000000b0: d308 143e 4af2 2a3f ba60 43bd c279 d0be
000000c0: 02f8 22bf 717e 1ebe 6cd7 4a3d 727c 093f
000000d0: 6fd4 37bf cb35 6b3e 1279 73bd b7d5 2fbf
000000e0: ea11 d63e d2dd cd3e dac8 00bf d9c0 233e
000000f0: c2ce d9be caec 1a3e 4ba0 e83e e624 b53e
00000100: 1483 c9be ee60 c4bc 0545 4dbf c0fc 5cbe
00000110: 99c4 d2be 13f5 9b3e 387e 33bf 310e d1bd
00000120: 7714 113f 590a c1be 13f4 c53e f363 b23e
00000130: ec80 933e 4f47 ff3d 0e3a 44bd ed6c df3e
00000140: 0a27 c2bd 7def 763f 4810 f4bf b84c 9fbe
00000150: 8ec7 dcbe fa87 2bbf 8388 883c 4635 88be
00000160: 9c1d ef3e e94f 22bb dccc 823e ae7e 09bf
00000170: f9b0 62be 7d6d a2be 0caf ab3e 49a1 37be
00000180: 6bc6 f9bd 27f4 003f dd5b 1b3e 02f0 19bf
00000190: ff80 90bd e90c d9bd 1417 41bf f4f9 f13e
000001a0: 776e 04bf d7e4 71bf 81ce 2b3e 2fc7 f23c
000001b0: b21e 00bf ba31 c33e 7bd0 503d 0a38 1d3f
000001c0: c1eb eabd 16d6 283f a507 29bf 05f7 a33e
000001d0: 7cb9 24bf 8d9a 7c3f 9243 e93e ad61 84be
000001e0: bf63 d9be ed2a 44be 8d3c 523d 7d9e da3e
000001f0: ebcc 8cbd 32aa 733f d129 26bf 3e71 dcbe

l4/W f4 [256, 16]
0.4884949 -0.17348616 0.31083852 -0.38881707 -0.04412618 -0.48815855 0.61037946 -0.10973037
0.08787292 0.13252002 -0.38700697 -1.1254419 0.49843654 0.5980279 0.11660682 0.45391124
-0.73079365 0.5575166 0.2561422 -0.59852153 0.41801378 0.16855104 0.17987756 -0.21938756
-0.39212498 -0.7437586 -0.099356785 -0.14282502 -0.15573083 0.19521952 -0.46909186 0.050014596
0.28402606 0.13294469 -0.38579232 -0.8766015 0.39521927 -0.06551189 0.39836392 0.4204533
0.6078994 0.03554991 -0.5437342 -0.046490546 -0.3005363 -0.2175305 -1.7742743 0.18734168
0.14060792 -1.3780173 0.79226965 -0.0991406 0.10683931 -0.085809216 -0.18693712 0.44197112
0.37669995 0.12465834 -0.05187946 0.80223376 -0.8090036 -0.4499672 -0.13656017 -0.10433157
-0.65873957 -0.34319615 0.6360962 0.21227187 0.24225736 0.26510176 -0.677398 0.19397917
-0.12462757 -0.57532895 0.08026813 0.76632905 -0.9370895 -0.9811344 0.0034666753 -0.023113813
-0.55170226 -0.08157905 -0.71184164 -0.16955131 -0.55705637 0.07778698 0.18544275 -0.008848575
0.20852982 0.33108324 0.45288765 -0.11877098 -0.583034 -0.22759014 0.3977221 0.26061025
0.22466233 0.40198737 0.13491294 -0.1820496 0.067124784 -0.5232722 -1.2091851 0.19631201
-0.2000704 0.49850574 -0.20910652 0.30586642 0.0997217 0.23658997 -0.01686246 0.2419002
0.20693323 -0.06463084 0.40300912 0.6054087 -1.2989299 -0.23660876 -0.57317585 0.40775323
0.66568226 -0.057120048 -1.1010183 0.39914516 -0.018326918 -0.007861037 -0.20363021 -0.46492115
0.42567766 -0.81582785 -0.46850783 0.0138433445 -0.6839371 0.09508221 0.61232173 -0.73503006
-0.13437061 -0.18650918 -0.5106637 -0.055755746 -0.5469295 -0.7660849 0.5002756 -0.35162917
0.22282332 0.40064123 -0.40737846 -0.9234718 -0.15079494 0.14369243 -0.04199708 -0.59324884
-0.08472881 -0.88833237 -0.2328665 -0.18113157 -0.12528434 -0.10893546 0.2732126 0.08567297
-1.614926 -0.59163934 0.58747107 -0.8716207 0.09939014 -0.3390927 -0.13486673 -0.280481
-0.2054146 0.25276935 0.12565225 -0.08601367 -0.03404506 0.07119451 0.054429565 -0.50920886
0.019169455 -1.013582 -0.08010132 -0.5335658 -0.33508676 -0.41986683 -0.02740122 0.674545
-0.25309786 0.0787403 0.39500475 0.24842001 -0.71698517 0.1638653 0.0039603896 -0.20157437
0.3217476 -0.06281966 -0.30809048 -0.5925248 -0.4894739 0.25523242 0.3961193 -0.3726377
-0.3493491 0.19559328 -0.10061224 0.1912787 -0.18071015 -0.044681527 0.032844633 -0.023170143
-0.40567517 0.618377 0.5283217 -0.5808348 0.5072792 -0.066748224 -0.41869977 0.034367673
0.037448216 -0.6590564 -0.20209181 0.037183907 -0.025482748 -0.24036512 -0.13346867 -0.28909734
-0.24648982 0.32021165 0.08262565 -0.7455893 -0.05370768 -0.87060356 -0.14057262 0.19990307
0.34296125 0.093301505 0.6049031 0.21092635 0.0008610897 0.029300412 -0.3142507 -0.7826928
-0.15073939 0.2663714 -0.256384 0.48310015 0.23635004 -0.54611766 -0.34412885 -0.17042741
-0.15514669 -0.031916447 0.007094461 0.5190174 0.20254746 0.009974822 0.08104286 0.22317167
00000000: 011c fa3e 5ba6 31be 3a26 9f3e 0813 c7be
00000010: a7bd 34bd ebef f9be d441 1c3f 51ba e0bd
00000020: b8f6 b33d 54b3 073e c725 c6be 7b0e 90bf
00000030: 1333 ff3e 5b18 193f 8ecf ee3d 0e67 e83e
00000040: 4b15 3bbf 68b9 0e3f 1225 833e b538 19bf
00000050: e705 d63e a598 2c3e d331 383e 22a7 60be
00000060: 9bc4 c8be f766 3ebf 927b cbbd b940 12be
00000070: e777 1fbe a0e7 473e cf2c f0be 1bdc 4c3d
00000080: dd6b 913e a722 083e 9286 c5be f568 60bf
00000090: 2e5a ca3e 192b 86bd 5bf6 cb3e a845 d73e
000000a0: 4c9f 1b3f c89c 113d 2a32 0bbf df6c 3ebd
000000b0: e5df 99be 51c0 5ebe 6c1b e3bf 7fd6 3f3e
000000c0: 86fb 0f3e df62 b0bf 2fd2 4a3f 3a0a cbbd
000000d0: 91ce da3d bebc afbd 726c 3fbe 0a4a e23e
000000e0: d1de c03e df4c ff3d 8f7f 54bd 315f 4d3f
000000f0: dc1a 4fbf 1a62 e6be 6ed6 0bbe caab d5bd
00000100: 28a3 28bf 68b7 afbe 33d7 223f cc5d 593e
00000110: 5012 783e 6bbb 873e f569 2dbf 7aa2 463e
00000120: bd3c ffbd c248 13bf 9e63 a43d 242e 443f
00000130: 19e5 6fbf a02b 7bbf 2931 633b 2e59 bdbc
00000140: 5c3c 0dbf eb12 a7bd 413b 36bf dc9e 2dbe
00000150: 3f9b 0ebf c84e 9f3d b4e4 3d3e 9df9 10bc
00000160: d788 553e be83 a93e e4e0 e73e 333e f3bd
00000170: b741 15bf 640d 69be 3ba2 cb3e b56e 853e
00000180: e20d 663e 4ad1 cd3e 9e26 0a3e 366b 3abe
00000190: b878 893d 2bf5 05bf 94c6 9abf 0406 493e
000001a0: 41df 4cbe 253c ff3e 0520 56be 869a 9c3e
000001b0: e43a cc3d a444 723e 2423 8abc b0b4 773e
000001c0: 4ee6 533e 2d5d 84bd 3657 ce3e 11fc 1a3f
000001d0: 5643 a6bf 9149 72be a7bb 12bf 08c5 d03e
000001e0: 276a 2a3f b6f6 69bd 2bee 8cbf c15c cc3e
000001f0: 5522 96bc 94cb 00bc 7084 50be 250a eebe
00000200: 6cf2 d93e 18da 50bf 42e0 efbe 32cf 623c
00000210: 8016 2fbf 76ba c23d 1ec1 1c3f ee2a 3cbf
00000220: 7398 09be 43fc 3ebe dbba 02bf 2360 64bd
00000230: 9203 0cbf 241e 44bf 1012 003f bd08 b4be
00000240: cc2b 643e d920 cd3e e993 d0be a668 6cbf
00000250: fd69 1abe 1c24 133e 2105 2cbd 28df 17bf
00000260: 4c86 adbd c069 63bf 8e74 6ebe 8e7a 39be
00000270: 8a4a 00be 8e19 dfbd 86e2 8b3e 4f75 af3d
00000280: e5b5 cebf ad75 17bf 8164 163f 8922 5fbf
00000290: 0f8d cb3d 8f9d adbe 811a 0abe 359b 8fbe
000002a0: 3458 52be fc6a 813e fcaa 003e ef27 b0bd
000002b0: d572 0bbd 6dce 913d 89f1 5e3d 835b 02bf
000002c0: 4309 9d3c 0ebd 81bf 290c a4bd c597 08bf
000002d0: 7e90 abbe c9f8 d6be 8678 e0bc fbae 2c3f
000002e0: 0b96 81be 9842 a13d 103e ca3e d161 7e3e
000002f0: 578c 37bf 4ecc 273e 28c6 813b 8369 4ebe
00000300: 1abc a43e 98a7 80bd 09be 9dbe b5af 17bf
00000310: 539c fabe d3ad 823e 26d0 ca3e 5eca bebe
00000320: e3dd b2be 9b49 483e ca0d cebd 90de 433e
00000330: 150c 39be fa03 37bd 1888 063d 50cf bdbc
00000340: a8b4 cfbe f44d 1e3f 1740 073f 97b1 14bf
00000350: 0ddd 013f 4bb3 88bd d15f d6be 1ec5 0c3d
00000360: 4d63 193d ecb7 28bf 28f1 4ebe 274e 183d
00000370: 32c1 d0bc 4622 76be 03ac 08be 9104 94be
00000380: d467 7cbe c8f2 a33e a337 a93d f1de 3ebf
00000390: 96fc 5bbd e0df 5ebf 45f2 0fbe 64b3 4c3e
000003a0: 9e98 af3e dc14 bf3d eeda 1a3f 14fd 573e
000003b0: c0ba 613a 6b07 f03c 78e5 a0be 8e5e 48bf
000003c0: 6d5b 1abe d561 883e c344 83be e758 f73e
000003d0: bf05 723e 5ece 0bbf a831 b0be 8684 2ebe
000003e0: c6de 1ebe d2ba 02bd a778 e83b 53de 043f
000003f0: 9a68 4f3e 706d 233c cdf9 a53d 1d87 643e

c3/W f4 [16, 8, 2, 2]
0.3128223 0.028209232 0.058243554 -0.18016396 -0.064751945 -0.47593802 0.2154603 0.12048126
0.33634916 -0.4851059 -0.14076744 -0.16350983 0.32509124 -0.36236364 0.6011337 -0.03612891
0.7483455 0.64283335 0.04821998 -0.09293491 0.29596648 -0.294166 0.20364907 0.13054295
-0.4517241 -0.14911725 -0.47402433 -0.29944363 -0.8272569 0.17016563 0.621869 -0.31340247
0.2364888 0.32299307 -0.3572164 -0.15251075 0.09119554 0.40912527 0.09401939 0.7081736
0.068404816 0.3995347 0.34169748 -0.81011474 0.3042245 0.3457541 0.029656706 0.15933707
0.20032793 0.12646203 -0.55055076 -0.49084207 0.5933086 -0.30277878 -0.6528956 -0.5123544
0.053025838 0.21694854 -0.72119313 0.29587966 0.0153820785 0.07446193 -0.36109725 -0.82175493
-0.017715143 -0.045043025 0.057123404 0.011394759 -0.13970584 -0.09552998 -0.19247149 0.07733801
0.04230289 -0.1539626 -9.524761e-05 -0.51089066 -0.20153193 0.18053626 0.019565744 -0.099752896
-0.060297303 -0.23060574 0.042930458 -0.27317002 0.03919326 0.22293024 0.0045354534 -0.024558531
-0.24756326 -0.15090981 -0.038049888 -0.022265458 -0.108967245 -0.20155595 0.0610114 0.21953511
-0.58703643 0.2476527 -0.071583584 0.02053934 0.44274428 -1.088777 -0.34066656 0.33976245
-0.024522988 0.28507987 0.3433847 -0.39135054 0.22616723 -0.18718883 0.41011736 -0.7803939
0.74852544 -0.8502012 0.058205493 -0.059923194 0.63388056 -0.08349456 -0.26520473 -0.47235692
0.071909755 -0.76587695 -0.90676945 0.6787989 0.576797 -0.23075707 0.023647092 -0.1691963
0.47798917 0.29877952 -0.67376614 0.010106084 -0.14741267 -0.3847078 0.06310111 0.20332757
-0.665335 0.6727213 0.14458379 0.35557997 -0.44818696 0.22779794 -1.0099242 -0.63590723
-0.530947 -0.36960405 0.3287303 -0.12919065 -0.5348013 -0.08441932 -0.7616661 -0.7653612
0.5629065 -0.35690418 -0.3387363 -0.08625983 -1.1227728 0.6675508 0.7633464 -1.1627231
-0.02392444 -0.40234184 -0.5387305 0.9681834 -0.12347935 0.5915435 0.03285371 -0.34704039
-0.14821409 0.40282384 -0.21207699 0.06729119 0.75563824 -0.26796228 -0.07324343 -0.41600165
0.12875803 0.040661123 -0.06199543 -0.1494877 0.15322469 0.1683869 0.35330862 -0.04559882
-0.11308055 0.21148357 -0.18643783 -0.62555283 0.36308518 0.35323608 -0.39043042 0.76827055
0.45967537 -0.3293198 0.53134274 -0.21032369 -0.7885369 0.3251449 -0.10965312 0.12812266
-0.6397714 0.40512922 0.4294988 -0.51112425 -0.30499157 0.6332915 0.5384106 0.36141148
0.03587838 0.03793979 0.20248027 0.05084131 0.42770323 0.10721794 -0.38686222 -0.23782094
0.6364439 -0.108853035 0.71272844 0.13715929 -0.18249626 -0.062757 -0.5110663 -0.3771602
-0.119112074 -1.0250797 0.09258765 0.024768446 0.43735537 -0.6098876 -0.46742103 1.1519718
-0.079965055 0.03336438 -0.032219026 0.042106126 -0.15872698 -0.40337506 -0.051448375 0.49832353
-0.42088592 -0.008977365 0.26609722 0.33671486 -0.47079352 -0.04516507 0.19409226 -0.019423453
0.13773514 -0.34362563 -1.009236 0.47988772 0.09728326 0.25414392 0.044252697 0.7537481
00000000: 3f2a a03e 0c17 e73c cb90 6e3d e77c 38be
00000010: ab9c 84bd 26ae f3be a0a1 5c3e e1be f63d
00000020: f535 ac3e cd5f f8be 5725 10be 1f6f 27be
00000030: 5c72 a63e ba87 b9be e6e3 193f e8fb 13bd
00000040: 9293 3f3f ba90 243f 5082 453d a854 bebd
00000050: eb88 973e ed9c 96be 6289 503e 0dad 053e
00000060: 6248 e7be 31b2 18be 51b3 f2be ad50 99be
00000070: 1cc7 53bf e63f 2e3e cf32 1f3f 4a76 a0be
00000080: 1f2a 723e 595f a53e 11e5 b6be c72b 1cbe
00000090: bac4 ba3d de78 d13e 3d8d c03d dd4a 353f
000000a0: d317 8c3d d08f cc3e f9f2 ae3e ae63 4fbf
000000b0: 50c3 9b3e ae06 b13e 9ff2 f23c 4229 233e
000000c0: c422 4d3e 437f 013e e5f0 0cbf a74f fbbe
000000d0: 13e3 173f d205 9bbe 2b24 27bf a829 03bf
000000e0: 9f31 593d c227 5e3e 1da0 38bf 8a7d 973e
000000f0: 1d05 7c3c 7f7f 983d bde1 b8be 885e 52bf
00000100: 591f 91bc 097f 38bd 3bfa 693d 15b1 3a3c
00000110: 0c0f 0fbe 39a5 c3bd 3f17 45be 6463 9e3d
00000120: cc45 2d3d 5fa8 1dbe acbf c7b8 bbc9 02bf
00000130: 635e 4ebe 7fde 383e 5748 a03c 3f4b ccbd
00000140: 4efa 76bd e923 6cbe d9d7 2f3d f1dc 8bbe
00000150: 1d89 203d d347 643e 249e 943b f92e c9bc
00000160: 3981 7dbe 1a88 1abe 33da 1bbd 0d66 b6bc
00000170: 382a dfbd af64 4ebe 17e7 793d d0cd 603e
00000180: 0548 16bf ab98 7d3e 6a9a 92bd 1e42 a83c
00000190: 61af e23e 0b5d 8bbf d96b aebe 58f5 ad3e
000001a0: 6fe4 c8bc fdf5 913e 1fd0 af3e 195f c8be
000001b0: 6298 673e 6eae 3fbe e7fa d13e e5c7 47bf
000001c0: 5d9f 3f3f c9a6 59bf e268 6e3d 0672 75bd
000001d0: ff45 223f 32ff aabd eac8 87be c4d8 f1be
000001e0: 6c45 933d 8310 44bf 0b22 68bf c4c5 2d3f
000001f0: f8a8 133f 954b 6cbe 8cb7 c13c cb41 2dbe
00000200: ffba f43e a1f9 983e f07b 2cbf fd93 253c
00000210: 59f3 16be 6cf8 c4be 283b 813d 1a35 503e
00000220: 6553 2abf 7737 2c3f c60d 143e 940e b63e
00000230: c378 e5be dd43 693e 3245 81bf d1ca 22bf
00000240: 25ec 07bf be3c bdbe 564f a83e 8e4a 04be
00000250: bde8 08bf 09e4 acbd 8dfc 42bf b6ee 43bf
00000260: a41a 103f 25bc b6be d86e adbe fea8 b0bd
00000270: 05b7 8fbf 9ce4 2a3f ab6a 433f 1cd4 94bf
00000280: 30fd c3bc c0ff cdbe 3eea 09bf deda 773f
00000290: bee2 fcbd 656f 173f 9d91 063d 47af b1be
000002a0: 6fc5 17be ed3e ce3e b62a 59be f7cf 893d
000002b0: 8271 413f 5a32 89be a700 96bd 2bfe d4be
000002c0: 25d9 033e 478c 263d ecee 7dbd 4e13 19be
000002d0: efe6 1c3e 9e6d 2c3e dee4 b43e d4c5 3abd
000002e0: c796 e7bd 268f 583e 8fe9 3ebe 3b24 20bf
000002f0: 4de6 b93e 5cdb b43e 7fe6 c7be 61ad 443f
00000300: 925a eb3e 9b9c a8be 1406 083f 185f 57be
00000310: 8edd 49bf 6479 a63e d191 e0bd 9632 033e
00000320: 0fc8 23bf 196d cf3e 44e7 db3e 0ad9 02bf
00000330: db27 9cbe 641f 223f 47d5 093f ed0a b93e
00000340: 35f5 123d c166 1b3d fd56 4f3e fa3e 503d
00000350: ebfb da3e 1495 db3d ce12 c6be 5587 73be
00000360: fded 223f 57ee debd 5f75 363f 7c73 0c3e
00000370: 4de0 3abe be86 80bd 3ed5 02bf 241b c1be
00000380: 08f1 f3bd d035 83bf 989e bd3d 32e7 ca3c
00000390: 0bed df3e 9821 1cbf cf51 efbe d073 933f
000003a0: b8c4 a3bd 17a9 083d 19f8 03bd 7977 2c3d
000003b0: 5389 22be 2d87 cebe 88bb 52bd 4324 ff3e
000003c0: 5c7e d7be cc15 13bc e53d 883e e465 ac3e
000003d0: d90b f1be 02ff 38bd 1fc0 463e ef1d 9fbc
000003e0: 710a 0d3e b3ef afbe a52e 81bf d8b3 f53e
000003f0: 723c c73d 271f 823e 5142 353d a3f5 403f

l5/b f4 [16]
-0.1824471 -0.3361721 -0.11743636 0.08871227 -0.44764772 -0.31704777 -0.36181164 -0.20128551
0.08713654 -0.36080095 -0.29685086 -0.29567954 0.04264261 -0.049389426 -0.28051406 0.08495872
00000000: 6ad3 3abe c01e acbe 7982 f0bd c7ae b53d
00000010: 1532 e5be 1654 a2be 603f b9be ca1d 4ebe
00000020: a474 b23d e7ba b8be d6fc 97be 4f63 97be
00000030: 04aa 2e3d 914c 4abd 8a9f 8fbe d6fe ad3d

c1/b f4 [4]
0.29973608 0.3558216 -0.41644415 -0.27272716
00000000: 0277 993e 402e b63e 2b38 d5be e5a2 8bbe

l4/b f4 [256]
0.74219227 0.3725617 0.23523317 -0.23597601 -0.6296882 -0.32013702 0.0706897 0.088469654
-0.49461532 0.48284712 0.9389705 0.3749268 -0.5729616 0.6485281 -0.5086099 -0.17246142
0.0012101954 0.20132662 -0.049863514 0.34303096 0.7732101 0.04377318 -0.5412729 -0.0880104
0.3819922 0.4347016 0.5648569 -0.47070068 0.054151274 0.02956416 0.34282196 0.12670003
-0.055036835 -0.8709313 -0.96668047 -0.15592241 -0.15284497 0.52120525 -0.32361972 -0.31949443
-1.0035644 -0.1340711 0.33008808 0.22859159 -0.26013288 -0.2404611 -0.27314427 -0.029826855
0.0357532 -0.4604563 -0.40995792 0.35513142 0.28672183 -0.11304974 0.047906447 -0.40295708
0.07058702 -0.30440938 0.056764353 0.40861502 -0.08627308 0.74864876 0.4631948 -0.51173764
-0.37636313 0.22844717 0.7451828 -0.19083177 -1.5739142 -1.0120677 0.28418994 -0.53110373
0.13779692 -0.5855413 0.5647946 0.4601844 -0.2352268 -0.02624581 0.14594 -0.13554028
-0.072043896 -0.4638522 0.7985233 -0.32089198 -0.5629328 -0.074430175 -0.067055285 -0.33967933
-0.42921242 0.12341468 0.064135306 -0.32107973 0.14900045 0.4190742 -0.4280572 -0.076089196
-0.21540716 0.048704196 0.09928481 0.4127435 0.033320874 0.80028677 0.8651494 0.32447878
0.48399857 -0.35166338 -0.21511072 0.38104868 -0.17751803 -0.28355715 -0.18823448 -0.57638353
0.36473614 -0.33054715 -0.5101953 0.20168777 -0.6931501 0.20082851 -0.4669665 -0.14814772
0.032965414 0.2556135 0.15914322 -0.23344411 -0.53061754 0.59681636 -0.13022193 -0.91284573
0.5599747 -1.1333967 -0.41613245 0.5965927 -0.39462018 0.21086282 -0.37252414 -0.16914977
0.5679816 -0.19107163 -0.19536088 -0.14182349 -0.6858251 0.027774476 0.1504608 0.059258547
-0.10591212 -0.054776188 0.32240343 -1.0262713 0.60867435 0.045605198 -0.16770649 -0.15204552
-0.27425677 -0.11051025 0.8655217 -0.20966592 -0.027190726 -0.43262368 -0.7824317 0.7035042
0.6096487 -0.27055296 -0.3545575 0.30062652 0.23610908 -0.8442576 -0.2216854 0.35421824
-0.03176555 -1.0001593 -0.36708695 0.17809007 0.25600505 -0.26462987 -0.15253206 0.7804626
-0.2695332 -0.8214457 -0.017678551 -0.9275296 0.029805548 -0.49937758 -0.30518854 -0.07397482
0.22018306 0.7573159 -0.11124307 -0.44028327 0.5784474 0.23127429 0.18866616 -0.6475122
-0.28828192 0.04687133 0.50471836 0.21804716 0.15053894 -0.12835228 -0.34170517 -0.1654308
-0.60397595 0.26438183 -0.29682964 0.59041095 0.23001973 -0.37592033 -0.06458084 0.7680751
-0.7374251 0.026886156 -0.1769779 -0.896305 0.29434413 -1.1227372 -0.5583025 -0.25822
0.06773421 -0.0565283 -0.97255594 0.104631275 -0.12670273 0.53855234 -0.8690842 -0.2687165
-0.3025901 -0.5089856 0.60776055 0.009465947 0.34450194 0.12238625 -0.28213665 -0.046032142
-0.17816797 -0.87062806 -0.14157858 -0.22128856 -0.38590398 -0.4043526 -0.5417549 -0.87394303
0.4288093 -0.25209117 -0.6054675 -0.10043194 0.8310813 0.37951735 0.77297395 -0.3747182
0.23627816 0.42118672 -0.39992192 -0.05400884 -0.15287393 -0.56787974 -0.5292961 -0.045275122
00000000: 5000 3e3f 68c0 be3e f7e0 703e b2a3 71be
00000010: 3f33 21bf 00e9 a3be c3c5 903d 942f b53d
00000020: 383e fdbe bd37 f73e 5f60 703f 68f6 bf3e
00000030: 9dad 12bf f005 263f 4234 02bf ba99 30be
00000040: 6b9f 9e3a 9128 4e3e af3d 4cbd c1a1 af3e
00000050: 19f1 453f 824b 333d dc90 0abf cc3e b4bd
00000060: 7b94 c33e 3591 de3e 769a 103f aeff f0be
00000070: bacd 5d3d 8a30 f23c 5c86 af3e a7bd 013e
00000080: 4e6e 61bd 5bf5 5ebf 5f78 77bf 20aa 1fbe
00000090: 6483 1cbe b56d 053f 7cb1 a5be c694 a3be
000000a0: cc74 80bf ef49 09be 4e01 a93e ea13 6a3e
000000b0: 2330 85be 6f3b 76be 91d9 8bbe 7357 f4bc
000000c0: f371 123d eec0 ebbe 01e6 d1be c9d3 b53e
000000d0: 34cd 923e 9f86 e7bd 8d39 443d 6450 cebe
000000e0: ed8f 903d 8cdb 9bbe bd81 683d fd35 d13e
000000f0: f1af b0bd 72a7 3f3f de27 ed3e 3d01 03bf
00000100: abb2 c0be 0eee 693e 4dc4 3e3f 6769 43be
00000110: 0576 c9bf 6f8b 81bf 5881 913e 6af6 07bf
00000120: a31a 0d3e 09e6 15bf 6196 103f 4a9d eb3e
00000130: 4bdf 70be 7401 d7bc 4c71 153e 12cb 0abe
00000140: c08b 93bd 097e edbe 066c 4c3f f44b a4be
00000150: 5d1c 10bf d96e 98bd 4854 89bd 73ea adbe
00000160: bbc1 dbbe d6c0 fc3d 5f59 833d 9064 a4be
00000170: 9393 183e e590 d63e 502a dbbe a7d4 9bbd
00000180: b293 5cbe 0d7e 473d d655 cb3d 1e53 d33e
00000190: 787b 083d 98df 4c3f 6e7a 5d3f 1522 a63e
000001a0: a9ce f73e 390d b4be fc45 5cbe d018 c33e
000001b0: 49c7 35be 672e 91be 8ac0 40be df8d 13bf
000001c0: b2be ba3e 7a3d a9be 299c 02bf 3d87 4e3e
000001d0: 4972 31bf fda5 4d3e 3c16 efbe 09b4 17be
000001e0: be06 073d c6df 823e 71f6 223e f90b 6fbe
000001f0: 8dd6 07bf f5c8 183f e658 05be 42b0 69bf
00000200: 805a 0f3f 2513 91bf 500f d5be 4dba 183f
00000210: a80b cabe 6cec 573e 7cbb bebe 9935 2dbe
00000220: 3e67 113f 48a8 43be af0c 48be 2d3a 11be
00000230: 3c92 2fbf 4c87 e33c 6512 1a3e 17b9 723d
00000240: 74e8 d8bd ff5c 60bd 1012 a53e dc5c 83bf
00000250: 15d2 1b3f 84cc 3a3d 40bb 2bbe d2b1 1bbe
00000260: 626b 8cbe 3353 e2bd d592 5d3f aab2 56be
00000270: 16bf debc da80 ddbe 724d 48bf da18 343f
00000280: f011 1c3f eb85 8abe 9088 b5be b8eb 993e
00000290: 94c6 713e 4421 58bf 7f01 63be 185c b53e
000002a0: 981c 02bd 3805 80bf d2f2 bbbe 3e5d 363e
000002b0: 1813 833e 917d 87be 5d31 1cbe 66cc 473f
000002c0: 4100 8abe 444a 52bf 9cd2 90bc 9472 6dbf
000002d0: c42a f43c 6bae ffbe ac41 9cbe 1c80 97bd
000002e0: ab77 613e 74df 413f 68d3 e3bd cf6c e1be
000002f0: 2115 143f 2bd3 6c3e b431 413e 5cc3 25bf
00000300: b099 93be 27fc 3f3d 3935 013f c147 5f3e
00000310: e126 1a3e c86e 03be fbf3 aebe b166 29be
00000320: 2b9e 1abf 0e5d 873e 0efa 97be 2c25 173f
00000330: 4b8a 6b3e a178 c0be f642 84bd 92a0 443f
00000340: e4c7 3cbf 5b40 dc3c b239 35be 3f74 65bf
00000350: 46b4 963e dab5 8fbf eaec 0ebf 6935 84be
00000360: 3cb8 8a3d 388a 67bd 6df9 78bf ec48 d63d
00000370: 5cbe 01be 91de 093f 4d7c 5ebf 3695 89be
00000380: 17ed 9abe e14c 02bf 3296 1b3f 0f17 1b3c
00000390: 8f62 b03e a4a5 fa3d 3774 90be 338c 3cbd
000003a0: aa71 36be 7be1 5ebf faf9 10be 7899 62be
000003b0: 3595 c5be 4e07 cfbe 73b0 0abf bbba 5fbf
000003c0: e48c db3e 1812 81be ebff 1abf 43af cdbd
000003d0: bec1 543f 1950 c23e 9fe1 453f 10db bfbe
000003e0: e7f2 713e c9a5 d73e 91c2 ccbe 6038 5dbd
000003f0: fc8a 1cbe 9160 11bf f37f 07bf 6872 39bd

c2/b f4 [8]
0.1344824 0.023489447 -0.42692858 -0.16746873 -0.16332875 -0.21962334 0.1685889 -0.34692112
00000000: c1b5 093e f16c c03c 6296 dabe ec7c 2bbe
00000010: a73f 27be f1e4 60be 92a2 2c3e a59f b1be
