examples/ch4/reversi_DQN_DNN/agent_white_20000/model.npz (npz, 522132 bytes, 8 tensors)

l2/b f4 [256]
00000000: 8954 94bd 8248 223d c269 ea3c dd4c d53c
00000010: 6e4a 58bc 977c b9bd 2745 703c 73b7 ec3c
00000020: e7ab 9aba 50d6 8c3c 5938 afbd b19d 523c
00000030: 81d6 473d 0efa 15bd 3451 c6bb 2831 be3c
00000040: 558f 8cbd 65d1 bcbd b3a1 003d bc76 523c
00000050: 30f5 d33c 7f9a c33d 9f1a e03d 7f67 af3c
00000060: 73ca d9bc 1526 0b3e 146c f13c 14a6 e43c
00000070: 9758 6abd 3b40 8cbd 013a b9bc 5104 293d
00000080: 2fea 9b3b 1f43 48bd 7bd6 7b3d 3e18 f1bc
00000090: f3d4 15bd 60e1 20bc a849 c43c 2ac8 4fbc
000000a0: bc29 05be 25a9 ebba 7182 143b e431 873d
000000b0: 934b 05bd e7d1 28bb 26c5 ef3b 3be8 febd
000000c0: 32f0 53bd 88a5 4a3d 4adc 823d 8247 a7bc
000000d0: 950a 66bc 50e3 e4bc 6d61 2dbc 6aeb 693c
000000e0: ddee 99bc 1641 093c 5bad bdbd 517c 953c
000000f0: 07c3 74bd ffc7 883c 1c6b 53bd bd9a 5a3d
00000100: e012 e3bc 581d 133c 3263 b6bb de26 bd3c
00000110: 8e21 0c3c 83d0 423d eeaf 713d 0cb4 a63d
00000120: a208 d83b 46ea 303d b2b1 5ebc 891f b2bc
00000130: 2427 d1bc 1d6d 503d 0cf1 f8bb 3a50 6fbd
00000140: 18fb 3b3c b0ad b33a c08d bdbc edbd fdbc
00000150: 734a 94bd 0655 4cbc cb1e e9bd bd05 2e3d
00000160: 5682 a2bd 6cb4 d8bc 7e57 673d 6565 3ebd
00000170: 80e5 81bc 10ca 923b 0499 0abd c9a4 70bd
00000180: 903a 0a3e 74b4 d3bd ae3f a1bd d31d aebd
00000190: 455e cf3b c45b f7bc b874 663d c4e0 29bc
000001a0: ac00 9d3d ba9f 483b 3632 323b 9020 8dbd
000001b0: 56b3 bfbc 840f 04bc 0bbc f1bc aa46 38bc
000001c0: 68c2 8fbd a94d 383d d7a8 debc 4656 febc
000001d0: e4d5 99bd a41f 87bc f369 bcbc b128 c23c
000001e0: 93ff d73b 0bf9 813c ef51 713d c784 b4bb
000001f0: ffb1 523d 74b5 5ebd 77ed 25bd 974c 87bd
00000200: 9738 b8bd ab96 743c 85e0 debb 0bfa cabc
00000210: 7524 773d c191 c5bd 7b66 11bc 812e f5bb
00000220: e535 ae3d 87db bfbc a8c0 c9bc 1b0f 8dbc
00000230: 3c27 a23b 06d6 463d 351f 31bc e9f8 313d
00000240: e2e3 933d 2b6b 1dbd ff4c 88bd 90c2 4ebd
00000250: 95bc 9dbb e9d8 fd3c d65c d0bc 210e c03b
00000260: 8d39 353d d43c a4bd 9df9 ffbc 12b6 87bd
00000270: e648 c1bd 9f51 82bd 7d3f 11bd 533a 96bd
00000280: 22da 9ebc fbd4 bb3c 38e0 94bc fc7b 763c
00000290: ac84 88bd 77bb fb3c fd52 63bd 6796 2e3d
000002a0: 1149 2c3d d384 16bd 4def 95bc 3a54 ac3c
000002b0: 1c7b 1e3d c7ca 6a3c 706f 0f3d 11e9 5dbd
000002c0: ee60 83bb 4630 803d 6e60 efbc c29e 1c3d
000002d0: d7ac d9bc 7f7f 85bd 1923 a6bc 1af1 133c
000002e0: 5ce9 f2bc f572 67bd 6ecc debd 4d0a 423d
000002f0: e310 2f3d 34a2 a53c fa30 96bd acad abbc
00000300: 1b78 813d 8a4e 51bd 007a 593d 8e78 7b3c
00000310: e776 74bd cfda a7bd cec9 62bd 800b b9bd
00000320: f294 fabc 4330 853d 4617 9abc 14aa 823c
00000330: f128 963d 1d55 2abc 5d1c a6bb 3276 6dbc
00000340: a6fc a2bd 2f89 2dbd ef86 213b 17ff 92bd
00000350: faeb bcbd b842 d6bd 52be c0bc bd97 67bd
00000360: 8ea6 833d b4bd b93d 93e4 4abc 1b39 5dbd
00000370: 03b6 073d e253 6bbd 6330 b0bc 4368 b2bc
00000380: e3f1 8c3b c7b6 8c3d 34ec bcbd 0052 2bbd
00000390: 2815 f13b d93b 70bd 4d14 f0bc 1c97 27bd
000003a0: 4651 563c fb09 d6bc 03e7 ebbc 1ce4 9b3d
000003b0: 6580 a83d 8885 863b 4635 b4bc 1302 803c
000003c0: 5cad 42bc f1a1 a53d 942c 9c3d aa6f 12bd
000003d0: 3792 30bd 2b3c 8bbd 6822 94bc 7a00 9cbc
000003e0: a85f 20bd af10 153c ba09 55bc 61cb 793d
000003f0: 3c78 223d e8e4 313d deed 7cbd 51cd 91bd
-0.07242686 0.03961993 0.028614882 0.026037628 -0.013201339 -0.09056967 0.014664925 0.02889607
-0.0011800498 0.017192036 -0.08555669 0.012854979 0.04878855 -0.036615424 -0.0060521606 0.023216799
-0.06863276 -0.09219626 0.03140421 0.012845691 0.02587375 0.09550952 0.109425776 0.021411655
-0.026585793 0.13588746 0.029470481 0.027911223 -0.057213392 -0.068481885 -0.022610666 0.041263882
0.0047581415 -0.048892137 0.06148384 -0.029430505 -0.036580037 -0.009819359 0.023960903 -0.012682
-0.13004202 -0.0017979486 0.0022660757 0.06601313 -0.032542776 -0.0025759877 0.007317203 -0.12446638
-0.05174274 0.04947427 0.06389673 -0.02041984 -0.014040609 -0.027940422 -0.01058231 0.0142773185
-0.018790657 0.008377334 -0.092615806 0.018247755 -0.059756305 0.016696928 -0.05161582 0.053370226
-0.027718961 0.008979164 -0.005566024 0.023089822 0.008552922 0.047562134 0.05900567 0.0813981
0.006592826 0.04319217 -0.013592171 -0.021743553 -0.025531359 0.05088531 -0.0075970944 -0.05842612
0.01147344 0.0013708379 -0.02313888 -0.030974353 -0.072407626 -0.012471443 -0.113828264 0.04248594
-0.07935016 -0.02645322 0.056479923 -0.046483416 -0.015856504 0.004479654 -0.033837333 -0.0587509
0.13498902 -0.10337153 -0.07873474 -0.08501782 0.0063283765 -0.030195124 0.056263655 -0.01036853
0.07666144 0.0030612783 0.0027190573 -0.068909764 -0.023400944 -0.00806034 -0.029508611 -0.011247316
-0.07019502 0.044995937 -0.027180118 -0.031046998 -0.075114995 -0.01649458 -0.02299974 0.023701044
0.006591746 0.015865823 0.05891603 -0.0055089924 0.05143928 -0.054372266 -0.040509667 -0.06606405
-0.08995169 0.0149285 -0.006801667 -0.024777433 0.060337503 -0.09646941 -0.008874531 -0.0074823503
0.08506373 -0.023420108 -0.024627998 -0.017219117 0.0049485248 0.048543952 -0.010810663 0.04345027
0.072211996 -0.03843228 -0.06655311 -0.050478518 -0.0048137405 0.03098722 -0.025434893 0.0058610593
0.044244338 -0.080194145 -0.031246955 -0.06626524 -0.094377324 -0.06363224 -0.035460938 -0.07335343
-0.019391123 0.022928705 -0.018173322 0.015044209 -0.0666593 0.030729039 -0.055499066 0.042623904
0.04206187 -0.036747765 -0.018302584 0.021036256 0.038691625 0.014330572 0.035018384 -0.054177348
-0.0040093577 0.062592074 -0.029220786 0.03823734 -0.026571674 -0.065184586 -0.020280408 0.009029651
-0.02965229 -0.056506116 -0.108788356 0.047373105 0.042740714 0.020218946 -0.0733356 -0.020956837
0.063217364 -0.05110029 0.053094864 0.015348567 -0.059683707 -0.08196031 -0.055368237 -0.090353966
-0.0305886 0.06503346 -0.018809926 0.01595024 0.07332028 -0.010396269 -0.005069299 -0.014493512
-0.07958345 -0.042367157 0.0024647077 -0.07177561 -0.092246965 -0.10461944 -0.023528252 -0.056541193
0.06428252 0.09069386 -0.012383598 -0.05400954 0.033132564 -0.057453044 -0.021507448 -0.021778231
0.004301296 0.068707995 -0.0922474 -0.04182625 0.0073572583 -0.058650825 -0.029306555 -0.040915594
0.013080901 -0.026127806 -0.028796678 0.07611868 0.08227614 0.0041052736 -0.021998059 0.015625989
-0.011882152 0.080875285 0.0762569 -0.035751022 -0.04310819 -0.067985855 -0.018082812 -0.019043196
-0.039153725 0.009098216 -0.013002807 0.060984973 0.039665446 0.043431193 -0.061750285 -0.07119239

l1/W f4 [256, 16]
00000000: 3472 2c3e 06e3 cbbe 3065 663e fbea ab3e
00000010: 2218 e7be 1ce0 91be f3f3 873e 8e96 f23e
00000020: bee0 56be fe10 0ebf d11c 1a3f c37a 90be
00000030: b629 a83c fa65 80be d52b f53e aacf 043c
00000040: f5a0 d23e 1489 ffbe 7e7c 013e b2c6 c6be
00000050: fe33 c5bc b9ea 0bbf d093 30be 0fad 5f3e
00000060: 4e24 c53e 88ef 18bf 48db 0b3f b18c afbc
00000070: feb7 573f b6ce 7b3e 3a59 283e 608a 0bbe
00000080: d40f 88be 1325 c9be ed1a d5be 336e 1f3e
00000090: d047 62bd b2e2 1a3b 28f7 21be 7e64 a63e
000000a0: b8ac b7be 223a 8fbc 1901 ccbe cb4a 333c
000000b0: f20c 61be fdf8 993d 8d3b 37be d96c 5f3f
000000c0: 32a2 363e c09e 0cbf 35d8 55be ecd6 3c3d
000000d0: 6134 22be 0fa5 f0be 913f 293f 7357 abbe
000000e0: ad0c 263f a680 2d3f 3c26 623e f184 25bf
000000f0: 6da8 abbe 43c1 fcbe 421a 0f3e 969f 2b3f
00000100: 9b65 bebc 1b45 343e 1e72 c4be 3db5 53be
00000110: aea9 a9bd b102 49be fda7 dc3e b128 5e3f
00000120: 16f8 adbd 240f cbbd d3a0 603e 77ae 8ebf
00000130: 48e9 44bc 5c46 f13e c68a d6be 6295 cfbe
00000140: abe1 e73e f35e c9be 7908 84be 7057 393e
00000150: 50f0 18be d42f 4dbf 33bf dd3e ec5b 043f
00000160: dd46 f2be 2945 ea3e 1bd9 9fbe 5d38 413e
00000170: ea3f bd3e d570 06bf 5ec0 253e 376a fd3e
00000180: 432e fd3c 34fb 383c 9b01 e33b 5301 143f
00000190: fa98 48bf 08b5 673e 2176 233f ef39 12bd
000001a0: 41a5 023e e4f6 27be 6b23 7cbd ba76 07bd
000001b0: f3fd 363e 3824 cbbe a567 2a3e ffa1 163e
000001c0: ab3f 063f e099 28bd 53d0 513e ffc4 ca3d
000001d0: 4e80 52be 3ec7 dabe e90f 7bbf 986b efbe
000001e0: 54bb ebbd e8b1 0d3e 3906 513e 7409 393e
000001f0: 0649 333e 4ba4 ed3e 18d3 203e 047c 023e
00000200: 0e75 05bf f8be fabe 6532 b13d 1572 253f
00000210: 4733 a13d 2047 65be af37 003f 1efd 4ebe
00000220: d766 8bbe 2746 0a3f 3fd4 afbe 1815 873e
00000230: 212a 7fbf e6bb 0d3d 62dc 163e 5ee2 bebd
00000240: 8df2 293e 1023 803d 6198 e9be 7cde f1bb
00000250: 0bc9 fb3e 78b8 7c3e 83fe 913e bec2 4ebe
00000260: 6131 b63d 8cdc a2be 98cf debe 9b38 82be
00000270: 98f2 323f f724 173f 764c 99bd 7ff4 143b
00000280: 7530 353f 5404 1f3c 5142 0abd c7a7 f5be
00000290: ee69 1b3e f8a6 46be 3241 1bbe ce3d 4d3d
000002a0: 1566 65bf ec95 09be 1bae 4a3e ed26 efbe
000002b0: 466f 393f 0147 4cbe 8e4a fb3d 7276 4dbe
000002c0: 1328 eabe a8aa 67bf 5984 bf3e 49fd afbe
000002d0: fdf3 453f 9a3e 8abe 971d 283e efcf 623f
000002e0: 3258 973d 9da6 c23e f272 6abe a5cd ee3d
000002f0: 4239 ebbe dbfe c3be 09eb 1fbf d2d7 e7bd
00000300: 95b0 b53d 45f8 a73e 837c e83d 8900 1f3e
00000310: 252c c2bd df49 5dbe b829 663b ed78 38bd
00000320: c3ba a53c 6069 a4be 11e2 b03c 0297 0bbe
00000330: 459f 4d3d 78ad a0bc e21b 88be 5966 0d3f
00000340: 65fe bebb 4456 8abc 3214 18bf 0556 5cbe
00000350: 15fb dcbe fa00 993c 3e89 1dbf 8390 de3d
00000360: 0cdd 4ebe 00c2 30bf a471 713e 2446 5abe
00000370: d8a3 2bbf e8f2 c73e 18c0 223f 56c9 133d
00000380: a779 41bf 0113 96be a3d7 f93d 03b1 7cbe
00000390: cdc5 8e3d e208 e33e 958b 2f3e 784d 97bd
000003a0: 7abe dc3e 296a a73e d3ae 603e 80ba 643e
000003b0: 4dd4 29bf 8585 303e 2060 413e a3c2 00bf
000003c0: 60e5 5abe 8232 b6bd 61ad 1b3f f71f 8e3e
000003d0: 15ff cc3d 4cf8 abbf e674 ebbd dff3 09bf
000003e0: 05bb c63e 2f87 f5bb 5994 133f 6dfb dd3e
000003f0: af14 8abe 2ac9 8abe 8166 aa3e d2bd ab3e
0.1684044 -0.39821643 0.22499537 0.33577713 -0.451356 -0.28491294 0.26553306 0.4738049
-0.2098417 -0.5549468 0.6020022 -0.2821866 0.020527702 -0.25077802 0.47885004 0.008106152
0.41138425 -0.4990927 0.12645146 -0.38823467 -0.024072643 -0.54655033 -0.17243886 0.2184336
0.3850426 -0.59740496 0.5463147 -0.021429392 0.84265125 0.24590573 0.16440287 -0.13627005
-0.26574576 -0.39286098 -0.41622105 0.15569381 -0.055244267 0.0023633656 -0.15816939 0.32498544
-0.3587396 -0.017483775 -0.39844587 0.010943125 -0.21977594 0.07518194 -0.1789381 0.87275463
0.1783531 -0.54929733 -0.20883258 0.046103403 -0.15840293 -0.4700093 0.6611262 -0.33465156
0.6486309 0.67774427 0.22084898 -0.6465598 -0.33526936 -0.49366197 0.1397486 0.67040384
-0.023241809 0.17604487 -0.38368315 -0.20674606 -0.08284317 -0.19629933 0.43096915 0.8678084
-0.08494584 -0.09914997 0.2193635 -1.1146992 -0.012018509 0.47123992 -0.4190275 -0.40543658
0.45289358 -0.39330253 -0.25787714 0.18099761 -0.14935422 -0.80151105 0.43309936 0.5170276
-0.4731969 0.4575589 -0.31220326 0.18869157 0.36962825 -0.5251592 0.16186664 0.49495098
0.030905848 0.01129036 0.0069276816 0.5781452 -0.78358424 0.22627652 0.63852125 -0.03569978
0.12758352 -0.16402775 -0.061557215 -0.03307221 0.17870311 -0.3967607 0.166411 0.14710234
0.524409 -0.04116237 0.20489626 0.09900855 -0.20556757 -0.42730135 -0.9807115 -0.46761775
-0.115103394 0.13837397 0.2041253 0.18070012 0.17508325 0.46414408 0.15705526 0.1274262
-0.52131736 -0.48973823 0.0865219 0.646272 0.078711085 -0.22390413 0.50084966 -0.20213744
-0.27226898 0.54013294 -0.34341618 0.2638328 -0.9967366 0.034603022 0.14732507 -0.0932052
0.16596432 0.06256688 -0.45624068 -0.0073812585 0.4917682 0.24679744 0.2851449 -0.20191476
0.08896137 -0.3180889 -0.43517756 -0.25433812 0.6990142 0.5904078 -0.07485287 0.002272874
0.70777065 0.009705622 -0.03375465 -0.47979566 0.15177128 -0.19399631 -0.15161589 0.05010777
-0.8960889 -0.13436097 0.19792978 -0.46709386 0.72435415 -0.19948961 0.122700796 -0.20064715
-0.457337 -0.90494776 0.3740566 -0.3437293 0.7732542 -0.27000886 0.16417538 0.8859853
0.07389869 0.3801774 -0.2289541 0.11660317 -0.45942122 -0.38280377 -0.6246801 -0.11320461
0.08871571 0.32806602 0.11351874 0.15527548 -0.09481076 -0.21610211 0.003512008 -0.0450372
0.020230656 -0.32111645 0.021592172 -0.13631824 0.05020072 -0.019613966 -0.26583773 0.55234295
-0.005828666 -0.016886838 -0.59405816 -0.21517189 -0.4316031 0.018677223 -0.6153754 0.10867407
-0.2020151 -0.6904602 0.23578507 -0.21315819 -0.6704688 0.3905251 0.6357436 0.03608068
-0.7557625 -0.29311374 0.121993326 -0.246769 0.06971321 0.44342715 0.1714309 -0.07387823
0.43114072 0.3269818 0.2194169 0.22336769 -0.6633957 0.17238434 0.18884325 -0.5029699
-0.21376562 -0.08896352 0.6081143 0.27758762 0.100095905 -1.3435149 -0.11496906 -0.5388774
0.3881456 -0.007492922 0.57648236 0.43355885 -0.26968905 -0.271066 0.3328133 0.3354326

l3/W f4 [256, 256]
00000000: 683f 23bd 56d3 58be e572 e13d d3ba 9bbd
00000010: b000 c8bc ee84 4dbe 28d0 e1bd 3abc dbbc
00000020: d109 c1bd 6dd2 a53c 5c07 fdbd 2cd7 c5bc
00000030: a395 0a3e 6ce1 55bd 7d79 343e d73a eb3d
00000040: a892 0fbe 0973 84bc 9087 32be bfe0 503c
00000050: 8841 623d bcbf 85bc 97a6 553e c860 083b
00000060: d53b e83c 7c76 44be ea3b 2d3a e574 d13c
00000070: 0d92 c43d c7cf d7bd 4d0e ab3d 77d2 95bd
00000080: 53a8 5c3d e348 a8bd 1625 313d 14b7 823d
00000090: 0b93 bfbc 0ec7 8c3d 5d6d 033e 7d82 8c3d
000000a0: cb8f 2bbe 37d6 87bd 9303 f3bd 3794 c3bb
000000b0: a7f7 883c e3a9 b73d ba81 c4bd fbfd 793c
000000c0: 567e 98bd b140 1a3e 9bf7 d3bd 98a0 133d
000000d0: 50f5 e63d 77b3 f0bc 54c6 fd3d 5caa 4a3d
000000e0: a97e c73d c3e5 15be 7628 66bd 2a74 673d
000000f0: 24c0 20be fcfa 3bbb f04c f9bd f193 c03d
00000100: 2f37 cf3b 5127 29bd cffd 50bd a2f9 d63e
00000110: 3c46 afbd b2fb dfbd 6d5b 8a3d 31c7 80bd
00000120: 48a9 35bc 8d06 ce3d aaba d23d 68d1 f73d
00000130: 2f6f 123d 9deb 223d f4a8 80be 397c 0ebd
00000140: 6f4b c7bc d5fb 52be e9b6 f3bd c38b e93b
00000150: 2729 7b3d 1d4c c13c 6021 18be 5d72 95bd
00000160: 25ed 1e3e aa2c 173e dae9 f7bc f37e 513d
00000170: a5f3 503e 756e 163c 77a3 3fbd efdd 89bd
00000180: 9a42 423e dcc0 81bd d58b fabd f7ba 2c3d
00000190: 92fb 5d3e 1645 fdbc 85be 873d c10d fabd
000001a0: f437 023e 1ec8 05be 4be2 183e ac3a debb
000001b0: 9e88 15be f834 9bbd c374 03be 527c 04bd
000001c0: c008 6cbd 967f 39be b1ae a83c da98 4bbc
000001d0: 3a1b ebbc b22d 05be 3a26 b8bd e67c 523d
000001e0: 6326 1bbe 244b c9bd a7bb 593d b0f3 2d3d
000001f0: 99b6 5abd eb61 16be 6ee8 3abe ede4 13be
00000200: 58ec 29bd 3453 1fbe e553 423d a48c 523e
00000210: ca15 fcbd bc5c b83c f692 a33d e32d 593d
00000220: f2a7 15be 288b b83d 5d10 023e eca4 253d
00000230: a085 3abd daf2 923c 8a6d bb3d 65e1 97bd
00000240: 6aae 8fbc 1447 febc dc73 bebd 6b82 96bc
00000250: 108e 3c3c a746 a1bd 35b0 1d3e ad67 9fbc
00000260: 7584 84be cbac 94bb 45ce a9bd 6c2c 08be
00000270: fdf9 54bb e6ce 8fbd 5f67 cc3c c5a5 bc3a
00000280: 4c98 ca3d 9081 233e 856e 21bd 92ac e63d
00000290: 3707 c2bd a424 12bc c838 a5bd e1dc e93d
000002a0: d919 3dbd a9e8 5a3e 70ba 4e3d dd0a bf3c
000002b0: 60b9 06be 89ab 5abc 4b88 a03d a62f 98bd
000002c0: 4265 413d 35a3 b83c 258c cdbc 04eb ce3d
000002d0: ce0c d63c 39e0 27bd 8eb5 b2bd 93ca 24bd
000002e0: dd00 d0bb 2312 3bbe 2938 f33d b690 cd3d
000002f0: d371 0fbe c085 29be 1bbf 093e 0438 1f3e
00000300: cc1a 6a3d edc0 58bd 08bc f53d f4df a6bd
00000310: bae7 43be 49e8 bbbe 3504 9a3d 8405 ed3d
00000320: e234 63bd ee85 a43d 9609 a2bd 39bd 00be
00000330: c20f babd 2892 2bbd 0f45 27be b9f0 01be
00000340: e043 213d 4f17 74be 2783 28be ed13 a5bd
00000350: d6aa 14bc 4e59 1d3e d6a7 5fbe ec31 8dbd
00000360: 5aaa a33c 838c fd3b 61f5 f83e 7dee 19bd
00000370: 61c0 41bd b8af 153d 51a4 d83d c3af da3d
00000380: 0031 a2bd abf4 91bd 8fa9 173d a0bb 9fbd
00000390: 51fd 5abb 8ac1 2abe 76ec abbd 14ab 39bd
000003a0: 8446 243e bbfe a8be 4912 d8bd 161e 6bbd
000003b0: 962c 4cbb f547 2abd c9d2 0abe 92b3 213e
000003c0: 0acb 4e3e 2fcc c6bd 64f5 51bd 4ef8 43be
000003d0: 8410 843d c6b2 23be a8f7 e13d 7410 533e
000003e0: 0fc2 bdbd b684 03be aad6 033e 3f93 bdbd
000003f0: 28b2 a03e 206b d73d 62fb f43d 33bc 433d
-0.03985539 -0.21174368 0.110082425 -0.07603993 -0.02441439 -0.2007024 -0.11026031 -0.026823152
-0.094257005 0.02024194 -0.12354919 -0.024150454 0.13533644 -0.052216932 0.17624469 0.11485832
-0.14020789 -0.016168134 -0.17434525 0.012748896 0.055238277 -0.016326778 0.2086433 0.002080964
0.028348843 -0.19185823 0.0006608354 0.025568435 0.095981695 -0.10537677 0.08352337 -0.073155336
0.053871464 -0.08217027 0.04324826 0.06382576 -0.023385545 0.06873904 0.12834688 0.06860826
-0.16754071 -0.06632655 -0.11865916 -0.0059685963 0.016719652 0.0896795 -0.09595056 0.015258308
-0.07445972 0.1506374 -0.10349961 0.036041826 0.112772584 -0.02938245 0.12391344 0.049478874
0.097409554 -0.14638428 -0.05619093 0.056507267 -0.15698296 -0.0028683534 -0.12172878 0.094032176
0.006323717 -0.04129726 -0.0510233 0.4198733 -0.08558318 -0.10936679 0.06755719 -0.06287993
-0.011087723 0.10059843 0.102895096 0.12100488 0.035750564 0.03977548 -0.251289 -0.034786437
-0.024327962 -0.20603879 -0.11900122 0.0071272566 0.061318543 0.023595864 -0.14856482 -0.07297204
0.15520151 0.14763132 -0.030262876 0.05114646 0.20405443 0.009181608 -0.04678675 -0.067317836
0.18970719 -0.06335613 -0.12233702 0.04217049 0.21677998 -0.030916732 0.066281356 -0.122096546
0.12716657 -0.1306462 0.14930074 -0.0067818966 -0.14602897 -0.07578462 -0.1283751 -0.032345124
-0.057625532 -0.18115076 0.020591112 -0.012426579 -0.028699506 -0.13005713 -0.08991666 0.051388644
-0.15151362 -0.09828785 0.053157475 0.042468727 -0.053396795 -0.1468579 -0.18252727 -0.14442797
-0.04148516 -0.15559083 0.04744329 0.20561463 -0.123088434 0.022505157 0.07987015 0.053022277
-0.14614847 0.09010917 0.12701555 0.040440485 -0.04553759 0.017938066 0.09151752 -0.074160375
-0.017539222 -0.031039752 -0.09299442 -0.018372735 0.01150848 -0.07874804 0.15399249 -0.019458616
-0.25882307 -0.0045372 -0.08291296 -0.13298196 -0.0032497637 -0.070218846 0.024951635 0.0014392665
0.098923296 0.15967393 -0.03941204 0.11263384 -0.09474032 -0.008919869 -0.08067471 0.114190824
-0.04616723 0.21377815 0.05047077 0.02332061 -0.13156652 -0.013346561 0.07838496 -0.07430963
0.047215708 0.02253876 -0.02509124 0.101034194 0.026129153 -0.04098532 -0.08726035 -0.040232252
-0.006347759 -0.18268637 0.11875946 0.10037367 -0.14008264 -0.16554928 0.13451807 0.15548712
0.05715446 -0.052918363 0.11998755 -0.081481844 -0.19131365 -0.36700657 0.07520334 0.11573318
-0.055470355 0.080333576 -0.079119846 -0.12572183 -0.09085037 -0.041887432 -0.16334938 -0.12689485
0.03937137 -0.23837017 -0.1645628 -0.08060441 -0.009073934 0.15366098 -0.21841368 -0.068942875
0.01997869 0.0077376976 0.4862471 -0.037580956 -0.047302607 0.03654453 0.10578216 0.10678055
-0.07919502 -0.07126745 0.037026938 -0.077994585 -0.0033415149 -0.16675392 -0.08394711 -0.04532917
0.16042525 -0.33006844 -0.105503626 -0.05740174 -0.0031154505 -0.04157253 -0.1355697 0.15791157
0.20194641 -0.09706914 -0.051259413 -0.1913769 0.064484626 -0.15986165 0.11033565 0.20611745
-0.09265529 -0.12843594 0.12874857 -0.092566006 0.31385922 0.10518479 0.1196201 0.047786903

l4/W f4 [16, 256]
00000000: 9401 0d3e 6436 f43d 83c4 503d f594 bebc
00000010: 3de3 93be 9491 aabe a775 85be be8a a0be
00000020: 7aa4 0fbe 301c 863e c556 2abe f642 4c3b
00000030: e316 c23c 7e02 98be 6600 4b3e 1534 b03d
00000040: e7a5 bb3d a96c daba c493 373d 871f c6be
00000050: 4a0f 803e 2d99 d5be 0b39 6cbd 0490 173d
00000060: 4f71 3dbd 751e a13e 4bc9 22bd 4601 c73e
00000070: 3b01 833d 6bcc 0f3e e151 403a 7983 ecbc
00000080: 5983 c43d fb33 ed3d 705d e93d d69f 323e
00000090: 34ac b23e 1e11 993d 8ac1 b83e 09d0 26be
000000a0: 98dc c83e 9aeb 6b3e 6dbb 3fbd 703f 833e
000000b0: 1973 2ebd 68ea d33d c2f6 b63e f613 043e
000000c0: 27ee 633e 817b 0c3e db57 09bd 4c7f f0b9
000000d0: 206d 76bd b977 6b3e 0ac2 d3be 983e 853d
000000e0: 06f6 863e 1194 45bd 65a8 1abe 656a c2be
000000f0: 7b64 4cbe eee1 463e 6475 98bd 0bf1 3dbe
00000100: bac4 2dbe 6733 9bba 87c5 fabd c887 59be
00000110: 7938 373d 1b8e ab3e e1c0 953d 4d10 be3e
00000120: 7c42 b9be 4f39 963d f3b8 c0be c185 69bc
00000130: 50bc 08be bd37 b93d 0afa 0bbe 40c1 463e
00000140: c284 54be 03da 9dbe e2c0 71bd ea9a f6be
00000150: c293 40be 72e4 b1bd a3c5 063d 36d6 4cbd
00000160: 3c55 c0be 6436 8f3b a442 b23e 140c 20be
00000170: 9edb 5d3e f310 d13d a54a 943e 9581 af3e
00000180: e9f9 be3c 42c3 a0bd a529 aabd 771c 67be
00000190: 8001 80bd 4035 a0bc 462e ebbd f905 083e
000001a0: 5c14 753c cc0a 02be c9de 74bd a3eb a83d
000001b0: c2bd 06bc 4ac4 103e cf7a 07be 7300 24be
000001c0: 75ae 8dbe 82fe bcbd d894 d83d c085 e53e
000001d0: cdf5 a53e ff88 613d e822 a1be 0d16 6ebe
000001e0: 94df 19be ae92 17be 74bb 763e 4c25 0c3e
000001f0: bbce e93c 2fcb 4d3e 33fa d8be d53d 683d
00000200: aa10 0d3d ae63 7b3d a7ea b73d 4439 1d3e
00000210: 2a12 173e 5acd 273e bb37 8d3e 8781 e3bd
00000220: 24d0 01bd fb77 03bf 62b7 743d a265 4e3b
00000230: 8843 113e 3322 eebe 44a5 7ebe 0747 6a3e
00000240: ffb3 09bd d633 9ebe 5ff3 023c 14da 8dbc
00000250: 7f3a 113e b7de 103e 1e18 28be 7e94 e1be
00000260: 253d 253e 630a c6bd 744b 70bd 9e22 3abe
00000270: 396b b5bd 9479 813d c088 9f3e df63 253e
00000280: 8cd3 67be ce5a 70be f575 453e a199 743d
00000290: 1c2e aebd ab9b 533e 4feb 2dbe 3637 663e
000002a0: 9750 30be 268d 993d 8ef8 5d3e 4bfe 92be
000002b0: a809 293d 79bc 36be 650c 723e a866 2f3d
000002c0: e913 c03c 74c9 0b3e 745a ec3d 985b b9be
000002d0: 782e cd3d 487c 5bbe 3ba1 e5bd 80e6 3b3d
000002e0: 2239 dbbc fb18 9cbe 76fd 483e fbbe 6dbe
000002f0: e6d5 f73c 7281 e3be a4c9 893e f24c b33c
00000300: dfd2 05bf 4c9e c43d d743 c23d eda3 49be
00000310: 5223 103e 19f7 333e 5f7d 2b3d 5de5 b3be
00000320: 7b24 20bd c673 193e 16d2 acbe 0647 05be
00000330: 1853 81be c5d1 9a3d 9833 ef3e 7ed2 17be
00000340: d49e 993b 1c02 0fbe 4795 b8bc 2ad6 eebd
00000350: 0a98 8fbe d982 4c3d 5dbd a5be 05c8 233e
00000360: 46e1 1d3d b9aa 33be 2c32 6f3e f33b 40be
00000370: c264 343e a504 783e 4183 683e 83d6 513d
00000380: 56a7 2f3e dd6f 97be 609b 85bd ab8f 0abf
00000390: 2d88 1bbe 7496 263e aaec 113d a4b1 d63d
000003a0: 28be ef3d 4921 96bd 745b f53d 1f6b 6b3d
000003b0: b9e4 a4bd 74f4 28be 61c6 e4be 251c a93e
000003c0: b634 413e cc9c 2cbe a1d6 6b3e 989f ab3e
000003d0: 8960 3f3d 21c3 d1bd 948f 813e 57b3 383e
000003e0: 2c59 fabd ff1d 85bd 9f1e a7bd e73b 0a3e
000003f0: ed29 94bc 1e62 243e f4c9 22be 6ce1 e9bd
0.13770133 0.11924437 0.05096866 -0.023264388 -0.28884307 -0.33314192 -0.26066324 -0.31355852
-0.14027587 0.2619338 -0.16634662 0.0031167842 0.023692554 -0.296894 0.1982437 0.08603684
0.09162503 -0.0016664463 0.044818655 -0.38695928 0.25011665 -0.41718426 -0.057671588 0.03700258
-0.046250638 0.3146855 -0.03974275 0.3886816 0.06396719 0.14042823 0.00073364197 -0.028871285
0.09595365 0.1158218 0.11394775 0.17443785 0.34897006 0.07473968 0.3608516 -0.16290297
0.392308 0.23039094 -0.046809603 0.25634336 -0.042590234 0.10347444 0.35735136 0.1289824
0.22258817 0.13718988 -0.03353105 -0.0004587121 -0.060162663 0.2299489 -0.41358978 0.065060794
0.26359576 -0.04823691 -0.151033 -0.37971798 -0.19960205 0.19422123 -0.074442655 -0.18548982
-0.16969576 -0.0011840881 -0.122447066 -0.21243203 0.04473159 0.33506855 0.07312179 0.37121812
-0.36183536 0.073351495 -0.37641105 -0.014253081 -0.13353086 0.09043834 -0.13669601 0.19409657
-0.20753768 -0.30830392 -0.059021838 -0.48165065 -0.18806365 -0.086861506 0.032903325 -0.050008975
-0.3756503 0.0043704975 0.34816468 -0.15629607 0.21665809 0.10208311 0.289632 0.3427855
0.023312526 -0.078497425 -0.08308724 -0.22569452 -0.06250286 -0.019556642 -0.11483435 0.13283528
0.014958467 -0.12699431 -0.059782777 0.08248069 -0.008223953 0.14137378 -0.13230442 -0.16015796
-0.27672163 -0.09228231 0.10575265 0.44828606 0.32414094 0.05506229 -0.31471944 -0.23250599
-0.15026695 -0.14802048 0.24094945 0.13686103 0.02854096 0.2009704 -0.42378387 0.056699593
0.03443972 0.06137436 0.08980303 0.15353876 0.14753023 0.16386929 0.2758158 -0.1110869
-0.03169264 -0.5135495 0.0597452 0.0031493683 0.14185917 -0.46510467 -0.24867731 0.22878657
-0.033618923 -0.30898923 0.0079925945 -0.017315902 0.1418247 0.14147459 -0.1641545 -0.44058603
0.16136606 -0.0966995 -0.058665708 -0.18177268 -0.08858342 0.06322017 0.3115902 0.16151379
-0.22639292 -0.23472139 0.19283278 0.059716824 -0.085048884 0.20664851 -0.16984294 0.22481999
-0.17218243 0.07497625 0.21676847 -0.28709635 0.041268975 -0.17845334 0.2363754 0.04282251
0.023446994 0.13651067 0.1154069 -0.36202693 0.10018629 -0.21434128 -0.11212393 0.04587412
-0.026760641 -0.3048781 0.19627938 -0.23217385 0.030253362 -0.44434696 0.26911652 0.021887276
-0.5227489 0.09600505 0.09485596 -0.19691439 0.14075974 0.17574729 0.04186761 -0.35135928
-0.03909729 0.1498557 -0.33754033 -0.13015375 -0.25258708 0.075595416 0.4671905 -0.1482639
0.0046881232 -0.13965648 -0.022532118 -0.11661942 -0.28045684 0.049929474 -0.32371035 0.1599427
0.038544916 -0.17545594 0.23358983 -0.18772869 0.17616561 0.24220522 0.2270632 0.051229965
0.17153677 -0.29577532 -0.06523776 -0.5412547 -0.15188666 0.16268331 0.03562609 0.10483101
0.11706191 -0.073305674 0.11980334 0.057475206 -0.08051438 -0.16499501 -0.446826 0.33029285
0.18867764 -0.16856688 0.23031093 0.33520198 0.046722922 -0.10242296 0.25304854 0.18037163
-0.122240394 -0.06499862 -0.081601374 0.13499413 -0.018086398 0.16053054 -0.15897352 -0.11419949

l2/W f4 [256, 256]
00000000: ff2c 633c 8ceb 30be 9429 4fbd 28c6 4c3e
00000010: 59ce 8e3d b5c2 4b3c 8910 0fba c930 bebc
00000020: 1ed1 0f3e b133 7cbe e3ec 9ebd 4713 e53d
00000030: 224a a0bd 5839 0d3e 6adf 92bd d6c5 d93d
00000040: cc56 623e aa8a f23d af5d 4dbe bbd1 d2bd
00000050: 6f27 b4bb 6fec ef3d b7aa 87be 048e 0bbc
00000060: 66a3 0d3e 512d 05be 5216 86ba 4343 00be
00000070: c448 d73d 77ba d7bc 69b7 963d 6063 15be
00000080: 2166 01be 194f b5bc b636 8dbd 7000 a1bd
00000090: fbe9 debb 1530 f83b c102 7bbd 8e39 19be
000000a0: 1813 12bd 0eec 323e a966 4bbd 6c24 d3bd
000000b0: 75e4 b63d 0608 463a 6724 2a3d bbfe 413c
000000c0: 95ef 113d a7d0 ba3b ccc6 3ebd c1d4 be3d
000000d0: c90b 1f3e 6743 16bd 710f cf3d e143 2e3e
000000e0: 16c5 aebd 9c79 1a3e 3c7d d7bc 1893 f4bd
000000f0: 6182 d6bc 37c5 ff3c 2afc 82bc b971 39bc
00000100: b8b9 563d 7fbf 9abd 8253 ac3e 5673 6b3d
00000110: 5939 3d3d 58e4 00be 416a 14be df8c 423e
00000120: 9d64 1ebd 53c2 29be 5808 8c3e 88bb 7bbd
00000130: 5b63 7a3d 1b68 50bc 3dc4 3d3e e7f6 99bd
00000140: 1c68 1fbc 94a1 24bd 8b99 40bb 0c7a 02be
00000150: 73b5 1bbd f534 a73d f3df 263d 9bfd 9f3d
00000160: 65b9 33bd 2b7e d63d 2d76 90be f9de 113d
00000170: 9a19 683d 5da0 e2bc 9380 8dbe 0592 49be
00000180: fc96 00bd d723 67bd 1c02 d03c 2cd7 213e
00000190: ac3a a83c 1fd4 bdbe 1e64 3e3d 455b 06be
000001a0: 5e89 22bd 80c2 763d b381 013e e039 4c3d
000001b0: b031 0e3e ea14 ad3d 1aab a23c ccaf 1dbe
000001c0: aa65 993c 3d4b 0a3e ba8c 453d a388 2d3e
000001d0: 3048 e93d ea9a a63d 1a6c 89bd e254 02be
000001e0: e6fd ae3d 3911 b93d a17d bbbd 6f3a 783c
000001f0: f64d d0bd e685 43be 6fb6 2d3c 13b0 7f3e
00000200: d518 abbd 9da3 c1bc 4f7d c2bd 9c90 9f3d
00000210: 9c19 99be b6c5 d23c 43d3 e73a 272c 8bbd
00000220: b819 043e 9c23 42bc 13da db3d f36d 2fbd
00000230: cd54 013e 7115 4e3e b80b 333e 8972 1bbe
00000240: 73bd 01be 8f87 d6bb 716c adbd 8c76 383d
00000250: dba5 bfbd 46f6 b0bd 4193 e1bb a738 33be
00000260: 1241 863c f408 b2bc 9901 293e 73a2 433d
00000270: b31e 02be fbe4 6c3d 460a e6bc b92e 83bd
00000280: 078e 6ebe bff6 a33d 4cf6 c0bd 1061 cbbd
00000290: a772 6abd 859b 8a3c fd5a 59bc 9951 9cbd
000002a0: e3ab 23be aab3 ec3d 3c06 54bd 6884 b4bd
000002b0: fdbb 6dbd d5a7 95bd 155d 4a3d 303e 50be
000002c0: 360f 97bc 33ba 31bc 5d0c 04bd 8853 8dba
000002d0: 2c01 653e 965e 203d 8d0d 633e f66a 26be
000002e0: a064 11be 2cf8 33bc 65fe dd3c deac 053d
000002f0: bf3d 923d ba24 253e da68 813c 4982 9d3c
00000300: 711c b1bc 0fe7 1c3c 9e49 a13d 1dd6 91be
00000310: 452e a6bd 4935 563d 8323 a1bd c7ad efbc
00000320: 4caa 5bbd c300 403e ce73 0f3e a4ce 7b3e
00000330: b369 013d 13bd ad3d d7b9 cebd 3e18 48bd
00000340: 99f3 e3bd f886 07be 08bd 153e 88cf b93d
00000350: 273f 113c 21c2 3d3d 0394 07be 899d 3cbe
00000360: efda 17bd 35ea 423e 4d20 8a3c 6cd0 a0bd
00000370: 253e 56bd 1363 1b3e d924 62bb c26f b33d
00000380: f900 46be 9b21 193e c47f 8a3c 0f4b 4dbd
00000390: cadf 36be 6e0e 5bbe 6154 d63d 0be5 8fbd
000003a0: d774 87bb 0fdd d93d 8239 3f3e 59e6 263d
000003b0: 0d20 96bd 23b0 3abe faee a93b 223d 693d
000003c0: 4d80 aebd 56d6 54bd fb83 74bd 7053 383e
000003d0: 7644 2abd c106 413d 112c e53c c51c b0bd
000003e0: 8962 9f3d 3496 0ebe 871b 11be 0a65 e8bd
000003f0: adb2 49bc 335e e7bd a24a 3ebe 1008 573d
0.013865708 -0.17277354 -0.05057676 0.19997466 0.069729514 0.0124365585 -0.0005457481 -0.023216622
0.14044616 -0.24629094 -0.07760026 0.111853175 -0.0782664 0.13791406 -0.07171519 0.10633437
0.22103423 0.11842854 -0.20055269 -0.10293909 -0.005497865 0.11715018 -0.26497433 -0.008517746
0.13831863 -0.13005568 -0.0010230041 -0.12525658 0.10511926 -0.02633403 0.073592015 -0.1458869
-0.12636615 -0.022132443 -0.06895201 -0.078614116 -0.006802795 0.007574091 -0.061281923 -0.14963362
-0.03566274 0.1747286 -0.04965845 -0.10309681 0.089302935 0.0007554296 0.041538622 0.011840518
0.035628874 0.005701143 -0.046576306 0.09317923 0.1553184 -0.036685374 0.10110367 0.17018081
-0.08533685 0.15085453 -0.026304834 -0.119421184 -0.026185216 0.031221969 -0.015989382 -0.0113186175
0.05242321 -0.07556056 0.3365746 0.05748304 0.04619727 -0.12587106 -0.14493658 0.1899905
-0.03867017 -0.16578035 0.27350116 -0.06145814 0.06112991 -0.012720133 0.1853189 -0.07517796
-0.009729411 -0.040193155 -0.0029388394 -0.1274187 -0.03801484 0.081643976 0.04074092 0.07812043
-0.043877978 0.104732834 -0.2821516 0.035613034 0.05666504 -0.027664358 -0.27637157 -0.19684608
-0.03139399 -0.056430664 0.02539163 0.15804738 0.02053579 -0.37075898 0.046482198 -0.13120754
-0.039681785 0.060244083 0.12647133 0.04985988 0.13886142 0.08451255 0.019856978 -0.15399092
0.018725235 0.13505264 0.04822991 0.16946654 0.11390722 0.08135016 -0.06710072 -0.12727693
0.08544521 0.09036488 -0.09154821 0.01515065 -0.1017112 -0.19094047 0.010602578 0.2496951
-0.08354346 -0.023637587 -0.09496557 0.07791254 -0.2990235 0.025729042 0.0017686862 -0.06795531
0.12900436 -0.01184931 0.10734954 -0.042829465 0.12630005 0.20125367 0.17484939 -0.1518041
-0.12669925 -0.0065469216 -0.08467949 0.04503493 -0.09357806 -0.08640723 -0.006884009 -0.1750208
0.01638845 -0.021732785 0.16504516 0.047762346 -0.12707023 0.05783556 -0.02808107 -0.06405396
-0.23296367 0.080060475 -0.094219774 -0.099306226 -0.057238247 0.01691986 -0.013266322 -0.07632751
-0.15983538 0.11557706 -0.051763758 -0.08814317 -0.058040608 -0.07307402 0.049405176 -0.20336223
-0.01843987 -0.010847616 -0.032238353 -0.001078234 0.22363728 0.039152704 0.22173138 -0.1625174
-0.14198542 -0.010984462 0.027098844 0.032635562 0.071406834 0.16127291 0.015797067 0.019227164
-0.021620007 0.009576573 0.078753695 -0.28483668 -0.08114294 0.05229691 -0.078681014 -0.029257668
-0.053629205 0.1875029 0.1400902 0.24590546 0.031594943 0.08483329 -0.1009404 -0.048851244
-0.11130447 -0.1323508 0.14622891 0.090727866 0.008865154 0.046327714 -0.13240056 -0.1841947
-0.037074026 0.19034655 0.016861105 -0.07852253 -0.05230536 0.15174513 -0.0034506826 0.087615505
-0.19336309 0.14954226 0.016906627 -0.05012041 -0.17858806 -0.21392223 0.10465313 -0.07026108
-0.0041338014 0.10637867 0.18674281 0.04074702 -0.07330332 -0.18231253 0.005185959 0.056943066
-0.08520565 -0.05196222 -0.05969618 0.18000579 -0.041569196 0.04712558 0.027975114 -0.08599237
0.07782466 -0.13924485 -0.14170657 -0.11347397 -0.012310666 -0.11297264 -0.18583158 0.052497923

l1/b f4 [256]
00000000: 32d9 34bd 13b5 14be 25c7 073d 185d 0fbe
00000010: d66f aabc 8ca8 13ba 2cc9 24be cd70 bc3c
00000020: 7856 12bc 955a 7dbe 1b43 703e ae78 ee3d
00000030: 8545 4abe 6481 183c 59d3 91be d67b 69bd
00000040: ddda 99bd 81b5 cc3d bc99 503d 17da 95bd
00000050: 0587 d0be 201e 083e 33e7 00be cbed 13be
00000060: 812f 88bd 5e97 a43c 6d6f f3bb 908c 993d
00000070: 0000 0000 298b 3dbc 9729 a13c 91de ebbc
00000080: aed7 77be fa18 723d 0e38 86be d0fd ecbc
00000090: 8b86 e9ba f658 fe3b d7ec 893d e29b 563b
000000a0: 8807 8e3d 5608 33bd 6af0 9cbe f7fe f8bd
000000b0: 3118 a03d 318d 0bbe af08 983b 1980 813c
000000c0: c4c5 213d f794 293d bbf5 a3bd b689 933d
000000d0: 6469 f5be 1bf9 4d3d 01e2 91bd 9cb6 333d
000000e0: e2c2 84be 3d6b 963c 7d03 02bd 5b2b c8bd
000000f0: cd62 1abe ef31 323d 3d95 bf3d 0d65 223c
00000100: 5897 113d 8c35 023c 7978 72bd 0656 263c
00000110: 916d f1bd a84d 013d c4bd 603c f0b7 ccbd
00000120: ae84 15bd b808 8e3d 7def 6fbd a70b 753d
00000130: 3d24 b2bd 48ac d2bc 3824 3ebd 7d33 16be
00000140: 3d1d 233d ecd0 ecbb 667e 78be daa1 f53b
00000150: 745b 18bd ff59 143e 6bc0 b2bd 33e8 113d
00000160: 6bd9 aabd 26b8 96be e415 d4be 335f dd3d
00000170: dd2a cebd e13b 173e e8bf 91bb 88d6 04bc
00000180: b892 99be d254 8bbd a541 04bc 011d 9c3d
00000190: 44a3 3ebb 30f2 38bc fd4d 983c f947 a13d
000001a0: 26a0 f6bd b3da 0a3c 21c1 f93d 03c3 883c
000001b0: b075 b93d 1d90 48bd 102e 02bc ff26 f2bd
000001c0: 3cae f63d f67c 523d f280 bfbe 3d1b 8c3c
000001d0: faed d53d feec 8abd 2bf6 d63c 44b2 9abe
000001e0: 5568 99bc c4ed b73d 03b0 2bbd f8f5 b4bb
000001f0: d34b b43c 10df a23b a362 513d 63b6 2d3e
00000200: e0bf 723c 44d8 443d 2a1b e1bd 212d 103e
00000210: 6a8a 6cbe 8d37 493c 8265 41bd a0bb 42be
00000220: 4302 fe3a 5b4a 9fbd 70c5 d9bd 5aa9 ab3d
00000230: 9df5 863c 6bb7 5d3d a74b 4c3d f8b1 a33d
00000240: f456 23bd 488b b73d 2efa ad3d d5e5 95be
00000250: d261 0b3d 2371 9c3d 405b 58be fab2 eebd
00000260: 55ae 6e3c 2e4c c5be 22d9 433d ad71 84bc
00000270: 0546 403e 6cdf 03be f087 203e 570f 89bc
00000280: c0f3 89bc 4be2 913c 2cea 8f3d 98f9 1bbd
00000290: 50ed 24be caf7 8ebe 05fc db3d 9ae4 0c3e
000002a0: 3aed 9cbd ac52 b7bd e5fb b83d 1c87 26be
000002b0: f053 bf3c 0e79 1c3c d4a7 d2bc 6aab 75be
000002c0: eed6 b5be 61d1 f03c 9e1c 713d 1371 44be
000002d0: 9b05 273e c077 6dbe 1ccb 4fbe 6ad9 70bd
000002e0: f2f2 64bd 58a3 90be f5ab 5fbe 6006 fb3a
000002f0: 1d37 e2ba a990 973d 81c4 b53d d578 9fbe
00000300: 9a83 ec3c 5708 1fbd d268 37ba 8c1f 3e3d
00000310: 34f7 4e3e 2e49 f3bd 0266 1bbd 4ac0 ba3d
00000320: 33ec 09be 8cf9 013e 4e20 d83c 4426 023d
00000330: f2f0 c03d 1731 1e3e 5be7 223c b046 253e
00000340: 1b20 a5ba 72d1 d63d 6804 55be 30f7 373d
00000350: 34aa d23d 9b75 623c 3082 98be c5e2 d63d
00000360: 6c95 89bd 8dff 8cbc c59e 103d 91d0 e8bc
00000370: eed5 bcbe 63f0 883d a904 613c c05a 863d
00000380: a4f8 d93c 2632 34bc 520b 3fbe 971a 16bc
00000390: 9e46 ccbd d79d 013d 6b4d fb3d 6951 af3d
000003a0: 59fa e9bd 9e50 6ebe 901d 8f3c f61f 6b3b
000003b0: b630 9fbd 5963 393d e005 d6bd fee5 a5bc
000003c0: 40cd eb3d 8ba6 3fbe d452 e2bc cf60 683d
000003d0: 42bf d2bd 42b6 3a3d de4a 1cbe f796 52bd
000003e0: a2a1 b5bc d48f c73d 297a ccbd 7228 b83c
000003f0: c4b5 b0be bcdd 92be 4955 bdbd 6ef2 3cbe
-0.044152446 -0.145222 0.033148903 -0.14000356 -0.02080528 -0.00056327204 -0.16092366 0.023003006
-0.008931749 -0.24741586 0.23463099 0.116441116 -0.19753082 0.009308193 -0.28481558 -0.057002865
-0.07512448 0.099955566 0.050927863 -0.07316988 -0.40728012 0.13292742 -0.12588196 -0.1444618
-0.06649686 0.020091709 -0.0074290545 0.07497513 0.0 -0.011568823 0.019673152 -0.028792651
-0.24203369 0.05910585 -0.2621464 -0.028929621 -0.0017816586 0.00776207 0.06734627 0.0032746722
0.0693503 -0.04370912 -0.3065217 -0.12158006 0.07817114 -0.13628079 0.004639707 0.015808152
0.039495245 0.04140183 -0.08005854 0.07204001 -0.4793197 0.050286394 -0.07123185 0.04387532
-0.25929934 0.018361682 -0.031741608 -0.097738944 -0.15076752 0.04350465 0.09354637 0.009911788
0.035544723 0.007947337 -0.059196923 0.0101523455 -0.11788476 0.0315682 0.013717119 -0.09996021
-0.036503486 0.06935257 -0.058578003 0.059825566 -0.08698318 -0.025716916 -0.04642126 -0.14668079
0.039822806 -0.007227054 -0.24266967 0.007496101 -0.03719659 0.14487456 -0.08728107 0.035621833
-0.083422504 -0.2943737 -0.4142295 0.108091734 -0.10066769 0.14768936 -0.004447926 -0.008107789
-0.2999475 -0.068032876 -0.0080722915 0.076227196 -0.0029089013 -0.011288211 0.018591875 0.07875056
-0.12042265 0.0084749935 0.121950395 0.016694551 0.0905565 -0.048965562 -0.0079455525 -0.11823844
0.12044951 0.051388703 -0.37403065 0.017102832 0.10445781 -0.06783484 0.026240429 -0.3021413
-0.018726507 0.08980897 -0.041915905 -0.005522486 0.022008812 0.004970439 0.051119458 0.16964106
0.014816254 0.04805781 -0.10991509 0.14079715 -0.23099676 0.012281311 -0.047215946 -0.19016886
0.0019379336 -0.07777854 -0.10633361 0.083819106 0.01647454 0.05413 0.049876835 0.07992929
-0.039877847 0.08962113 0.084949836 -0.2927691 0.034028836 0.076387666 -0.21128559 -0.11655231
0.014567931 -0.38534683 0.047814496 -0.016167486 0.1877671 -0.12878197 0.15676856 -0.016730947
-0.016839862 0.0178081 0.070270866 -0.038079828 -0.16106153 -0.27923423 0.10741428 0.1375908
-0.07662435 -0.08951315 0.0903242 -0.16262478 0.023355454 0.009550346 -0.025714792 -0.2399117
-0.3551554 0.029396715 0.058865182 -0.1918376 0.16310732 -0.23190212 -0.20292324 -0.058801092
-0.055895753 -0.2824962 -0.2184294 0.001915168 -0.0017258857 0.074006386 0.08875371 -0.31146875
0.028871346 -0.038826313 -0.00069965154 0.046416804 0.20211488 -0.11879192 -0.03793908 0.091187075
-0.13469009 0.12692851 0.026382592 0.031774774 0.09420957 0.15448414 0.009942855 0.16140246
-0.0012598069 0.10489167 -0.20802462 0.04491347 0.1028637 0.013821985 -0.29786825 0.104924716
-0.06717953 -0.0172117 0.035307664 -0.028419765 -0.36881965 0.06686475 0.013734021 0.06560278
0.026607819 -0.010998284 -0.18656662 -0.009161613 -0.09974407 0.03164467 0.12270626 0.0856045
-0.11424703 -0.2327294 0.017470151 0.0035877205 -0.07772963 0.04526076 -0.10450339 -0.02025127
0.11513758 -0.18715875 -0.027627386 0.05673295 -0.10290386 0.04558397 -0.15262935 -0.051413503
-0.0221718 0.0974423 -0.09984238 0.022480223 -0.34513676 -0.28684795 -0.092447825 -0.18451855

l3/b f4 [256]
00000000: 605e c63d 87f1 85bc 6ca4 45bd f5d3 2bbd
00000010: 1a33 8dbd 978d 963d c26b a7bc 8faf 4d3c
00000020: 0151 3abd c44c 8d3b 0e6d 223d 8d83 bebc
00000030: d749 6b3d 02c3 8fbd 85bc 5f3d a270 d83c
00000040: 4c7e d5bc 6ac1 91bd f4d8 db3b 0a1a 903d
00000050: c47d 543d aa22 bdbd 336d 44bd 44f4 f3bc
00000060: 238b 953c 1c4c 8b3d 6218 593d e8bb bebd
00000070: 00b3 e33c 2178 ddbc 7cc2 5b3d e57f 4cbd
00000080: c079 cdbc 0486 e8bd 94ec 7abd db74 3d3d
00000090: 333f ecbd 068f 573d 32e0 b53a c173 8abd
000000a0: 8363 d43d 07b3 bb3d e1e4 533b fca4 523c
000000b0: 8e0f 95bc 7df2 4cbc 588b 47bd c37b 99bc
000000c0: af30 a03d 5dbe 87bd 332a 84bd e848 993c
000000d0: ad81 aabc 25bb cb3d 5aff deba 3c52 ab3c
000000e0: be79 efbb 05ba 4dba 99d3 e33c d714 10be
000000f0: ea01 083c 50f9 e3bb 6f63 2abd 8fd2 9dbd
00000100: 02aa 0cbd af3b 193b 9f54 84bd 9206 b1bc
00000110: 3721 53bd 1bf2 263d 1da6 dd3c ff2a 81bd
00000120: c441 aabd f125 2abd dba8 8cbd f003 433d
00000130: 9431 b2bc bf12 893d 9091 f73c 3d7c cbbc
00000140: cdec 7e3d f44b 273a 6042 f43b cc7f 0ebe
00000150: 29bf dbba 39e1 fa3c c7de 33bd 47b0 cf3b
00000160: 8a56 76bd 7229 d2bd 5495 9dbd d921 b8bc
00000170: 348d 7f3d 69c0 58bc 9b12 a93d 0f7a 4abc
00000180: 27b4 4fbc 66c4 163d a928 0a3d 429b 1c3c
00000190: e6f7 6d3c 7c01 e8ba ea62 60bd 2668 3cbd
000001a0: e4d0 1abd f27c 8dbd 1bbd 34bd 5f3e b5bc
000001b0: 7a85 29bd 7647 993d 0822 61bd 23d4 813c
000001c0: b11f efbd 198c d7bd 644c 4cbd 15cf a5bc
000001d0: 8565 37bd ef61 3fbd cc53 cebc aade bb3c
000001e0: 871c c2bc c57f cdbc 6f01 123d 74e3 58bd
000001f0: d373 9b3c d6ac 07bd 11eb 54bd 7f77 e9bc
00000200: 21ad dabc c2a1 12bd 18e7 283d 1e09 8dbc
00000210: 5b43 8cbc 667d 233d d53d 0dbe e163 ae3d
00000220: 3132 eabc 548c 4bbd 8fc8 863d 4d76 9fbc
00000230: d6a0 773c 2b16 41bd f79e 883c f712 793d
00000240: 29ef 06bc 6977 f83b 35c9 82bc 5818 ac3b
00000250: e619 21bd 7e33 503d 2ed1 6dbb cd3f e8bc
00000260: da05 fabb 0431 233d b6a5 84bc 785f 84bd
00000270: 4106 fbbd 3727 b8ba 9d4b 5d3c f419 0dbd
00000280: 7d3d 02bd ebb9 9fbc 651d ecbc 29f1 1ebd
00000290: ff06 8bbd 45af eabc f62a 1abc f16a 583c
000002a0: 345d a13d d6f3 44bd 5c90 8ebb d835 5ebd
000002b0: d2d9 56bd c07b e7bc bb35 c8bd 0849 6aba
000002c0: 3b9c 953d 254e 69bc 5af4 4bbd 8325 2ebd
000002d0: e89e cfbd cb50 4fbd 6cfd 4abd 7a69 f8bb
000002e0: edc3 dbbc cc6e d83b dbc8 25bb 17fc e5bd
000002f0: 044a 63bd 3ac0 27bd 4d69 233d 3ed6 3cbd
00000300: 8495 1a3d 365d b63c c347 8dbc cbc3 b6bc
00000310: 18e5 2fbd 3ee6 27bd c99b 84bd b207 12bd
00000320: db0b 09bd 5afc 81bc f73d 01bd e703 8db9
00000330: 577c 0d3d 8776 bf3d 976e a1ba 815d 0a3b
00000340: d7ac 4e3d 5f2e c73c 665d 39bc 574f 6fbd
00000350: 906e b13d 10de 29bd 7765 4abd 3008 b2bc
00000360: 5826 1bbd a294 103d 7b39 db3c e8bb bebd
00000370: 6782 eabc 1f5c 08bd c806 7abd 3d8b 273d
00000380: c879 c7bc 8611 7abd 219f 9f3d d824 b3bd
00000390: 9b66 94bc 0a21 fdbb faf9 f4bc 4ab7 093d
000003a0: 8091 893c b55f eabd 012b 543c c02e 993d
000003b0: d42d 88bd c888 4c3c ae5c 00be 7c36 ecbc
000003c0: 0e32 56bd f047 d53b 1561 1a3d 91dd e23c
000003d0: e855 b83d c2b1 94bd 407e 433d e09b ac3c
000003e0: 1326 1ebd 1bfa b83c c02f bebc 5882 323d
000003f0: 38e3 99bc d96f 843c 945e 85bd b94f 043d
0.09685969 -0.01635052 -0.048252508 -0.041950185 -0.068945125 0.07351225 -0.020437125 0.012554063
-0.045487408 0.0043121297 0.039654784 -0.023256088 0.057443466 -0.07019617 0.054623146 0.026420895
-0.0260612 -0.07116969 0.0067092124 0.070362166 0.051877752 -0.09235127 -0.047955703 -0.02977956
0.018254822 0.06801626 0.05300177 -0.09313184 0.027795315 -0.027034821 0.05365227 -0.049926657
-0.025082469 -0.113536865 -0.061260775 0.04625402 -0.11535492 0.052626632 0.001387602 -0.067603596
0.10370543 0.09165006 0.0032332467 0.012856718 -0.018195894 -0.012508986 -0.048716873 -0.018735772
0.07821786 -0.06628106 -0.06453361 0.018711522 -0.020813787 0.09947804 -0.0017013357 0.020913236
-0.007308214 -0.00078478485 0.027810859 -0.1407045 0.008301238 -0.0069572106 -0.041598734 -0.077061765
-0.03434182 0.0023381521 -0.06461453 -0.021609578 -0.051545348 0.040758234 0.027056748 -0.06307029
-0.08313325 -0.04154009 -0.06868144 0.047611177 -0.021752156 0.06693029 0.030220777 -0.024839515
0.06223755 0.00063818623 0.0074542016 -0.13915938 -0.0016765344 0.030624973 -0.04391363 0.0063381526
-0.060141124 -0.10261811 -0.07694498 -0.022477077 0.06239052 -0.013229468 0.08255502 -0.012358203
-0.012677229 0.036808394 0.033730183 0.009558501 0.014524436 -0.0017700638 -0.05478183 -0.04599776
-0.03779687 -0.06908597 -0.044125658 -0.022124467 -0.04138706 0.07484333 -0.054964095 0.015848225
-0.116759665 -0.105247684 -0.04987754 -0.020240346 -0.04477455 -0.046724256 -0.025186442 0.022933323
-0.023695244 -0.02508534 0.0356459 -0.05295129 0.018976128 -0.033123814 -0.05198199 -0.028499363
-0.026693882 -0.035798796 0.041236013 -0.017216261 -0.017121961 0.03991451 -0.13793118 0.08515144
-0.028588386 -0.049694374 0.06581222 -0.01946559 0.01511403 -0.04714028 0.016677363 0.060809102
-0.008235731 0.007582594 -0.015965084 0.0052519254 -0.03933134 0.050830357 -0.003628801 -0.028350735
-0.007630092 0.039841667 -0.016192298 -0.06463522 -0.12257052 -0.0014049773 0.013506797 -0.03444858
-0.03179692 -0.019497832 -0.02882261 -0.038804207 -0.06788444 -0.028648028 -0.009409657 0.013209091
0.07879105 -0.048084103 -0.004350705 -0.05425057 -0.052453823 -0.02825725 -0.09775873 -0.0008937274
0.07305189 -0.0142398225 -0.04979358 -0.042516243 -0.10137731 -0.05061416 -0.04955809 -0.007580933
-0.026826823 0.006605005 -0.002529672 -0.11229723 -0.05549051 -0.040954806 0.039895345 -0.046102755
0.037740245 0.022261243 -0.017246133 -0.022310158 -0.04294309 -0.04099106 -0.06475026 -0.03565187
-0.033458572 -0.0158674 -0.031553235 -0.00026896523 0.034542408 0.09348779 -0.0012316284 0.0021112862
0.0504578 0.024314104 -0.011313772 -0.058425274 0.08663666 -0.04147154 -0.04941317 -0.02173242
-0.037878364 0.035297997 0.026760807 -0.09313184 -0.028626634 -0.03329098 -0.061041623 0.040904272
-0.024350062 -0.061051868 0.07794023 -0.08747262 -0.018115332 -0.007724886 -0.029904354 0.033622064
0.016793013 -0.11444036 0.012949706 0.0747962 -0.06649366 0.012483783 -0.12535354 -0.028834574
-0.05229383 0.0065088198 0.03769024 0.027693542 0.0900076 -0.07260467 0.047727823 0.02107042
-0.03861053 0.022580197 -0.023216128 0.043581337 -0.018785104 0.016166614 -0.0651218 0.032302592

l4/b f4 [16]
00000000: ef3a 1cbe d97b 93be 6a44 12be 2dd5 29be
00000010: 9645 cbbd 1746 88be 88d5 5ebe c654 03be
00000020: 9d99 bebd 6c85 78be b826 6abe bcfb 3dbe
00000030: 9947 b4bd deb7 afbd 6aed 01be ef34 b8bd
-0.15256856 -0.28805426 -0.1428391 -0.16585226 -0.09925382 -0.26615974 -0.21761143 -0.12825307
-0.09306643 -0.24269646 -0.22866333 -0.1855306 -0.08802719 -0.08579992 -0.12688223 -0.08994471
