examples/ch4/reversi_DQN_DNN/agent_black_20000/target_model.npz (npz, 522099 bytes, 8 tensors)

l2/b f4 [256]
00000000: 170e 95bd ab0b 203d e237 eb3c 2c20 e23c
00000010: 6c68 64bc 3067 b6bd 0ae0 643c c247 f53c
00000020: 72dc 84bb 0696 973c f173 afbd cdac 6c3c
00000030: 1ad2 413d 55ee 12bd a6a0 e0bb da37 b43c
00000040: 1464 8dbd a7ea bdbd d248 023d 9c16 303c
00000050: d3d6 cb3c c263 c33d dd58 e33d ad4d bb3c
00000060: 5f60 dbbc a8eb 093e a1ad eb3c 2179 d33c
00000070: 1e13 69bd f894 8cbd 9fd3 cbbc de26 2e3d
00000080: 473f 743b 50cb 54bd 2411 7e3d 52c1 e7bc
00000090: e919 14bd a2f9 17bc 606e c33c e78c 3ebc
000000a0: cd1d 05be a8c2 71ba aa55 403b 86d7 863d
000000b0: a9cc 01bd 4222 93ba 385c 9a3b e597 00be
000000c0: 7158 55bd 1ae0 4f3d 73c4 7f3d 3032 a5bc
000000d0: ac1b 6fbc d9ab ddbc 9ffd 2bbc aa93 5b3c
000000e0: 598c a0bc 26ce 1c3c 54b3 bbbd 8b3f 9d3c
000000f0: 93b9 79bd 41be 853c 9057 55bd 5e55 5f3d
00000100: 066e e2bc 2f82 273c d4c1 c6bb 6add bf3c
00000110: 31a8 043c 3ae1 423d 1332 743d db9e a03d
00000120: c762 b53b cf6d 373d de00 6cbc cb85 b2bc
00000130: 7336 e2bc 174a 4c3d aff0 04bc e6f8 74bd
00000140: 4b2f 393c 74d4 663b 49b4 b6bc 8b3e ffbc
00000150: 1ef5 92bd c04f 28bc 627f e7bd cae1 253d
00000160: 9962 9ebd e793 ccbc 89b3 683d 45c4 3dbd
00000170: 0f56 80bc 184f 943b e0f8 0cbd 316d 75bd
00000180: bf3e 0b3e 4d1e d1bd d726 a3bd 1af4 adbd
00000190: b7f7 9f3b 0756 febc 3107 623d ed08 21bc
000001a0: 5e7d 9d3d 5f38 5d3b b41f 383b 4a11 8cbd
000001b0: 9270 c4bc 8e77 0abc ec9b ebbc bee8 09bc
000001c0: 32d8 8cbd 970c 3d3d d88a dbbc 625e 02bd
000001d0: 3153 9ebd 84b7 74bc 77e8 bdbc 8284 b43c
000001e0: 04ed f43b ccba 893c efe6 753d d288 d6bb
000001f0: c285 503d 3e3b 64bd 7b70 2ebd 97ed 88bd
00000200: c587 b2bd f101 533c 65a9 9cbb 6188 cbbc
00000210: 5c0c 723d 4f6a c7bd ce94 49bc 305e 9fbb
00000220: 8e79 ab3d c3b4 c6bc 0a5b d4bc 085f 9bbc
00000230: f1d4 ba3b 2d6b 433d 03b5 35bc 897f 223d
00000240: 6842 903d 7905 15bd c179 85bd bea5 4fbd
00000250: d7d1 bbbb 3aba 023d 92a2 d5bc 42c6 c03b
00000260: 830d 313d 9f8d a2bd ce40 07bd c1d8 85bd
00000270: 619f c2bd e362 82bd 9109 12bd 5a52 96bd
00000280: bd95 9fbc a0e6 c43c 5350 91bc 1fe5 803c
00000290: 197b 86bd 07c6 f83c c091 5ebd cd80 213d
000002a0: 35c7 283d 63ad 18bd 56ba 9abc d4a6 ad3c
000002b0: b823 253d f553 6d3c 23f3 053d 22a6 5bbd
000002c0: 5f93 91bb 9157 7c3d 1775 e0bc 50cb 1a3d
000002d0: 48f5 ecbc 113d 86bd 2ea3 8fbc 0f69 0c3c
000002e0: 4167 debc b0f8 66bd 73cd dfbd cd62 363d
000002f0: 79b9 313d a1b4 a93c cdcc 97bd 5106 abbc
00000300: 3aee 7c3d 5eac 4ebd 8e83 583d bc89 563c
00000310: 6df4 6bbd 3e54 a4bd b762 60bd ef1e b8bd
00000320: 49e0 fbbc 60d4 873d 3bbe 8cbc c21f 903c
00000330: 524b 943d 05ed 33bc 0ed3 84bb b6f1 77bc
00000340: 822a a3bd 2792 32bd 1eb1 503b 1c55 92bd
00000350: b213 babd a06d d8bd f541 ccbc e420 6abd
00000360: c76a 833d 2235 bb3d e9c6 14bc 2913 64bd
00000370: b4db 053d 4fd7 64bd 6380 a2bc 77be b0bc
00000380: e7ba 4a3b be78 8c3d da38 b9bd b6ac 25bd
00000390: 3013 fa3b 9862 70bd 2cad e3bc 5579 24bd
000003a0: 1040 473c 56da dbbc 1575 f3bc 1e7d 9a3d
000003b0: 3b67 a53d 0d6b a33b 393d afbc cafe 863c
000003c0: 7742 48bc d611 a63d 4c4f a13d a036 0abd
000003d0: e9cc 38bd fc32 88bd c931 85bc 8243 a5bc
000003e0: 5d3e 21bd 7541 173c 48b2 46bc 0410 783d
000003f0: c49a 203d feb4 2b3d a50c 71bd 4f45 91bd
-0.07278078 0.039073627 0.02871317 0.027603231 -0.013940912 -0.089064 0.013969431 0.029941443
-0.0040545994 0.018504154 -0.08567036 0.014445496 0.04731951 -0.035871822 -0.0068550883 0.021999288
-0.06903854 -0.09273272 0.031807728 0.010747578 0.02488271 0.09540512 0.11100934 0.022864187
-0.026779352 0.13468802 0.028769316 0.025814595 -0.056902997 -0.06864351 -0.024881182 0.042517535
0.0037269162 -0.051951706 0.062028065 -0.028290424 -0.036157522 -0.009275826 0.023856342 -0.011630273
-0.1299965 -0.00092224265 0.0029347935 0.065840766 -0.03168932 -0.001122542 0.0047107004 -0.12557943
-0.052086297 0.05075083 0.062443208 -0.020165533 -0.014594 -0.027059482 -0.01049748 0.013401905
-0.019598173 0.009570634 -0.091650635 0.019195339 -0.060967993 0.016326072 -0.05208546 0.054524772
-0.027640354 0.010223909 -0.0060655866 0.023421008 0.008096741 0.047578074 0.059618067 0.07842799
0.005535457 0.044782456 -0.014404504 -0.021792313 -0.027613854 0.049875345 -0.008114024 -0.05980768
0.011302779 0.0035221847 -0.022302764 -0.031157752 -0.07175659 -0.01027292 -0.11303593 0.040498532
-0.0773365 -0.02497287 0.056811843 -0.046329755 -0.015666036 0.0045260303 -0.034417033 -0.059918586
0.13598154 -0.102108575 -0.079663925 -0.08493824 0.004881825 -0.03104688 0.05518264 -0.009828788
0.076899275 0.0033755524 0.0028095068 -0.06839235 -0.023979459 -0.008451356 -0.028760873 -0.0084173065
-0.068771735 0.046154585 -0.026799604 -0.03182829 -0.07730711 -0.014936332 -0.023182137 0.02203584
0.0074745435 0.016812705 0.06003469 -0.006547072 0.05090881 -0.05572056 -0.04258774 -0.06685942
-0.08717302 0.012878881 -0.0047809356 -0.024845304 0.059093818 -0.09737074 -0.012303544 -0.004863523
0.08372794 -0.024256116 -0.025922317 -0.018966213 0.005701654 0.047709633 -0.01109052 0.03967241
0.07043916 -0.036382172 -0.06517363 -0.050695173 -0.005731802 0.03191588 -0.026078496 0.005883009
0.043225776 -0.07937168 -0.033020787 -0.06535483 -0.09503055 -0.063665174 -0.035653654 -0.07339926
-0.01948058 0.024035752 -0.017738497 0.015734253 -0.06566448 0.030367864 -0.054338217 0.039429475
0.041205604 -0.03727473 -0.01888768 0.021197714 0.040317267 0.014485349 0.032702576 -0.053625233
-0.004442617 0.061606947 -0.027399583 0.03779155 -0.028925553 -0.06554616 -0.017533865 0.00856997
-0.027148845 -0.05638951 -0.10927858 0.044527818 0.04338977 0.020716013 -0.074121095 -0.020877035
0.061750628 -0.05045735 0.052859835 0.013094362 -0.05760615 -0.080238804 -0.05478164 -0.08990275
-0.030746596 0.06632304 -0.017180553 0.017593268 0.07240929 -0.010981803 -0.00405348 -0.015133312
-0.07967092 -0.043596413 0.0031843851 -0.071451396 -0.09085788 -0.10567784 -0.024933795 -0.057160273
0.064168505 0.09140994 -0.009080627 -0.055682335 0.03268023 -0.055869397 -0.01983661 -0.021575196
0.0030934156 0.06858967 -0.09044047 -0.040447913 0.007631682 -0.058687776 -0.027792536 -0.040154774
0.01216127 -0.02683751 -0.029718915 0.075433955 0.0807633 0.0049871267 -0.021391498 0.016478915
-0.012222878 0.08108871 0.07876453 -0.0337435 -0.045117293 -0.066503495 -0.016259091 -0.020173792
-0.039366115 0.009231915 -0.0121274665 0.06056215 0.039210096 0.041920654 -0.05884995 -0.07093298

l1/W f4 [256, 16]
00000000: 21ee 2d3e 4c9f cbbe 000a 663e 8d8b ab3e
00000010: 6866 e7be 1a24 91be c113 883e 039e f43e
00000020: 24b7 56be 70b2 0dbf 381e 193f b2f2 8fbe
00000030: fe6e b23c e543 81be bf6b f33e 84de 3c3c
00000040: 0f3c d53e 714c febe c18e 043e aa42 c6be
00000050: 5104 c9bc 2098 0bbf e87c 2ebe e279 643e
00000060: f4ac c73e c330 18bf 0816 0d3f 8921 c2bc
00000070: df5a 583f 40e6 783e acb0 223e 46a0 0bbe
00000080: 5077 88be 516d cabe 2d8f d4be 9e05 1e3e
00000090: ed6f 60bd deff f6ba dded 22be 2df0 a53e
000000a0: 1580 b8be a343 92bc 0054 cdbe d000 283c
000000b0: d6c8 5fbe 4f7c 9a3d 1ea6 39be 06b0 5e3f
000000c0: be2a 383e 97c9 0dbf 638f 58be 176e 433d
000000d0: d150 24be 4187 f3be 3dbd 273f a501 abbe
000000e0: e743 253f a661 2d3f 5983 623e c8fe 26bf
000000f0: 5387 a8be c3dd fdbe c2b8 103e d5ac 2b3f
00000100: 7cc2 9bbc 896a 343e a4ee c3be fe34 52be
00000110: edc1 a2bd 40a8 49be 3980 db3e 5c00 5e3f
00000120: c9fb adbd c9af cfbd 3827 603e 7e33 8ebf
00000130: 09f8 2dbc ffa5 f33e bdeb d5be 68c8 d0be
00000140: 1b66 e73e 2342 cabe 895c 84be 44dd 333e
00000150: e47e 18be daec 4dbf c810 dd3e 6e41 033f
00000160: 4fc6 f3be 1b41 ea3e bd55 a0be c071 403e
00000170: ac39 bc3e 6e9c 05bf a54f 263e daa0 fd3e
00000180: 1160 e03c f7b8 2d3c 876f 963b b3eb 143f
00000190: 89d1 49bf ff4f 663e 3b71 233f c80a 18bd
000001a0: 316f 023e 5dd8 23be b9ea 73bd 6767 e0bc
000001b0: b12e 333e 003e cebe 2b53 2d3e d3d4 1b3e
000001c0: 16c0 083f 692f 20bd b6fb 523e 5fe6 c53d
000001d0: 8a95 4ebe db31 d8be eb68 7abf f1ef efbe
000001e0: 34da eabd 8d2c 0d3e 4191 533e 5b32 393e
000001f0: 75da 353e fbf8 ec3e bd64 203e dfa2 033e
00000200: d161 05bf cbe1 f8be 2e5a ad3d 2ee6 253f
00000210: 704c 9f3d 4602 66be cae8 ff3e 0128 53be
00000220: f74b 8abe e502 0a3f c233 b1be 4aa5 833e
00000230: 5a20 7fbf 6b4c 143d 2970 153e 8eff cabd
00000240: 6d38 2b3e f6a1 633d fff9 eabe 4d4f 91bb
00000250: b727 fc3e c011 7b3e 0df9 8f3e a974 4cbe
00000260: 45c0 b73d 5b2e a4be e015 e0be 187e 82be
00000270: 3463 323f 2d6f 153f 6573 a2bd 670d 0637
00000280: 5f34 343f edbb 0d3c 1980 0dbd c33e f7be
00000290: 3b60 173e 81a2 46be 963a 1cbe ee15 523d
000002a0: 0e3e 65bf 3526 09be 59df 493e c351 efbe
000002b0: e456 3a3f f435 48be b7db f73d 0b21 4bbe
000002c0: 7e9b e9be 43b6 67bf 8029 bf3e f43b adbe
000002d0: f3ef 463f d6fc 8abe bec6 283e 446b 623f
000002e0: b925 963d 1528 c13e 4417 6dbe 9d2d f23d
000002f0: 815d edbe c058 c3be 1a03 20bf a061 f0bd
00000300: 6fff b53d 75b5 a83e 8482 ec3d 9399 203e
00000310: 7dc3 bcbd 8a8d 60be 14a4 673b 3ec1 4abd
00000320: 4500 983c 1cf1 a3be 9fcf 9a3c 567b 0bbe
00000330: 5546 403d 68c5 adbc 3504 89be 29f0 0c3f
00000340: 61ad e6bb f714 93bc 8714 18bf 3313 5dbe
00000350: 20ef dcbe dcd8 8d3c 9687 1dbf 405c de3d
00000360: 843d 4dbe 2ef9 30bf 98af 703e 3257 5abe
00000370: 6dae 2bbf f0d3 c73e 4f8e 223f 81ef 0e3d
00000380: 9f7a 41bf 85d8 94be 808f 003e 829d 7cbe
00000390: 41a5 8f3d a743 e43e 89a4 333e 0293 95bd
000003a0: 3cd5 db3e 707c a63e d2a9 633e 5ffc 633e
000003b0: 9034 2abf 4452 333e f504 403e 38fb 00bf
000003c0: 60c9 59be 3adb b1bd 43f9 1b3f 03bf 8e3e
000003d0: ee57 cd3d 337a abbf a346 eebd 82f4 09bf
000003e0: 74dc c73e 681a 97bb 3f6c 143f 8b55 dd3e
000003f0: eb6e 88be d8a1 88be c59b ac3e 5289 af3e
0.1698537 -0.3976997 0.22464752 0.33504906 -0.45195317 -0.28347856 0.2657757 0.47776803
-0.209683 -0.553504 0.59811735 -0.2811485 0.02178144 -0.25247112 0.4754314 0.011527661
0.41647384 -0.49667695 0.12945081 -0.38722736 -0.024538191 -0.54529 -0.17039835 0.2231212
0.3899914 -0.59449404 0.5511174 -0.023697631 0.8451366 0.24306583 0.15887707 -0.13635358
-0.26653528 -0.39536527 -0.41515484 0.1543183 -0.05479424 -0.0018844565 -0.1591105 0.32409802
-0.3603522 -0.017854517 -0.4010315 0.0102541 -0.21853957 0.07543241 -0.18129775 0.8698734
0.17985055 -0.55385727 -0.21148448 0.04771241 -0.16046454 -0.47564128 0.6552313 -0.33399692
0.64556736 0.67727125 0.22120418 -0.65232515 -0.32915744 -0.49583253 0.1413298 0.67060596
-0.019013636 0.17618765 -0.38268006 -0.20528027 -0.07947145 -0.19693089 0.42871264 0.867193
-0.0849529 -0.1014095 0.21889961 -1.1109464 -0.010618218 0.47587582 -0.41781417 -0.40777898
0.45195088 -0.39503583 -0.2585185 0.17564875 -0.14892155 -0.8043953 0.43176866 0.5127171
-0.47612235 0.45752797 -0.31315413 0.18793392 0.3676275 -0.5219182 0.1624132 0.49536783
0.027389558 0.010603181 0.004590932 0.5817215 -0.7883535 0.22491454 0.6384465 -0.037119657
0.12737729 -0.16000505 -0.05955002 -0.027393056 0.1749828 -0.40281677 0.16926257 0.15217905
0.534181 -0.039107714 0.20603833 0.096630804 -0.20174232 -0.42225537 -0.9781634 -0.46862748
-0.114674 0.13786526 0.20660879 0.18085615 0.17759116 0.46283707 0.15663429 0.12855099
-0.5210238 -0.48609766 0.08464466 0.6480435 0.07778251 -0.22461805 0.4998229 -0.20620729
-0.27011082 0.53910667 -0.346098 0.25712043 -0.9965874 0.03620569 0.14593567 -0.099120244
0.16720743 0.05557438 -0.45893857 -0.004434502 0.4924905 0.2451849 0.28119698 -0.19966377
0.089722194 -0.32066616 -0.4376669 -0.25486827 0.6968262 0.58372766 -0.07932166 7.990143e-06
0.7039241 0.008650762 -0.03454599 -0.4829007 0.14782803 -0.19397928 -0.15256724 0.051290445
-0.8954781 -0.13393481 0.19714107 -0.46742067 0.72788835 -0.19551831 0.12102454 -0.19836824
-0.45626444 -0.90512484 0.3733635 -0.33834803 0.77709883 -0.27146024 0.16482064 0.88444924
0.07331414 0.37725893 -0.23153406 0.11825106 -0.463604 -0.38153648 -0.6250473 -0.117373705
0.08886611 0.3295094 0.115483314 0.15683584 -0.09216974 -0.21928993 0.00353456 -0.049500696
0.018554816 -0.3201989 0.01889783 -0.13621268 0.046942074 -0.021212295 -0.26761022 0.55053955
-0.0070397113 -0.017954333 -0.5940632 -0.21589355 -0.43151188 0.01731532 -0.6153501 0.10857439
-0.20042998 -0.6913022 0.23504484 -0.21322325 -0.6706303 0.39028883 0.63498396 0.034896377
-0.7557773 -0.2907144 0.12554741 -0.2466946 0.070139416 0.44582865 0.17543234 -0.0730343
0.42936122 0.32516813 0.2223275 0.2226424 -0.66486454 0.1751185 0.18751891 -0.5038333
-0.21268225 -0.08684392 0.6092722 0.27880105 0.10026537 -1.3396667 -0.11634567 -0.53888714
0.3903538 -0.004611302 0.5797767 0.43229327 -0.26647124 -0.26685977 0.33712593 0.34284455

l3/W f4 [256, 256]
00000000: add9 21bd d2df 59be 2227 e43d 4f43 9ebd
00000010: 29a9 cbbc 31e7 4bbe 9eec ddbd 906a dfbc
00000020: 0ce1 bcbd 8b12 b53c dc75 fdbd ec9e cbbc
00000030: 679c 0b3e a5f8 54bd 83fe 343e bc15 ef3d
00000040: 4acb 11be 3303 84bc 425c 34be ce15 363c
00000050: e6b9 663d 8c7f 81bc 6c15 573e 2762 613b
00000060: 4834 e33c 65c4 44be 3b13 6e3a 2ea4 be3c
00000070: 44db c23d 2c37 dbbd 54ca a83d 946e 93bd
00000080: 1945 603d ae2b acbd 04f7 373d 611d 803d
00000090: d9dd bfbc 6856 8d3d 9f18 033e ca8f 8a3d
000000a0: c7a1 2abe ecd3 8cbd e12b ecbd 7995 3bbc
000000b0: 5d57 873c e030 bb3d c0fb c5bd 0f5c 8a3c
000000c0: 176b 9cbd 6d5e 193e ceba d3bd b780 203d
000000d0: cd16 e73d 453d e7bc 41d4 fe3d a328 4b3d
000000e0: 01f2 c63d b111 16be 13f2 61bd 0742 693d
000000f0: 1182 1ebe 1ece 17bb 23b3 f7bd 236c bc3d
00000100: 5dfe e13b 59be 21bd ad3a 51bd 53c3 d63e
00000110: 4cc5 acbd 68ab d8bd d438 893d 4589 82bd
00000120: ebd3 36bc 7468 ce3d be7c cb3d b9da f53d
00000130: adf6 1a3d 8cf3 263d 30c6 81be 6693 04bd
00000140: 3321 d0bc 4844 54be cba8 efbd e274 de3b
00000150: 02ca 7a3d f267 c83c a0f6 17be d83e 94bd
00000160: 2964 213e 4ccc 153e e599 f4bc 810c 4f3d
00000170: d83f 513e 1dee 153c 5f25 3fbd fa3a 8abd
00000180: c857 413e 6fb4 7cbd 7456 f7bd cd4b 273d
00000190: da8a 5d3e 8cc7 edbc e990 853d 4a00 fcbd
000001a0: 192c fd3d f27b 06be f364 183e a048 92bb
000001b0: e2b7 15be 303c 99bd cb6e 03be 6ad7 04bd
000001c0: 8e24 6abd b383 38be 3e2a a23c fe85 4dbc
000001d0: 1b7f e9bc 57d5 05be d31e b5bd bbee 5a3d
000001e0: d687 1cbe 6c5a cdbd 9cc3 613d dc9d 2d3d
000001f0: d7c5 5dbd a2aa 14be 779a 3abe 7806 13be
00000200: 9e27 2cbd ff32 1fbe 6798 3f3d ace8 513e
00000210: 66c3 fabd 3875 9f3c 5a29 a23d 1637 5c3d
00000220: e041 16be 96ea b83d 6d74 013e 973b 173d
00000230: 0653 44bd c04f 943c 166c b83d f8fc 9abd
00000240: 05e6 82bc df04 f3bc afe4 bbbd c895 61bc
00000250: 5d4f 4f3c 7421 a2bd 3a95 1d3e 0217 87bc
00000260: 7cc2 84be ed65 99bb 5cbc a7bd 56f6 07be
00000270: dd07 8dbb ee56 91bd 83c3 d33c 889e bc3a
00000280: af4b cd3d c4a3 223e d0b6 21bd 7520 e43d
00000290: e097 c6bd eb50 04bc 0fc7 a0bd afd0 ef3d
000002a0: 8b3b 44bd 43d0 593e 2441 4c3d a0f3 bd3c
000002b0: 6bc6 07be cc6b 5fbc 180a 9f3d c260 98bd
000002c0: 4ed2 3b3d fc0a ad3c 3656 cebc efac ce3d
000002d0: 2b01 d03c 375a 26bd 5bbc b3bd 0921 27bd
000002e0: c051 98bb 0e4b 3dbe 980e f23d b91e cc3d
000002f0: ce3d 0fbe 07af 26be a91c 0b3e 6574 213e
00000300: a8fd 653d d51d 4fbd fd2c f73d 7523 a5bd
00000310: 44ff 43be d8f3 bcbe b333 983d 1ce2 ef3d
00000320: 2d63 63bd df77 a53d 4dc9 a1bd a84d 01be
00000330: 9e7d babd 3bf2 24bd 840b 27be c6f8 00be
00000340: c577 253d 879e 73be 42fd 2bbe caf0 a4bd
00000350: fb16 2dbc 2977 1c3e 188d 5fbe a72f 8cbd
00000360: 52e3 963c aee5 0c3c dc4e f93e 5399 12bd
00000370: d656 4bbd d086 1c3d 2e2b dc3d 0d69 db3d
00000380: 8c71 a1bd a89d 8ebd 23df 0b3d a5b0 9cbd
00000390: d5b8 5dbb f279 2abe f1b6 adbd 0681 3abd
000003a0: af78 243e 2e72 a8be 0818 d9bd 6243 74bd
000003b0: e315 56bb 10a4 1abd 061a 0abe 4b9f 213e
000003c0: 1e65 4e3e 4fd7 c6bd 4a16 48bd a061 44be
000003d0: 96a0 7e3d 6c62 24be 63db e13d 9590 533e
000003e0: 5185 bebd b535 03be c23e 053e 57ac babd
000003f0: 9307 a13e 4b00 d73d 43ca f33d addb 433d
-0.039514232 -0.21276787 0.111402765 -0.07727682 -0.024860935 -0.19912411 -0.10836147 -0.027272493
-0.09222612 0.022103569 -0.123759955 -0.024856053 0.13633882 -0.05199494 0.17675214 0.116740674
-0.14237705 -0.016114807 -0.17613319 0.011113597 0.05632963 -0.01580789 0.21004266 0.0034390779
0.02773489 -0.19215544 0.0009081845 0.023271646 0.09514478 -0.107038826 0.08241716 -0.071988255
0.054753397 -0.08406769 0.044913307 0.062556036 -0.023421215 0.06901246 0.12802361 0.06765707
-0.16663276 -0.068763584 -0.11531807 -0.011449211 0.01652115 0.091401815 -0.09667158 0.0168896
-0.07637613 0.14977427 -0.103383645 0.039185252 0.11283646 -0.028227458 0.12442828 0.0495993
0.09714127 -0.14655186 -0.0551625 0.056947734 -0.15479304 -0.0023163627 -0.120947145 0.09200313
0.0068967775 -0.03948817 -0.05108135 0.41945896 -0.08436069 -0.10579568 0.06700292 -0.06373838
-0.011158924 0.100785166 0.09935902 0.12004609 0.037832905 0.04075961 -0.25346518 -0.032367133
-0.025406456 -0.20729172 -0.117021166 0.006788836 0.061227806 0.024463627 -0.14840174 -0.07238549
0.15760864 0.14628714 -0.029858539 0.050549034 0.2043451 0.009151009 -0.0466665 -0.0674953
0.18881142 -0.061695512 -0.120770365 0.040843774 0.21634999 -0.029025815 0.0652178 -0.12304743
0.123619266 -0.13133219 0.14882259 -0.004464224 -0.14620927 -0.07482183 -0.12835233 -0.032431997
-0.057163768 -0.1801899 0.019795533 -0.012544153 -0.028502991 -0.13069664 -0.0884377 0.053450327
-0.15286192 -0.10027012 0.05511819 0.042386875 -0.054143753 -0.14518216 -0.18222986 -0.14357936
-0.04202997 -0.15546797 0.0467762 0.20498914 -0.122443005 0.019465074 0.079180434 0.05376347
-0.14673567 0.09029119 0.12642069 0.036922064 -0.04793074 0.018104434 0.09004991 -0.07567781
-0.015978822 -0.029665409 -0.09174477 -0.013768621 0.012653199 -0.07916537 0.15388957 -0.016490463
-0.2592963 -0.00468134 -0.081902236 -0.13277563 -0.004303916 -0.07096659 0.025850063 0.0014390508
0.10024201 0.15882784 -0.039480984 0.11139003 -0.096969366 -0.008075933 -0.078504674 0.11709725
-0.047908347 0.21270852 0.04986681 0.023187459 -0.13259284 -0.013636541 0.07765597 -0.0744033
0.04585486 0.021123402 -0.025187593 0.10091578 0.025391182 -0.04061338 -0.0877616 -0.04080299
-0.0046484172 -0.18485662 0.1181919 0.099667974 -0.1398842 -0.16277705 0.13585152 0.15767057
0.05615011 -0.05056556 0.12069128 -0.080634035 -0.19140345 -0.36904788 0.07431736 0.11713049
-0.055514503 0.08079504 -0.07899723 -0.1262728 -0.09105991 -0.04027007 -0.16312987 -0.125949
0.040397424 -0.23790942 -0.16795829 -0.08053739 -0.010564561 0.15279831 -0.21831167 -0.068450265
0.018418942 0.008599682 0.48692977 -0.035790753 -0.04964336 0.038214505 0.10750423 0.10713396
-0.078829855 -0.06963664 0.034148347 -0.0765088 -0.0033832092 -0.16648081 -0.08482159 -0.045533203
0.16061662 -0.32899612 -0.10600287 -0.059634574 -0.0032666854 -0.03775412 -0.1348649 0.15783422
0.2015576 -0.097090356 -0.04884938 -0.19177866 0.062164865 -0.1605317 0.11028173 0.20660622
-0.09302772 -0.12813456 0.13012221 -0.091149025 0.3145109 0.10498103 0.11903813 0.04781692

l4/W f4 [16, 256]
00000000: 15e5 0d3e d71d 013e 0dc1 553d 8457 d1bc
00000010: 4f40 95be bf28 aabe c742 82be adea 9ebe
00000020: 2873 0ebe 9a54 863e c465 30be eb22 e73b
00000030: c2b1 ea3c 790f 94be b911 4a3e a4ae be3d
00000040: aeaf ba3d a7bf 25b8 7ed8 3c3d 60b6 c5be
00000050: f175 7a3e 70e5 d4be e754 55bd b8b2 1a3d
00000060: 7784 3cbd b746 9e3e 414d 28bd 27ae c43e
00000070: f917 6f3d 9cbc 0e3e bc5a b838 8755 b4bc
00000080: 01e9 c93d b016 ec3d 4592 e53d ce70 343e
00000090: 8c05 b23e 3f33 8f3d 2f15 b73e 31af 21be
000000a0: 942d c83e 087b 6c3e f9ab 36bd 6d0b 833e
000000b0: f896 22bd 2957 d33d 64fe b73e 4c19 0a3e
000000c0: 0361 5f3e 5b42 083e 87f7 32bd ee24 f93a
000000d0: c5f3 56bd cb36 6c3e dda9 d4be 2321 773d
000000e0: 127a 853e ffe6 3fbd 4b10 1abe 7fb6 c0be
000000f0: 18b6 4cbe aae0 4b3e 76ae 98bd 2a9d 3ebe
00000100: 7532 2cbe d669 f3ba 5f8e f7bd 40c8 59be
00000110: e598 2e3d fa38 ab3e d290 a13d 42cf be3e
00000120: 8d49 b6be 73a2 9b3d a109 c0be 3b9d 20bc
00000130: 82ac 0dbe 8085 b93d c32d 0cbe f97a 463e
00000140: 7dc6 53be 062b a2be 47bc 69bd ef6c f5be
00000150: 00cb 40be 8f93 a7bd 681c ff3c 0ee1 4ebd
00000160: 0264 c0be a6cf 1eb9 0ab1 b33e fd4e 21be
00000170: 08a5 5e3e 628a dc3d 9f22 973e d9d7 af3e
00000180: b42b d73c 2e42 a9bd 7316 b2bd 265b 74be
00000190: a552 65bd 5e8d 83bc b87f eebd 4388 043e
000001a0: 4770 5e3c b1eb 0bbe 65f8 70bd 1fc9 aa3d
000001b0: 75c9 fbbb b73c 093e 0055 06be b81f 23be
000001c0: 6cc0 8cbe 6a9f c5bd 3119 dd3d e6f6 e23e
000001d0: 0574 a43e 753a 5d3d a810 a2be 12ca 70be
000001e0: 1276 1abe 0fe6 17be acd9 743e a708 0c3e
000001f0: 05af be3c b4c8 4a3e d956 d8be d2da 5f3d
00000200: bd4c 083d b3aa 783d 65c3 b23d c8ea 183e
00000210: 2d1e 1c3e 2d08 273e a463 8c3e 2d13 e9bd
00000220: 65a6 06bd a81c 04bf 9d28 663d 6d34 0b3c
00000230: 5f6f 123e 33e4 edbe dbe5 7ebe ca35 673e
00000240: 939f 20bd 076e a0be a840 f83b e0c8 49bc
00000250: be5d 0e3e 9d06 0f3e 29f4 26be ea35 e2be
00000260: 5303 223e b7d7 bfbd e602 84bd f546 35be
00000270: f994 bbbd 72b5 803d a5b0 9d3e 2c15 293e
00000280: 1fa9 66be 900e 6ebe 0de5 433e 9348 703d
00000290: adf9 b2bd f6f9 503e 44bf 2abe 8047 633e
000002a0: 9341 2ebe bb67 9c3d 1cab 643e 2841 95be
000002b0: f1e1 273d 4203 34be b3c8 713e 3455 443d
000002c0: e225 bb3c 5627 0e3e 143e f23d 9649 babe
000002d0: cf38 cf3d 2637 5dbe 866c e8bd 85d1 373d
000002e0: 370b f8bc 2b05 9cbe ed92 433e 9ca5 70be
000002f0: 143a e93c 3191 e4be 727a 883e 3ecb a53c
00000300: 7b0b 06bf 2098 bc3d 0208 d03d cc50 4cbe
00000310: 4e28 133e 7f8f 353e 4b44 2f3d d381 b1be
00000320: fc73 27bd c6ca 193e 47a8 aebe 0ece 0abe
00000330: 499f 81be 2bfd 943d b01f ef3e e2ae 1dbe
00000340: dd79 d53b 2b97 0dbe 98be 9cbc 48c3 ecbd
00000350: 1c0e 8dbe 06c8 473d 1782 a5be e01f 213e
00000360: a49d 323d b810 30be a9e9 673e 8d09 3fbe
00000370: 8ff8 353e 8dec 763e c9d8 6c3e ab77 453d
00000380: e680 303e c0fc 97be ae78 84bd b086 0abf
00000390: 3aaa 1abe f183 1b3e a98b 0f3d 4f7b d03d
000003a0: 611a e73d 3fa0 91bd c3a0 ef3d cd30 6c3d
000003b0: 205e a3bd f181 28be e4f6 e2be d0f3 aa3e
000003c0: 4a85 3f3e fb6e 33be 65c1 693e e6e0 a93e
000003d0: a895 493d 092e ccbd db75 823e 2f3d 383e
000003e0: da6d 00be 9219 86bd d528 a3bd c3de 0a3e
000003f0: fa1e b9bc d034 1f3e 2adf 27be b627 d6bd
0.13856919 0.12609039 0.05218606 -0.025554426 -0.29150626 -0.33234212 -0.25441572 -0.31038418
-0.13911116 0.2623642 -0.1722632 0.007053723 0.028649215 -0.28918055 0.19733323 0.09310654
0.091155395 -3.9517556e-05 0.0461049 -0.38615704 0.24459054 -0.41581297 -0.052082922 0.037768096
-0.046024766 0.30913326 -0.0410893 0.38414118 0.05837247 0.13939136 8.790704e-05 -0.022013439
0.09858895 0.11527765 0.11209539 0.17621157 0.34769857 0.06992196 0.3575835 -0.15789486
0.39097273 0.23093808 -0.0445976 0.25594655 -0.039694756 0.10319359 0.35936272 0.13486212
0.21814351 0.13306563 -0.04369309 0.0019008198 -0.05247857 0.23067777 -0.41535845 0.060334336
0.26069695 -0.046851154 -0.15045278 -0.37639233 -0.19991338 0.19909921 -0.07455151 -0.18614641
-0.16816123 -0.001857097 -0.12087702 -0.21267796 0.04262628 0.33441907 0.078889504 0.372675
-0.3560299 0.07599344 -0.37507346 -0.009803112 -0.13835338 0.09058666 -0.13689332 0.19382848
-0.20681186 -0.3167345 -0.05706432 -0.47934672 -0.18827438 -0.081824414 0.031141475 -0.050507598
-0.375763 -0.00015145409 0.35096008 -0.15752788 0.21742642 0.10768582 0.295186 0.34344366
0.026265956 -0.08264576 -0.08695688 -0.23862895 -0.05598702 -0.01605862 -0.11645454 0.12942605
0.013576574 -0.13664128 -0.058830637 0.08339142 -0.0076839277 0.13402067 -0.13118362 -0.15930068
-0.27490556 -0.096495464 0.107958205 0.44328994 0.32119766 0.054010827 -0.31653333 -0.23514584
-0.15084103 -0.14833854 0.2391116 0.13675176 0.023276815 0.19803125 -0.4225376 0.054652043
0.03327631 0.060709666 0.08728675 0.14933312 0.15245886 0.16311713 0.2741977 -0.113806106
-0.03287353 -0.51606226 0.056191076 0.008496386 0.14300297 -0.46463165 -0.2489237 0.22579113
-0.03921468 -0.31333944 0.007576067 -0.012315959 0.13902947 0.13967367 -0.16304077 -0.44181758
0.1582158 -0.09367316 -0.06445865 -0.17702849 -0.09159274 0.06284608 0.30798832 0.16511983
-0.22525452 -0.23247743 0.19130345 0.058662962 -0.08739028 0.20407853 -0.16674525 0.22195244
-0.17017202 0.076369725 0.22330898 -0.29151273 0.04098696 -0.17579368 0.23611717 0.04793282
0.022845212 0.13882193 0.11828247 -0.36384267 0.10118257 -0.21603069 -0.11348824 0.044877548
-0.030278785 -0.30472693 0.19099016 -0.23500675 0.028470077 -0.44642022 0.26655918 0.020238515
-0.5236127 0.09208703 0.10157777 -0.19952697 0.14370844 0.1773052 0.04278974 -0.3466936
-0.040882096 0.15018758 -0.3411276 -0.13555166 -0.25316837 0.072748505 0.46703863 -0.15398744
0.0065147714 -0.13827197 -0.019133851 -0.115606844 -0.27549827 0.04877474 -0.32325813 0.15734816
0.04360737 -0.17193878 0.22647728 -0.18655987 0.17770599 0.24113674 0.23129572 0.048209827
0.17236671 -0.2968502 -0.0646833 -0.54111767 -0.15103999 0.1518705 0.0350453 0.10179769
0.11284328 -0.07110643 0.11700585 0.057663728 -0.07976937 -0.16455819 -0.44328988 0.3338914
0.1870319 -0.17522804 0.2282768 0.33179396 0.04921499 -0.09969718 0.25480542 0.1799209
-0.12541905 -0.06547846 -0.079667725 0.1356154 -0.022597779 0.1554749 -0.16393724 -0.10456793

l2/W f4 [256, 256]
00000000: 436c 5d3c c07c 31be caa8 4bbd cdea 473e
00000010: b37f 903d 91f9 533c cd8e b2bb 17c4 b5bc
00000020: ed63 103e cd5e 7bbe 91a4 9fbd ff2f e83d
00000030: 293a a2bd 769c 0d3e 9760 96bd 6408 d23d
00000040: 7ffa 5f3e 19a0 f03d 3163 4dbe a979 d1bd
00000050: a45e b5bb ce19 f03d 30ba 86be 7ff5 eebb
00000060: d77a 0c3e b8e8 04be b6b9 3dba d49e 00be
00000070: c448 d73d 0db9 d6bc a45a 933d 0df3 15be
00000080: deb2 02be cb0d b6bc cac2 8dbd ed62 a5bd
00000090: ff72 f7bb ca01 243c 6deb 77bd 0b32 16be
000000a0: 8854 19bd a0f0 2f3e 114d 51bd cf24 cfbd
000000b0: e23b b83d f902 8fbb 61b1 263d 6210 4f3c
000000c0: 4d29 103d 3956 1c3b aeb6 3bbd 8271 c43d
000000d0: 505f 213e ced1 07bd 6a18 d03d c451 293e
000000e0: bba5 b7bd 9ac7 1a3e 907e c0bc f34d ebbd
000000f0: 64d4 fcbc 3ef1 033d 8144 93bc 0445 4fbc
00000100: 0c79 553d 38a3 9abd a300 ad3e 5673 6b3d
00000110: edb4 3f3d 5460 00be 5808 14be 5fe9 443e
00000120: 7b49 1fbd fbae 2abe b564 8c3e fa3f 77bd
00000130: 100c 7d3d 3bf2 51bc 0196 3c3e a8cc 9abd
00000140: 1e49 fbbb cdf6 24bd 89e3 81bb 1972 05be
00000150: deb9 16bd 9d8a a43d 1602 283d 2890 9c3d
00000160: 33e9 2abd 6ff5 cf3d c5c9 8fbe 3336 123d
00000170: 72a9 6f3d 00f1 e7bc 5e01 8ebe 5454 49be
00000180: 0e69 03bd 4ce4 63bd cf47 ce3c 05c1 213e
00000190: 79c7 a73c aeec bdbe ee1e 413d 8291 07be
000001a0: fc3f 1ebd 8f52 753d 7efa 003e 5fd0 463d
000001b0: 86a0 0e3e 0ca4 ac3d 9fed a23c e28f 1dbe
000001c0: 22b0 993c bd65 0a3e 22a7 473d 7e8e 2d3e
000001d0: 1c3e f03d c4e0 a13d 7838 8abd bcfd 01be
000001e0: 901c a43d 4dba bb3d 4684 b8bd 0253 783c
000001f0: 48e5 ccbd c332 42be 70bd ae3b 8697 7d3e
00000200: d74a aabd 56ea bdbc 1feb bdbd 7fc0 a13d
00000210: 06b2 99be 62ac d93c 68f3 d03a b496 94bd
00000220: b819 043e 43fb 4dbc 805b db3d 9f25 35bd
00000230: e6c5 033e 9da1 4e3e 3f0b 313e 3806 1abe
00000240: 8f66 05be a12a cdbb 1b06 acbd bd75 393d
00000250: f60c bfbd 589b afbd c972 22bc e404 33be
00000260: 0d8b 863c fdd2 a2bc 8b28 293e 6d83 453d
00000270: 90b9 febd 7cea 5c3d a0fe e0bc ae70 82bd
00000280: 2e8f 70be 4be8 a73d c1cf c0bd bcc5 c9bd
00000290: ed03 67bd 8fd7 963c 6a53 4fbc f033 a1bd
000002a0: 2cb4 24be eeb4 ec3d 2d6d 58bd 57f2 b1bd
000002b0: 3d7e 79bd 1c8d 92bd 9f18 4d3d 20bc 53be
000002c0: 1546 8bbc 2fad 54bc 731d 05bd d328 8aba
000002d0: 6501 633e 609b 213d f99f 623e b18a 28be
000002e0: 28b0 12be 7351 1ebc c7f3 c53c a371 0e3d
000002f0: 33c5 923d 150d 223e f452 863c 1f3b a43c
00000300: 6b95 b0bc 8176 1a3c 9e49 a13d af55 92be
00000310: 5233 a7bd 6de1 563d 2ebf a2bd 67fb 09bd
00000320: 5b18 54bd 0b42 433e 0475 0d3e ec07 7b3e
00000330: cfc4 083d 1071 aa3d c47f ccbd b54f 42bd
00000340: 99f3 e3bd 347b 09be 093a 143e 41f5 b73d
00000350: 1b24 5a3b 47e4 413d 0bf8 05be 3caa 3cbe
00000360: 79da 17bd b8b3 453e 5ef8 8e3c dd1f a1bd
00000370: b5a9 4dbd 6082 1b3e c0b5 d5bb c965 b93d
00000380: 9911 46be df42 183e c318 7b3c 6549 4dbd
00000390: 5952 33be 0ef3 59be fbf5 d03d 9819 8fbd
000003a0: 0e26 34bb 0931 d73d 3404 403e 9de3 263d
000003b0: 335b 97bd cd3b 3bbe 8fc4 ad3b 0f41 623d
000003c0: c13c b1bd fcfe 56bd 1776 7abd 183d 343e
000003d0: ea96 29bd 96aa 3d3d be2d d73c e11e afbd
000003e0: c8f3 9e3d 0883 0cbe c66b 14be f6ea e3bd
000003f0: 76a9 1fbc 2594 e7bd f8cf 3ebe 1fe2 533d
0.013514581 -0.17332745 -0.049721517 0.19523163 0.07055607 0.012937919 -0.005449152 -0.02218823
0.14100619 -0.24547882 -0.077950604 0.113372795 -0.079212494 0.13829216 -0.07342642 0.10255507
0.218729 0.11749286 -0.2005737 -0.10228283 -0.0055349637 0.11723672 -0.26313925 -0.007292449
0.13718735 -0.129794 -0.0007237451 -0.12560588 0.10511926 -0.026211286 0.07195023 -0.14643498
-0.12763545 -0.022223374 -0.06921919 -0.08075509 -0.0075515504 0.010010192 -0.060527254 -0.14667527
-0.03743413 0.17181635 -0.051098887 -0.101144426 0.08995797 -0.004364368 0.040696505 0.012638183
0.035195637 0.0023855104 -0.045828514 0.095919624 0.15759015 -0.03315907 0.101609066 0.16535097
-0.089671575 0.15115204 -0.02349785 -0.11489477 -0.030862994 0.03221249 -0.017977001 -0.012650732
0.052117392 -0.07550663 0.33789548 0.05748304 0.046803404 -0.12536746 -0.14456308 0.19229649
-0.038888436 -0.16668312 0.27420583 -0.060363747 0.06177908 -0.0128141 0.18416597 -0.07558566
-0.0076686284 -0.04027443 -0.003963892 -0.13031806 -0.03679835 0.08034251 0.041017614 0.07644683
-0.041726302 0.101542346 -0.28083625 0.03569622 0.058511205 -0.02831316 -0.27735418 -0.19661075
-0.03208261 -0.055637643 0.025180725 0.15796287 0.020480858 -0.37094635 0.047148637 -0.132391
-0.03863524 0.059893187 0.12595555 0.048538562 0.13928422 0.08429727 0.019888697 -0.15386918
0.018760744 0.13515373 0.048743375 0.16948888 0.117305964 0.07904199 -0.06749052 -0.12694448
0.0801326 0.091663934 -0.09009604 0.015156509 -0.100046694 -0.18964677 0.0053326413 0.24764833
-0.08315056 -0.02318303 -0.092733614 0.07898044 -0.30018634 0.026571456 0.0015941681 -0.07255307
0.12900436 -0.0125721125 0.107108116 -0.04422533 0.12868461 0.20178838 0.17289446 -0.15041435
-0.13027404 -0.0062611853 -0.08399602 0.0452783 -0.09328644 -0.08574551 -0.009915062 -0.17482334
0.016423726 -0.019875998 0.16519372 0.04822104 -0.12437737 0.05393456 -0.027465165 -0.06369148
-0.23492119 0.08198603 -0.09414626 -0.09852168 -0.05640023 0.018413333 -0.012654165 -0.078712344
-0.16084355 0.11557947 -0.052838493 -0.08688801 -0.060911406 -0.07155821 0.05007231 -0.20677233
-0.017001191 -0.012980743 -0.032498788 -0.0010540731 0.221685 0.039454818 0.22131337 -0.16459157
-0.14325011 -0.009662974 0.024164094 0.03477634 0.07166519 0.15825303 0.016396977 0.020047722
-0.021555623 0.009427668 0.078753695 -0.28580996 -0.081640854 0.052461077 -0.07946621 -0.03368702
-0.05178104 0.19068162 0.13814169 0.2451474 0.033390816 0.08322346 -0.09985307 -0.047439296
-0.11130447 -0.13425905 0.14475264 0.08982325 0.003328568 0.047336843 -0.13082902 -0.18424314
-0.037073586 0.19306839 0.017452415 -0.078674056 -0.050210673 0.15186453 -0.0065219104 0.09052617
-0.1934265 0.1486926 0.015325728 -0.050118823 -0.17511882 -0.21284124 0.10203167 -0.069873035
-0.0027488503 0.105073996 0.18751603 0.040744413 -0.07390442 -0.18284531 0.0053029726 0.055237826
-0.08654166 -0.052489266 -0.061147776 0.1760143 -0.04140369 0.04630526 0.026266929 -0.085508116
0.07761341 -0.1372186 -0.14494237 -0.111287996 -0.0097449925 -0.11307553 -0.18634021 0.051729318

l1/b f4 [256]
00000000: be21 33bd 81ca 10be 26e3 013d 7770 10be
00000010: 0c59 aebc fdc1 0eba 6a18 24be 9527 ca3c
00000020: 84c8 27bc 38d8 7fbe 5e5e 6f3e e661 ec3d
00000030: fe51 4abe 14c4 153c 37f2 90be da15 5fbd
00000040: 7966 98bd 2254 c73d 335a 4e3d 9fc7 95bd
00000050: 2f52 d0be 7faa 053e 8cfe fbbd ee10 17be
00000060: 9c36 8abd 4e88 993c 2bf1 87bb 3660 9c3d
00000070: 0000 0000 001f 51bc c9df a93c 65c0 f3bc
00000080: c36c 74be 037c 7a3d 81d9 85be 4ce7 fabc
00000090: f202 27bb d980 e43b 243c 933d 9b85 b23a
000000a0: 8a95 8e3d 274e 39bd 99a1 9cbe c1ee f4bd
000000b0: 1bf3 9f3d 5580 0abe c474 2f3b 8290 983c
000000c0: 9c21 293d ac4a 2a3d 736b a3bd d013 933d
000000d0: 8601 f5be d6dc 3f3d d853 95bd db1e 3a3d
000000e0: 93a2 84be 2337 a73c 9261 febc 4f47 cbbd
000000f0: fa21 1abe 899a 343d ef7c c23d 5aa9 343c
00000100: 1269 1a3d 0283 fe3b 1ad1 65bd b6db 2b3c
00000110: a15e eebd e64c f03c 1a29 5e3c 360e cdbd
00000120: 99f5 08bd e579 8e3d 7330 79bd f356 743d
00000130: e8e3 b3bd 044e d0bc d4e4 3ebd 8176 17be
00000140: 90ea 233d 7896 23bc 7496 78be decb ff3b
00000150: eea6 19bd 7f58 123e b851 b4bd 83e8 093d
00000160: ba5f aebd d231 96be 2b7b d2be 3411 dc3d
00000170: 2399 ccbd 56b4 163e afbd c6bb ccd8 14bc
00000180: 8b2a 97be 7dfa 8cbd 531a f3bb 2f5e 993d
00000190: 2ea6 c5bb bdd6 3cbc e88b 833c 3856 a13d
000001a0: 0a04 f6bd 32fb 033c d96a fa3d 4050 7a3c
000001b0: 2638 b83d b579 4abd 589b 08bc 7f41 ecbd
000001c0: 01b0 fa3d d380 563d 1513 bfbe 6fa7 8e3c
000001d0: 4ceb cb3d 7f90 8cbd a91d e13c 465c 99be
000001e0: 35e9 a2bc 9257 b93d 4c9b 21bd b844 b8bb
000001f0: 0431 c03c a03a 903b fdf3 413d 469a 2d3e
00000200: 57c9 7b3c 193b 3f3d 7b97 e3bd 1782 0e3e
00000210: ad39 6bbe 0e5e 5f3c 365b 3fbd 5cb5 42be
00000220: adf8 f73a 8834 9ebd e4df d1bd 885f a83d
00000230: 9502 9e3c 4661 633d 6507 403d 304f aa3d
00000240: 9708 25bd e43e b33d cae0 b13d c8da 94be
00000250: 70bc 023d 5e84 a03d e29e 57be a0b4 e7bd
00000260: 9559 733c 5531 c4be 9b8a 433d 9c10 8dbc
00000270: 962c 3f3e 9aa2 04be 1a9f 223e d900 83bc
00000280: 6a84 a3bc e401 a83c 7a24 903d 272c 1cbd
00000290: e5f3 22be 9e0b 90be 19a0 e03d 3708 0b3e
000002a0: d1fe 9dbd e549 b4bd 7f50 ba3d 7f38 24be
000002b0: afda c53c 25a6 1a3c 645e e0bc d878 73be
000002c0: 6b3a b5be 21ae 043d f2b6 753d d659 45be
000002d0: 12e4 253e 608d 6cbe fd3f 4fbe 578e 71bd
000002e0: ba88 66bd cb12 90be 665d 5ebe f09c 783b
000002f0: 9340 4d3a af61 9f3d 7957 b63d bce3 9ebe
00000300: a30a e73c 7459 12bd d268 37ba e582 3e3d
00000310: 7966 4e3e 1c68 f1bd 195b 0fbd fdb7 ba3d
00000320: d7ae 09be cd61 023e 23bd de3c e099 f93c
00000330: 30a9 bd3d 9f3e 1e3e 79b5 1c3c 9bad 243e
00000340: 1b20 a5ba adda d63d f004 55be aa38 303d
00000350: ba97 d83d 56d1 7e3c 847f 98be 6dd9 d23d
00000360: 80a5 88bd 7753 a5bc 3c2f 103d 0fb7 edbc
00000370: d4b8 bcbe 0d7a 883d f858 673c b418 7e3d
00000380: d6e0 d93c 203b 76bc 710a 41be ed24 15bc
00000390: feb5 cdbd 0a43 ea3c f146 f33d 98c2 a93d
000003a0: 386a e2bd 35da 6ebe 66fe 923c 9d80 843b
000003b0: 4999 a4bd a616 393d ce96 d0bd f478 babc
000003c0: 0949 ed3d e61e 40be ff18 e5bc a82f 673d
000003d0: d418 d1bd e7c5 353d d700 1cbe 37d3 50bd
000003e0: e027 c7bc 4c94 c73d bd54 c4bd 0364 af3c
000003f0: 6af9 afbe f418 92be cd82 bfbd 4e18 3dbe
-0.04373335 -0.14139749 0.031710766 -0.14105402 -0.021282695 -0.00054457766 -0.16024938 0.024677077
-0.010240678 -0.24984825 0.23375842 0.1154211 -0.1975784 0.009140987 -0.28309795 -0.0544642
-0.0744142 0.09732844 0.05037899 -0.07313465 -0.406877 0.1305332 -0.1230441 -0.14752552
-0.06748697 0.018741753 -0.0041486225 0.07635538 0.0 -0.012763739 0.020736592 -0.029754827
-0.23869614 0.061153423 -0.26142505 -0.03062787 -0.0025483933 0.0069733677 0.07189205 0.001362014
0.06962116 -0.045240548 -0.3059204 -0.11959601 0.078100406 -0.13525517 0.0026772479 0.018623594
0.041291818 0.04157512 -0.07979479 0.07181513 -0.47852725 0.046841465 -0.072913826 0.045439582
-0.25905284 0.020412033 -0.031052385 -0.099257104 -0.15052024 0.04409269 0.094964854 0.011026705
0.03769786 0.007767082 -0.056107618 0.010489395 -0.11639143 0.029333543 0.013559604 -0.10012476
-0.033437345 0.06956843 -0.06083722 0.059653234 -0.08783704 -0.025427826 -0.046604946 -0.147913
0.040018618 -0.009984605 -0.24276143 0.0078062853 -0.037512712 0.14291571 -0.08804649 0.033669006
-0.08514352 -0.29334885 -0.41109595 0.10745469 -0.09990146 0.1471723 -0.0060650925 -0.0090848915
-0.29524645 -0.06883714 -0.0074189096 0.07488667 -0.006031773 -0.011525807 0.016057923 0.07877773
-0.12012489 0.008055495 0.12227411 0.015277922 0.089950845 -0.049432475 -0.008337818 -0.1153593
0.12240601 0.05236895 -0.37319246 0.017413823 0.09956989 -0.06863498 0.027479963 -0.29953212
-0.019886592 0.09049906 -0.039454743 -0.0056234263 0.023460872 0.00440152 0.047351826 0.16953382
0.015367827 0.04668722 -0.11112877 0.13916813 -0.2297122 0.013633264 -0.046717845 -0.19014496
0.0018918716 -0.07724863 -0.10247782 0.08221346 0.01928834 0.05551269 0.046882052 0.08315885
-0.040291395 0.0875223 0.08685453 -0.29073167 0.03191799 0.07837747 -0.21056703 -0.11313748
0.014852901 -0.38318887 0.047739606 -0.017219834 0.18669352 -0.12952653 0.15881005 -0.015991615
-0.0199606 0.020508714 0.07038207 -0.038128044 -0.15913351 -0.28133863 0.10968036 0.13577352
-0.07714618 -0.08803157 0.09097385 -0.16037177 0.024152128 0.009439026 -0.027388759 -0.23776567
-0.35396132 0.032392625 0.059988923 -0.19272551 0.16200283 -0.23100805 -0.20239253 -0.058973636
-0.056282736 -0.28139338 -0.21715316 0.003793534 0.00078297517 0.077823035 0.08903403 -0.31033123
0.028203314 -0.03572984 -0.00069965154 0.04651155 0.20156278 -0.117874354 -0.034998987 0.09117124
-0.13445602 0.1273262 0.027189797 0.030468881 0.092607856 0.15453576 0.009564751 0.1608185
-0.0012598069 0.10490928 -0.20802665 0.04302279 0.105758145 0.015552839 -0.29784787 0.10295377
-0.066721916 -0.0201814 0.035201296 -0.029017953 -0.36859763 0.06663904 0.014120333 0.062035277
0.026596468 -0.015028745 -0.1885164 -0.009103042 -0.10044478 0.02859642 0.118787654 0.08289069
-0.11055416 -0.23325427 0.017943572 0.004043652 -0.08037049 0.045187615 -0.10185014 -0.022762753
0.11586196 -0.18761787 -0.02796602 0.056441933 -0.10209814 0.044378188 -0.15234695 -0.05098268
-0.024311006 0.09745082 -0.09586475 0.021409994 -0.34369975 -0.28534663 -0.0935112 -0.18466303

l3/b f4 [256]
00000000: 2bf3 c63d 6d6b 9abc 0a70 3cbd 2c2e 21bd
00000010: b561 93bd 802e 973d 27d7 c4bc 8174 043c
00000020: 9926 40bd 66d2 0b3b d2b0 273d ddc7 c2bc
00000030: 8e61 693d 9a2d 95bd 67cd 5b3d 5432 e83c
00000040: b2d1 d8bc 40e8 91bd 9bb4 cd3b f29e 913d
00000050: 2e09 493d b6d9 bbbd 9a10 42bd 3dbb edbc
00000060: 2e31 943c 99e1 863d 7945 503d c211 c5bd
00000070: aa21 ee3c 26ac e3bc 1ac1 513d 34bb 50bd
00000080: 1d5c d3bc 9bdd e9bd 28af 76bd 153f 303d
00000090: 4b6c e7bd cbd5 593d d737 003a 3530 8ebd
000000a0: 1247 d13d 5a89 b93d 4287 aa3b b7fd 613c
000000b0: f3ca 84bc 6bce 49bc ae44 50bd b814 99bc
000000c0: 954f 9f3d 52a9 8abd 703c 85bd 7ab3 993c
000000d0: 249a 9ebc 1d63 cb3d 4b79 22ba 3a23 b93c
000000e0: be05 e0bb 8101 09bb 02c1 d53c cf18 0fbe
000000f0: 657c 163c 497f ebbb f820 23bd ce34 9cbd
00000100: 725c 12bd acc8 9f3b d77f 82bd cb66 9dbc
00000110: 027c 4bbd ab2e 2e3d 32ae f63c 620b 7abd
00000120: 4701 a4bd a155 32bd 8a5c 8abd cd0b 453d
00000130: ee33 a0bc 0f2a 893d 58c5 013d 7d26 c9bc
00000140: ae73 813d 66aa 6839 ff06 c03b 72dc 0ebe
00000150: 51dd a138 c2b9 ed3c e94e 2cbd e80b e43b
00000160: d2fc 80bd 87e3 cdbd bdb4 a0bd ae9a adbc
00000170: 02cb 7c3d a4a4 4cbc 59bc a83d e7fb 71bc
00000180: 9642 25bc 38c9 193d 5891 063d c481 463c
00000190: 0ab1 6f3c f195 09bb edba 5ebd 817d 34bd
000001a0: a226 13bd db53 8dbd 3727 3abd 8dd2 a7bc
000001b0: 338f 2ebd 72f8 973d 8282 64bd 441a 873c
000001c0: f1a7 f0bd 91f8 d8bd 5181 4bbd f1a7 bcbc
000001d0: 16c2 38bd e642 36bd 6225 aebc 198b be3c
000001e0: c43a b6bc bcaf c8bc 7ad5 143d 9652 5cbd
000001f0: b334 aa3c 1b91 08bd fec1 58bd ea36 f7bc
00000200: f7e8 e9bc 5781 1dbd 6422 303d e145 95bc
00000210: d7ab 90bc d21e 183d 7f8d 0dbe 2423 b43d
00000220: cc95 e3bc 8b5d 4ebd 2cfd 8c3d e270 a9bc
00000230: 6dc6 763c d1eb 41bd 4a57 7a3c 08f2 803d
00000240: 1bf5 cbbb 903e fe3b 1b1c 8cbc af21 ed3b
00000250: 4d02 31bd 2cab 523d 29dd efba 1020 debc
00000260: 61cd debb c05d 1f3d 22ad 70bc cf4b 88bd
00000270: fd51 fbbd 62f5 38bb d259 573c 1ee8 0bbd
00000280: f7f7 07bd f2d1 a4bc ab2f ebbc 4efa 1ebd
00000290: 2e9b 8bbd 0121 f5bc 5f55 c1bb 05cd 463c
000002a0: e756 a13d 8207 42bd 31c9 c2bb 9caa 55bd
000002b0: f8e5 56bd 4002 cbbc e37e cdbd c9e0 40ba
000002c0: 7d37 953d 5277 78bc cf20 48bd d898 2abd
000002d0: 0805 d4bd 497d 4dbd 4ab9 4dbd cdce bcbb
000002e0: a45f d0bc dae6 bf3b 872f 32bb fd86 e5bd
000002f0: 98ab 5ebd 5c28 2dbd 6550 233d 8f4f 3abd
00000300: 2da3 1f3d 389d b03c 84bc 81bc 2496 bcbc
00000310: 4354 41bd 738e 29bd b287 7fbd 9b2a 13bd
00000320: f720 0fbd 2b42 86bc 52f2 06bd 4965 563a
00000330: ab1d 163d aafe be3d 16b2 28bb 49fe c43a
00000340: ca0a 4e3d 9700 d23c 1123 32bc 6f86 80bd
00000350: 7116 b23d ac3a 3bbd aeb2 4bbd 2882 a4bc
00000360: cd9b 13bd 5103 193d ba96 e23c 4a0b bfbd
00000370: d0dc 02bd b9bc 09bd c895 74bd ed32 213d
00000380: 863c bfbc fc28 75bd 4e95 a23d 08bd b0bd
00000390: 6d78 92bc c1ae eabb 11f9 febc 9a90 0c3d
000003a0: 3b0d 803c 1f78 ecbd adce 6f3c 3185 933d
000003b0: 6d61 82bd 2ede 1b3c 8f01 00be 6672 dcbc
000003c0: c6cf 5cbd 7988 da3b 64ad 163d 813c f13c
000003d0: f5e6 bb3d 83f3 96bd bbee 4a3d 0106 aa3c
000003e0: c672 25bd d683 b83c eaca bcbc 8c4c 453d
000003f0: 6538 93bc 7437 853c 97cc 81bd 8baa 073d
0.09714349 -0.018850053 -0.046005286 -0.039350674 -0.071963705 0.07381916 -0.024028374 0.008084417
-0.04691181 0.0021335124 0.040940113 -0.023776943 0.0569778 -0.072840884 0.053662684 0.02834431
-0.026467178 -0.07124376 0.0062776334 0.071103945 0.04908102 -0.091723844 -0.047379114 -0.029019946
0.018089857 0.06585998 0.050847504 -0.09622528 0.029068787 -0.027792048 0.051209547 -0.05095978
-0.025800759 -0.11419221 -0.060225636 0.04302891 -0.11299952 0.053182404 0.0004891133 -0.069427885
0.10218634 0.09059401 0.0052041123 0.0137934005 -0.016210055 -0.01231728 -0.050846748 -0.018686637
0.07778851 -0.067705765 -0.06505668 0.018762339 -0.01936061 0.09931014 -0.00061978836 0.022599805
-0.006836622 -0.0020905437 0.02609301 -0.13974307 0.009184931 -0.0071868044 -0.039826363 -0.07627259
-0.035732694 0.004876217 -0.0637204 -0.019214055 -0.04967881 0.042524975 0.03011236 -0.06104601
-0.08008056 -0.043538693 -0.06755932 0.048106957 -0.019556012 0.06697475 0.031682342 -0.024554485
0.06320892 0.00022188723 0.005860209 -0.1395128 7.718302e-05 0.02901924 -0.042067442 0.006959427
-0.06298222 -0.10053163 -0.07846973 -0.021191921 0.06171704 -0.012490425 0.082390495 -0.014769531
-0.010086676 0.037545413 0.032853454 0.0121158995 0.014629612 -0.0020993913 -0.054377485 -0.044065002
-0.035925515 -0.0690076 -0.045447554 -0.02048614 -0.042617034 0.07420434 -0.055788524 0.016492017
-0.11750782 -0.10594285 -0.049683873 -0.0230293 -0.04510697 -0.044497393 -0.02125806 0.023259686
-0.022244819 -0.02449786 0.0363364 -0.053789698 0.020777082 -0.03334151 -0.05291938 -0.030177552
-0.02855347 -0.038453426 0.043001547 -0.018221797 -0.017660065 0.037138768 -0.13823508 0.08795765
-0.02778139 -0.05038218 0.06884226 -0.02068371 0.015061957 -0.047344033 0.0152796 0.06296164
-0.006224287 0.007758923 -0.017103245 0.0072366814 -0.043215085 0.051432773 -0.0018300164 -0.027114898
-0.0067993854 0.038907766 -0.014689716 -0.06655084 -0.122714974 -0.0028222431 0.013143973 -0.03415691
-0.033195462 -0.020119641 -0.028709253 -0.038812928 -0.068167076 -0.029922964 -0.0059000696 0.012133841
0.078779034 -0.04737044 -0.005944394 -0.05216466 -0.05246541 -0.024781346 -0.10033967 -0.00073577143
0.07285974 -0.015165167 -0.048859414 -0.04164967 -0.10352522 -0.05016831 -0.050225534 -0.0057619573
-0.02543623 0.005856377 -0.0027188973 -0.112073876 -0.054362863 -0.042274818 0.039871592 -0.04548603
0.038973976 0.021559343 -0.015836962 -0.023020811 -0.0471995 -0.041395616 -0.06238527 -0.035929304
-0.034943547 -0.016388973 -0.03294594 0.0008178545 0.036649387 0.09325917 -0.0025740913 0.0015029396
0.050303258 0.025635047 -0.010872618 -0.06275641 0.086956866 -0.04571025 -0.04973095 -0.020081595
-0.036037255 0.03735668 0.027659763 -0.09328325 -0.031948864 -0.033627246 -0.059713155 0.039355207
-0.02334429 -0.05985354 0.07938634 -0.08629805 -0.01787969 -0.0071619456 -0.031124623 0.03431759
0.015631309 -0.11546349 0.014636678 0.072031386 -0.06366239 0.009513421 -0.12500595 -0.026910018
-0.053909086 0.006669101 0.036786452 0.029447796 0.09174911 -0.07370665 0.049544077 0.020754816
-0.04039266 0.022523802 -0.023045976 0.048168704 -0.017971227 0.016261794 -0.063378505 0.033121627

l4/b f4 [16]
00000000: 6641 22be 4d37 97be 8e62 0ebe 7809 26be
00000010: 83de d0bd ddd0 88be ad36 5ebe 990e ffbd
00000020: c3d4 b2bd 1ded 77be bd9e 69be 280c 38be
00000030: 142f babd 841b b0bd be67 04be b52f abbd
-0.1584526 -0.2953438 -0.13904783 -0.1621455 -0.10198691 -0.2672185 -0.21700545 -0.12453956
-0.08731987 -0.24211545 -0.2281446 -0.17973387 -0.09091011 -0.08598998 -0.129302 -0.08358709
