examples/ch2/or_w/result/out.model (npz, 803 bytes, 4 tensors)

predictor/l1/W f4 [3, 2]
000000 85 03 09 bf 97 48 56 3f 1f da 4d bf f5 61 ae be
       -0.53520995 0.83704513 -0.8041095 -0.3405911
000010 83 85 93 3f 1f 80 31 bd
       1.152512 -0.043335076

predictor/l1/b f4 [3]
000000 00 00 00 00 00 00 00 00 00 00 00 00
       0.0 0.0 0.0

predictor/l2/W f4 [2, 3]
000000 bd e7 ac 3e de f0 98 bb 0f 46 6c 3f e8 5c 1d 3f
       0.33770552 -0.0046673855 0.922944 0.6146989
000010 eb 96 c4 bd 4c 85 3f bf
       -0.09599098 -0.7481277

predictor/l2/b f4 [2]
000000 00 00 00 00 00 00 00 00
       0.0 0.0
