examples/ch2/or_model/result/out.model (npz, 803 bytes, 4 tensors)

predictor/l2/b f4 [2]
00000000: 0000 0000 0000 0000
0.0 0.0

predictor/l2/W f4 [2, 3]
00000000: 7ec6 35bf 7db4 df3e c19b 3a3f 5fb6 093f
00000010: eafe 803f a0b2 443f
-0.71006 0.4369239 0.7289391 0.537939 1.0077794 0.7683506

predictor/l1/b f4 [3]
00000000: 0000 0000 0000 0000 0000 0000
0.0 0.0 0.0

predictor/l1/W f4 [3, 2]
00000000: 08e3 483b 1699 72bf 1560 f33e 05d6 563f
00000010: 1188 b7be 636d 39bf
0.00306529 -0.9476484 0.47534242 0.8392032 -0.35845998 -0.72432536
