examples/ch4/reversi_DQN_CNN/agent_white_14000/target_model.npz (npz, 35997 bytes, 10 tensors)

c3/b f4 [16]
00000000: a07f f3be d661 b1be 0000 0000 c6e6 8b3f
00000010: 1ff1 623f e4c3 513f f972 b63d 95fb 47be
00000020: 0000 0000 d755 593d c09b 063f 6a4e cfbd
00000030: 0368 0dbf e3e0 763b fd90 c03e 7727 fabc
-0.47558308 -0.34644955 0.0 1.0929801 0.8864917 0.8193953 0.08908648 -0.19529565
0.0 0.05306038 0.52581406 -0.10122378 -0.55236834 0.0037670664 0.37610617 -0.030536396

c1/W f4 [4, 1, 2, 2]
00000000: 7ccd 823f fee5 27bf b9d3 77bf c963 5f3e
00000010: ad41 40bf 3269 9a3d e7c4 c7be d913 103f
00000020: 1626 133f e7a3 2b3e 1369 5e3e 6cc6 2abd
00000030: dc82 9fbd 2413 623e 493c 2e3e 4812 203f
1.0218959 -0.65585315 -0.9680744 0.21815409 -0.75100213 0.07539596 -0.39017412 0.56280285
0.5747999 0.16761743 0.2171977 -0.041693136 -0.07788631 0.22077614 0.17015184 0.62527895

l5/W f4 [16, 256]
00000000: 6fe6 14bf 7b2f a13e 5a2e 2cbe 5e98 3bbe
00000010: 0e3b 9cbe 019a b0be dea2 983d c55d 3abf
00000020: da6c c33d f4cb 1abe beb6 6a3d 6750 30be
00000030: c84d d43e 8c7f 40be 5b1b 853d 6da4 d7be
00000040: 069a 103f 1a87 f63d dd32 843d a5ba 5bbd
00000050: 7d6e d7bd 76a3 0c3f 49ff 05bf d76a 08bf
00000060: 375c 743d 2f86 95be 8d7d 7abe 8dd6 72be
00000070: ddd9 5a3f ae94 253e aa49 6fbe 50a9 c0be
00000080: 235a 293e 1345 c23e 2c3b bc3d c569 febd
00000090: f59d 883d 8ac4 a23e b763 8ebe d481 70be
000000a0: f1e4 9bbe 2daf f6bd 866d a53d f17e cf3e
000000b0: 2f23 89bd 5c62 d03d 54c9 47bd 7cfb 073f
000000c0: 06e0 8ebd f25c f0be 279c edbe 3d05 113d
000000d0: fe9b 94be 409a 413e 9b1b da3e 03c3 edbe
000000e0: 3244 98be 641b bc3e 93e2 7abe 439d 863d
000000f0: 6567 193e 29e0 bc3d 5612 143f 36b9 3a3f
00000100: 49c9 433e 98d1 033e 7499 e1be a385 b93c
00000110: bb3c 5fbf 0f10 0d3f 2add e9bc 0c6d 623e
00000120: cdc7 553d d995 bb3e 6cb7 17bf 9399 093f
00000130: 8c25 8d3e 0312 063e fb94 53be f152 4abe
00000140: af2b 7b3e 5a0e 5bbe 7bc4 e2be a72c 513f
00000150: 5605 26bf 1f2d 143b f126 42be 3a2c d13e
00000160: 2349 c63e 40df 41be 0641 14bd d677 04bf
00000170: 163e 283e a0c9 93be fe4a 5abf 31c8 b23c
00000180: 02a7 c7bc 5e54 473e 50c0 4d3e 820e 213f
00000190: ac84 d7bd 3f32 e83c 0b3b 133c 6df3 6fbc
000001a0: 3a3f 253d 0d6c 6ebe a9f9 633d 7584 2cbf
000001b0: 12ca 5cbe 4d25 2bbd 2f6a 37be edec 303f
000001c0: b5e9 123f 6b36 2f3e ceae ac3d 313a 523d
000001d0: e4ca 973e 637b 95be f10c 123f 4de6 3bbd
000001e0: a22e 01bf 5263 a33e e120 9e3e b5fa 913e
000001f0: e5c8 b3be e91a 85be 3093 973e 9059 fa3e
00000200: 8c74 c5be 4798 9f3e 5dea 963e fc44 f23e
00000210: c14f 3d3f 75ab 5cbe aa01 443e 7e0f a4bc
00000220: c82d cfbe f241 bfbe abb3 0b3f 94cd 40bf
00000230: 14f8 933d e42c 63be 7107 0cbf 0065 58be
00000240: 24ab 5d3e 48e0 e93e 8353 583d 5a9c aebf
00000250: 3a0f 813e f1b8 693e 1f74 0dbe b6a5 803d
00000260: c7db d2be 2b0b 4dbe 8ce5 753f 4a7d bc3e
00000270: 6bb6 4b3d 76ef 883f 25bc ee3d 1fd6 ec3e
00000280: 5112 c5be f87f a4bd a2f0 06bf cba9 c93e
00000290: 658e 063e 75b3 0dbf 3f5b 3c3e ba57 d1be
000002a0: ecae a83e a4cf 4ebf 73de 34be d4f4 853e
000002b0: 2390 053d 4cfc 3bbe f183 1cbd 3724 513e
000002c0: 7410 85be c577 dfbd 1c8c 53bf 98e2 33bd
000002d0: 3b22 c33e e763 bbbe ed11 043f e425 2ebf
000002e0: 4cb8 2ebd 114e 343f aae0 7b3b 0c9d 3cbf
000002f0: 2e4d 1abf f297 273f d36d 043f 0ce4 5d3f
00000300: 3565 66be 4776 8d3e a02b 4f3f 1d8a 59bf
00000310: 0850 b83d 9aa1 21bf b8c6 17bf cc54 afbe
00000320: 3a27 a7be 4488 a93e 015d fb3e 5c23 b53e
00000330: ba54 283e 1d8e c3be 75b4 cabe 23d4 86bc
00000340: b7ae 0abf ddc1 84be 058e cebb 6e0c 88bf
00000350: e873 9dbe e7b5 483f feb7 873e 2778 493f
00000360: ad89 fa3e 60f8 a3be db04 f9be 3999 aabc
00000370: 685c 333f 0fd4 a6bd 4a35 3dbf acc3 6cbf
00000380: e10e ae3d b575 513e 805e cebe 0b2b 223e
00000390: c53e f13d af99 abbe d21e aa3d 993f 8cbe
000003a0: 8a98 12be 3f41 ddbd e77e c2bd d948 d33e
000003b0: 4a83 ac3e 11bc 0cbf 54c9 8c3e 5bf8 283f
000003c0: b202 0abf a18b cdbe a8ec 84bf e58c 573e
000003d0: 4370 2abf e634 8cbe 66f3 253f 3799 dcbd
000003e0: d9c2 903e b473 0f3e 1c74 35bf eebc 1bbf
000003f0: 58c8 a33e 8fd2 bcbe fed7 c6be 6225 f33e
-0.58164114 0.31481537 -0.16814557 -0.18319842 -0.30513805 -0.34492496 0.074529395 -0.7279933
0.09542246 -0.15116864 0.057303183 -0.17218171 0.41465592 -0.18798655 0.06499358 -0.42117634
0.5648502 0.12037487 0.06455014 -0.053644795 -0.10519121 0.5493692 -0.5234266 -0.53288025
0.059658255 -0.29203936 -0.24461956 -0.23714657 0.85488683 0.16169998 -0.23367944 -0.37629175
0.1653829 0.37943324 0.09190974 -0.12422518 0.06670753 0.31790572 -0.2781045 -0.23487025
-0.30448106 -0.12045131 0.080775306 0.40526536 -0.06696164 0.101750106 -0.048775986 0.5311811
-0.06976323 -0.46945912 -0.46408197 0.035405386 -0.29025263 0.18906498 0.42599186 -0.46437845
-0.2973953 0.36739647 -0.24500494 0.06572964 0.14980848 0.09222443 0.5784048 0.7293886
0.19119753 0.12872922 -0.44062388 0.02264673 -0.8720204 0.5510263 -0.028547842 0.2211191
0.052192498 0.36637762 -0.59264255 0.5374996 0.27567708 0.13092808 -0.206623 -0.19758202
0.24528383 -0.21392193 -0.44290528 0.8170876 -0.6485189 0.0022609902 -0.18960167 0.40854055
0.38727674 -0.1893282 -0.036194824 -0.51745355 0.16429934 -0.28864765 -0.8527068 0.021823974
-0.024371628 0.19465777 0.20092893 0.6291276 -0.10523352 0.028344272 0.008986245 -0.01464544
0.0403435 -0.23283406 0.055658016 -0.67389613 -0.21561459 -0.04178362 -0.179116 0.6911152
0.5738786 0.17110603 0.08431779 0.051325027 0.2964698 -0.291957 0.57050997 -0.04587393
-0.5046178 0.31911713 0.3088446 0.28511587 -0.35114208 -0.25997093 0.29604483 0.48896456
-0.3856548 0.31170866 0.2947568 0.47318256 0.7394982 -0.2154978 0.1914126 -0.020026919
-0.40464616 -0.37355 0.54571027 -0.7531369 0.072250515 -0.22185093 -0.54698855 -0.21132278
0.21647316 0.45678926 0.052814018 -1.3641465 0.2520693 0.22824456 -0.13813828 0.06281607
-0.41183302 -0.20023791 0.96053386 0.36814338 0.049734514 1.0698078 0.116569795 0.4625711
-0.38490537 -0.080322206 -0.52710927 0.39387354 0.13140257 -0.55351955 0.18394183 -0.40887243
0.32945955 -0.80785584 -0.17662983 0.26163352 0.032608163 -0.18357962 -0.038211767 0.20423971
-0.25989115 -0.10911516 -0.82635665 -0.04391727 0.38112053 -0.36599657 0.5158985 -0.68026567
-0.042656228 0.7043162 0.003843347 -0.73677135 -0.60274017 0.65466225 0.5173008 0.86676097
-0.22499545 0.276293 0.8092594 -0.8497637 0.0899964 -0.6313721 -0.59287596 -0.34244382
-0.32647115 0.33111775 0.49094394 0.3537854 0.1643857 -0.3819436 -0.39590803 -0.016458577
-0.54172844 -0.25929156 -0.006303551 -1.0628793 -0.30752492 0.7840256 0.26507562 0.7869896
0.48933163 -0.32025433 -0.48636517 -0.020825015 0.70062876 -0.08145916 -0.7390944 -0.9248607
0.08498932 0.20455058 -0.40306473 0.15836732 0.117795505 -0.3351569 0.0830666 -0.2739227
-0.14316002 -0.1080346 -0.09496861 0.41266516 0.33693916 -0.54974467 0.2749735 0.6600396
-0.5391036 -0.4014559 -1.0384722 0.21049841 -0.6657755 -0.27384108 0.6482452 -0.10771411
0.28273657 0.14008981 -0.70880294 -0.6083516 0.31988788 -0.36879393 -0.38836664 0.47489458

c2/W f4 [8, 4, 2, 2]
00000000: 48f3 56be 5ece 4c3f 542c a5be ddfa 1e3f
00000010: 6db5 c9be 723e 6fbd e4d5 a63e eed5 2ebe
00000020: 127a 153f df58 9abe 1acd 62be 63e1 f73e
00000030: 39fb 043f 06af 54be 261c a03c acf4 ccbe
00000040: 5ea7 433e 4733 703e cdf2 d93d dc4e 12bd
00000050: 5007 ff3e a09b e1be b3fb 263f 76d9 993e
00000060: 10e4 b1be f07d 9a3e 3a4c 46bd 1c13 f23e
00000070: f57e 913e 144b 393f 812c 07bf ed9b 4c3e
00000080: c955 4dbe a3c3 fabe ace8 343f 5f44 db3d
00000090: 1bfc 343e 45dd 1fbf eb51 fe3e 1622 603f
000000a0: 10ed c53e 5eed 8b3e 5a1e c13e 11f6 d0be
000000b0: 8e14 4c3e 95dd 353f 5876 49bd 34a4 d5be
000000c0: 7bb8 27bf b977 1bbe 1c2b d43c 04c8 073f
000000d0: 4f9b 29bf a6c0 743e b653 97bd c62b 28bf
000000e0: 925e d93e b6dc d73e 6346 0abf ad76 293e
000000f0: 1123 e3be 480a 2a3e dcc1 da3e c1ec b33e
00000100: 8bef bebe 8657 963c 90ef 4bbf f377 50be
00000110: 603d c4be 9bc3 943e db24 2dbf 2e5e 14be
00000120: d9b6 0e3f 8f14 d0be 68c5 b43e c05f b43e
00000130: cbe0 953e f6ae ff3d 3918 d5bc 60c5 e63e
00000140: af85 53be 0010 763f 04f3 f7bf 0f00 b5be
00000150: 60fa 1cbf 7303 13bf be7c 5fbc 0782 9ebe
00000160: 6199 0c3f 36e6 ab3c b0ef f13d ce18 09bf
00000170: 8572 71be 3952 b6be 66d1 c73e f4e7 6cbe
00000180: cd8d 1bbe 1da1 fb3e 9315 273e b3f1 1cbf
00000190: 0165 94bd 26d0 74bd b378 3fbf 095c ed3e
000001a0: 82c2 02bf 4c0e 78bf 326a 1d3e c57b a63d
000001b0: e8c7 07bf 0cf5 bf3e 0084 b33c e745 1c3f
000001c0: 008b 16bd a961 293f 6437 17bf 864f 983e
000001d0: 4a09 1fbf 0967 7c3f 822a ec3e 710b 6cbe
000001e0: 529f febe 40c5 25be c873 e93d 07c9 d93e
000001f0: 40c2 1dbd 3791 783f 6a20 2ebf 7f76 e5be
-0.20991242 0.8000239 -0.32260382 0.62101537 -0.3939623 -0.058409162 0.3258506 -0.17073795
0.5838939 -0.30145928 -0.22148553 0.48414144 0.51945835 -0.20769891 0.019544672 -0.4003042
0.19106814 0.23457061 0.10642014 -0.035719737 0.49810266 -0.44064045 0.6522781 0.30048722
-0.3474431 0.30174208 -0.04841254 0.47280204 0.28417173 0.72380185 -0.5280228 0.19981356
-0.20052256 -0.48977384 0.7066753 0.107064 0.17674296 -0.62447006 0.49671873 0.8755201
0.38657427 0.27329534 0.3771847 -0.40812734 0.19929716 0.7104123 -0.049185127 -0.4172684
-0.6551587 -0.1518239 0.025899462 0.53039575 -0.6625261 0.23901615 -0.073890135 -0.6569179
0.42454964 0.42160577 -0.5401365 0.16549177 -0.4436269 0.16605484 0.42726028 0.35141566
-0.37292132 0.018352281 -0.7966242 -0.20358257 -0.38328075 0.29055485 -0.6763436 -0.14489052
0.55747753 -0.40640685 0.3530686 0.352293 0.29273066 0.12484543 -0.026012527 0.4507246
-0.20656465 0.96118164 -1.9371037 -0.35351607 -0.6131954 -0.5742714 -0.013640581 -0.30958578
0.5492154 0.020983797 0.11813295 -0.53553474 -0.23578842 -0.35609606 0.39026946 -0.23135358
-0.15190811 0.49146357 0.16316824 -0.61306304 -0.072458275 -0.05976882 -0.7479355 0.4635928
-0.51078045 -0.96896815 0.15372542 0.08129076 -0.5303941 0.37491643 0.021913528 0.6104416
-0.036753654 0.6616464 -0.59068894 0.29748172 -0.6212355 0.9859472 0.4612618 -0.2305124
-0.49730927 -0.16188526 0.11399037 0.42536184 -0.03851533 0.9709658 -0.6801821 -0.44816968

l4/W f4 [256, 16]
00000000: c597 0b3f 8a29 b9bd 3a26 9f3e 054f c1be
00000010: a38d d8bd 746f 0abf 25d8 0b3f dcc8 953c
00000020: b8f6 b33d 5dc5 833e 2dd9 bcbe e887 92bf
00000030: f600 fd3e a9a6 003f 8c32 ea3d 0e67 e83e
00000040: 9307 5bbf 6096 123f 1225 833e 9860 31bf
00000050: b921 e73e 4db9 143e 16a5 213e d485 4fbe
00000060: 9bc4 c8be ce54 2bbf f4af f4bd cfc7 e6bd
00000070: 5ce9 02be 02b8 413e 4642 f3be 1bdc 4c3d
00000080: bb4b b53e 81e2 3c3e 9286 c5be 6292 5ebf
00000090: 273d 283f 5ea5 a3bd 42ab b63e 6603 c13e
000000a0: 4c9f 1b3f 5f5f cd3c 52ad 15bf 1f09 d9bd
000000b0: 168b 7abe ba9b 8cbd 7a1c eabf 7fd6 3f3e
000000c0: 8680 b33d f9ef a6bf 2fd2 4a3f 24bc 88bd
000000d0: 6cb2 343d e9f8 66bd f8f3 41be 612f f23e
000000e0: d1de c03e 6856 bb3e 0154 4ebc 7f37 543f
000000f0: 6ba5 59bf dca0 f5be 1e54 f2bd caab d5bd
00000100: ca28 17bf 8971 a6be 33d7 223f f706 483e
00000110: ebcb 6b3e 34fa 883e ccef 34bf f97a 033e
00000120: bd3c ffbd 06ae 16bf 6ed0 0f3e 9f40 483f
00000130: f2e2 74bf 2995 8bbf 6370 7cbc 2e59 bdbc
00000140: be15 20bf 0d9d 0bbe 413b 36bf 68cf 30be
00000150: 3bf7 11bf 93d2 f23d 35e9 303e 3d08 6d3d
00000160: d788 553e a917 be3e b549 db3e c6cb 22bd
00000170: 8064 2dbf ef14 2abe b08e c13e b56e 853e
00000180: b2b7 5f3e 2087 de3e 9e26 0a3e 9b96 22be
00000190: 6d48 ef3d 5c33 0dbf 516d a1bf 931a 2e3e
000001a0: 41df 4cbe d992 073f 7a99 77be 30f4 913e
000001b0: f42d 753e 9431 ad3e 49f1 983d b0b4 773e
000001c0: c760 823e 8995 a03c 3657 ce3e 425e 223f
000001d0: b011 afbf a678 36be 4655 1abf dc51 be3e
000001e0: 276a 2a3f 4d16 80bd f830 a0bf 30aa b83e
000001f0: cf9a 8ebd 2fd6 d63c 2189 8ebe 250a eebe
00000200: f158 e13e e342 5dbf 42e0 efbe d870 5ebd
00000210: ad88 35bf 37dd af3d 6ebb 2b3f b388 3dbf
00000220: 7398 09be 6dad 0fbe d5f4 01bf bc36 cebd
00000230: 697d 62bf 0c87 44bf d05d fa3e bd08 b4be
00000240: 7bbc 273e a104 de3e e993 d0be 300b 76bf
00000250: 1a8c c8bd 6f7e 3d3e 5aa1 27bc 0055 1fbf
00000260: 4c86 adbd eca7 3bbf 54fd 81be 914f 4cbe
00000270: 5751 60be 6ee7 3bbe cec9 873e 4f75 af3d
00000280: 9817 edbf de0a 31bf 8164 163f 4579 3bbf
00000290: 4c28 d23d 2b3c a7be a886 ff3d 2a51 81be
000002a0: 3458 52be 0cc5 ee3e 0fc8 ea3d 8b56 8bbc
000002b0: d006 34be 082d 34be 19bd 19bc 835b 02bf
000002c0: c455 353d 1d26 85bf 290c a4bd 8749 0abf
000002d0: d83a d8be 50c1 b5be 1840 9e3c 1295 323f
000002e0: 0b96 81be 4d5d e93d db75 c13e 63b7 873e
000002f0: ae28 2fbf 88d7 543e 1a58 243c 8369 4ebe
00000300: 67cc b53e 4c3d abbd 09be 9dbe a8d8 1dbf
00000310: c366 34bf e424 953e c84f a53e 48fb d7be
00000320: e3dd b2be 9d5d 153e bc36 06be ba28 643e
00000330: cc33 d6bd c6b5 a7bd 3f5b b93d 50cf bdbc
00000340: faed babe 452e 183f 1740 073f 7244 38bf
00000350: 4789 fd3e 545c 82bc 5e73 e5be f620 853b
00000360: 4d63 193d dbe1 39bf d658 4ebe e3e2 c7bb
00000370: addb 42bd 8da4 2fbe 33a7 21be 9104 94be
00000380: 7c55 60bd 1fcf 413e a337 a93d 9f16 54bf
00000390: 2f9a 0fbe c071 86bf 8814 45be 0cdf e33d
000003a0: 9e98 af3e a5e4 983d e9b0 1f3f 6541 213e
000003b0: efde 133e f331 5e3d 9ba6 57be 8e5e 48bf
000003c0: 93e0 24be 0714 b73e c344 83be 3b8f bd3e
000003d0: 30cd 5f3e 5fab 2fbf e7c8 abbe a458 59be
000003e0: c6de 1ebe b48d 9dbc d3bc 2cbd 67f1 143f
000003f0: 3ac4 233e e0fc 993d a72d 163e 1d87 643e
0.54528457 -0.09041126 0.31083852 -0.377556 -0.1057389 -0.54076314 0.54626685 0.018284254
0.08787292 0.25736514 -0.36884442 -1.1447725 0.49414796 0.50254303 0.11435422 0.45391124
-0.8555843 0.57260704 0.2561422 -0.69288015 0.45142916 0.14523812 0.15785632 -0.20265895
-0.39212498 -0.66926277 -0.11947623 -0.11268579 -0.12784332 0.1891785 -0.475115 0.050014596
0.3540934 0.1844578 -0.38579232 -0.8694211 0.6571831 -0.07990526 0.35677534 0.37697905
0.6078994 0.02506989 -0.5846759 -0.10597443 -0.2446712 -0.0686564 -1.828994 0.18734168
0.08764748 -1.3041984 0.79226965 -0.0667651 0.04411547 -0.056389723 -0.18940723 0.47301772
0.37669995 0.3658936 -0.01259327 0.8289718 -0.8501803 -0.47974288 -0.1183245 -0.10433157
-0.59046614 -0.32508495 0.6360962 0.19533907 0.23027007 0.2675339 -0.706784 0.12839879
-0.12462757 -0.5885929 0.14044353 0.78223604 -0.9565879 -1.0904895 -0.015407654 -0.023113813
-0.62533176 -0.13634129 -0.71184164 -0.17266619 -0.5701787 0.1185657 0.17276461 0.057869185
0.20852982 0.37127426 0.42829672 -0.039745115 -0.67731476 -0.16609548 0.37804174 0.26061025
0.21847418 0.43462467 0.13491294 -0.15877764 0.11683736 -0.55156493 -1.2611486 0.17002325
-0.2000704 0.52958447 -0.2417964 0.28506613 0.23943311 0.33826888 0.074678965 0.2419002
0.2546446 0.019602554 0.40300912 0.63425076 -1.3677273 -0.17819461 -0.60286367 0.3717183
0.66568226 -0.062542535 -1.2514944 0.36067343 -0.06963121 0.026225178 -0.27838996 -0.46492115
0.4401317 -0.86430186 -0.46850783 -0.054306835 -0.70911676 0.08587115 0.6708287 -0.7403671
-0.13437061 -0.14031 -0.5076421 -0.100690335 -0.8847261 -0.76768565 0.48899698 -0.35162917
0.16380493 0.43362907 -0.40737846 -0.9611082 -0.09792347 0.18505262 -0.01023134 -0.62239075
-0.08472881 -0.73303103 -0.25388587 -0.19952227 -0.21906029 -0.18350002 0.26521152 0.08567297
-1.8522825 -0.69157207 0.58747107 -0.7323192 0.10261592 -0.32663092 0.124768555 -0.25257236
-0.2054146 0.4663471 0.114639394 -0.01700904 -0.17580724 -0.17595303 -0.009383463 -0.50920886
0.044271246 -1.0402256 -0.08010132 -0.54018444 -0.42232394 -0.35499048 0.019317672 0.69758713
-0.25309786 0.11394749 0.3778523 0.265071 -0.6842145 0.20785344 0.010030771 -0.20157437
0.3550751 -0.08361301 -0.30809048 -0.61658716 -0.704693 0.29129708 0.3228743 -0.421839
-0.3493491 0.14586492 -0.13106817 0.22281161 -0.10459098 -0.081889674 0.09050607 -0.023170143
-0.36509687 0.594456 0.5283217 -0.7197944 0.49518797 -0.015913166 -0.4481458 0.004062767
0.037448216 -0.72610253 -0.20151076 -0.006100045 -0.04757278 -0.17152615 -0.15786438 -0.28909734
-0.054769024 0.18926667 0.08262565 -0.8284702 -0.1402366 -1.0503464 -0.19246113 0.11126527
0.34296125 0.074654855 0.6237932 0.15747602 0.14440511 0.054246854 -0.21059649 -0.7826928
-0.16101293 0.35757467 -0.256384 0.3702334 0.21855617 -0.68620867 -0.33551714 -0.2122522
-0.15514669 -0.019232608 -0.042172264 0.5818085 0.15992823 0.07518935 0.14665852 0.22317167

c3/W f4 [16, 8, 2, 2]
00000000: 4a4f 9e3e b319 8d3c 9e9f b63d 1303 2bbe
00000010: d7f5 67bd 76db e4be aa39 633e 6c1f 053e
00000020: 1eaa bb3e 4c57 0cbf d093 c6bd eb9b 34be
00000030: c7d3 bd3e e1e4 a1be 92df 1b3f e7be 89bd
00000040: 3453 383f ac4c 263f 28f1 813d eefa c6bd
00000050: 2f92 9e3e e791 a1be 4521 353e 5319 b63d
00000060: a059 e1be a905 30be e97c 9fbe 2f24 58be
00000070: cbf4 47bf bed2 d93d bc30 1c3f 6430 6fbe
00000080: 5eff 373e 4bb7 9f3e 2b25 b9be 473d cebd
00000090: cbac dc3d d187 d43e 93b9 6b3d 3e1b 473f
000000a0: b67b ac3d a4b9 bc3e 992e a93e 8a61 46bf
000000b0: 30c3 b13e d940 b43e 2897 7b3d 05ef ec3d
000000c0: ee6e 393e f2d1 a63d f2a7 07bf 5cd5 d3be
000000d0: bccb fd3e 05a5 9ebe 51eb 2bbf b49e 01bf
000000e0: 682c e63a 19ae 783e 9e3f 27bf 0685 953e
000000f0: 9ee4 323d f3fa 993d 15ca c6be bf4e 4bbf
00000100: 591f 91bc 097f 38bd 3bfa 693d 15b1 3a3c
00000110: 0c0f 0fbe 39a5 c3bd 3f17 45be 6463 9e3d
00000120: cc45 2d3d 5fa8 1dbe acbf c7b8 bbc9 02bf
00000130: 635e 4ebe 7fde 383e 5748 a03c 3f4b ccbd
00000140: 4efa 76bd e923 6cbe d9d7 2f3d f1dc 8bbe
00000150: 1d89 203d d347 643e 249e 943b f92e c9bc
00000160: 3981 7dbe 1a88 1abe 33da 1bbd 0d66 b6bc
00000170: 382a dfbd af64 4ebe 17e7 793d d0cd 603e
00000180: f5fe 18bf 3d38 983e 21a9 f6bd 2356 123d
00000190: d3d8 da3e 677a 91bf aee9 b7be a8bf c43e
000001a0: 9569 91bc cc5b 7e3e 86c7 b83e 1fa1 d3be
000001b0: f0c6 993e 6f99 5abe b3bb d63e edcc 4bbf
000001c0: 975d 3d3f 4f22 71bf d4e4 823d 96bf 80bd
000001d0: 9fe7 223f 60e0 04be 0944 d0be 9ee0 ecbe
000001e0: 2e34 483d 3868 1cbf ee74 6dbf a1cf 2f3f
000001f0: 3554 203f c105 8ebe 7b8e 673d 8c75 62be
00000200: 1458 133f 7c1f 823e 7022 4abf cf01 e4bc
00000210: 593c a5bd dd4e 08bf 6b69 ed3c 04bf 6a3e
00000220: 5523 2cbf 5bb7 2a3f c729 cf3d 7af2 d53e
00000230: 3fe7 dfbe 2a41 243e 98e8 8ebf 758a 1dbf
00000240: 4d69 14bf 0eb1 babe 99c9 fa3e 4dc9 b7bd
00000250: bfa5 1dbf 810e bcbc bd8f 91bf 0b06 5dbf
00000260: c9c7 0c3f 77e2 d2be 9f66 9ebe 6526 74be
00000270: 205a 8abf a207 153f dfb2 663f 2a62 95bf
00000280: 14bf dfbc 93d7 e0be d2db 0abf 4db5 823f
00000290: afd2 03be bab1 1a3f e979 1c3c ccd8 afbe
000002a0: d8c4 10be 6913 b33e e9e0 7cbe 8cc0 a03d
000002b0: 0b3d 453f f160 a7be 5ad9 a1bd 9a77 d0be
000002c0: 8d3f 203e 6f92 b23d f2c4 babd b36f 2ebe
000002d0: 651e 1d3e 6cd0 283e 7a0a 973e 451b 2cbc
000002e0: 2d30 dcbd 0a48 743e 42a5 56be f827 23bf
000002f0: 1b3d 9a3e 1060 ab3e ad65 b3be 92f2 503f
00000300: 7f2a ff3e f8fb 9ebe e21f 023f 3035 5cbe
00000310: 7145 3dbf 16ac 9a3e a383 0ebe cdb6 c93d
00000320: bc2d 30bf 2ce7 c53e e850 e53e 228c f9be
00000330: 69f0 9ebe 5fa9 263f 61dd 0a3f 247c b43e
00000340: 520c 023d ef9e 5f3d 0054 593e fd99 333d
00000350: a8dc fd3e 53fb 023e 2fe8 e8be 28c4 3abe
00000360: d6f6 3c3f db70 3fbc d3e5 443f d813 623d
00000370: 67cc 71be eaa1 fdbd c150 0abf 8fbc b1be
00000380: 80e3 07be f726 82bf 617b a13d 5250 1c3d
00000390: 4d05 e63e 985d 26bf 4049 f7be b6ce 9e3f
000003a0: af96 b4bd 61f2 893c 7039 fcbb 232d 143d
000003b0: 0abe 32be a640 cdbe 5b08 7cbd f5db ec3e
000003c0: 77c1 e5be e991 68bc ae5f a53e db76 ba3e
000003d0: d9a1 f3be f694 97bc 9a3b e63d 9314 b93d
000003e0: c45f 3e3e db5c aebe fa5c 88bf 9cec 033f
000003f0: dc81 193e df92 323e a525 83bc 944f 323f
0.30919868 0.017224168 0.08917163 -0.16700391 -0.056630936 -0.44698685 0.22189966 0.13000268
0.36653227 -0.54820704 -0.09696162 -0.17637603 0.37075636 -0.31619933 0.60888016 -0.06725865
0.7200196 0.6496074 0.06344825 -0.0971583 0.30970904 -0.31556627 0.17688473 0.08891549
-0.4401369 -0.17189659 -0.31149986 -0.21107553 -0.781079 0.10635899 0.6101186 -0.23358303
0.17968509 0.3119453 -0.3616117 -0.100702815 0.10775145 0.4150987 0.057550024 0.77775943
0.084220335 0.36860383 0.33043364 -0.7749258 0.3471923 0.35205725 0.06142345 0.11569027
0.18108723 0.08145513 -0.5299064 -0.41373718 0.495695 -0.30985275 -0.6715594 -0.50632787
0.0017560842 0.24285163 -0.6533145 0.2920305 0.043675058 0.07518568 -0.3882605 -0.7941703
-0.017715143 -0.045043025 0.057123404 0.011394759 -0.13970584 -0.09552998 -0.19247149 0.07733801
0.04230289 -0.1539626 -9.524761e-05 -0.51089066 -0.20153193 0.18053626 0.019565744 -0.099752896
-0.060297303 -0.23060574 0.042930458 -0.27317002 0.03919326 0.22293024 0.0045354534 -0.024558531
-0.24756326 -0.15090981 -0.038049888 -0.022265458 -0.108967245 -0.20155595 0.0610114 0.21953511
-0.59764034 0.29730406 -0.120439775 0.035726678 0.4274355 -1.1365479 -0.3592047 0.38427472
-0.01775054 0.24839705 0.36089724 -0.41333863 0.3003459 -0.21347593 0.41940078 -0.79609567
0.7397093 -0.94192976 0.06391302 -0.06286542 0.63634676 -0.12976217 -0.40676907 -0.4626512
0.048877887 -0.61096525 -0.92756546 0.6867619 0.6262849 -0.27738765 0.056532364 -0.22115153
0.5755627 0.25414646 -0.789588 -0.027832894 -0.08068151 -0.53245336 0.028980931 0.22924429
-0.6724141 0.6668603 0.1011539 0.41786557 -0.43731114 0.16040483 -1.1164732 -0.61539394
-0.57973176 -0.36463207 0.48981932 -0.08973942 -0.61581033 -0.022956135 -1.137199 -0.86337346
0.5499235 -0.41188404 -0.3093767 -0.23842771 -1.0808754 0.5821477 0.90116686 -1.1670582
-0.027312793 -0.4391447 -0.5424167 1.0211579 -0.12873338 0.6042744 0.00955055 -0.3434509
-0.1413759 0.34975746 -0.24695171 0.078492254 0.7704627 -0.32691148 -0.07902785 -0.4071625
0.15649243 0.08719336 -0.091195956 -0.17034797 0.15343626 0.16485757 0.2950018 -0.010504548
-0.10751376 0.23855606 -0.20961478 -0.6373286 0.30124745 0.33471727 -0.3503851 0.8162013
0.4983711 -0.31051612 0.508299 -0.21504664 -0.73934084 0.30209416 -0.13917403 0.098493196
-0.68819785 0.38652933 0.4478829 -0.48739725 -0.31042793 0.6510219 0.5424405 0.35250962
0.03175003 0.05459493 0.2122345 0.043848027 0.4958241 0.12791185 -0.45489642 -0.1823889
0.7381414 -0.011684622 0.76913184 0.055194706 -0.2361313 -0.12384398 -0.5402947 -0.3471417
-0.13270378 -1.0168141 0.07884861 0.038162537 0.4492592 -0.6498656 -0.48298073 1.2406833
-0.08817803 0.016839208 -0.007697277 0.03617586 -0.17455307 -0.40088385 -0.061531406 0.46261564
-0.44874164 -0.014194944 0.3229956 0.36418805 -0.47584417 -0.018503647 0.11241837 0.09037127
0.18591219 -0.34055218 -1.0653374 0.5153291 0.14990944 0.1743884 -0.016009161 0.69652677

l5/b f4 [16]
00000000: 2dd2 3abe c6dc d3be 30d9 21be 9c64 b13d
00000010: 9e3e e9be 1918 adbe 37fd c2be cb47 59be
00000020: 4595 8b3d 1239 d1be d4b5 9ebe bf3b 9abe
00000030: 9d95 a13d 9929 7ebd 12e7 93be 2ef2 ae3d
-0.18244238 -0.41379374 -0.15805507 0.08661768 -0.45555586 -0.33807448 -0.38083813 -0.21218793
0.0681558 -0.40863854 -0.309981 -0.30123708 0.078898646 -0.06205139 -0.2888723 0.08542286

c1/b f4 [4]
00000000: 01f1 823e ffcb c13e 5614 c4be c74f 86be
0.25574496 0.3785095 -0.38296765 -0.2623274

l4/b f4 [256]
00000000: 3fe5 413f fbec 003f 5d4e 813e 2584 91be
00000010: 85ab 20bf 00c1 88be 383f 2dbd 0aad 5f3d
00000020: 41f2 0abf ec82 023f 92a8 5d3f ed20 9e3e
00000030: e4d8 26bf 8b2c 3a3f 9a04 0fbf 6d9b 6abd
00000040: 8c67 0dbd ecd3 623e 0070 7dbd c405 903e
00000050: 7bfb 2f3f 6050 833d 9067 13bf 1aa2 6cbd
00000060: 22d3 8f3e d937 c03e 799b 1f3f 0455 f3be
00000070: dff3 4a3d 200c e13c 48ce 7e3e ff7d 3c3e
00000080: d8ac c43c 7a91 62bf 5e36 70bf c0dc 19be
00000090: ed07 38bc 73d7 033f c968 afbe 5c73 b4be
000000a0: e6e4 72bf eae0 cfbc 1e2b b03e 97c5 2f3e
000000b0: 5228 b8be e606 6dbe 07dc 7fbe 8574 1abd
000000c0: 34d4 273c 49ca fbbe 7874 eabe 0bb1 dc3e
000000d0: 5a51 cc3e 3228 c7bd 0616 df3d 4bfc b6be
000000e0: 9927 cd3d 8fb5 5cbe fb7e 73bd 366f ac3e
000000f0: 2064 463d 9d06 403f 5795 e53e e8b1 00bf
00000100: 4dcf d1be 54d9 1f3e 6b3a 463f 2cbc 8cbe
00000110: c074 dbbf a3ad 83bf 7232 b73e 14bd 1bbf
00000120: 9673 0d3e 2efd 1bbf 7e20 323f e087 f43e
00000130: 39ff 04be 21e4 abbd 5667 653e caec 13be
00000140: 8910 2dbe 2a25 f6be 32fa 373f 1da0 8bbe
00000150: 4962 28bf 1f29 acbd d765 67bd 1390 9ebe
00000160: 17ed f5be 8d6f 973d f323 693d d359 cbbe
00000170: 9b7e 103e 2f1e 023f 0383 02bf 0e23 acbd
00000180: 041e 46be 995b 9a3d 2c35 ff3d 932f f33e
00000190: aa5c d63b 77b9 573f 4b79 5e3f ad0a e93e
000001a0: 0fce 053f 7d09 91be 8f92 4dbe 8c8c ec3e
000001b0: 6538 51be d827 9cbe 4f09 f8bd b672 13bf
000001c0: ba82 f13e 3b87 77be 43ee 13bf 287b 9b3e
000001d0: 9a88 26bf 7c91 273e f43f 31bf 478d 91bd
000001e0: 4982 4abd a6ab 5a3e ba4b bc3d c5b9 0bbe
000001f0: fa30 15bf 4851 253f 4924 a53c c5f7 80bf
00000200: 9999 0c3f 0cc6 8dbf 9ee8 06bf 3f56 433f
00000210: 3d71 05bf 6ac5 7b3e d14e a4be c2f1 1dbe
00000220: b429 053f a29d 3bbe 1b34 a5be 3400 1fbe
00000230: 4ffb 2cbf 780a 5a3d fa81 553e 7741 043e
00000240: 39b5 95bd 31fd cb3b 0415 5e3e 792e 8ebf
00000250: 73be 0d3f 0ab4 0f3d 9307 9bbe 80d2 31be
00000260: 0805 87be 1e6c afbd c761 613f aa90 6cbe
00000270: 16bf debc 5253 c4be 6fe6 31bf de2e 533f
00000280: 8c3a 123f 9e39 3bbe e478 babe 5d6d 693e
00000290: 9700 ac3e 29c4 6abf 4139 98be 5140 b63e
000002a0: b74f 19bd 4607 74bf 9cee e1be 5660 443e
000002b0: d368 633e 907b 43be b974 ccbd 790f 613f
000002c0: f980 b3be def2 59bf f327 afbd 7e78 76bf
000002d0: 387a 9e3c 8c60 edbe 08da cdbe b209 28be
000002e0: 95a4 a03e f0dc 403f b634 37be 2778 e1be
000002f0: ed0c 093f 4fb4 963e f835 103e cb3a 33bf
00000300: 0ad3 96be 2cf6 183d 81a5 093f 3ab4 6b3e
00000310: a1b9 1c3e 2aed 63be cda6 23be c107 4fbd
00000320: 9f3e 0fbf 1270 7c3e 19a8 b0be e293 063f
00000330: e6c8 bd3e 7bf7 fbbe a568 bcbd 40fc 463f
00000340: 1b6e 46bf 5dd3 b53a a7e3 8dbe 847e 5cbf
00000350: 11ed 3d3e 5765 98bf a942 2cbf fd31 29be
00000360: 89bb 3b3d af29 a0bd 2cfb 83bf 856b b43d
00000370: 78dc eebd 1d83 083f f1a2 7abf cc76 4bbe
00000380: 172e 77be 79df b7be 7d9d 123f 277a 31bd
00000390: 35ec 7b3e d86c f63d f450 9fbe 4514 a0bd
000003a0: 3e69 3dbe 25e7 76bf dcf5 99bd aa26 9ebe
000003b0: 2649 b7be 7d26 01bf 3dea ffbe 564b 56bf
000003c0: 196b f83e 45af 60be d1cd 2ebf afc8 ebbd
000003d0: bc86 663f e96a a53e 5179 5a3f e69e 8bbe
000003e0: 6ae7 c73d 0759 af3e 59f5 ffbe fb9d b23d
000003f0: 6cd2 3dbe 958a 25bf 766d e4be 0354 5fbd
0.75740427 0.50361603 0.252551 -0.2842113 -0.6276172 -0.26709747 -0.04229662 0.054608382
-0.542759 0.5098102 0.8658534 0.30884495 -0.651747 0.7272422 -0.55866396 -0.05727713
-0.034522578 0.22151154 -0.06187439 0.281294 0.68743104 0.06411815 -0.575799 -0.05777178
0.2809077 0.37542608 0.6234661 -0.475258 0.04954898 0.027471602 0.24883378 0.18407439
0.0240082 -0.8850323 -0.9383296 -0.15025616 -0.011232358 0.51500624 -0.34259632 -0.35244262
-0.9488052 -0.025375802 0.34407896 0.17165218 -0.35968262 -0.23147163 -0.24986278 -0.037708778
0.010243464 -0.4917777 -0.45791984 0.43103823 0.39905816 -0.097244635 0.108928725 -0.3573936
0.10017318 -0.21553634 -0.05944727 0.33678597 0.04843533 0.7501009 0.448405 -0.50271463
-0.4097847 0.15610248 0.7743289 -0.27487314 -1.7145004 -1.0287365 0.35780674 -0.60835385
0.13813624 -0.60933197 0.6958083 0.47759914 -0.12987985 -0.083931215 0.22402701 -0.14445797
-0.16900839 -0.4807523 0.7186614 -0.27270594 -0.6577497 -0.08406281 -0.056493606 -0.30969295
-0.48032448 0.073943235 0.05691905 -0.39716968 0.14110796 0.50827307 -0.5098116 -0.08405124
-0.19347388 0.07537002 0.124613136 0.47497234 0.006541808 0.8426737 0.8690383 0.45515957
0.52267545 -0.2832755 -0.20075439 0.4620098 -0.20431669 -0.30499148 -0.121111505 -0.5759691
0.4717005 -0.2417268 -0.57785434 0.30367398 -0.6505219 0.16364092 -0.6923821 -0.07107025
-0.049440656 0.21354541 0.09194131 -0.13645084 -0.5827786 0.6457715 0.020158904 -1.0075613
0.5492187 -1.1076064 -0.52698696 0.76303476 -0.5212591 0.24587026 -0.32091382 -0.15424255
0.5201676 -0.18321851 -0.32266316 -0.15527421 -0.67570966 0.05323264 0.20850363 0.12915598
-0.07309956 0.006225251 0.21687704 -1.1107932 0.5536873 0.035083808 -0.30279216 -0.17365456
-0.26371026 -0.085655436 0.8803982 -0.2310206 -0.027190726 -0.38344818 -0.6949224 0.8249339
0.57120585 -0.18283698 -0.36420357 0.22795625 0.335942 -0.91705567 -0.2973118 0.35595945
-0.037429538 -0.953236 -0.44127357 0.19177374 0.22207956 -0.19090104 -0.099832006 0.87914234
-0.35059336 -0.8513621 -0.085525416 -0.96277606 0.019345388 -0.46362722 -0.40205407 -0.16409948
0.31375566 0.75337124 -0.17891201 -0.4403698 0.5353535 0.2943444 0.14083087 -0.70011586
-0.29457885 0.037344143 0.53768164 0.2301797 0.15305187 -0.2225844 -0.15981598 -0.050544504
-0.5595493 0.24652126 -0.34503248 0.525694 0.37067336 -0.4921225 -0.09199647 0.7772865
-0.7751176 0.0013872195 -0.27712747 -0.8613055 0.18547465 -1.1905926 -0.67289215 -0.16522975
0.045833144 -0.078204505 -1.0311027 0.0880957 -0.11663145 0.53325063 -0.9790488 -0.19869536
-0.24138676 -0.35912684 0.5727156 -0.043329384 0.24601825 0.12032479 -0.3111645 -0.07816366
-0.18497178 -0.9644645 -0.07517597 -0.30888873 -0.35797995 -0.50449353 -0.49983397 -0.83708704
0.4851921 -0.2194186 -0.682828 -0.11512887 0.9004934 0.32308128 0.85341364 -0.27269667
0.097609356 0.3424761 -0.49991873 0.08721539 -0.18537301 -0.64664584 -0.44614762 -0.05452348

c2/b f4 [8]
00000000: b07d 023e 04ba cd3c 1544 ecbe 4af5 c1bd
00000010: 3f2e 0dbe 30e4 30be 279e 753e 1030 b7be
0.12743258 0.025113113 -0.46145692 -0.09470613 -0.13787173 -0.17274547 0.23986112 -0.35778856
