examples/ch4/reversi_DQN_DNN/agent_black_4000/model.npz (npz, 521742 bytes, 8 tensors)

l2/b f4 [256]
0	0xbc8a84cc	-0.016909026
1	0xbc101e52	-0.008796291
2	0x3d2bbe69	0.041929636
3	0x3c0293c8	0.007969804
4	0xbc5c02a2	-0.013428362
5	0xbd6162d3	-0.055025887
6	0x3dcadccc	0.09905395
7	0x3caa30ee	0.020775285
8	0xbbc3b595	-0.005972574
9	0x3aefc91a	0.0018294186
10	0xbd50c058	-0.050964683
11	0x3cfdf7c5	0.031001935
12	0x3d16f8aa	0.03685824
13	0xbcb5bf9e	-0.022186097
14	0xbabbf0d9	-0.0014338746
15	0x3a7eca78	0.0009719501
16	0xbd21e201	-0.039522175
17	0xbc37955b	-0.011205043
18	0xbabb0b4e	-0.0014270337
19	0x3cea6f33	0.028617477
20	0x3d296cc1	0.04136348
21	0x3d3c16cd	0.045920182
22	0x3da8f542	0.08249904
23	0xbbf7bffe	-0.007560729
24	0x3c165df2	0.009177672
25	0x3d206604	0.03915979
26	0x3c9fe5e6	0.019518804
27	0x3c9a2f7d	0.018821472
28	0xbccd6176	-0.025070887
29	0xbce08cb1	-0.027410837
30	0x3c56cb3f	0.013109981
31	0x3d496f3c	0.049178347
32	0x3cca9141	0.024727466
33	0x3adb681d	0.0016739402
34	0x3cfcd3f6	0.03086279
35	0xbd3047c7	-0.043037202
36	0xbc0e8219	-0.00869801
37	0xba047448	-0.00050527276
38	0x3d1ee9f9	0.038797352
39	0xbc114438	-0.008866362
40	0xbdfb7777	-0.122786455
41	0x3b7ff3c6	0.0039055212
42	0x3b70d93c	0.0036750576
43	0x3db31ae9	0.08745367
44	0xbd6db339	-0.05803225
45	0xbd05aec9	-0.03263739
46	0xbba9c14f	-0.005180515
47	0xbc7cf960	-0.015440315
48	0xbce949a1	-0.028477492
49	0x3d29fe21	0.04150212
50	0x3d7f8393	0.06238134
51	0x3cde0360	0.027101219
52	0x3cebfcbd	0.028807038
53	0x3cccb5ad	0.024988974
54	0xbb711d33	-0.0036791086
55	0x3cd03224	0.025414534
56	0x3c739841	0.014867843
57	0xbb0e250e	-0.0021689567
58	0xbd3e96ef	-0.04653066
59	0xbb88ea7b	-0.004178343
60	0x3a507abd	0.000795286
61	0xba5ed4a9	-0.0008500317
62	0xbc026bef	-0.007960304
63	0x3d8ccee6	0.068754
64	0x39a06d32	0.00030598935
65	0xbbbbb73a	-0.0057286294
66	0xbbb4e992	-0.005521008
67	0x3c842d35	0.016134838
68	0x39ed4960	0.0004525883
69	0x3d2652d4	0.040606335
70	0x3d448c82	0.04798556
71	0x3d0be5c7	0.03415468
72	0xbad923df	-0.0016566477
73	0x3d6bb893	0.05754907
74	0x3c8b55d5	0.017008701
75	0x3c29335a	0.010327185
76	0x3c72036c	0.014771324
77	0x3cd2e502	0.025743965
78	0xbd7cbd40	-0.06170392
79	0xbd45eaf4	-0.048319772
80	0x3d45daf4	0.048304513
81	0xbc01d781	-0.007924915
82	0xbc89cced	-0.016821349
83	0xbca91947	-0.020641936
84	0xbc9820e5	-0.018570373
85	0xbadc81d7	-0.0016823363
86	0xbd4c1036	-0.049820147
87	0x3d1089e2	0.035287745
88	0xbd416b4b	-0.047221463
89	0xbbe9dac7	-0.007136676
90	0x3d99eb0f	0.07515537
91	0xbcf4ccdd	-0.029882843
92	0xbc1e86a3	-0.009675655
93	0xbc3ea7b1	-0.01163666
94	0x3b989f00	0.004657626
95	0xbca37b95	-0.01995639
96	0x3d6ccdd0	0.057813466
97	0xbd380ff9	-0.044937108
98	0xbd4c4567	-0.049870875
99	0xbcff8b85	-0.031194458
100	0x3c4e3c65	0.012587641
101	0xbd88b771	-0.06675614
102	0x3ccf0400	0.025270462
103	0xbbb0f74e	-0.0054005748
104	0x3d9dd459	0.07706518
105	0xbd0d2a9e	-0.03446447
106	0xbb311d9e	-0.002702571
107	0xbc5e5072	-0.013568984
108	0x3d1a4487	0.03766301
109	0x3bb051a9	0.0053808284
110	0xbc9cc2e6	-0.019135904
111	0xbc1feb1e	-0.009760646
112	0xbbd58e1d	-0.0065171854
113	0x3d720b05	0.05909254
114	0xbd9bd3b3	-0.07608738
115	0xbbc5ad13	-0.006032595
116	0xbd00d342	-0.03145147
117	0x3bce8e6f	0.0063036005
118	0xbcee2c1c	-0.029073767
119	0x3cdaf560	0.026728332
120	0xbbda3dca	-0.006660198
121	0xbb67e2bd	-0.003538295
122	0x3d0b09f5	0.033945043
123	0xbb2f2ccf	-0.002672959
124	0x3d491dfd	0.049100865
125	0xbca9a840	-0.02071011
126	0xbd27b661	-0.040945414
127	0xbd2b3235	-0.041795928
128	0xbd81f0ab	-0.06344732
129	0xbc99a0d8	-0.018753454
130	0xba87ce2e	-0.0010361129
131	0xba9c3f0b	-0.0011920644
132	0x3d78add9	0.06071267
133	0xbda020e4	-0.078187734
134	0x3cea2f81	0.028587105
135	0x3cf8f104	0.030388363
136	0x3b154f47	0.0022782849
137	0xbc943600	-0.018092155
138	0x3d34b948	0.04412201
139	0xbc8e184e	-0.017345574
140	0x3c1a6d24	0.009425435
141	0x3c4d197d	0.012518284
142	0xbc6578fb	-0.014005895
143	0x3d2f314b	0.04277162
144	0x3d8051e7	0.06265622
145	0xbd8ed8b2	-0.06974925
146	0xbd579255	-0.052629787
147	0xbd4a5392	-0.049396105
148	0x3c101a0d	0.0087952735
149	0x3b7df2b8	0.0038749408
150	0x3c298ef9	0.010349029
151	0x3d3c8206	0.046022438
152	0x3d378ec9	0.044813905
153	0xbd13b40c	-0.036060378
154	0xbb2aa1df	-0.0026036424
155	0xbcc062b9	-0.023484575
156	0xbd547d27	-0.051877167
157	0xbd691305	-0.056902904
158	0xbc89c935	-0.016819576
159	0xbd1d3219	-0.038377855
160	0xbc989283	-0.01862455
161	0x3c72b4c9	0.01481361
162	0xbc96fc7b	-0.018430939
163	0x3d8b8fba	0.06814523
164	0xb9311f2e	-0.00016891651
165	0xbcecfa20	-0.028927863
166	0xbd397f39	-0.045287345
167	0x3d4abc99	0.049496267
168	0xbc04ccef	-0.008105501
169	0xbbfc068b	-0.0076912097
170	0xbc0dcbff	-0.0086545935
171	0x3cdb62d5	0.026780525
172	0x3b7994fa	0.0038083182
173	0xbc3b7864	-0.011442278
174	0x3d57f9ff	0.05272865
175	0xbd05963c	-0.032613978
176	0x3d2584fd	0.04041003
177	0x3d4396ff	0.047751423
178	0xbc26dfde	-0.01018521
179	0x3d3fc962	0.046822913
180	0xbc168764	-0.009187553
181	0xbcc2d530	-0.023783296
182	0xbc2f0cee	-0.010684235
183	0x3d1af15a	0.037827827
184	0xbd32207e	-0.04348802
185	0xbd63ec21	-0.055645112
186	0xbd2d6ed1	-0.04234201
187	0x3de15d51	0.11004127
188	0x3ba57799	0.0050496575
189	0x3c5e355f	0.013562529
190	0xbdc6268f	-0.09675323
191	0xbce75553	-0.028238928
192	0x3d033cb6	0.03204032
193	0xbc01b045	-0.007915561
194	0x3d1221df	0.035676833
195	0xbd00e722	-0.031470425
196	0xbca4ae1b	-0.020102551
197	0xbbd71f0e	-0.0065649813
198	0xbd03e1fe	-0.032197945
199	0xbd695f4f	-0.05697566
200	0xbca23bab	-0.019803843
201	0x3d793fd8	0.0608519
202	0xbb9317f7	-0.004488941
203	0x3d41cb86	0.047313236
204	0xbc5dada2	-0.013530167
205	0xbcaa7160	-0.020806015
206	0x3c032580	0.008004546
207	0x3b476041	0.0030422362
208	0xbc3b10ed	-0.01141761
209	0xbd48c993	-0.04902036
210	0x3c3297ae	0.010900421
211	0x3cafc13f	0.021454452
212	0xbd7a5ee0	-0.061125636
213	0x3c06847e	0.0082103
214	0x3d1af81a	0.037834264
215	0xbcfc7bd8	-0.030820772
216	0x3d9251ce	0.07144509
217	0x3d6893e4	0.056781664
218	0x3c6ec984	0.014574412
219	0xbd9bf456	-0.07614963
220	0x3c7f3a0e	0.015577806
221	0xbd04344c	-0.032276437
222	0xbc400bae	-0.011721535
223	0xbd405383	-0.046954643
224	0x3cc9c13e	0.024628278
225	0x3dbbc941	0.091692455
226	0xbd23cf02	-0.03999234
227	0xbc77cf0c	-0.015125047
228	0x3a8c5736	0.0010707143
229	0xbcbb5497	-0.022867484
230	0xbd99e457	-0.075142555
231	0xbca0df3f	-0.019637702
232	0x3d025fd5	0.031829674
233	0xbc4a068f	-0.012330665
234	0xbcc1304c	-0.0235826
235	0x3d2b44eb	0.041813772
236	0x3dcdd51f	0.10050415
237	0x3d33a4af	0.043858226
238	0xbccb6d73	-0.024832463
239	0x3c1d2dd2	0.009593444
240	0xbc45723b	-0.01205116
241	0x3c77ae71	0.015117274
242	0x3d1fd6b5	0.03902312
243	0xbc109cdc	-0.008826461
244	0x3cf43213	0.029809033
245	0x3c85df05	0.016341696
246	0xbc7e123f	-0.01550728
247	0x3b195706	0.0023397817
248	0xbc8b2f34	-0.016990282
249	0xb9fae933	-0.00047857463
250	0xbd4a7791	-0.049430434
251	0x3c335b09	0.010946997
252	0x3b0380f8	0.0020065885
253	0x3caf4155	0.021393457
254	0xbd06c999	-0.032907102
255	0xbd8da7b2	-0.06916751

l1/W f4 [256, 16]
0	0x3e5c78a8	0.21530402
1	0xbed20fc5	-0.41027656
2	0x3e73fa77	0.23826014
3	0x3e953f39	0.29149798
4	0xbec034c1	-0.37540248
5	0xbe88f188	-0.26746774
6	0x3e67ef39	0.2264985
7	0x3f034fe1	0.5129376
8	0xbe723b47	-0.23655425
9	0xbf0283a5	-0.50982124
10	0x3f046cca	0.517285
11	0xbe5d04a0	-0.21583796
12	0x3c35cf98	0.0110968575
13	0xbe4e61a7	-0.20154439
14	0x3f00cdc7	0.5031399
15	0xbd16d648	-0.03682545
16	0x3edc16f9	0.42986277
17	0xbef430c0	-0.47693443
18	0x3d406f37	0.046981063
19	0xbee76b29	-0.45198944
20	0xbd423d29	-0.047421608
21	0xbedc022e	-0.42970413
22	0xbe60511d	-0.21905942
23	0x3e0f9f3b	0.14025585
24	0x3ebdf354	0.37099707
25	0xbefb9258	-0.4913509
26	0x3f03c5ce	0.514737
27	0x3da8782a	0.082260445
28	0x3f5331be	0.82497776
29	0x3e8ee83e	0.27911562
30	0x3e86448f	0.2622418
31	0xbd88d518	-0.066812694
32	0xbe897786	-0.26849002
33	0xbea760bd	-0.32690993
34	0xbed5c439	-0.41751269
35	0x3e19d031	0.15020825
36	0xbd525e3b	-0.051359396
37	0xbd6d15b4	-0.057882026
38	0xbe250f2a	-0.16119066
39	0x3e7ea647	0.24868117
40	0xbeadbbc8	-0.33932328
41	0x3d1131e8	0.035447985
42	0xbebde811	-0.37091115
43	0x3d2ddaca	0.04244498
44	0xbde70375	-0.11279956
45	0x3db052ea	0.086095646
46	0xbdcd26e7	-0.10017186
47	0x3f473b55	0.7782491
48	0x3e0358dc	0.12826866
49	0xbf1c0d74	-0.6095803
50	0xbe7bfadb	-0.24607413
51	0x3d6d1d37	0.05788919
52	0xbddaf25a	-0.10690756
53	0xbeea605a	-0.45776635
54	0x3f291cab	0.6605937
55	0xbeee5757	-0.4655101
56	0x3f3e7631	0.74399096
57	0x3f41c3dc	0.7568948
58	0x3e624d16	0.22099718
59	0xbf215a77	-0.63028663
60	0xbe8c0064	-0.27344048
61	0xbeec0912	-0.4610067
62	0x3e05da1d	0.13071485
63	0x3f275389	0.6536184
64	0xbcbaf775	-0.022823075
65	0x3dc62b54	0.09676233
66	0xbe9c4469	-0.30520943
67	0xbe809acb	-0.25118098
68	0xbda01df1	-0.07818211
69	0xbe58fded	-0.21190615
70	0x3eb6234f	0.35573813
71	0x3f4bf5e8	0.796721
72	0x3c957732	0.018245313
73	0xbe155efe	-0.14587018
74	0x3e5bdd01	0.21471025
75	0xbf7f415f	-0.99709123
76	0x3d3c2640	0.045934916
77	0x3ec9b926	0.3939907
78	0xbecde0a3	-0.40210447
79	0xbea7d5e2	-0.32780367
80	0x3ecde939	0.40216997
81	0xbebe4537	-0.37162182
82	0xbe9ac8f1	-0.3023143
83	0x3df6b08d	0.12045393
84	0xbe2409b6	-0.1601933
85	0xbf21edb3	-0.63253325
86	0x3ef01951	0.46894315
87	0x3f06a877	0.52600807
88	0xbf0f94cb	-0.56086415
89	0x3ef50f07	0.47863027
90	0xbea0a334	-0.31374514
91	0x3e800075	0.2500035
92	0x3ec2dca5	0.38058963
93	0xbee76876	-0.45196885
94	0x3dcbc228	0.09949142
95	0x3f07eeec	0.5309894
96	0xbd5bd859	-0.053673122
97	0xbcb501ee	-0.022095647
98	0x3dd67c7e	0.10472964
99	0x3f390a19	0.7228103
100	0xbf4c8d88	-0.7990346
101	0x3e35912c	0.1773116
102	0x3f2d3c47	0.676701
103	0x3d89a2ae	0.06720482
104	0x3d8bf2da	0.0683343
105	0xbe0993c9	-0.13435282
106	0xbd09ebf0	-0.033672273
107	0xbd44f73e	-0.04808735
108	0x3da58bab	0.0808328
109	0xbeb8d7d9	-0.3610218
110	0x3e656030	0.22399974
111	0x3e253969	0.16135181
112	0x3ef5dc67	0.48019716
113	0x3dfea14c	0.12433109
114	0x3e948f21	0.2901545
115	0x3e1395c6	0.14412603
116	0xbe13a6bd	-0.14419074
117	0xbea1291c	-0.31476676
118	0xbf74fc5a	-0.9569756
119	0xbeea56d6	-0.45769376
120	0xbe046734	-0.12929994
121	0xbc5da8fb	-0.013529058
122	0x3e0e77ff	0.13912962
123	0x3db854e8	0.090005696
124	0x3dfaa08c	0.12237653
125	0x3ee65d52	0.44993073
126	0x3de827af	0.11335694
127	0x3e2fac38	0.1715554
128	0xbed449cf	-0.4146256
129	0xbec8fe91	-0.3925672
130	0x3d0ae517	0.033909883
131	0x3f0b6af4	0.5446007
132	0x3df828bd	0.12117145
133	0xbe5b98a9	-0.21444954
134	0x3ecb16be	0.39665788
135	0xbe84525c	-0.25844085
136	0xbecedf8f	-0.40404937
137	0x3f146a3e	0.5797461
138	0xbe53c211	-0.20679499
139	0x3e9b0942	0.302805
140	0xbf628491	-0.8848353
141	0xbcc60ea5	-0.024176905
142	0x3e42e0b2	0.19031027
143	0xbd315c73	-0.043301057
144	0x3e272e78	0.1632632
145	0x3d3715e5	0.044698615
146	0xbedf2a10	-0.4358678
147	0x3c8ed45d	0.017435247
148	0x3f01856d	0.50594217
149	0x3e56df8a	0.20983711
150	0x3ea3f94a	0.3202613
151	0xbe5c9597	-0.21541439
152	0x3dd00055	0.10156313
153	0xbe92bc94	-0.286595
154	0xbee42e8e	-0.44566768
155	0xbe93ddb2	-0.28880078
156	0x3f427921	0.7596608
157	0x3f160621	0.586031
158	0x3c288752	0.010286169
159	0x3d20e850	0.03928405
160	0x3f0a7a52	0.54092896
161	0x3d4e65d6	0.050390087
162	0xbd01a757	-0.03165373
163	0xbec4e00f	-0.38452193
164	0x3ddf86e8	0.10914403
165	0xbdf7d724	-0.12101582
166	0xbe33a37d	-0.17542835
167	0xbd133215	-0.035936434
168	0xbf46b174	-0.7761452
169	0xbc02ac82	-0.007975699
170	0x3e4df91b	0.20114557
171	0xbee4bc79	-0.44675043
172	0x3f3749f8	0.7159724
173	0xbda5debd	-0.080991246
174	0x3ca0ec9d	0.019644076
175	0xbe07fad9	-0.13279285
176	0xbee61c4d	-0.44943467
177	0xbf43dcd7	-0.7650885
178	0x3eb70d07	0.35752127
179	0xbeb17959	-0.34662893
180	0x3f36e1c4	0.7143824
181	0xbe68af99	-0.22723235
182	0x3d6a10aa	0.0571448
183	0x3f594956	0.84877527
184	0x3c170954	0.009218533
185	0x3eb5adaa	0.35484058
186	0xbe13eb8a	-0.1444532
187	0x3e355e70	0.17711806
188	0xbee8783c	-0.45404232
189	0xbeae39f9	-0.34028605
190	0xbf064f2c	-0.52464557
191	0xbd95d469	-0.07315905
192	0x3db5a529	0.088693924
193	0x3e6ebc99	0.23314132
194	0x3e086ba2	0.13322309
195	0x3dd3285e	0.10310434
196	0xbd95351c	-0.072855204
197	0xbe5ce10b	-0.21570222
198	0x3ca4bd53	0.020109808
199	0xbd4262ad	-0.047457386
200	0xbc47a524	-0.012185369
201	0xbe718a3d	-0.2358789
202	0x3deb6274	0.11493388
203	0xbdcf1e44	-0.101131946
204	0x3d9c3878	0.07627958
205	0xbd752629	-0.059850845
206	0xbe3f7927	-0.1869856
207	0x3efadeb0	0.48998022
208	0xbd86d476	-0.065834925
209	0xbc9b9e40	-0.018996358
210	0xbf0fb2a5	-0.56131965
211	0xbe2a8177	-0.1665095
212	0xbec6b51d	-0.38810053
213	0x3d143580	0.036183834
214	0xbf210cb7	-0.62910026
215	0x3d3dbce5	0.046322722
216	0xbe1e0bdd	-0.15434213
217	0xbf1d2af1	-0.6139365
218	0x3e84f1dd	0.25965777
219	0xbe5190dd	-0.20465417
220	0xbf302a65	-0.6881469
221	0x3ed0c23c	0.4077319
222	0x3f146847	0.57971615
223	0x3bba63b8	0.005688157
224	0xbf44d87c	-0.7689283
225	0xbecfb353	-0.405665
226	0x3db26db2	0.08712329
227	0xbe3e5c4a	-0.18589893
228	0x3d8e73d2	0.06955685
229	0x3ed98b4b	0.42489085
230	0x3e3e0c42	0.18559363
231	0x3d53455b	0.051579814
232	0x3edbfcaf	0.4296622
233	0x3ec65c96	0.38742512
234	0x3eb57501	0.3544083
235	0x3e21b70c	0.15792483
236	0xbf44b6d3	-0.7684147
237	0x3e63ebd7	0.22257935
238	0x3e1b6729	0.15176071
239	0xbeed4bb3	-0.46346816
240	0xbd8a8ec8	-0.067655146
241	0xbd857047	-0.06515556
242	0x3f1686aa	0.5879923
243	0x3e8a43b4	0.27004778
244	0x3cbeae58	0.023276493
245	0xbf998405	-1.1993414
246	0xbdebc986	-0.11513047
247	0xbee27ca8	-0.4423573
248	0x3ed02bbe	0.40658373
249	0x3cf9e117	0.030502839
250	0x3ef72830	0.48272848
251	0x3ebd728c	0.37001455
252	0xbe63ef36	-0.2225922
253	0xbea25f78	-0.31713462
254	0x3ea24bc8	0.31698442
255	0x3e5bd55e	0.21468112

l3/W f4 [256, 256]
0	0x3cc15a6a	0.023602683
1	0xbe14efd0	-0.14544606
2	0x3d81966b	0.06327518
3	0xbd05705e	-0.032577865
4	0xbcdfe96f	-0.02733299
5	0xbe180a18	-0.148476
6	0xbdb94398	-0.090460956
7	0xbd472a45	-0.048624296
8	0x3d1a8511	0.03772456
9	0xbcabf1f7	-0.020989401
10	0xbdb39557	-0.08768719
11	0xbd5c06b7	-0.05371734
12	0x3e2961c7	0.16541205
13	0xbde35cdd	-0.11101697
14	0x3e50733c	0.20356458
15	0x3df5bd34	0.11998978
16	0xbdbd9e2b	-0.09258684
17	0x3ce533ad	0.027978742
18	0xbe18503d	-0.14874358
19	0xbbb39e93	-0.00548155
20	0x3e0cdec8	0.1375686
21	0xbcc86441	-0.024461867
22	0x3e41c850	0.1892407
23	0x3ca12388	0.019670263
24	0x3e095aa6	0.13413486
25	0xbe145121	-0.14484073
26	0x3da07957	0.07835644
27	0x3b80c5ed	0.0039298446
28	0x3e1d1627	0.15340482
29	0xbdf024bc	-0.117257565
30	0x3de7f24d	0.11325512
31	0xbdb17a0e	-0.08665858
32	0x3e29d11b	0.16583674
33	0xbcc78596	-0.02435569
34	0xbc1aa591	-0.009438888
35	0x3cf2d235	0.02964125
36	0xbcd98b40	-0.026555657
37	0x3d48396d	0.04888289
38	0x3e2e0b9c	0.16996616
39	0x3d2798ad	0.040917087
40	0xbda75893	-0.08171191
41	0xbdcf4581	-0.10120679
42	0xbda9dee9	-0.0829447
43	0xba473739	-0.00075994764
44	0x3bf4466c	0.007454684
45	0x3d725a57	0.059168186
46	0xbe0f0501	-0.13966753
47	0x3c9bb7cb	0.019008538
48	0xbceb1e39	-0.028700935
49	0x3daebb01	0.08531762
50	0xbdaa16ca	-0.08305128
51	0x3d673cee	0.05645459
52	0x3d88b4c2	0.06675102
53	0xbde08395	-0.10962597
54	0x3e10e44b	0.14149587
55	0x3da965ff	0.08271407
56	0x3daa3580	0.083109856
57	0xbe138f04	-0.14410025
58	0xbd8374f1	-0.06418789
59	0xbc14b09f	-0.009075313
60	0xbe1c431a	-0.15259972
61	0xbda77d8e	-0.081782445
62	0xbe034279	-0.12818326
63	0x3d900e51	0.07033981
64	0x3ce8c490	0.02841404
65	0xbbbc0a95	-0.005738566
66	0x3c2cf952	0.0105574895
67	0x3ea502d0	0.32228708
68	0x3b722e92	0.0036954028
69	0xbdb6865f	-0.08912348
70	0x3d96fd1a	0.07372494
71	0xbdde54b9	-0.10856003
72	0x3d7da3a1	0.061923627
73	0x3dbf1175	0.093295015
74	0x3d460c2d	0.048351455
75	0x3dba7986	0.0910521
76	0x3c4a621a	0.012352491
77	0x3b891bb3	0.00418421
78	0xbe584cb7	-0.21123014
79	0xbdef2ce1	-0.11678482
80	0xbd88e60c	-0.06684503
81	0xbe5380ca	-0.20654598
82	0xbe07fe9f	-0.13280724
83	0x3c5d6851	0.0135136405
84	0xbd048777	-0.03235575
85	0x3d809346	0.0627809
86	0xbdf9a9a3	-0.12190559
87	0xbd82e0f6	-0.06390564
88	0x3d6bfaf0	0.05761236
89	0x3d9877fa	0.07444759
90	0xbd88a6ea	-0.06672461
91	0x3caa345c	0.02077692
92	0x3e0cbbe9	0.13743557
93	0x3cfac97d	0.030613655
94	0xbd210f7c	-0.039321408
95	0x3cc712e6	0.024301004
96	0x3e1342b8	0.1438092
97	0x3ae780ea	0.0017662321
98	0xbe1ad696	-0.1512092
99	0x3d40e463	0.047092807
100	0x3e322317	0.17396198
101	0xbd38c5f4	-0.045110658
102	0x3da96089	0.08270366
103	0xbd286037	-0.041107383
104	0x3defa2ca	0.117009714
105	0xbe0b5730	-0.13607478
106	0x3dab8bd4	0.083762795
107	0x3d9a713a	0.075411275
108	0xbdd67653	-0.10471787
109	0xbdd1b5f3	-0.10239782
110	0xbdafedc5	-0.08590273
111	0x3bf8df12	0.0075949514
112	0x3b96e6a5	0.0046051317
113	0xbdef0069	-0.1167
114	0xbcd28f05	-0.025702963
115	0xbd6bc68a	-0.05756239
116	0xbdbd49b7	-0.092425756
117	0xbd7e3cfc	-0.062069878
118	0xbd8ee429	-0.06977112
119	0x3d01fec5	0.031737108
120	0xbe15d962	-0.14633706
121	0xbe265ed0	-0.16247106
122	0x3d11dc1d	0.035610307
123	0x3d3fe330	0.046847522
124	0xbd95be91	-0.07311738
125	0xbd5b24cd	-0.053501893
126	0xbdca628e	-0.09882079
127	0xbceb2f5c	-0.028709106
128	0x3b9e84bd	0.004837601
129	0xbd92aa88	-0.071614325
130	0x3d114d38	0.035474032
131	0x3e032db5	0.12810405
132	0xbd68155f	-0.056661006
133	0xbd8e2c6a	-0.06942065
134	0x3db9bbcc	0.090690225
135	0x3d82d4c4	0.06388238
136	0xbdd23ea9	-0.10265858
137	0x3d57a7e2	0.05265034
138	0x3e36dd22	0.17857793
139	0x3b745207	0.0037280337
140	0xbd4f34bf	-0.050587412
141	0xbb376950	-0.0027986355
142	0x3d8278af	0.06370675
143	0xbd8bb3ac	-0.06821379
144	0x3c98ebcc	0.018667124
145	0xbbb3a33e	-0.0054821065
146	0xbd8ed677	-0.069745
147	0x3cd2a566	0.025713634
148	0xb9c20c0c	-0.0003701154
149	0xbd7fe651	-0.062475506
150	0x3e1da4fe	0.15394971
151	0x3dfcfdd6	0.12353103
152	0xbe07dc58	-0.13267648
153	0x3cb871db	0.022515228
154	0xbbd2afba	-0.0064296396
155	0xbe094f34	-0.1340912
156	0xbdb3e277	-0.08783429
157	0xbe1b4d58	-0.15166223
158	0x3c242502	0.010018589
159	0x3cb3bb94	0.02194003
160	0x3d5cfbd5	0.053951103
161	0x3dfc23f9	0.12311549
162	0xbbc354d4	-0.00596104
163	0x3c9bdd6c	0.01902648
164	0xbd019a9b	-0.031641584
165	0xbda7bbe9	-0.08190138
166	0xbdfc3958	-0.12315625
167	0x3c9f8db9	0.019476758
168	0xbd34250c	-0.043980643
169	0x3e65f2df	0.22455929
170	0x3d717ea9	0.058958683
171	0x3c623093	0.013805526
172	0xbe2cd51e	-0.16878173
173	0xbd85049a	-0.06495018
174	0x3d8fb6ae	0.07017265
175	0xbc44ec5a	-0.012019241
176	0x3cfce9b3	0.030873155
177	0x3da22565	0.07917289
178	0xbd837a3f	-0.06419801
179	0x3df9c280	0.12195301
180	0x3d1682ab	0.03674571
181	0xbcf41fa9	-0.029800253
182	0x3c94be35	0.018157104
183	0x3c1ab50c	0.009442579
184	0x3d372297	0.04471072
185	0xbe2f9743	-0.17147546
186	0xbc9bd0c3	-0.019020444
187	0x3dababbe	0.083823666
188	0xbdc8a631	-0.097973235
189	0xbe087339	-0.13325204
190	0x3da0f249	0.07858712
191	0x3de27497	0.11057394
192	0xbd0c95a2	-0.03432239
193	0xbd8cba52	-0.06871475
194	0x3c86c9f6	0.016453724
195	0xbd27ca07	-0.040964153
196	0xbdffd77c	-0.12492272
197	0xbe6d43b8	-0.23170364
198	0x3de3cfef	0.111236446
199	0x3d5850a3	0.052811276
200	0xbd4db23e	-0.050218813
201	0x3d9dcaca	0.077046946
202	0xbd15d0c0	-0.036576033
203	0xbd050833	-0.032478523
204	0xbdd6b8e9	-0.104844876
205	0xbc0744ff	-0.008256196
206	0xbe1dba94	-0.15403205
207	0xbd90343a	-0.070412114
208	0x3dada706	0.08479123
209	0xbe404c3f	-0.18779086
210	0xbdb3dcf5	-0.087823786
211	0xbcce2c9e	-0.02516776
212	0x3d436d00	0.047711372
213	0x3dae32d1	0.08505786
214	0xbd4c89d2	-0.049936123
215	0x3cbbb81e	0.022914942
216	0x3e227285	0.15863998
217	0x3d06b076	0.03288313
218	0x3eddd026	0.43322867
219	0x3c319769	0.010839322
220	0xbc5360cf	-0.012901499
221	0x3c9bb12c	0.01900538
222	0x3d894b54	0.06703821
223	0x3beb111b	0.00717367
224	0xbd87d36a	-0.06632121
225	0xbd56f14b	-0.05247621
226	0x3d83c53f	0.06434106
227	0xbb09f75b	-0.0021051976
228	0x3b97230f	0.0046123336
229	0xbde10544	-0.109873325
230	0xbe153ee1	-0.14574768
231	0xbd4031ac	-0.04692237
232	0x3e183a67	0.14866029
233	0xbe8dcaab	-0.27693686
234	0xbdad7795	-0.08470074
235	0xbd93931a	-0.07205792
236	0xbd677046	-0.056503557
237	0xbd1d48a7	-0.038399365
238	0xbd186cfa	-0.037213303
239	0x3e2ff21e	0.17182204
240	0x3d82d8c9	0.06389005
241	0xbe04b057	-0.12957893
242	0xbdb84e46	-0.089993045
243	0xbe0c5c81	-0.13707162
244	0x3c938714	0.018008746
245	0xbe31f2e3	-0.1737781
246	0x3dd4d4ce	0.10392152
247	0x3e340477	0.17579828
248	0xbdbe0387	-0.092780165
249	0xbdd478ae	-0.1037458
250	0x3dca6aff	0.09883689
251	0x3bbffad7	0.00585876
252	0x3e6db92d	0.2321517
253	0x3d7a3d69	0.06109372
254	0x3e0c531b	0.13703577
255	0x3cdb3302	0.02675772

l4/W f4 [16, 256]
0	0x3d7ea8d2	0.06217272
1	0x3def3319	0.11679668
2	0x3e06a38e	0.13148329
3	0x3d18d2d2	0.03731043
4	0xbe584f84	-0.21124083
5	0xbe8e7dbc	-0.27830303
6	0xbe9e19ca	-0.3087905
7	0xbeaf49c7	-0.34235975
8	0xbe067603	-0.13130955
9	0x3e63236a	0.22181478
10	0xbd7cabc8	-0.06168726
11	0xb9a72679	-0.00031881387
12	0xbb91a089	-0.004444186
13	0xbe80487d	-0.25055304
14	0x3de77a64	0.11302641
15	0x3e08fc33	0.13377456
16	0x3db7f66d	0.08982549
17	0xbcb64755	-0.02225081
18	0x3d30bf9f	0.043151494
19	0xbeabb4a1	-0.33536246
20	0x3e7c5d0f	0.24644874
21	0xbe627d9f	-0.22118233
22	0xbde9b669	-0.11411745
23	0x3ca858dc	0.020550184
24	0xbd83dab9	-0.064382024
25	0x3e520e75	0.20513327
26	0x3d0562d9	0.03256497
27	0x3e4afb96	0.19822535
28	0xbdabe3a3	-0.08393028
29	0x3e336b4e	0.17521402
30	0x3ddbab8b	0.107260786
31	0xbd231aab	-0.039820354
32	0xbc7b7ea7	-0.0153500205
33	0x3d9189c3	0.07106354
34	0x3db55084	0.08853248
35	0x3dc47340	0.09592295
36	0x3e9dec78	0.30844474
37	0x3dbbfd2f	0.0917915
38	0x3eaf08ab	0.341863
39	0xbe5115b1	-0.20418431
40	0x3e8ad98a	0.27119094
41	0x3e1ba87c	0.1520099
42	0xbda7f24d	-0.08200512
43	0x3e2a8e5f	0.16655873
44	0x3d2b62b7	0.04184219
45	0x3d0872bf	0.033312555
46	0x3e840d91	0.257916
47	0x3e0dd874	0.13852102
48	0x3e061ad7	0.13096176
49	0x3e056e1b	0.13030283
50	0x3d2b0b79	0.041758988
51	0x3d1f8d48	0.038953096
52	0xbd4a8163	-0.0494398
53	0x3e5b02dc	0.2138781
54	0xbeb3b162	-0.3509627
55	0x39d9b8ab	0.00041527054
56	0x3e5ccaa7	0.2156168
57	0xbe62740e	-0.22114584
58	0xbdd145eb	-0.10218414
59	0xbeaef045	-0.34167686
60	0xbdef08af	-0.11671578
61	0x3da9a46d	0.08283315
62	0xbd9ac93a	-0.07557912
63	0xbdbe0aee	-0.092794284
64	0xbe39ac12	-0.18132046
65	0x3c4920c6	0.01227588
66	0xbda63245	-0.08115057
67	0xbe4a5401	-0.19758607
68	0x3c27b292	0.010235446
69	0x3e3bec9d	0.1835198
70	0x3d79e1af	0.061006244
71	0x3e491c07	0.19639598
72	0xbea761d5	-0.32691827
73	0x3e127fd9	0.14306583
74	0xbe97196f	-0.29511592
75	0xbbe993e6	-0.0071282266
76	0xbd9e86fd	-0.07740591
77	0xbd62c568	-0.055364043
78	0xbdbb38e1	-0.09141708
79	0x3e4473a1	0.19184734
80	0xbd6c0486	-0.0576215
81	0xbe8943ac	-0.26809442
82	0xbc93badd	-0.01803344
83	0xbe5b166c	-0.21395272
84	0xbe462357	-0.19349419
85	0xbd94c244	-0.07263616
86	0x3d9c9b69	0.0764683
87	0xbe3b23b9	-0.18275346
88	0xbe74fb35	-0.23923953
89	0x3d326ce5	0.04356088
90	0x3edef747	0.43548033
91	0xbde8fc3d	-0.11376236
92	0x3e3e2773	0.18569736
93	0x3e07a2dd	0.13245721
94	0x3e3d7d3b	0.18504803
95	0x3e747bb8	0.2387532
96	0x3b95c146	0.004570159
97	0xbe15b424	-0.146195
98	0x3c0ed2c5	0.008717244
99	0xbe1c2541	-0.15248586
100	0xbd9bfc37	-0.076164655
101	0x3caca12e	0.02107295
102	0xbd816493	-0.06318011
103	0x3dcc7def	0.099849574
104	0x3cf3d52d	0.029764736
105	0xbdd38b40	-0.10329294
106	0x3cab2486	0.02089144
107	0x3e417997	0.18894039
108	0x3d86865d	0.065685965
109	0x3e5f254f	0.21791576
110	0xbd411992	-0.047143526
111	0xbe603f6a	-0.2189919
112	0xbe267465	-0.16255338
113	0x3d2147fc	0.03937529
114	0x3df970e9	0.12179739
115	0x3ec33279	0.38124445
116	0x3ea0326a	0.31288463
117	0x3d3cfc7a	0.046139218
118	0xbe87c45e	-0.26517004
119	0xbe1601e2	-0.14649156
120	0xbe52a502	-0.20570758
121	0xbe77a2d1	-0.24183203
122	0x3e38d13b	0.18048565
123	0x3dcfa34d	0.10138569
124	0x3d42bd97	0.04754409
125	0x3e58d2d1	0.2117417
126	0xbea1dba6	-0.3161289
127	0x3d99a8d5	0.07502905
128	0xbcf9ffb7	-0.030517442
129	0x3e202fe5	0.1564327
130	0x3e14601b	0.14489786
131	0x3dbb47e5	0.09144572
132	0x3dc9a6ff	0.09846305
133	0x3de1ecbe	0.11031483
134	0x3dbc13c8	0.091834605
135	0xbd26f8de	-0.040764682
136	0xbd3c7327	-0.046008255
137	0xbe98c919	-0.29840925
138	0xbc04b9e1	-0.008100958
139	0xbd4e1bd8	-0.050319523
140	0x3dfc7436	0.12326853
141	0xbebc48b2	-0.36774212
142	0xbe2a408a	-0.16626182
143	0x3e1d2105	0.15344627
144	0x3cc67c8d	0.024229312
145	0xbe8e4b24	-0.27791703
146	0x3d9ba863	0.076004766
147	0xbd3a4b0a	-0.04548172
148	0x3ddf91b5	0.10916463
149	0x3dc3dfdc	0.09564182
150	0xbd486663	-0.04892577
151	0xbe67934f	-0.22614788
152	0x3df37d0b	0.118890844
153	0xbd9a1a59	-0.07524557
154	0xbd07e879	-0.033180688
155	0xbdfb7bb3	-0.12279453
156	0xbe2629a0	-0.16226816
157	0xbb9191dd	-0.004442437
158	0x3eaab4f5	0.33341184
159	0x3dc6734d	0.09689961
160	0xbe1ae3fb	-0.1512603
161	0xbe4ff4e1	-0.20308258
162	0x3e081fa6	0.13293323
163	0x3e0a38ab	0.1349818
164	0xbe058758	-0.13039911
165	0x3e2c8a0d	0.16849537
166	0xbd47539e	-0.048663728
167	0x3e0c74dc	0.13716453
168	0xbe28bf88	-0.16479313
169	0x3bf3396b	0.0074226162
170	0x3e1824b6	0.14857754
171	0xbea629c4	-0.3245374
172	0x3dbdc72d	0.092665054
173	0xbdfa95c5	-0.122355975
174	0x3e2b6973	0.16739444
175	0xbc04ced8	-0.008105956
176	0x3dac77c9	0.08421285
177	0x3e2bcd9c	0.16777653
178	0x3db6b82e	0.08921848
179	0xbe8504cd	-0.25980225
180	0x3dfab178	0.12240881
181	0xbe60bf10	-0.21947885
182	0xbd3b296b	-0.045693796
183	0x3d834820	0.06410241
184	0xbce21f03	-0.027602678
185	0xbe0bc6be	-0.13650033
186	0x3e41038d	0.18849011
187	0xbe84da63	-0.25947866
188	0xbc93c1c8	-0.018036738
189	0xbece25d6	-0.40263242
190	0x3e3ad7d3	0.18246393
191	0x3d062c61	0.032757167
192	0xbebb827e	-0.36622995
193	0x3c2132fc	0.009838816
194	0x3cd62faa	0.026145775
195	0xbdfaae3e	-0.12240265
196	0xbcfef5ae	-0.031123009
197	0x3da14b11	0.07875646
198	0x3cbc3f18	0.022979304
199	0xbe95c9d6	-0.2925555
200	0x3d1697cb	0.036765855
201	0x3e62d884	0.22152907
202	0xbe4d6af7	-0.20060335
203	0xbd6d866e	-0.05798953
204	0xbe3b1c66	-0.18272552
205	0x3da3ad3b	0.079920255
206	0x3e719b8e	0.23594496
207	0xbd90695a	-0.07051344
208	0xbdebadc8	-0.115077555
209	0xbe0098f4	-0.12558347
210	0x3c3b9864	0.011449907
211	0xbe18eb5e	-0.14933535
212	0xbe9321f1	-0.28736833
213	0xbd40b100	-0.0470438
214	0xbe6041fe	-0.21900174
215	0x3d341d3e	0.0439732
216	0x3df999d4	0.121875435
217	0xbd737258	-0.05943522
218	0x3e3b83a0	0.1831193
219	0xbe22d635	-0.15902026
220	0x3e2cfcae	0.16893265
221	0x3e5eb719	0.21749534
222	0x3cdfd5e4	0.02732367
223	0x3e0cd5c8	0.13753426
224	0x3d332d1a	0.043744184
225	0xbe7f5d5f	-0.24937962
226	0xbdf7aad6	-0.12093131
227	0xbee91eb4	-0.45531237
228	0xbdda7dcf	-0.10668527
229	0x3d740f14	0.059584692
230	0x3cdf0e54	0.027228512
231	0x3d3a28ea	0.045449175
232	0x3c8b2a64	0.016987987
233	0xbe47d276	-0.19513878
234	0x3da7c049	0.08190972
235	0x3d34951c	0.044087514
236	0xbd3810de	-0.04493796
237	0xbd954e88	-0.07290369
238	0xbe96b18c	-0.29432333
239	0x3e9c6c24	0.30551255
240	0x3e3fbf6a	0.18725362
241	0xbe0918d6	-0.1338838
242	0x3db6ee2e	0.08932148
243	0x3e9a446a	0.3013032
244	0x3d583255	0.052782375
245	0xbd019981	-0.031640533
246	0x3e18baff	0.14915083
247	0x3e6c23a5	0.23060472
248	0xbe4cd5a7	-0.20003377
249	0xbd5e6f09	-0.05430511
250	0xbda6458c	-0.08118734
251	0x3e0acd76	0.1355494
252	0xba83d3bd	-0.001005761
253	0x3e72c431	0.23707654
254	0xbcd62824	-0.026142187
255	0x3d10cbe5	0.0353507

l2/W f4 [256, 256]
0	0xbc4c9ee4	-0.012489054
1	0xbdb57fbd	-0.08862255
2	0xbd4d00d2	-0.05004961
3	0x3e30b2a5	0.17255647
4	0xbcf38c03	-0.029729849
5	0xbb33a625	-0.0027412262
6	0x3d37f206	0.044908546
7	0xbcddf29a	-0.02709322
8	0x3d787695	0.060659964
9	0xbe42a07e	-0.19006535
10	0xbcd933f9	-0.02651404
11	0x3db5fdbc	0.088862866
12	0xbd66189c	-0.056175813
13	0x3e07599d	0.13217779
14	0xbd5db644	-0.0541289
15	0x3dd57a69	0.104237385
16	0x3e27c112	0.16382244
17	0x3e2679cb	0.16257398
18	0xbdce7a0b	-0.100818716
19	0xbd302952	-0.043008156
20	0x3d12b8e8	0.03582087
21	0x3d8b2361	0.06793857
22	0xbe99a2e8	-0.300071
23	0x3b24a55d	0.0025122978
24	0x3e0ad5fa	0.13558188
25	0xbdaa6ccd	-0.08321533
26	0xbc4b861b	-0.01242211
27	0xbdff0731	-0.124525435
28	0x3dd748c4	0.10511926
29	0x3b6f0961	0.0036474096
30	0x3d6496a2	0.055807717
31	0xbdfde2f8	-0.123968065
32	0xbdecdcbb	-0.115655385
33	0x3c7b31a2	0.015331658
34	0xbd812d26	-0.063074395
35	0xbdbf3e88	-0.09338099
36	0xbc4c5c6c	-0.012473207
37	0xbd0b1df0	-0.033964097
38	0xbd889863	-0.066696905
39	0xbd8f377d	-0.069930054
40	0x3b295f5b	0.002584419
41	0x3de08098	0.10962027
42	0x3ce30b3f	0.027715323
43	0xbde46b36	-0.11153261
44	0x3e1520c2	0.14563277
45	0xbba44800	-0.005013466
46	0x3dbe9218	0.09305209
47	0xbce517d5	-0.027965466
48	0xbb38decc	-0.002820897
49	0x3c5a362f	0.013318582
50	0xbdc7918a	-0.09744556
51	0x3d8ad19e	0.067782626
52	0x3e12ec12	0.14347866
53	0xbc93421a	-0.017975856
54	0x3df9567c	0.12174699
55	0x3bf15f61	0.0073661064
56	0xbd3d468f	-0.046209868
57	0x3dcabc64	0.09899214
58	0xbd89dec8	-0.06731945
59	0xbdaa4461	-0.083138235
60	0xbcf9ba69	-0.030484395
61	0x3caeb50d	0.021326566
62	0x3ae6fa76	0.0017622251
63	0x3dc43f22	0.09582354
64	0x3d8724e5	0.06598834
65	0xbdb3f128	-0.08786231
66	0x3e6d5cee	0.23179981
67	0x3d6b7356	0.05748304
68	0x3d1e18b1	0.038597766
69	0xbe1a94fe	-0.15095899
70	0xbdb9bb09	-0.09068877
71	0x3e2a1994	0.1661132
72	0xbd5544ae	-0.05206745
73	0xbe0b6267	-0.13611756
74	0x3e7cf6c4	0.24703509
75	0x3a3d2d59	0.0007216535
76	0x3bf1dd05	0.007381084
77	0xbcb3aaee	-0.021932092
78	0x3e51411e	0.20434996
79	0x3c456e95	0.012050291
80	0xbcd7eec1	-0.026358964
81	0x3be26285	0.006908717
82	0xbd65ce08	-0.05610469
83	0xbd5f70ad	-0.054550815
84	0xbca277e7	-0.019832565
85	0x3d7981fa	0.06091497
86	0x3d2ff5a2	0.042958863
87	0x3e14920c	0.14508837
88	0xbccc9176	-0.024971705
89	0x3e092ad7	0.13395248
90	0xbe8c5976	-0.27412003
91	0x3c8f0377	0.017457707
92	0x3c5e8d90	0.013583556
93	0xbd24278e	-0.040076785
94	0xbe0148d5	-0.1262544
95	0xbe183a50	-0.14865994
96	0x3c8c058d	0.01709249
97	0xbd8098b4	-0.06279126
98	0x3d258e9b	0.040419202
99	0x3e265da8	0.16246665
100	0x3c4b7b67	0.012419558
101	0xbe90bbc4	-0.28268254
102	0x3d4e582c	0.050377056
103	0xbe0af5f3	-0.13570385
104	0x3b8c4f20	0.0042818934
105	0x3cd87d36	0.026426893
106	0x3e16a1bc	0.14710134
107	0x3d52f464	0.0515026
108	0x3e210ae4	0.1572681
109	0x3db95af3	0.0905055
110	0x3cbc79c1	0.023007276
111	0xbdf2ed40	-0.11861658
112	0x3d9f077d	0.077651
113	0x3de5c46c	0.11219105
114	0x3d6e2dda	0.058149196
115	0x3e2e6240	0.17029667
116	0x3dfc068d	0.12305937
117	0xbc09290a	-0.008371601
118	0xbd802c65	-0.062584676
119	0xbde72863	-0.11287
120	0x3dc692b7	0.096959524
121	0x3d667dbb	0.05627225
122	0xbdf78519	-0.12085933
123	0x3d60bd65	0.05486812
124	0xbd4bed6b	-0.049786966
125	0xbe14e9f3	-0.1454237
126	0x3d42a6bc	0.04752229
127	0x3e55611d	0.20837827
128	0xbdba49de	-0.0909612
129	0x3cafb768	0.02144976
130	0xbd71f393	-0.05907018
131	0x3db65a2b	0.08903917
132	0xbe83e9c4	-0.25764287
133	0x3d643a94	0.055719927
134	0xbd0d3f19	-0.034484003
135	0xbda16c5f	-0.07881998
136	0x3e056ce1	0.13029815
137	0xbd23ca43	-0.039987814
138	0x3df52d6c	0.11971554
139	0xbc0d97c7	-0.008642144
140	0x3dba0169	0.090823
141	0x3e1fd7ed	0.15609713
142	0x3e2ac5e6	0.16677055
143	0xbe339168	-0.17535937
144	0xbe06469e	-0.13112876
145	0xbab641dc	-0.0013905126
146	0xbdaaa0b3	-0.08331432
147	0x3c89c68b	0.016818305
148	0xbd2e2aff	-0.042521473
149	0xbdfc3d3b	-0.12316366
150	0xbc36458b	-0.011124979
151	0xbe10016a	-0.1406304
152	0x3c6267e2	0.013818713
153	0xbc96ec06	-0.018423092
154	0x3e100ba0	0.14066935
155	0x3d6c00aa	0.05761782
156	0xbda5b78b	-0.08091649
157	0x3c74d5f1	0.014943586
158	0x3ae16115	0.001719507
159	0xbd9574a6	-0.072976395
160	0xbe22f57f	-0.15913962
161	0x3ddef9da	0.10887499
162	0x385cf594	5.26808e-05
163	0xbde47687	-0.1115542
164	0x3d00cfbe	0.03144812
165	0x3d1644e2	0.036686786
166	0xbbec2635	-0.007206703
167	0xbd65964c	-0.056051537
168	0xbe005192	-0.12531117
169	0x3e328aba	0.17435732
170	0xbd788876	-0.060677014
171	0xbd92d13b	-0.07168814
172	0xbd8beaee	-0.06831919
173	0xbd265bfa	-0.04061506
174	0x3d4909ca	0.0490816
175	0xbe4f648b	-0.20253198
176	0x3cba5d0b	0.022749444
177	0xbd40cd0f	-0.04707056
178	0x3d655ec5	0.055998582
179	0x3a9d36bf	0.0011994465
180	0x3e17566e	0.14779064
181	0x3c69bcd8	0.014266215
182	0x3e78aa13	0.24283628
183	0xbe27cc11	-0.16386439
184	0xbdf32003	-0.1187134
185	0x3d1f1b1e	0.03884422
186	0xbc9e1dc3	-0.0193013
187	0xbbaa622c	-0.0051996913
188	0x3ce78c5e	0.028265174
189	0x3e145967	0.1448723
190	0x3c136ac1	0.00899762
191	0xbc634d02	-0.013873341
192	0xbd07cf81	-0.033156876
193	0xbbe0dead	-0.0068624825
194	0x3da1499e	0.078753695
195	0xbe64b27d	-0.22333713
196	0xbd8048da	-0.06263895
197	0x3d6fc8f4	0.058541253
198	0xbd92fcb2	-0.07177104
199	0xbcc364a6	-0.023851704
200	0xbbbc5117	-0.0057469714
201	0x3dd0fb23	0.102041505
202	0x3df58d9b	0.119899
203	0x3e5fc9b9	0.21854295
204	0x3d166851	0.036720578
205	0x3dd060dd	0.10174725
206	0xbe134dbd	-0.14385124
207	0x3c7debd3	0.015498119
208	0xbde3f399	-0.11130447
209	0xbdcb2730	-0.09919584
210	0x3e431e58	0.19054544
211	0x3cc7f198	0.024407193
212	0xbac89463	-0.0015303012
213	0x3ca852e0	0.02054733
214	0xbe1a3d5f	-0.15062474
215	0xbe306462	-0.17225793
216	0xbd13219b	-0.03592072
217	0x3e1c271e	0.15249297
218	0x3d186c65	0.037212748
219	0xbd9db5d3	-0.07700696
220	0xbd746696	-0.059668146
221	0x3df2ae75	0.11849681
222	0x3c0b5af0	0.008505568
223	0x3d97bd2e	0.0740913
224	0xbe3a3752	-0.18185166
225	0x3dce05fb	0.100597344
226	0x3d0247b1	0.03180665
227	0xbd4d30ef	-0.050095495
228	0xbe046f0d	-0.12932988
229	0xbe62bd7c	-0.22142595
230	0x3d1bc0c5	0.038025636
231	0xbd702690	-0.058630526
232	0x3ca22a91	0.019795688
233	0x3df7dfc4	0.12103227
234	0x3e58c4c6	0.21168813
235	0x3d2a285d	0.0415424
236	0xbd428fac	-0.047500297
237	0xbdf765be	-0.12079953
238	0x3c1c356f	0.009534224
239	0x3d2236e5	0.039603133
240	0xbd933c62	-0.071892515
241	0xbda8caa9	-0.08241779
242	0xbcdbba0a	-0.026822109
243	0x3df07586	0.11741166
244	0x3d3128a7	0.04325166
245	0x3c864ccd	0.016394043
246	0x3dc31374	0.09525195
247	0xbe00a537	-0.12563024
248	0x3e02cf86	0.12774476
249	0xbde7eb78	-0.11324209
250	0xbddfe9e4	-0.10933283
251	0xbda1c440	-0.0789876
252	0x3cb52a9c	0.022115044
253	0xbe07423f	-0.13208865
254	0xbe1bcd81	-0.15215112
255	0x3d53abd3	0.051677536

l1/b f4 [256]
0	0xbd71d30d	-0.059039164
1	0xbdce4926	-0.10072546
2	0x3c38fac2	0.011290254
3	0xbd0bce82	-0.034132488
4	0x3d166f0b	0.036726993
5	0x3d00cfc5	0.031448144
6	0xbddc55fe	-0.10758589
7	0xbced6935	-0.02898083
8	0x3b9a9efd	0.00471866
9	0xbe14b35f	-0.1452155
10	0x3e33403d	0.17504974
11	0x3e11aeee	0.14226887
12	0xbe08a0ff	-0.13342665
13	0x3c0f1efc	0.008735415
14	0xbe1cc242	-0.15308478
15	0xbb062948	-0.0020471383
16	0xbcf5c47c	-0.030000918
17	0x3d937150	0.07199347
18	0x3b88f928	0.0041800924
19	0xbd0ab60c	-0.03386502
20	0xbe99bc1d	-0.30026332
21	0x3d8e48e2	0.06947495
22	0xbd9af5f9	-0.07566447
23	0xbda5f042	-0.08102466
24	0xbd9ce405	-0.07660679
25	0x3d3c6476	0.045994245
26	0x3d8a428c	0.06750974
27	0x3daa9fa7	0.083312325
28	0x00000000	0.0
29	0xbb04ef4c	-0.0020284234
30	0x3d84df95	0.064879574
31	0xbc089172	-0.008335458
32	0xbe31ea4c	-0.17374533
33	0x3d586cfe	0.052838318
34	0xbe20bbd7	-0.15696655
35	0xbc2d6fed	-0.010585767
36	0xbd435f78	-0.047698468
37	0x3c50b8cd	0.012739372
38	0x3d4bf9d4	0.0497988
39	0xbc5ad1ae	-0.013355656
40	0x3d74d06f	0.05976909
41	0x3b8658a2	0.0040999213
42	0xbe6f88f7	-0.23392092
43	0xbdcd7c02	-0.10033418
44	0x3d5a0c54	0.053234413
45	0xbdc7389f	-0.097275965
46	0x3d5092ae	0.050921135
47	0xbc0fbb4f	-0.008772685
48	0x3c396df6	0.011317721
49	0x3dae1290	0.08499634
50	0x3cc6cad0	0.02426663
51	0x3dab91c5	0.08377413
52	0xbea98626	-0.3311016
53	0x3d9cb1ff	0.076511376
54	0xbda61d06	-0.081110045
55	0x3ba76aaa	0.005109151
56	0xbdf5334b	-0.11972674
57	0x3d6407d8	0.055671543
58	0x3c1027ab	0.00879852
59	0xbd1b6db5	-0.03794642
60	0xbdb8e188	-0.09027392
61	0x3d844e6d	0.06460271
62	0x3d85d6c0	0.06535101
63	0x3da143b7	0.07874244
64	0x3d27215b	0.040803295
65	0x3c202b2e	0.00977592
66	0x3c896a5c	0.016774349
67	0x3c0a4c7f	0.00844109
68	0xbbc4dcb2	-0.0060077542
69	0x3d17c8bb	0.037056666
70	0x3c4d01a8	0.012512602
71	0xbdacc08d	-0.08435164
72	0xbd0632dd	-0.03276335
73	0x3d9a38ef	0.075303905
74	0xbd57d37d	-0.052691925
75	0x3cf334dd	0.029688293
76	0xbdb5d5f9	-0.08878703
77	0xbd30a306	-0.04312422
78	0xbd039e35	-0.0321333
79	0xbdd7e663	-0.1054199
80	0x3dbe7110	0.09298909
81	0x3d9f68eb	0.077836834
82	0xbe6b49ad	-0.22977324
83	0x3cb71cfb	0.022352686
84	0x3d16ace5	0.03678598
85	0x3dbeb795	0.09312359
86	0xbd1ec4f6	-0.038762055
87	0x3ca65676	0.0203049
88	0xbd8f21b4	-0.0698885
89	0xbe498957	-0.19681297
90	0xbe61888c	-0.22024745
91	0x3d956ea0	0.07296491
92	0xbcc9e4a8	-0.024645165
93	0x3d8b75ef	0.068096034
94	0xbd5771cb	-0.052598756
95	0xbc31ca83	-0.010851505
96	0xbe13abb6	-0.14420971
97	0xbd173fc5	-0.03692605
98	0x3c805ab5	0.015668252
99	0x3d88abaa	0.06673367
100	0x3d127c47	0.03576305
101	0x3c2ef0ba	0.010677511
102	0x3d0ae17d	0.03390645
103	0x3da1faff	0.07909202
104	0xbd3ef67c	-0.046621785
105	0x3c5815a6	0.013188755
106	0x3e0df0a4	0.13861328
107	0x3d17904e	0.037002854
108	0x3d9714d6	0.07377021
109	0xbbf41794	-0.0074491
110	0xbc42d5b2	-0.011891769
111	0xbde1a133	-0.110170744
112	0x3db52ab9	0.08846039
113	0x3d1028b7	0.03519508
114	0xbe716b4f	-0.23576091
115	0x3c0b9457	0.008519254
116	0x3db67e15	0.08910767
117	0xbd686ee9	-0.056746397
118	0x399b5090	0.00029623928
119	0xbe4b16cf	-0.1983292
120	0x3bb67eb8	0.0055693053
121	0x3dee3343	0.11630871
122	0x3d6bc780	0.057563305
123	0x3d3a8f5d	0.045546878
124	0xbbfc087c	-0.007691441
125	0xbd434cd5	-0.047680695
126	0x3d8c2961	0.0684383
127	0x3da84d2b	0.082178436
128	0x3d27b721	0.04094613
129	0x3d4189d1	0.047250573
130	0xbdc8af3d	-0.09799049
131	0x3dda3258	0.106541336
132	0xbe74b573	-0.23897342
133	0x3d74564c	0.05965261
134	0x3cb397ca	0.021922965
135	0xbde1508e	-0.11001693
136	0xbb3a77ed	-0.002845283
137	0xbc814786	-0.015781175
138	0xbdd11cc8	-0.10210568
139	0x3d20f890	0.039299548
140	0x3c927b17	0.01788096
141	0x3dac2478	0.08405393
142	0x3d969027	0.07351714
143	0x3d7dfa69	0.062006388
144	0xbc4455fe	-0.011983393
145	0x3d598183	0.053102028
146	0x3d6cefa6	0.057845734
147	0xbe14dd86	-0.1453763
148	0x3d80617f	0.06268596
149	0x3db0658a	0.08613117
150	0xbddf317e	-0.10898112
151	0xbde75e03	-0.11297228
152	0x3c4d4c50	0.012530401
153	0xbe8cdd07	-0.2751238
154	0x3da9f73f	0.082991116
155	0xbc753021	-0.014965088
156	0x3e024bfc	0.12724298
157	0xbda855c9	-0.08219487
158	0x3dfdefb5	0.12399236
159	0x3d343ba3	0.044002187
160	0xbb7c13cd	-0.003846395
161	0x3d0f42aa	0.034975685
162	0x3d3cfc31	0.046138946
163	0xbcf454eb	-0.029825648
164	0xbd1d9185	-0.038468856
165	0xbe48e799	-0.19619597
166	0x3d90a95e	0.07063554
167	0x3dd6845f	0.104744665
168	0xbd2016ec	-0.03908436
169	0xbd4c6ffb	-0.04991148
170	0x3d5b32fc	0.05351542
171	0xbe0a6fd6	-0.13519225
172	0x3d0a8cd8	0.033825725
173	0xbb60e3c5	-0.0034315449
174	0x3c1b6723	0.009485039
175	0xbe27a327	-0.16370831
176	0xbe884cbb	-0.2662104
177	0x3d2c7a81	0.042109016
178	0x3d71bbc6	0.059016965
179	0xbce3737e	-0.027765032
180	0x3dfca495	0.12336079
181	0xbe352c36	-0.17692646
182	0xbe3fdf0b	-0.18737428
183	0xbd4fdf4b	-0.05075006
184	0xbd7525fc	-0.059850678
185	0xbe51ca66	-0.20487365
186	0xbe162fb4	-0.14666635
187	0x3c1a8a29	0.009432354
188	0xbbed794e	-0.0072471267
189	0x3d5102c5	0.05102803
190	0x3d8055f2	0.06266393
191	0xbe6a3638	-0.22872245
192	0x3c9cb0ee	0.019127335
193	0x3d0cc473	0.034367036
194	0xba3768d2	-0.00069965154
195	0x3d71b576	0.059010945
196	0x3e17d51d	0.1482739
197	0xbd9998b9	-0.07499833
198	0x3c80ed18	0.015738055
199	0x3db6f5c2	0.08933593
200	0xbe296184	-0.16541106
201	0x3d192edf	0.037398215
202	0x3d72c557	0.05927023
203	0x3d2fbdbb	0.04290555
204	0x3dbc3b53	0.09191003
205	0x3df98af2	0.12184705
206	0x3d1f5bde	0.03890597
207	0x3dca2ac8	0.09871441
208	0xbaa5201b	-0.0012598069
209	0x3dadc847	0.084854655
210	0xbe1d25b2	-0.15346411
211	0x3da49398	0.08035964
212	0x3de5ce38	0.11220974
213	0x3cbe1b22	0.023206297
214	0xbe7455cc	-0.23860854
215	0x3d5511d7	0.052018967
216	0xbd7bce6d	-0.06147616
217	0xbbdff7c8	-0.0068349577
218	0x3d89b621	0.067241915
219	0x3bad9ae0	0.0052980036
220	0xbe7ce6a7	-0.24697362
221	0x3d079139	0.03309748
222	0x3d17af6b	0.037032526
223	0x3d8db552	0.0691935
224	0x3daf8db5	0.0857195
225	0xbba5fe35	-0.005065704
226	0xbdea8e81	-0.11452962
227	0xbc270953	-0.010195094
228	0xbd912b67	-0.070883565
229	0x3d7cc1a4	0.061708108
230	0x3dc31755	0.095259346
231	0x3d08498f	0.033273276
232	0xbd4473bd	-0.04796194
233	0xbe1e7c0e	-0.1547701
234	0x3caf7d6d	0.021422112
235	0x3bbf3a80	0.005835831
236	0xbd8661b7	-0.065616064
237	0x3d0d1345	0.034442205
238	0xbdaa6af6	-0.083211824
239	0xbcb39783	-0.021922832
240	0x3d521696	0.05129107
241	0xbe27118e	-0.1631529
242	0xbb625533	-0.0034535646
243	0x3da7ce94	0.081936985
244	0xbdb0d281	-0.086339004
245	0x3d271b63	0.040797602
246	0xbddc468c	-0.10755643
247	0xbd5a6878	-0.053322285
248	0x3d4a8de1	0.049451713
249	0x3d748f2e	0.05970686
250	0xbd44acd4	-0.048016384
251	0x3b30ff8d	0.002700779
252	0xbe806480	-0.25076675
253	0xbe812e26	-0.2523052
254	0xbd97c67a	-0.07410903
255	0xbe120588	-0.14259923

l3/b f4 [256]
0	0x3dd8ad1e	0.105798945
1	0x3b537fe7	0.003227228
2	0xbc9a00d9	-0.018799232
3	0xbd59f7f5	-0.053214986
4	0xbd184f64	-0.037185088
5	0x3c06a2a5	0.008217488
6	0xbc6ab103	-0.014324429
7	0xbd130c93	-0.035900664
8	0xbcf8a09d	-0.030350024
9	0xbb8026d1	-0.0039108773
10	0xbc40b923	-0.01176289
11	0xbc586751	-0.013208226
12	0x3d84850a	0.06470688
13	0xbd6ea360	-0.058261275
14	0x3ceaf1ae	0.028679695
15	0x3d0dfc3a	0.03466437
16	0xbccc2dda	-0.024924207
17	0xbd70b313	-0.05876453
18	0x3c293d57	0.010329566
19	0x3cfb0c05	0.03064538
20	0x3d047388	0.03233674
21	0xbd86f777	-0.06590169
22	0xbcd4015e	-0.025879558
23	0xbc0e0303	-0.00866771
24	0x3d4ddf0d	0.050261546
25	0x3d21d594	0.039510325
26	0x3d99efdc	0.07516453
27	0xbd5a9d95	-0.05337294
28	0x3cac23c1	0.021013143
29	0xbc9b16f5	-0.018931845
30	0x3d037c35	0.032100875
31	0xbc32620b	-0.010887633
32	0xbbf11ed7	-0.0073584127
33	0xbd3eaa7d	-0.04654931
34	0xbd496a4a	-0.04917363
35	0xbc467e62	-0.012115093
36	0xbd4f513a	-0.050614573
37	0x3d1792e7	0.03700533
38	0xbb89be6f	-0.0042036097
39	0xbdac9c36	-0.08428232
40	0x3d88ce17	0.066799335
41	0x3d93b0ac	0.07211432
42	0x3c05b1ad	0.008160037
43	0x3d53ba08	0.051691085
44	0xbd2a2dc2	-0.041547544
45	0xbcf91100	-0.030403614
46	0xbcb214b1	-0.021738382
47	0xbcc39b3e	-0.023877736
48	0x3d36a29d	0.044588674
49	0xbd60edf8	-0.054914445
50	0x3c2ab751	0.010419683
51	0x3d88f572	0.0668744
52	0xbb3ea56d	-0.00290903
53	0x3d9ffc80	0.078118324
54	0xbba450a8	-0.005014498
55	0x3ba5b7a3	0.0050572916
56	0xbb119775	-0.002221552
57	0x3cc409f3	0.023930525
58	0x3bc64233	0.006050372
59	0xbd4bf400	-0.049793243
60	0x3c23b60e	0.009992136
61	0x3d367473	0.04454465
62	0xbcff0b4c	-0.031133316
63	0xbcf93841	-0.030422332
64	0xbcb50a03	-0.0220995
65	0x3d193b53	0.03741009
66	0xbd29b66f	-0.041433748
67	0xbcfa4d87	-0.030554546
68	0xbcbd3784	-0.023097761
69	0x3dd5e2b8	0.10443634
70	0x3d9807bc	0.0742335
71	0xbcf736e8	-0.030177549
72	0xbd24599c	-0.04012452
73	0xbc9b7d98	-0.018980786
74	0xbd6e7f90	-0.05822712
75	0x3ca88c2c	0.020574652
76	0xbb6afee0	-0.0035857484
77	0x3c6fcd66	0.014636373
78	0x3cb6621d	0.022263581
79	0x3bb11095	0.005403588
80	0x3d14d8ee	0.036339693
81	0xbcd00642	-0.025393609
82	0x3d756b2d	0.059916664
83	0xbd6e865b	-0.0582336
84	0xbb3d1cee	-0.0028856355
85	0x3d117505	0.03551199
86	0xbc922710	-0.017840892
87	0x3c102773	0.008798468
88	0xbc495fee	-0.012290938
89	0xbcb4abbe	-0.02205455
90	0xbd9c893d	-0.076433636
91	0xbb771cc0	-0.0037706345
92	0x3d7b6afa	0.061381318
93	0xbccd51cd	-0.02506342
94	0x3d4578a2	0.048210748
95	0xbccf70fb	-0.025322428
96	0xbc4199b2	-0.011816429
97	0xbb52771f	-0.0032114459
98	0x3c45f523	0.012082371
99	0x3c051686	0.008123046
100	0x3bdd1c5d	0.006747766
101	0xbcb880c8	-0.022522345
102	0xbd44ee8b	-0.048079055
103	0xbca244c7	-0.019808186
104	0xbcf75e15	-0.030196229
105	0xbceb1b77	-0.02869962
106	0xbd333050	-0.043747246
107	0xbb2f5847	-0.0026755498
108	0x3cd15ec3	0.025557881
109	0xbc1f1f08	-0.009711988
110	0xbd147356	-0.036242805
111	0x3cdc226a	0.026871879
112	0xbcd1ef45	-0.025626788
113	0xbc6f8b90	-0.014620677
114	0xbc90f8ce	-0.017696764
115	0xbcabd515	-0.020975629
116	0xbc8bca35	-0.017064193
117	0xbd068860	-0.0328449
118	0xbc7797dc	-0.01511189
119	0xbc0d5878	-0.00862705
120	0x3c4fdddb	0.012687172
121	0x3c3749bb	0.011187012
122	0x3d9a40cc	0.0753189
123	0xbc214179	-0.00984227
124	0x3d05b81c	0.032646284
125	0x3d2b8345	0.041873235
126	0xbce3153f	-0.027720092
127	0xbd03924c	-0.03212194
128	0xbc7f85b5	-0.015595843
129	0xbbac5eec	-0.005260339
130	0x3d56cd61	0.05244196
131	0x3d6f2fdd	0.058395255
132	0xbced8048	-0.028991833
133	0x3cf3f073	0.029777741
134	0xbd1d3998	-0.038385004
135	0x3d7e4c5e	0.06208455
136	0x3bf06a08	0.0073368587
137	0xbbd1dc13	-0.0064044087
138	0x3d4f7ec2	0.050657995
139	0x3d7140cd	0.05889969
140	0x3cd6a74f	0.026202826
141	0xbd22ce51	-0.03974754
142	0x3bcda566	0.0062758205
143	0x3d2e2554	0.042516068
144	0xbc7116b5	-0.014714886
145	0xbc1d4b06	-0.0096004065
146	0x3bfb89e9	0.0076763523
147	0xbd079e14	-0.03310974
148	0xbc604fe5	-0.013690923
149	0x3c5e1a73	0.013556111
150	0x3b6228b8	0.0034509134
151	0xbc2a896c	-0.0104087405
152	0x3c10c9c2	0.008837165
153	0x3ce77630	0.028254598
154	0x3b17b21b	0.002314693
155	0xbd1888f0	-0.03723997
156	0xbda1285a	-0.078690246
157	0xbc7378b7	-0.014860324
158	0x3cc61290	0.024178773
159	0xbd049716	-0.03237065
160	0xbcf93d0f	-0.030424623
161	0xbca2070d	-0.019778753
162	0xbce4aeb0	-0.027915329
163	0xbcd93121	-0.026512684
164	0xbd555376	-0.052081548
165	0xbbf61b1b	-0.0075105554
166	0xbc8967e1	-0.016773166
167	0x3c034bf9	0.008013719
168	0x3caa91dc	0.020821504
169	0xbca7057e	-0.020388361
170	0x3b5c5e69	0.0033625609
171	0xbc7d0d02	-0.015444996
172	0xbccd1c6d	-0.025037969
173	0xbbe5ef8d	-0.007017082
174	0xbd0afbd1	-0.033931557
175	0xbcba137f	-0.022714375
176	0x3d39c193	0.045350622
177	0xbbe5a8ff	-0.0070086713
178	0xbd56583d	-0.052330244
179	0xbc319180	-0.010837913
180	0xbd532298	-0.051546663
181	0x3c3dd63b	0.011586721
182	0xbd0046df	-0.031317588
183	0xbc259adf	-0.010107725
184	0xbd3bfd7a	-0.04589603
185	0x3b9dd002	0.004816056
186	0xbb95b399	-0.004568529
187	0xbd149adb	-0.036280494
188	0xbc799f41	-0.015235723
189	0xbcbbc223	-0.02291972
190	0x3d003628	0.031301647
191	0xbc89f361	-0.016839685
192	0x3d1add28	0.037808567
193	0x3d8a5551	0.06754554
194	0x3c028510	0.007966295
195	0xbc83c9b4	-0.01608739
196	0x39b29675	0.00034062905
197	0xbcb7cd94	-0.022436894
198	0xbcd93403	-0.026514059
199	0xbcf021c8	-0.029312983
200	0xbcc5c446	-0.024141442
201	0x3c10f9b7	0.008848599
202	0xbc8e58e8	-0.017376378
203	0x3bddd237	0.0067694443
204	0xbbf47c39	-0.0074610976
205	0x3d6311cd	0.055436898
206	0xbc2574f8	-0.010098688
207	0x3bfc43d8	0.0076985173
208	0x3d72965e	0.059225433
209	0x3c10898c	0.008821856
210	0xbd09a688	-0.033606082
211	0xbc81ef69	-0.01586123
212	0x3d04317a	0.032273747
213	0xbbf56dc3	-0.0074898913
214	0xbccb8278	-0.024842486
215	0x3c8295cc	0.01594057
216	0xbd4ce25f	-0.05002057
217	0x3b963432	0.004583859
218	0xbc0dd00a	-0.008655557
219	0xbdb18097	-0.08667105
220	0x3aa89869	0.0012862805
221	0xbc76a279	-0.015053385
222	0xbd6f201a	-0.058380224
223	0x3cb50f30	0.022101969
224	0xbc05bc8a	-0.008162627
225	0xbd4b9c06	-0.049709342
226	0x3d58550d	0.052815486
227	0xbd2df7a9	-0.042472515
228	0xbc1873c6	-0.009304946
229	0x3c230391	0.009949581
230	0xbce31167	-0.027718259
231	0x3d667422	0.056263097
232	0x3d565391	0.05232579
233	0xbd76eb7d	-0.060283173
234	0x3d032036	0.03201314
235	0x3d56693d	0.052346457
236	0xbc9b0542	-0.018923406
237	0xbcd32d9b	-0.025778582
238	0xbcbcde22	-0.02305514
239	0xbc9b4b59	-0.018956827
240	0xbb357e20	-0.0027693585
241	0x3a8741d5	0.0010319302
242	0x3d3dc2ba	0.046328284
243	0x3d786fe7	0.060653593
244	0x3dc27c52	0.094963685
245	0xbd8a478d	-0.067519285
246	0x3cbd7a3b	0.023129573
247	0x3cb2167d	0.021739239
248	0xbc0ddf45	-0.008659189
249	0xb93208e8	-0.0001697872
250	0x3baf9dd2	0.00535939
251	0x3bfcfab6	0.0077203168
252	0x3c0f2009	0.008735665
253	0x3d2aedc9	0.041730676
254	0xbd7a5485	-0.06111576
255	0x3a530dc0	0.000805106

l4/b f4 [16]
0	0xbd80ecea	-0.06295188
1	0xbd62806a	-0.055298246
2	0x3c6a616f	0.014305457
3	0xbc9d32e0	-0.019189298
4	0xbd0fb09b	-0.035080533
5	0xbdae16c0	-0.08500433
6	0xbdd13905	-0.10215954
7	0xbc93ca1b	-0.018040707
8	0xbd2bc077	-0.041931596
9	0xbd903a02	-0.07042314
10	0xbd8476b6	-0.06467955
11	0xbcc6579d	-0.0242117
12	0x3c6ddeb1	0.014518426
13	0x3c817922	0.015804831
14	0x3d46da19	0.048547838
15	0xbcf3fa6c	-0.029782496
