examples/ch4/reversi_DQN_CNN/agent_white_20000/model.npz (npz, 35954 bytes, 10 tensors)

c3/b f4 [16]
0	0xbee4d5d4	-0.44694388
1	0xbea2d8c9	-0.3180602
2	0x00000000	0.0
3	0x3f8abcf0	1.0838909
4	0x3f5ea528	0.8697076
5	0x3f2fd7b8	0.68688536
6	0x3c995b29	0.018720226
7	0xbeb8a04e	-0.36059803
8	0x00000000	0.0
9	0x3e3105de	0.17287394
10	0x3f143c1d	0.57904226
11	0xbd77644b	-0.06039838
12	0xbf423cce	-0.7587403
13	0x3e7bed09	0.2460214
14	0x3ec22328	0.37917447
15	0xbdb4b17a	-0.088229135

c1/W f4 [4, 1, 2, 2]
0	0x3f6c1411	0.9221812
1	0xbf1775ba	-0.5916401
2	0xbf62d1a2	-0.88601124
3	0x3e74fd73	0.23924808
4	0xbf3996a8	-0.7249551
5	0x3d818d76	0.0632581
6	0xbeb758f8	-0.35810065
7	0x3f021713	0.5081646
8	0x3ee2e5e9	0.44316033
9	0x3e1f1931	0.15536954
10	0x3e466455	0.19374211
11	0xbd4f51ba	-0.05061505
12	0xbd3ff3c9	-0.04686335
13	0x3e3c8a08	0.1841203
14	0x3e2f6e94	0.17132026
15	0x3f06bf07	0.52635235

l5/W f4 [16, 256]
0	0xbef737bb	-0.48284706
1	0x3e98caf3	0.29842338
2	0x39e078e8	0.00042814692
3	0xbea25306	-0.31703967
4	0xbec083c5	-0.37600532
5	0xbeaf6b28	-0.3426144
6	0xbd17d314	-0.037066534
7	0xbf266839	-0.6500278
8	0x3e15f8c9	0.14645685
9	0xbe9f5910	-0.31122637
10	0xbe51e63c	-0.20497984
11	0x3b2863b3	0.002569419
12	0x3efcf2a2	0.49403864
13	0xbe80b49b	-0.2513779
14	0x3e6d482e	0.23172066
15	0xbeb0e206	-0.34547442
16	0x3ee1da56	0.4411189
17	0x3d96bfbd	0.0736079
18	0x3cca1c76	0.024671774
19	0xbcee4029	-0.029083328
20	0xbe475475	-0.19465812
21	0x3f36ea18	0.7145095
22	0xbf11733d	-0.56816465
23	0xbef17a15	-0.47163454
24	0xbe0fe491	-0.14052035
25	0xbefd63ed	-0.494903
26	0xbe928876	-0.28619736
27	0xbeb0e9e1	-0.34553435
28	0x3f2f3559	0.6844078
29	0xbceb8c5f	-0.028753458
30	0xbe594429	-0.21217407
31	0xbeef8626	-0.46782035
32	0x3c1a9152	0.009434061
33	0x3f385519	0.7200485
34	0x3d70122b	0.058611076
35	0xbdce9b35	-0.10088197
36	0x3e2ba2d5	0.16761334
37	0x3e5093e5	0.20368917
38	0xbeb53f3f	-0.35399815
39	0xbe53e9d7	-0.20694672
40	0xbdfed034	-0.12442055
41	0x3e9ad8ef	0.30243632
42	0x3e7ab97b	0.24484818
43	0x3e99d21d	0.30043116
44	0x3ed919c5	0.42402473
45	0x3e70bd76	0.23509774
46	0xbcee66c7	-0.029101742
47	0x3f8a42cf	1.0801638
48	0xbda8b0d3	-0.082368515
49	0xbf045efb	-0.5170743
50	0xbf04367c	-0.51645637
51	0x3d5b268c	0.053503558
52	0x3e0f6804	0.14004523
53	0xbe30ebff	-0.17277525
54	0x3f0250cf	0.50904554
55	0xbf3d0153	-0.73830146
56	0xbd85fc53	-0.06542268
57	0xbe08498b	-0.13309304
58	0xbebd2b7f	-0.36947247
59	0x3db86ef2	0.09005536
60	0x3e233296	0.15937266
61	0x3dfb7f71	0.12280167
62	0x3f3379d1	0.7010775
63	0x3f0e3a37	0.5555758
64	0x3ea46a9a	0.3211258
65	0x3ea79d6f	0.327373
66	0xbeb271b2	-0.34852368
67	0x3e2398a9	0.15976204
68	0xbfa724cd	-1.3058106
69	0x3edfa6ab	0.43681845
70	0xbdf40fe6	-0.11917095
71	0x3f0678e6	0.52528226
72	0x3e48366a	0.19552007
73	0x3e4f3e1c	0.20238537
74	0xbf4a70fb	-0.79078645
75	0x3e90fac5	0.28316322
76	0x3e636523	0.2220655
77	0x3e81f427	0.25381586
78	0xbe266868	-0.16250765
79	0xbe227b8a	-0.15867439
80	0x3ec83acd	0.3910736
81	0xbe8472ee	-0.25868934
82	0xbf20edeb	-0.62863034
83	0x3f82f8df	1.02322
84	0xbf3f2463	-0.74664897
85	0xbe281f38	-0.16418159
86	0xbe219931	-0.15781094
87	0x3ed99b0f	0.42501113
88	0x3f0f039f	0.558649
89	0xbea40c22	-0.32040507
90	0xbd9624ac	-0.07331213
91	0xbf15cbad	-0.5851391
92	0x3e93be21	0.28855994
93	0xbeaf0059	-0.34179953
94	0xbf6e6069	-0.9311586
95	0x3e648086	0.22314653
96	0xbdc430e0	-0.09579635
97	0x3eaa7b95	0.3329741
98	0x3e2b5269	0.16730656
99	0x3f2c92cc	0.67411494
100	0xbe607861	-0.21920921
101	0x3e1936f9	0.14962377
102	0xbe9f8415	-0.31155458
103	0xbde1d964	-0.11027792
104	0x3d2edc6b	0.042690676
105	0xbef3c1b1	-0.47608712
106	0x3ce5bec7	0.028045071
107	0xbf558f08	-0.83421373
108	0xbe010af6	-0.12601838
109	0xbec1760a	-0.3778537
110	0xbe15f2b6	-0.14643368
111	0x3f0b6545	0.544514
112	0x3cfd7a7f	0.0309422
113	0x3e262f8c	0.16229075
114	0x3eaf08b2	0.34186321
115	0xbd8b19c5	-0.067920245
116	0x3e7f0922	0.24905828
117	0xbea68d67	-0.32529756
118	0x3f18caba	0.59684336
119	0xbe3d3596	-0.18477473
120	0xbf2165c5	-0.63045913
121	0x3ed3a2ec	0.41335237
122	0x3ef8884d	0.4854149
123	0x3eac9a18	0.33711314
124	0xbf0bfba8	-0.5468087
125	0xbe04888b	-0.12942712
126	0x3dd7e6d7	0.10542076
127	0x3da9b78b	0.08286961
128	0xbee3e5d2	-0.44511276
129	0x3e13edab	0.14446132
130	0x3e04fd5f	0.12987278
131	0x3f3d1d92	0.73873246
132	0x3f666083	0.89991015
133	0xbf176ead	-0.5915325
134	0xbec01447	-0.3751547
135	0x3e13af82	0.1442242
136	0xbe88cb6c	-0.267177
137	0xbec3932b	-0.38198218
138	0x3f3d485e	0.7393855
139	0xbf430248	-0.76175356
140	0x3d75d7b8	0.06002018
141	0xbe5343ff	-0.20631407
142	0xbee15610	-0.44010973
143	0xbeafd585	-0.3434259
144	0x3ee79105	0.4522783
145	0x3ed910f1	0.42395738
146	0xbd42410e	-0.047425322
147	0xbfaf740f	-1.3707293
148	0x3e7f8be4	0.24955708
149	0x3e9b57f3	0.30340537
150	0x3decb8cb	0.11558684
151	0x3d80a5b6	0.06281607
152	0xbebbc797	-0.36675712
153	0xbe356e0e	-0.17717764
154	0x3f7726d7	0.9654364
155	0x3e9e9d78	0.30979514
156	0x3d4bb66b	0.049734514
157	0x3f7f2ebd	0.9968069
158	0x3e109051	0.14117552
159	0x3ea59973	0.32343635
160	0xbef9ddbf	-0.4880199
161	0x3d82ceb5	0.063870825
162	0xbeebca0b	-0.46052584
163	0x3e7d938e	0.24763319
164	0xbd088584	-0.033330455
165	0xbf06d935	-0.5267518
166	0xbca8d5ae	-0.020609703
167	0xbebb7d6a	-0.3661912
168	0x3eb7ae11	0.3587499
169	0xbf48ef19	-0.78489834
170	0xbe0292d2	-0.1275132
171	0x3e17199f	0.14755867
172	0x3d3519c9	0.044214044
173	0xbda71bc5	-0.081595935
174	0x3e57bb88	0.21067631
175	0x3ea91ea4	0.3303119
176	0xbe8f7ee3	-0.28026494
177	0xbef12c8e	-0.47104305
178	0xbf25c7d0	-0.64758015
179	0xbea65ea8	-0.32494092
180	0x3e10a990	0.14127183
181	0xbe5d31cf	-0.21601032
182	0x3f06647a	0.52497065
183	0xbf17af30	-0.5925169
184	0x3ce3a225	0.027787277
185	0x3efdcd89	0.49570873
186	0xbe0bbce2	-0.13646272
187	0xbf381a08	-0.7191472
188	0xbf18edfb	-0.5973813
189	0x3f33d552	0.70247376
190	0x3f2fdcfc	0.6869657
191	0x3f0058d3	0.50135535
192	0xbe6ac0a8	-0.22925055
193	0x3ee20a25	0.44148365
194	0x3f50a08d	0.8149498
195	0xbf249b3f	-0.64299387
196	0x3dbc3b27	0.0919097
197	0xbf08c380	-0.5342331
198	0xbf0d515d	-0.55202276
199	0xbe845b1a	-0.25850755
200	0xbf2a34ea	-0.6648699
201	0x3ecb6b35	0.3973023
202	0x3f451ff4	0.7700188
203	0x3eb85e32	0.36009365
204	0x3de567b9	0.11201424
205	0xbe929113	-0.28626308
206	0xbf4aa032	-0.7915069
207	0x3e377c16	0.17918429
208	0xbf3adb1e	-0.72990596
209	0xbedffc1d	-0.43747035
210	0x3e9afeb5	0.3027245
211	0xbf6c1e62	-0.9223386
212	0x3e0f3308	0.1398431
213	0x3f2e39cd	0.68056947
214	0x3e30716f	0.17230771
215	0x3f2461ca	0.64211714
216	0x3ece0797	0.40240166
217	0xbe9eda92	-0.3102613
218	0xbf4ff2ec	-0.81230044
219	0xbda77292	-0.081761494
220	0x3f06167f	0.52378076
221	0xbef2b782	-0.4740563
222	0xbf19a696	-0.60019815
223	0xbf9aa53e	-1.2081678
224	0x3e5a361c	0.21309704
225	0x3e64c150	0.22339368
226	0xbe975555	-0.2955729
227	0x3f1b6bbe	0.60711277
228	0x3e7e8475	0.24855216
229	0xbee6ce27	-0.45079157
230	0xbdb6a47f	-0.08918094
231	0xbe4b856e	-0.19875118
232	0xbe7bac1c	-0.24577373
233	0x3e204f30	0.15655208
234	0xbe8ca9b1	-0.27473214
235	0x3e1c5eeb	0.15270583
236	0x3e931ba2	0.2873202
237	0xbf02b6a4	-0.5105994
238	0x3ecb2524	0.39676774
239	0x3f634315	0.88774234
240	0xbef33bfc	-0.47506702
241	0xbe447211	-0.19184138
242	0xbf7b7ec2	-0.9824029
243	0x3ecfaf1c	0.40563285
244	0xbf252774	-0.64513326
245	0xbddb2847	-0.10701042
246	0x3f40a88b	0.75257176
247	0xbe4ed8a5	-0.20199831
248	0x3f4ec9fc	0.80776954
249	0x3e9767e1	0.2957144
250	0xbf3f5286	-0.74735296
251	0xbf3ef545	-0.74593
252	0x3efc1747	0.4923651
253	0xbea78670	-0.32719755
254	0xbf1cb583	-0.61214465
255	0x3f0f7b45	0.5604747

c2/W f4 [8, 4, 2, 2]
0	0xbe30f237	-0.17279898
1	0x3f384778	0.7198405
2	0xbeb48358	-0.35256457
3	0x3f0fc296	0.5615629
4	0xbec93f5a	-0.39306146
5	0x3bf1942d	0.0073724003
6	0x3ec69760	0.38787365
7	0xbe41caeb	-0.18925063
8	0x3f1a0e11	0.60177714
9	0xbea91824	-0.3302623
10	0xbe51aa8d	-0.20475216
11	0x3edde4bf	0.43338582
12	0x3f2e5254	0.6809437
13	0xbe702e9f	-0.23455285
14	0xbc040742	-0.008058371
15	0xbeccdf1e	-0.40013975
16	0x3e0b8e78	0.13628566
17	0x3e78b71f	0.24288605
18	0x3dff1abe	0.124562725
19	0x3b5a22f9	0.0033285005
20	0x3ee06556	0.43827313
21	0xbeba77fc	-0.36419666
22	0x3f1f2050	0.6215868
23	0x3e46dc89	0.19420065
24	0xbeb32ec0	-0.34996605
25	0x3ea4baaf	0.32173678
26	0x39bebcda	0.0003638033
27	0x3ef0c6de	0.47026724
28	0x3e428d59	0.18999232
29	0x3f3a4480	0.7276077
30	0xbf0670a5	-0.5251563
31	0x3e721c68	0.23643649
32	0xbe49515c	-0.19659942
33	0xbef7748d	-0.4833111
34	0x3f2e31ff	0.6804504
35	0x3dd1f7db	0.10252353
36	0x3dff5c1d	0.12468741
37	0xbf1ae1b2	-0.60500634
38	0x3edabd23	0.42722425
39	0x3f5545bb	0.83309525
40	0x3ed01494	0.406407
41	0x3e8b8013	0.2724615
42	0x3eabbb14	0.33541167
43	0xbecfe966	-0.40607756
44	0x3e7d2098	0.24719465
45	0x3f4f1d37	0.80903953
46	0x3cf02445	0.02931417
47	0xbee80ce3	-0.45322332
48	0xbf11f9f3	-0.5702202
49	0xbdf2b682	-0.11851217
50	0xbca1709e	-0.01970702
51	0x3f01b68b	0.50669163
52	0xbf1f34a7	-0.62189716
53	0x3e5b31bd	0.21405692
54	0xbdbd2f68	-0.09237558
55	0xbf1634c8	-0.5867429
56	0x3edc2e24	0.43003953
57	0x3ede8f2f	0.43468615
58	0xbf15cb83	-0.5851366
59	0x3e5338c0	0.20627117
60	0xbef004d2	-0.46878678
61	0x3e516a7f	0.20450781
62	0x3eb6118f	0.3556027
63	0x3ecb8473	0.39749488
64	0xbec1ef74	-0.37878
65	0x3a25043e	0.00062948826
66	0xbf4bee58	-0.7966056
67	0xbe2ce767	-0.16885148
68	0xbedc0260	-0.42970562
69	0x3e812ba6	0.25228614
70	0xbf1e75d5	-0.6189855
71	0xbe083137	-0.13300024
72	0x3f181474	0.5940621
73	0xbee81b77	-0.45333454
74	0x3e960498	0.2930038
75	0x3eb4b8a2	0.35297114
76	0x3e9f7cfc	0.31150043
77	0x3e0be136	0.1366013
78	0xbd2d2992	-0.042275973
79	0x3ef6601e	0.48120207
80	0xbe1c120f	-0.15241264
81	0x3f5d1007	0.8635258
82	0xbfe63fc6	-1.7988212
83	0xbf2ba250	-0.67044544
84	0xbe8165b5	-0.2527291
85	0xbf6beb65	-0.9215606
86	0xbe2209d5	-0.15824063
87	0xbed097d1	-0.40740827
88	0x3f2fb940	0.68642044
89	0xbdaada27	-0.083423905
90	0x3e3ff2b0	0.18744922
91	0xbf220840	-0.6329384
92	0xbe814ed4	-0.25255454
93	0xbe535bbb	-0.20640461
94	0x3eb21b78	0.34786582
95	0xbe8394b8	-0.256994
96	0xbe1b1e53	-0.15148287
97	0x3eed890e	0.46393627
98	0x3df94682	0.121716514
99	0xbed48a21	-0.41511634
100	0xbdfd8cae	-0.12380348
101	0xbcd5db48	-0.026105538
102	0xbf36e694	-0.71445584
103	0x3ec96c63	0.39340505
104	0xbf08e527	-0.5347466
105	0xbf822827	-1.0168504
106	0x3e1b4cf6	0.15166077
107	0x3e4309a2	0.19046643
108	0xbf3141b1	-0.6924086
109	0x3eb48971	0.3526111
110	0xbc8bab2a	-0.01704939
111	0x3f2228a9	0.6334329
112	0xbc9fd05e	-0.019508537
113	0x3f2e4ee1	0.6808911
114	0xbf23a5ba	-0.63924754
115	0x3e739709	0.23788084
116	0xbef8304a	-0.48474342
117	0x3f88b5ac	1.0680442
118	0x3ef8049d	0.4844102
119	0xbe441840	-0.19149876
120	0xbf0eb60f	-0.5574655
121	0xbe0216c9	-0.12704004
122	0x3e8eca59	0.27888754
123	0x3ee0a33b	0.43874535
124	0x3c7a64cd	0.015282822
125	0x3f8891c6	1.0669487
126	0xbf50a6ea	-0.8150469
127	0xbf0716e9	-0.52769333

l4/W f4 [256, 16]
0	0x3f0f747c	0.56037116
1	0xbe10326a	-0.14081731
2	0x3e9f263a	0.31083852
3	0xbe80cdae	-0.2515692
4	0x3e321840	0.17392063
5	0xbebed5cb	-0.37272486
6	0x3effb1f1	0.49940446
7	0x3c9997f1	0.01874921
8	0x3db3f6b8	0.08787292
9	0x3f275f36	0.65379655
10	0xbf0ec18a	-0.5576407
11	0xbf915312	-1.1353476
12	0x3f243b03	0.64152545
13	0x3e932bd0	0.28744364
14	0xbcb0588b	-0.021526596
15	0x3ea5a36f	0.32351252
16	0xbf847841	-1.0349199
17	0x3f19da74	0.6009896
18	0x3e832512	0.2561422
19	0xbf31b400	-0.69415283
20	0x3ee996aa	0.4562276
21	0x3e43923c	0.19098753
22	0x3eab6e5c	0.33482635
23	0xbed08ad8	-0.4073093
24	0xbec8c49b	-0.39212498
25	0xbf6428c6	-0.89124715
26	0xbe272dc6	-0.16326055
27	0x3c43e4f8	0.011956446
28	0xbe2a2b59	-0.16618098
29	0xbe9b1a2d	-0.30293408
30	0xbf0f3a76	-0.5594858
31	0x3d63d8c6	0.055626653
32	0x3ea6d4f8	0.32584357
33	0x3e60c01b	0.21948282
34	0xbec58692	-0.38579232
35	0xbf75bd26	-0.9599174
36	0x3f32c1ba	0.69826853
37	0xbc70f496	-0.014706751
38	0x3ecec14f	0.40381858
39	0x3ec101d9	0.37696722
40	0x3f1b9f4c	0.6078994
41	0x3e6b8872	0.23001269
42	0xbf2d543b	-0.6770665
43	0xbd953b1e	-0.07286666
44	0xbe595877	-0.21225153
45	0xbdbf06b7	-0.09327453
46	0xbffbca4d	-1.9671112
47	0x3e727c93	0.23680334
48	0x3d6b1f8f	0.057403143
49	0xbfb86703	-1.4406437
50	0x3f4ad22f	0.79226965
51	0xbd9e78c9	-0.07737882
52	0x3e1b6b82	0.1517773
53	0xbcf638fa	-0.030056465
54	0xbdc330b2	-0.09530772
55	0x3f0a37bd	0.539913
56	0x3ec0ded1	0.37669995
57	0x3ea97d27	0.33103296
58	0xbde12e5d	-0.10995171
59	0x3f54ec52	0.83173096
60	0xbf5fa959	-0.8736778
61	0xbf00eb6a	-0.50359213
62	0xbe10bb2d	-0.14133902
63	0xbde0eef0	-0.10983074
64	0xbf4efa95	-0.8085111
65	0xbe775571	-0.24153687
66	0x3f22d733	0.6360962
67	0xbd3f260e	-0.04666715
68	0x3f0d04fb	0.55085725
69	0x3e9aae7e	0.30211252
70	0xbf28af88	-0.6589284
71	0x3dbef727	0.09324484
72	0xbdff3cbd	-0.12462757
73	0xbef8abd2	-0.48568588
74	0x3de2941a	0.110634044
75	0x3f4849d4	0.7823765
76	0xbfa4dcea	-1.2879918
77	0xbf715a3f	-0.9427833
78	0xbdf0618f	-0.11737358
79	0xbcb8f41c	-0.022577338
80	0xbee25e99	-0.44212797
81	0xbe70cdcf	-0.2351601
82	0xbf363b41	-0.71184164
83	0xbd9d9663	-0.076946996
84	0xbf1efe30	-0.6210661
85	0xbcfaf520	-0.030634463
86	0x3ebde531	0.37088922
87	0xbe083ad0	-0.13303685
88	0x3e5588d7	0.20852982
89	0x3ea99384	0.33120358
90	0x3edb357c	0.42814243
91	0x3d7cf0fa	0.06175325
92	0xbf3ba8f8	-0.733047
93	0xbdf92943	-0.12166073
94	0x3f000271	0.50003725
95	0x3e73b05f	0.23797749
96	0x3e9b45a8	0.3032658
97	0x3f1dca9f	0.616373
98	0x3e0a269e	0.13491294
99	0xbe853db9	-0.26023653
100	0x3d941f91	0.07232583
101	0xbf167dcf	-0.5878572
102	0xbfbdc957	-1.4827069
103	0x3e1d2758	0.1534704
104	0xbe4cdf41	-0.2000704
105	0x3eeb095c	0.45905578
106	0xbe64dad1	-0.22349097
107	0x3ed5a83a	0.4172991
108	0x3e5fb9c1	0.21848203
109	0x3e2f8ace	0.17142794
110	0xbdaa261c	-0.0830805
111	0x3e77ea5a	0.24210492
112	0x3ebe76ad	0.37199917
113	0x3d6f9de2	0.05850018
114	0x3ece5736	0.40300912
115	0x3f1251dd	0.57156163
116	0xbfbf61bd	-1.4951702
117	0xbe1d62bd	-0.15369697
118	0xbf42c05b	-0.7607476
119	0x3eebbb93	0.46041545
120	0x3f2a6a27	0.66568226
121	0xbe1fce37	-0.15606008
122	0xbfabdaa1	-1.3426095
123	0x3eca08d9	0.39459875
124	0xbd1687f7	-0.03675076
125	0x3ded7acc	0.11595687
126	0xbe97affd	-0.29626456
127	0xbeee114c	-0.4649757
128	0x3eda4a10	0.4263463
129	0xbf72f80e	-0.9490975
130	0xbeefe042	-0.46850783
131	0xbec06ee6	-0.3758461
132	0xbf4ea9b4	-0.80727696
133	0x3cec04b1	0.02881083
134	0x3f45a1ea	0.77200186
135	0xbf186135	-0.59523326
136	0xbe099873	-0.13437061
137	0xbd0f04e3	-0.03491677
138	0xbea28cf7	-0.31748173
139	0x3caaa6a2	0.02083141
140	0xbf803af1	-1.0017987
141	0xbf12406c	-0.5712955
142	0x3ee3be06	0.44480914
143	0xbeb19a4a	-0.34688026
144	0x3e57dbdc	0.21079963
145	0x3ec71b77	0.38888142
146	0xbed093e9	-0.40737846
147	0xbf67de3f	-0.90573496
148	0xbe4cdcbd	-0.2000608
149	0x3ea1fcca	0.31638175
150	0x3decf729	0.115705796
151	0xbf099fbc	-0.5375936
152	0xbdad864c	-0.08472881
153	0xbef25b89	-0.4733546
154	0xbe72524c	-0.23664206
155	0xbe354868	-0.17703402
156	0xbe88f43f	-0.26748845
157	0xbe2caba3	-0.16862349
158	0x3e891937	0.2677705
159	0x3ceb00e3	0.028686946
160	0xc0202ed7	-2.5028589
161	0xbf56520c	-0.83718944
162	0x3f166481	0.58747107
163	0xbf5fcc2e	-0.8742093
164	0x3e4603ce	0.19337389
165	0xbe1de569	-0.15419544
166	0x3efac668	0.48979497
167	0xbeea6c37	-0.45785686
168	0xbe525834	-0.2054146
169	0x3f193ad8	0.59855413
170	0x3e4fcd80	0.20293236
171	0x3de1f763	0.110335134
172	0xbea0147b	-0.31265625
173	0xbf458eb0	-0.7717085
174	0xbe5922d6	-0.21204695
175	0xbf051297	-0.5198149
176	0x3e3444aa	0.17604318
177	0xbf975f79	-1.1826011
178	0xbda40c29	-0.08010132
179	0xbef9c642	-0.4878407
180	0xbf2c565e	-0.67319286
181	0xbeb6e78c	-0.3572353
182	0x3c5ddec0	0.013541877
183	0x3f1c154a	0.60969985
184	0xbe81960b	-0.25309786
185	0x3e2c9a13	0.1685565
186	0x3ea007fa	0.31256086
187	0x3ee70823	0.45123395
188	0xbf0aab0b	-0.5416724
189	0x3e8e6d7d	0.27817908
190	0xbd812633	-0.06306114
191	0xbe4515df	-0.19246624
192	0x3ecd6f4e	0.4012398
193	0x3d76601e	0.06015026
194	0xbe9dbe09	-0.30809048
195	0xbf2bad89	-0.6706167
196	0xbf6e0a6b	-0.92984647
197	0x3ed077a2	0.40716273
198	0x3e259c78	0.1617297
199	0xbe9438fb	-0.28949723
200	0xbeb2dde3	-0.3493491
201	0xbed542c3	-0.41652498
202	0xbd9b7df1	-0.07592381
203	0x3e2bc24d	0.16773339
204	0x3e2fd835	0.1717232
205	0x3e17a0b0	0.14807391
206	0x3df86e60	0.12130427
207	0xbc329136	-0.010898879
208	0xbeb8b244	-0.36073506
209	0x3f08a700	0.5337982
210	0x3f074017	0.5283217
211	0xbf504721	-0.81358534
212	0x3eb54ae7	0.35408708
213	0xbdd90f43	-0.10598614
214	0xbf1a0346	-0.60161245
215	0xbdbc620b	-0.09198388
216	0x3d19634d	0.037448216
217	0xbf0d5c72	-0.55219185
218	0xbe0ca303	-0.13734059
219	0x3cb9b75f	0.022670446
220	0x3de2c92f	0.11073529
221	0xbb581a30	-0.0032974593
222	0xbe4fdcd3	-0.20299082
223	0xbe94629c	-0.28981483
224	0xbe313a6f	-0.17307447
225	0x3e02c301	0.127697
226	0x3da937a3	0.08262565
227	0xbf9db9bb	-1.2322305
228	0xbe04856b	-0.1294152
229	0xbf9a822b	-1.2070974
230	0xbe7e3365	-0.24824293
231	0x3c16224a	0.009163449
232	0x3eaf989e	0.34296125
233	0x3e96f549	0.29484013
234	0x3f2c12d3	0.67216223
235	0x3e94ea8c	0.29085195
236	0x3dc6762b	0.096905075
237	0xbe39793c	-0.18112653
238	0xbe8b3789	-0.27190807
239	0xbf4847bc	-0.7823446
240	0xbe9156a7	-0.28386423
241	0x3ef78fed	0.48351994
242	0xbe8344c3	-0.256384
243	0x3ead1848	0.33807588
244	0x3e2ef56f	0.17085813
245	0xbf39eb88	-0.7262502
246	0xbed11ee4	-0.4084388
247	0xbeaf18a6	-0.34198493
248	0xbe1edec6	-0.15514669
249	0x3d995813	0.07487502
250	0xbd086f91	-0.033309523
251	0x3f36b866	0.7137512
252	0xbe177fd3	-0.14794855
253	0x3e4a6f92	0.19769123
254	0x3e156a95	0.14591439
255	0x3e59a4b3	0.21254234

c3/W f4 [16, 8, 2, 2]
0	0x3edd7c32	0.43258816
1	0xba152755	-0.000568976
2	0x3bf9d3f7	0.007624145
3	0xbe0aa395	-0.13538964
4	0xbd910f0f	-0.0708295
5	0xbee9087d	-0.4551429
6	0x3e863a1a	0.26216203
7	0x3dec0877	0.11525052
8	0x3ebff620	0.37492466
9	0xbf393edb	-0.72361535
10	0xbdc6462f	-0.09681355
11	0xbe2c3e10	-0.1682055
12	0x3eccc08c	0.39990652
13	0xbe673f61	-0.22582771
14	0x3f237b0c	0.6385963
15	0xbe10f5a9	-0.14156212
16	0x3f35d837	0.7103304
17	0x3f34845a	0.7051445
18	0x3e15d4f9	0.14632024
19	0xbe01b5e1	-0.12667038
20	0x3e289e9a	0.16466752
21	0xbea61042	-0.3243428
22	0xbddf5fb4	-0.10906926
23	0x3c91bbc2	0.017789725
24	0xbeea786c	-0.45795
25	0xbe789a1d	-0.2427754
26	0xbeca0ad1	-0.39461377
27	0xbdfd42b1	-0.12366236
28	0xbf04dc40	-0.51898575
29	0x3e21907a	0.1577777
30	0x3ef62e92	0.48082405
31	0xbe6d2a6f	-0.23160718
32	0x3dfb98ae	0.12284981
33	0x3ebe8460	0.3721037
34	0xbeacf36f	-0.33779475
35	0xbd9d993f	-0.07695245
36	0x3e051fb5	0.13000377
37	0x3f043cff	0.5165557
38	0x3d37b091	0.04484612
39	0x3f4c1bfe	0.7973021
40	0x3b9daa40	0.004811555
41	0x3ec53597	0.38517448
42	0x3ea5b80f	0.32366988
43	0xbf38039b	-0.718805
44	0x3ee85297	0.4537551
45	0x3e902929	0.28156403
46	0x3c09d4bf	0.008412539
47	0x3e557f14	0.20849258
48	0x3ea6916a	0.32532817
49	0xbcfb5066	-0.030677985
50	0xbf24d561	-0.6438809
51	0xbeb6f8c3	-0.35736665
52	0x3ebd2187	0.36939642
53	0xbebd8b40	-0.37020302
54	0xbf0dc575	-0.5537942
55	0xbec346eb	-0.38140044
56	0xbe2007ef	-0.15628026
57	0x3e9c0dff	0.30479428
58	0xbed964cc	-0.42459714
59	0x3e5f21c0	0.21790218
60	0x3d560dc7	0.052259233
61	0x3c23b80a	0.009992609
62	0xbe950a3f	-0.2910938
63	0xbf819aa2	-1.0125315
64	0xbc911f59	-0.017715143
65	0xbd387f09	-0.045043025
66	0x3d69fa3b	0.057123404
67	0x3c3ab115	0.011394759
68	0xbe0f0f0c	-0.13970584
69	0xbdc3a539	-0.09552998
70	0xbe45173f	-0.19247149
71	0x3d9e6364	0.07733801
72	0x3d2d45cc	0.04230289
73	0xbe1da85f	-0.1539626
74	0xb8c7bfac	-9.524761e-05
75	0xbf02c9bb	-0.51089066
76	0xbe4e5e63	-0.20153193
77	0x3e38de7f	0.18053626
78	0x3ca04857	0.019565744
79	0xbdcc4b3f	-0.099752896
80	0xbd76fa4e	-0.060297303
81	0xbe6c23e9	-0.23060574
82	0x3d2fd7d9	0.042930458
83	0xbe8bdcf1	-0.27317002
84	0x3d20891d	0.03919326
85	0x3e6447d3	0.22293024
86	0x3b949e24	0.0045354534
87	0xbcc92ef9	-0.024558531
88	0xbe7d8139	-0.24756326
89	0xbe1a881a	-0.15090981
90	0xbd1bda33	-0.038049888
91	0xbcb6660d	-0.022265458
92	0xbddf2a38	-0.108967245
93	0xbe4e64af	-0.20155595
94	0x3d79e717	0.0610114
95	0x3e60cdd0	0.21953511
96	0xbf1b35e2	-0.60629094
97	0x3e81b1b2	0.25330883
98	0xbd54ad2d	-0.051922966
99	0x3da55cf4	0.0807437
100	0x3ec39dd1	0.38206342
101	0xbf8d9424	-1.1060834
102	0xbed11ec0	-0.40843773
103	0x3ee18a14	0.44050658
104	0xbc322299	-0.010872507
105	0x3e5e3393	0.21699362
106	0x3eb2aef4	0.34899104
107	0xbed3628d	-0.41286126
108	0x3ee5557f	0.4479179
109	0xbeab49a5	-0.33454624
110	0x3ea7103a	0.32629567
111	0xbf40fdf9	-0.7538753
112	0x3f3b8726	0.73253095
113	0xbf85f2c1	-1.0464708
114	0x3d69bd85	0.057065506
115	0xbd22c29b	-0.03973637
116	0x3ef8e152	0.48609406
117	0xbd906317	-0.0705015
118	0xbefd134e	-0.4942879
119	0xbe6e2e37	-0.23259817
120	0xbce77efd	-0.028258795
121	0xbf2dfdf2	-0.67965615
122	0xbf45610e	-0.7710122
123	0x3f785199	0.9699951
124	0x3f0b824a	0.5449568
125	0xbee18371	-0.44045594
126	0x3d070f13	0.03297336
127	0xbf16204f	-0.5864305
128	0x3f2ebc8e	0.6825646
129	0x3edb15c7	0.42790052
130	0xbf620b3b	-0.88298386
131	0xbd31793c	-0.04332851
132	0xbdfe9156	-0.124300644
133	0xbf0b6467	-0.54450077
134	0xbc034a64	-0.008013342
135	0x3e5ffa31	0.21872784
136	0xbf2b621f	-0.66946596
137	0x3f3d22b6	0.7388109
138	0x3e3673cc	0.1781761
139	0x3f02a626	0.5103477
140	0xbf205e4f	-0.62643903
141	0x3de75d2e	0.112970695
142	0xbfa614c3	-1.2975086
143	0xbf0fab2e	-0.56120574
144	0xbf271130	-0.652606
145	0xbee0f5bf	-0.4393749
146	0x3f1a3db8	0.60250425
147	0xbd4da8f0	-0.05020994
148	0xbf10c354	-0.5654805
149	0xbe1aa511	-0.1510203
150	0xbfe56d53	-1.7923988
151	0xbf21d688	-0.63217974
152	0x3f0999c0	0.5375023
153	0xbf09c01f	-0.5380878
154	0xbe871d76	-0.26389664
155	0xbe89ddde	-0.26927084
156	0xbf895379	-1.0728599
157	0x3f118034	0.5683625
158	0x3f780be1	0.96893126
159	0xbfbaaf36	-1.458472
160	0x3bac2763	0.0052537187
161	0xbee8b10c	-0.45447576
162	0xbf12e08b	-0.57373875
163	0x3f90bac7	1.1307
164	0xbe1ef83f	-0.15524386
165	0x3f2fd773	0.68688124
166	0xbca2eac1	-0.01988733
167	0xbefdee20	-0.49595737
168	0xbe3508a1	-0.17679073
169	0x3ebed1de	0.3726949
170	0xbe68ac82	-0.22722057
171	0x3e16a990	0.1471312
172	0x3f44685a	0.7672173
173	0xbe99c1f1	-0.30030778
174	0xbce2b981	-0.027676346
175	0xbe9f313e	-0.31092256
176	0x3dbebd20	0.093134165
177	0x3de6f09d	0.11276362
178	0xbd48b126	-0.048997067
179	0xbe4ef8c0	-0.20212078
180	0x3ddd4630	0.10804403
181	0x3e78f338	0.2431153
182	0x3eec7f97	0.46191093
183	0x3d4c1154	0.049821213
184	0xbe2f7ce1	-0.17137481
185	0x3e9f03f8	0.31057715
186	0xbe1f4824	-0.15554863
187	0xbf08b9d1	-0.53408533
188	0x3eb59781	0.3546715
189	0x3eacf182	0.33778006
190	0xbeaa2ffc	-0.33239734
191	0x3f8f3525	1.1188093
192	0x3f03af32	0.514392
193	0xbea956d1	-0.33074048
194	0x3ef723ca	0.48269492
195	0xbe2ae7bf	-0.16689967
196	0xbf655a00	-0.89590454
197	0x3ec9815c	0.39356506
198	0xbdd8fb09	-0.10594756
199	0x3ce6d59a	0.028178025
200	0xbf1bf0d1	-0.6091433
201	0x3eb624b3	0.35574874
202	0x3f02b166	0.5105194
203	0xbebaf7b9	-0.36517122
204	0xbeb5fe88	-0.35545754
205	0x3f2f8a03	0.68569964
206	0x3f010301	0.5039521
207	0x3f0398cb	0.5140502
208	0x3d218ea5	0.039442677
209	0xbdae1fca	-0.08502157
210	0x3e69a98e	0.22818586
211	0x3e1b91f1	0.15192391
212	0x3ee8a038	0.45434737
213	0x3d5d1579	0.053975556
214	0xbeca32f3	-0.39491996
215	0xbe17ee5a	-0.14837018
216	0x3f31d405	0.6946414
217	0xbdad66d5	-0.08466879
218	0x3f6bdcfb	0.92134064
219	0x3de784ba	0.113046125
220	0xbe7e9a85	-0.24863632
221	0xbe89063e	-0.26762575
222	0xbf135314	-0.5754864
223	0xbf07fd9e	-0.53121364
224	0xbdae5f29	-0.08514244
225	0xbf8b6992	-1.0891593
226	0x3dcae82d	0.09907565
227	0x3e479af3	0.19492702
228	0x3ee53b48	0.4477179
229	0xbf495b6c	-0.78655124
230	0xbf07b56c	-0.530112
231	0x3fb6314f	1.4233798
232	0xbdb8f7ba	-0.09031625
233	0x3e6b7a04	0.22995764
234	0xbd5f9cf9	-0.05459306
235	0x3dbfbf94	0.093627125
236	0xbea4f5b6	-0.32218713
237	0xbedd42b0	-0.4321494
238	0x3e218c3f	0.15776156
239	0x3e947ab4	0.28999865
240	0xbf0e903d	-0.5568884
241	0xbc9684a0	-0.018373787
242	0x3ea39e97	0.31956932
243	0x3efd6ebe	0.49498552
244	0xbf154374	-0.5830605
245	0xbdbb386d	-0.09141622
246	0xbed57141	-0.41687968
247	0x3dc76034	0.09735146
248	0x3e5c580c	0.21517962
249	0xbe77892f	-0.24173425
250	0xbf7a1cdd	-0.9770029
251	0x3edeac06	0.43490618
252	0x3e1a1293	0.15046148
253	0x3ebc3b10	0.3676381
254	0x3d0818d2	0.033226795
255	0x3f324f38	0.6965213

l5/b f4 [16]
0	0xbea78d8d	-0.32725182
1	0xbf180ee0	-0.593977
2	0xbe770d4a	-0.24126163
3	0x3e199127	0.14996777
4	0xbf17042e	-0.5899075
5	0xbee3098f	-0.4434323
6	0xbedb898d	-0.4287838
7	0xbecb1828	-0.39666867
8	0x3e165e56	0.14684424
9	0xbeed0e87	-0.46300146
10	0xbeba7da5	-0.36423984
11	0xbef721e6	-0.4826805
12	0x3e1f781c	0.15573162
13	0xbe309cb1	-0.17247273
14	0xbeaaae84	-0.3333627
15	0x3e611800	0.21981812

c1/b f4 [4]
0	0x3e42d6b6	0.19027218
1	0x3ed40869	0.41412666
2	0xbeb5ffa1	-0.35546592
3	0xbe92dc00	-0.28683472

l4/b f4 [256]
0	0x3f24053a	0.64070475
1	0x3f088c7a	0.5333935
2	0x3e92b3c4	0.28652775
3	0xbe73aee8	-0.2379719
4	0xbf14ac79	-0.5807567
5	0xbea79a15	-0.32734743
6	0xbdaf89a8	-0.08571178
7	0xbdc4b44b	-0.09604701
8	0xbf38e570	-0.72225094
9	0x3ec92066	0.3928253
10	0x3f459c00	0.7719116
11	0x3e91c706	0.28472155
12	0xbf3e033d	-0.7422369
13	0x3f59119a	0.8479248
14	0xbe9a986f	-0.30194423
15	0xbd1bf1dd	-0.038072456
16	0xbe691cbe	-0.2276487
17	0x3e9358b5	0.28778616
18	0xbe493252	-0.19648102
19	0x3e353aa1	0.17698146
20	0x3f1fe38b	0.6245658
21	0x3e97c274	0.29640543
22	0xbf3d38a7	-0.7391457
23	0xbdb4e0c1	-0.08831931
24	0x3d6a7a4c	0.057245538
25	0x3f04111e	0.5158862
26	0x3f0e375f	0.5555324
27	0xbf2086c7	-0.62705654
28	0x3d04bf83	0.032409202
29	0x3dfabdf0	0.12243259
30	0x3e4830a8	0.19549811
31	0x3e52afa5	0.20574816
32	0x3def8ffe	0.11697386
33	0xbf81c7a7	-1.0139054
34	0xbf5997e1	-0.84997374
35	0xbe94a3ad	-0.29031125
36	0x3e23fae3	0.16013674
37	0x3f381eda	0.71922076
38	0xbecd5495	-0.40103593
39	0xbe9e64c4	-0.30936253
40	0xbf58dace	-0.8470887
41	0x3ea2c5fc	0.31791675
42	0x3dc2f879	0.09520049
43	0x3dee42bc	0.11633822
44	0xbec10e3c	-0.37706172
45	0xbeae9aff	-0.34102628
46	0xbec4763e	-0.38371462
47	0x3df39acf	0.11894762
48	0x3dc87065	0.097870626
49	0xbf0e62a9	-0.55619293
50	0xbe82b47f	-0.25528333
51	0x3eca4ee0	0.39513302
52	0x3ed0f08b	0.4080852
53	0xbe323e37	-0.17406546
54	0xbe2acfb1	-0.1668079
55	0xbe80927b	-0.25111756
56	0xbe9b144f	-0.30288932
57	0xbd5417a2	-0.05178035
58	0xbdd13a1c	-0.102161616
59	0x3ebd552d	0.36979046
60	0x3dbd25bc	0.09235713
61	0x3f475fa0	0.7788029
62	0x3effe7b1	0.49981454
63	0xbf04a762	-0.51817906
64	0xbea3d835	-0.3200089
65	0xbd45b60e	-0.048269324
66	0x3f626073	0.8842842
67	0xbeac8337	-0.3369386
68	0xbfe7aaa9	-1.8098956
69	0xbf80d2bc	-1.0064311
70	0x3f02bf62	0.51073277
71	0xbf4529e6	-0.77017057
72	0x3e67f8a7	0.22653447
73	0xbf276321	-0.65385634
74	0x3f20ac51	0.62762934
75	0x3dc28bb2	0.09499301
76	0x3e511c7b	0.2042102
77	0xbde9b468	-0.11411363
78	0x3e869a16	0.26289433
79	0x3dc177db	0.09446689
80	0xbea86ef5	-0.32897153
81	0xbf679bce	-0.90472114
82	0x3f8217f4	1.016356
83	0xbe44df2e	-0.19225761
84	0xbf4136c5	-0.75474197
85	0x3ca60213	0.020264661
86	0xbe2b9fc6	-0.16760167
87	0xbef143a3	-0.47121915
88	0xbf14b3d5	-0.580869
89	0x3e855e4a	0.260485
90	0xbbf80374	-0.007568771
91	0xbebc8ba4	-0.36825287
92	0x3e636372	0.22205904
93	0x3ecc27f5	0.39874235
94	0xbf1960dc	-0.5991342
95	0x3d3de22a	0.046358265
96	0xbde1f5b7	-0.110331945
97	0x3e9ec584	0.31010067
98	0x3e88e578	0.2673757
99	0x3f0c8fa3	0.5490667
100	0xbd8b59bb	-0.06804224
101	0x3f84cccf	1.0375003
102	0x3f5a0804	0.8516848
103	0x3ed8b9d9	0.4232929
104	0x3f03253b	0.51228684
105	0xbf03ccd9	-0.5148445
106	0x3d0a922a	0.0338308
107	0x3ed65e9c	0.41869056
108	0xbe5c715c	-0.21527618
109	0xbed8d52b	-0.42350134
110	0xbdb40490	-0.08789933
111	0xbf100d32	-0.56270134
112	0x3eedb774	0.46429026
113	0xbe5d3a37	-0.21604238
114	0xbed1cc9d	-0.4097642
115	0x3eabd690	0.33562136
116	0xbee0903b	-0.4386004
117	0x3daa63d3	0.08319821
118	0xbf5d98bb	-0.86561173
119	0xbe0e2348	-0.13880646
120	0xbd9601a6	-0.07324533
121	0x3da94a3a	0.08266111
122	0xbdf911d0	-0.121616006
123	0xbd74f2b3	-0.05980177
124	0xbf37dc88	-0.7182088
125	0x3f3a4382	0.7275926
126	0x3e2b0592	0.16701344
127	0xbf9d6977	-1.229781
128	0x3ed6a603	0.41923532
129	0xbf8cff7a	-1.1015465
130	0xbf1d2419	-0.61383206
131	0x3f482674	0.78183675
132	0xbf30364e	-0.6883286
133	0x3f1e6c49	0.6188398
134	0xbe462195	-0.19348748
135	0xbe14b2eb	-0.14521377
136	0x3f13ed83	0.5778429
137	0x3db0e2a5	0.08636979
138	0xbef9995f	-0.48749825
139	0xbe930068	-0.28711247
140	0xbf255985	-0.6458972
141	0x3e6b85f2	0.23000315
142	0x3d97e198	0.074160755
143	0x3dff05de	0.12452291
144	0x3dfc8216	0.123294994
145	0x3d7ce0f5	0.061737973
146	0x3d83a0a9	0.06427128
147	0xbf9efcc4	-1.2420888
148	0x3ed630f8	0.41834235
149	0x3e11f47e	0.14253423
150	0xbeadcd50	-0.33945704
151	0xbe364db2	-0.17803076
152	0xbed59bac	-0.4172033
153	0x3cdb4283	0.026765114
154	0x3f496d3d	0.7868231
155	0xbd7c1690	-0.061544955
156	0xbcdebf16	-0.027190726
157	0xbeaec41b	-0.34133992
158	0xbf3b92c7	-0.7327084
159	0x3f2ee02e	0.6831082
160	0x3f151752	0.5823871
161	0xbd3d420d	-0.04620557
162	0xbf038e5d	-0.51389104
163	0x3e9e0b51	0.3086801
164	0x3e8f7051	0.28015378
165	0xbf69f2f8	-0.91386366
166	0xbee77484	-0.45206082
167	0x3eb671bc	0.35633647
168	0xbe09435b	-0.134046
169	0xbf2d047a	-0.67584956
170	0xbeaa01b5	-0.33204427
171	0x3ea0b4b5	0.3138787
172	0x3e381964	0.17978436
173	0x3cc00438	0.023439512
174	0x3ea5d251	0.3238702
175	0x3f82b617	1.021182
176	0xbec591b6	-0.3858773
177	0xbf8e79ac	-1.1130881
178	0xbdb7c791	-0.08973611
179	0xbf831000	-1.0239258
180	0x3dcd5311	0.10025609
181	0xbef8ce91	-0.48595098
182	0xbf0c8b78	-0.5490031
183	0xbe2e25a1	-0.17006542
184	0x3e9a565d	0.30144015
185	0x3f5162f4	0.81791615
186	0xbe3f8c44	-0.18705851
187	0xbed0b44e	-0.40762562
188	0x3ef38b5d	0.47567263
189	0x3e44bbff	0.1921234
190	0x3e125571	0.14290406
191	0xbf117672	-0.5682136
192	0xbed48737	-0.4150941
193	0x3dda41df	0.10657095
194	0x3ece1bb6	0.40255517
195	0x3e9b2c5e	0.30307287
196	0x3da93327	0.0826171
197	0xbe9837dc	-0.29730117
198	0x3cf8d742	0.03037608
199	0x3d39a814	0.045326307
200	0xbefedc14	-0.4977728
201	0x3e939dc3	0.288313
202	0xbe7bf185	-0.24603851
203	0x3e980ce1	0.29697326
204	0x3f154de0	0.5832195
205	0xbf199176	-0.5998758
206	0xbe0d3522	-0.137898
207	0x3f380d16	0.7189497
208	0xbf433d59	-0.76265484
209	0x3d4d2d5e	0.050092094
210	0xbe6543da	-0.22389165
211	0xbf4bde2d	-0.7963589
212	0xbd439315	-0.04774769
213	0xbf814b17	-1.0101041
214	0xbf42a985	-0.76039916
215	0xbe047769	-0.12936176
216	0xbe23f745	-0.16012295
217	0x3da0f335	0.07858888
218	0xbf95cd26	-1.1703231
219	0x3e7a3cd4	0.24437267
220	0xbd96b4ec	-0.07358727
221	0x3f19556e	0.5989598
222	0xbf8a6e44	-1.08149
223	0xbe217317	-0.1576656
224	0xbd3435aa	-0.04399649
225	0xbecb2c2f	-0.39682147
226	0x3f3d98c3	0.7406122
227	0xbe941aab	-0.28926596
228	0x3d30b0bb	0.043137293
229	0x3e2a2203	0.16614537
230	0xbee2305d	-0.44177523
231	0xbd61c192	-0.055116244
232	0xbdff352f	-0.12461316
233	0xbfb9d134	-1.4516969
234	0x3d742949	0.059609685
235	0xbef5313e	-0.4788913
236	0xbe6efa90	-0.2333777
237	0xbf1ade5e	-0.60495555
238	0xbeeca6bf	-0.46220967
239	0xbf6cab3b	-0.92448777
240	0x3e92c9dc	0.2866963
241	0xbe2501f9	-0.16114034
242	0xbf2aede5	-0.6676925
243	0xbe283cdf	-0.1642947
244	0x3f5243fd	0.8213499
245	0x3e5c6f5b	0.21526854
246	0x3f59bd60	0.8505459
247	0xbde886e5	-0.11353854
248	0x3f037083	0.51343554
249	0x3eeccf82	0.46252066
250	0xbec0590e	-0.37567943
251	0x3e1e6b91	0.15470721
252	0xbe61777a	-0.22018233
253	0xbf392ae1	-0.72331053
254	0xbeb2474f	-0.3482003
255	0x3d541321	0.051776055

c2/b f4 [8]
0	0x3d80a6c7	0.0628181
1	0x3d1aec1f	0.03782284
2	0xbef7622c	-0.48317087
3	0xbc7349e5	-0.014849161
4	0x3b8d05a9	0.0043036533
5	0xbdac7751	-0.08421195
6	0x3e7d351c	0.24727291
7	0xbee26996	-0.4422118
