examples/ch4/reversi_DQN_DNN/agent_white_10000/target_model.npz (npz, 522089 bytes, 8 tensors)

l2/b f4 [256]
0	0xbd60e6e3	-0.05490769
1	0x3c8c82ce	0.017152216
2	0x3d09afe8	0.033615023
3	0x3cb57a87	0.022153152
4	0xbc5fb700	-0.01365447
5	0xbd98a58a	-0.07453449
6	0x3d658718	0.05603704
7	0x3ce1f20d	0.02758124
8	0xbb866d27	-0.0041023674
9	0x3cb3c905	0.02194644
10	0xbda04d9f	-0.07827305
11	0x3c937c89	0.018003719
12	0x3d3b141a	0.045673467
13	0xbd2a32ea	-0.04155246
14	0xbba774c4	-0.005110355
15	0x3c6ce16e	0.0144580435
16	0xbd8157b6	-0.06315558
17	0xbd80b408	-0.06284338
18	0x3ca8f783	0.020625835
19	0x3c8c8ebe	0.017157909
20	0x3c84890e	0.016178634
21	0x3d97ea06	0.07417683
22	0x3de0a438	0.10968822
23	0x3c0e8e5b	0.008700932
24	0xbc932a13	-0.017964398
25	0x3dc90329	0.09815056
26	0x3cbfb70b	0.023402711
27	0x3c9926a7	0.018695189
28	0xbd6d185e	-0.057884566
29	0xbd354e2e	-0.04426401
30	0xbc8c236d	-0.017106736
31	0x3d23e66d	0.040014673
32	0x3cd147da	0.025546957
33	0xbd0c148b	-0.03419928
34	0x3d799fb3	0.060943317
35	0xbd31d87d	-0.04341935
36	0xbca2c50a	-0.019869346
37	0xbc42c323	-0.0118873445
38	0x3d057df4	0.03259082
39	0xbbc389c5	-0.005967351
40	0xbe080b4c	-0.1328556
41	0x39b0608f	0.00033641278
42	0x3bea1443	0.0071435287
43	0x3daa2290	0.083073735
44	0xbd59e45c	-0.053196296
45	0xbcad3cf0	-0.021147221
46	0x3be97c77	0.007125433
47	0xbdb8625a	-0.09003134
48	0xbd5cb6be	-0.053885214
49	0x3d27e8ad	0.04099338
50	0x3d754888	0.059883624
51	0xbb6c7383	-0.0036079593
52	0xb9fdb65d	-0.00048391792
53	0x3a3b3846	0.0007141869
54	0xbc8621fb	-0.016373625
55	0x3c8a6d6e	0.016897883
56	0x3b234b3c	0.002491667
57	0x3b63c82d	0.0034756765
58	0xbdadea3e	-0.08491944
59	0x3b8a2a84	0.004216494
60	0xbcfb7a37	-0.030697925
61	0x3c3f190e	0.011663688
62	0xbd23544d	-0.039875317
63	0x3d84b11b	0.06479093
64	0xbcc2849a	-0.02374487
65	0xbad36653	-0.0016128517
66	0x3bab72f1	0.005232208
67	0x3ce2a2da	0.027665544
68	0x3c163bfc	0.009169575
69	0x3d5bdc35	0.053676803
70	0x3d4ed744	0.050498262
71	0x3daed56a	0.08536799
72	0x3b8b92e9	0.0042594564
73	0x3d596889	0.053078208
74	0xbc6a752b	-0.014310162
75	0xbbd14087	-0.006385866
76	0xbc9b4bcc	-0.018957041
77	0x3ce74d03	0.028234964
78	0xbd2b149d	-0.041767705
79	0xbd522a6a	-0.05130998
80	0x3cec10ae	0.028816547
81	0xbc009bd1	-0.0078496495
82	0xbc6d7bfa	-0.01449489
83	0xbd1c0cff	-0.03809833
84	0xbd66a543	-0.05630995
85	0xbb994933	-0.0046779155
86	0xbdb3e0cc	-0.08783111
87	0x3cdd193e	0.026989575
88	0xbd948aa2	-0.072530046
89	0xbcac6e21	-0.021048607
90	0x3d7ebba6	0.062190674
91	0xbcd6108b	-0.026130935
92	0xbcaf7cc9	-0.021421807
93	0xbbc9a802	-0.0061540613
94	0xbc8f6154	-0.017502464
95	0xbd83c734	-0.06434479
96	0x3dd4815f	0.10376238
97	0xbdae18c5	-0.08500818
98	0xbd9c73ef	-0.076393
99	0xbd79fb3c	-0.06103061
100	0x3c3a7920	0.0113814175
101	0xbd52665d	-0.051367152
102	0x3d3dd764	0.04634799
103	0xbbddc22c	-0.006767532
104	0x3dcbf045	0.09957937
105	0xbc89d3aa	-0.016824562
106	0x3bc303f8	0.005951401
107	0xbd4e02a1	-0.050295476
108	0x3c1d04ce	0.009583665
109	0xbc0512a4	-0.00812212
110	0xbc912623	-0.01771838
111	0xbbd6210f	-0.0065347026
112	0xbd0d6a8c	-0.03452544
113	0x3d742627	0.059606697
114	0xbd3e28ad	-0.04642551
115	0xbc678fc3	-0.014133397
116	0xbd7e4f3d	-0.062087286
117	0xbc870edb	-0.016486576
118	0xbca95540	-0.020670533
119	0x3cd31b0e	0.025769737
120	0xbc804647	-0.01565851
121	0xbba10644	-0.004914077
122	0x3d54cb94	0.05195196
123	0xbbc99385	-0.006151619
124	0x3d80ab86	0.062827155
125	0xbd583a70	-0.052790105
126	0xbd3bd199	-0.045854185
127	0xbd79f94a	-0.061028756
128	0xbdb1b439	-0.08676953
129	0x3b9c5d5c	0.0047718715
130	0xbb65d2ba	-0.003506823
131	0xbb99d011	-0.004693993
132	0x3d8b8f33	0.068144225
133	0xbdc02cda	-0.09383555
134	0xbba049e4	-0.004891621
135	0x3c2ab38b	0.010418783
136	0x3d5bddcb	0.053678315
137	0xbcda7532	-0.026667211
138	0x3c028b53	0.007967788
139	0xbcb42dd6	-0.021994513
140	0x3a01b4a4	0.0004947877
141	0x3ce4ba7d	0.027920956
142	0xbc68a619	-0.014199757
143	0x3d2523cf	0.040317353
144	0x3d908bf8	0.07057947
145	0xbd73dd06	-0.059536956
146	0xbd93948b	-0.07206067
147	0xbd4cfac4	-0.050043836
148	0x3b953bb5	0.004554237
149	0x3cae61d7	0.021286888
150	0x3adb7e52	0.001674602
151	0x3d0ce224	0.034395352
152	0x3d061116	0.03273114
153	0xbd77580d	-0.060386706
154	0xbcf56892	-0.02995709
155	0xbd24ad04	-0.040204063
156	0xbda4cbb8	-0.08046669
157	0xbd9d3302	-0.076757446
158	0xbcffa632	-0.031207178
159	0xbd8510da	-0.06497355
160	0xbc837f6c	-0.01605197
161	0x3cbea98d	0.023274207
162	0xbcc7f10e	-0.024406936
163	0x3ca71052	0.020393524
164	0xbcf4c35e	-0.029878315
165	0xb999d68c	-0.00029342284
166	0xbd836ec4	-0.06417611
167	0x3d2e5879	0.042564843
168	0x3d02161e	0.031759374
169	0xbd0206e4	-0.031744853
170	0xbc391086	-0.011295443
171	0x3cb22610	0.021746665
172	0x3d2a5331	0.041583244
173	0xba8ead68	-0.0010885419
174	0x3d1b8d39	0.037976477
175	0xbce4814b	-0.027893683
176	0x3d054303	0.03253461
177	0x3d76fd9a	0.060300447
178	0xbcb85101	-0.022499563
179	0x3d2421d5	0.040071327
180	0xbcb44054	-0.02200333
181	0xbd579b0a	-0.05263809
182	0xbcfeff73	-0.031127667
183	0x3ca81c81	0.020521404
184	0xbd14cd86	-0.036328815
185	0xbd848faf	-0.06472718
186	0xbdb3b649	-0.087750025
187	0x3d7ae269	0.061251078
188	0x3cd96883	0.026539093
189	0x3ca236ec	0.01980158
190	0xbdac6ffa	-0.08419795
191	0xbc9b380c	-0.018947624
192	0x3d635c21	0.055507783
193	0xbd02daf5	-0.031947095
194	0x3d76edad	0.06028526
195	0xbc35a871	-0.011087523
196	0xbd303a93	-0.04302461
197	0xbd696ef4	-0.05699058
198	0xbd4c318f	-0.04985195
199	0xbda52baf	-0.080649726
200	0xbcd845df	-0.026400505
201	0x3d822fd0	0.06356776
202	0xbc09b04a	-0.008403847
203	0x3cf2797a	0.02959894
204	0x3cefe2b4	0.029282905
205	0xbced2bf8	-0.02895163
206	0x3baa69bc	0.005200593
207	0xbc5e124d	-0.013554168
208	0xbd52265b	-0.05130611
209	0xbd640ee5	-0.055678267
210	0x3be01635	0.006838585
211	0xbd203611	-0.03911406
212	0xbdabd0bb	-0.083894216
213	0xbd883434	-0.06650582
214	0xbb62fd6f	-0.0034635921
215	0xbd691d66	-0.056912802
216	0x3da2925b	0.07938071
217	0x3dc050df	0.09390425
218	0xbb6dbbe3	-0.003627532
219	0xbd823687	-0.063580565
220	0x3d06946f	0.0328564
221	0xbd67545e	-0.056476943
222	0xbcd561a7	-0.02604754
223	0xbd213f32	-0.03936691
224	0x3c6cd17a	0.01445424
225	0x3d843b6a	0.06456645
226	0xbd93035b	-0.071783744
227	0xbcf4ef4c	-0.029899262
228	0x3ae6b660	0.0017601959
229	0xbd2f10ce	-0.042740636
230	0xbd3cf55e	-0.046132438
231	0xbd132ee7	-0.0359334
232	0x3ce99f59	0.028518366
233	0xbcb3644e	-0.021898415
234	0xbcf01313	-0.02930597
235	0x3d92dd5f	0.071711294
236	0x3ddb925e	0.10721277
237	0x3c814fb6	0.01578508
238	0xbcc7a216	-0.02436928
239	0xbb94f9ad	-0.0045463652
240	0xbca0a3b6	-0.019609313
241	0x3d75e950	0.060036957
242	0x3d8408c5	0.06446985
243	0xbcb8a27a	-0.022538412
244	0xbc3dd201	-0.011585713
245	0xbd320843	-0.04346491
246	0xbc5ea2b5	-0.013588597
247	0xbc5018cb	-0.012701224
248	0xbcc9e5a0	-0.024645627
249	0x3ba3c8cf	0.0049983035
250	0xbc4cb94f	-0.012495353
251	0x3ced84f4	0.028994061
252	0x3b920ef6	0.00445735
253	0x3d3787de	0.044807307
254	0xbd3a6c35	-0.04551335
255	0xbd962c18	-0.07332629

l1/W f4 [256, 16]
0	0x3e3da24f	0.18518947
1	0xbed4c1ce	-0.4155411
2	0x3e5fc699	0.21853103
3	0x3eaccdf1	0.3375087
4	0xbede293b	-0.4339083
5	0xbe9fe1aa	-0.31226856
6	0x3e715246	0.23566541
7	0x3ef97d48	0.48728395
8	0xbe46c1ff	-0.19409941
9	0xbf0a68c7	-0.5406613
10	0x3f178a50	0.59195423
11	0xbe84f527	-0.25968286
12	0x3d0652ed	0.032793928
13	0xbe6fa6e8	-0.23403513
14	0x3f080fb5	0.5314897
15	0xbcafed86	-0.021475565
16	0x3eda18ad	0.4259695
17	0xbee6d446	-0.45083827
18	0x3db22b4f	0.08699667
19	0xbed0812f	-0.4072356
20	0xbd354ad2	-0.044260807
21	0xbf03a79a	-0.51427615
22	0xbe60a231	-0.21936871
23	0x3e3cbbab	0.18430965
24	0x3ed30cd8	0.41220737
25	0xbf0c9698	-0.5491729
26	0x3f0fd20d	0.5617989
27	0x3c058a3e	0.008150635
28	0x3f569aa1	0.83829695
29	0x3e83c0f2	0.25733143
30	0x3e2fe487	0.1717702
31	0xbe0647e9	-0.13113369
32	0xbe939e92	-0.28831917
33	0xbeb80238	-0.35939193
34	0xbed2bfc8	-0.41161942
35	0x3e195cca	0.14976802
36	0xbdd1b70f	-0.10239994
37	0xbce7caaa	-0.02829488
38	0xbde6c575	-0.11268131
39	0x3e916525	0.2839748
40	0xbec040ec	-0.3754953
41	0x3bee7267	0.0072768214
42	0xbeccd50b	-0.4000629
43	0x3cd9a476	0.026567679
44	0xbe07cb11	-0.13261057
45	0x3db45d79	0.08806891
46	0xbe398e21	-0.18120624
47	0x3f5872fd	0.8455046
48	0x3e2f401a	0.17114297
49	0xbf1475d4	-0.5799229
50	0xbe5d9c04	-0.21641546
51	0x3d1a731b	0.03770743
52	0xbe2b483d	-0.16726775
53	0xbef1e75a	-0.4724682
54	0x3f23b628	0.63949823
55	0xbebf77f2	-0.373962
56	0x3f347250	0.7048693
57	0x3f3e5940	0.74354935
58	0x3e5fd1db	0.21857397
59	0xbf2d9b6c	-0.6781528
60	0xbeb8f8db	-0.36127362
61	0xbefbfc3f	-0.49215886
62	0x3e19c76f	0.15017484
63	0x3f3056fb	0.6888272
64	0xbc959482	-0.01825929
65	0x3e1e6b9f	0.15470742
66	0xbed28535	-0.41117254
67	0xbe3f590f	-0.18686317
68	0xbd2c4300	-0.042056084
69	0xbe4f2d1e	-0.20232055
70	0x3ed5acbf	0.41733357
71	0x3f61b59a	0.88167727
72	0xbd1d2677	-0.03836676
73	0xbd8dbee7	-0.06921177
74	0x3e432071	0.19055344
75	0xbf84561e	-1.0338781
76	0x3c8c5e7e	0.017134901
77	0x3eda8721	0.4268122
78	0xbedbedf5	-0.42954984
79	0xbeb8de95	-0.36107317
80	0x3edc4e59	0.43028525
81	0xbec725d0	-0.38896036
82	0xbe6c8f47	-0.23101531
83	0x3e36e67b	0.17861359
84	0xbe007cef	-0.12547658
85	0xbf49513f	-0.78639597
86	0x3ef3e02e	0.47631973
87	0x3f0bf9fb	0.54678315
88	0xbefcdd0c	-0.49387395
89	0x3eecc78b	0.4624599
90	0xbeb24b2e	-0.34822983
91	0x3e416590	0.188864
92	0x3eb027a9	0.34405258
93	0xbf0083da	-0.5020119
94	0x3dc5c284	0.096562415
95	0x3f03bd87	0.5146107
96	0x3c24a6d6	0.010049542
97	0x3d0e282e	0.034706287
98	0x3dab413b	0.08362051
99	0x3f21819c	0.63088393
100	0xbf49e701	-0.7886811
101	0x3e500439	0.20314111
102	0x3f2d83cc	0.6777923
103	0x3b3ca710	0.00287861
104	0x3dbf5e31	0.093441375
105	0xbe3e14bb	-0.18562596
106	0xbd39b10e	-0.045334868
107	0xbd35e096	-0.044403635
108	0x3e118e82	0.14214519
109	0xbee391d2	-0.4444719
110	0x3e64aa74	0.22330648
111	0x3e307758	0.17233026
112	0x3f0982fd	0.537155
113	0x3cf5697c	0.029957525
114	0x3e58b9b4	0.2116459
115	0x3ddaf9ef	0.10692202
116	0xbe3b9c85	-0.18321426
117	0xbed07692	-0.40715462
118	0xbf77270f	-0.96543974
119	0xbee97459	-0.4559658
120	0xbe2322ff	-0.15931319
121	0x3dcb347b	0.09922119
122	0x3e4737c9	0.19454874
123	0x3e09d55d	0.13460298
124	0x3e1ed58f	0.15511154
125	0x3efed56d	0.49772206
126	0x3deeccdb	0.11660167
127	0x3e06a0cf	0.13147281
128	0xbef5361c	-0.47892845
129	0xbedacaf8	-0.42732978
130	0x3db3487a	0.08754058
131	0x3f233583	0.6375353
132	0x3d67c9e0	0.056589007
133	0xbe63a324	-0.22230202
134	0x3eebca6b	0.4605287
135	0xbe865fd5	-0.2624499
136	0xbeb0db67	-0.3454239
137	0x3f0a86bb	0.5411183
138	0xbe85f075	-0.26160017
139	0x3e8f809b	0.28027806
140	0xbf72c222	-0.94827473
141	0x3cb6a254	0.022294201
142	0x3e23ecf3	0.16008358
143	0xbda4b277	-0.08041852
144	0x3e3bc2c6	0.18336019
145	0x3d8617ff	0.06547546
146	0xbf01ad16	-0.50654733
147	0x3d02ae8d	0.031904746
148	0x3f07d715	0.53062564
149	0x3e6e9ee0	0.23302794
150	0x3e89d11b	0.26917347
151	0xbe6c5d82	-0.23082545
152	0x3dd55df9	0.104183145
153	0xbe8c3543	-0.27384385
154	0xbed61cf9	-0.4181898
155	0xbe8496ff	-0.2589645
156	0x3f32a7cb	0.6978728
157	0x3f0e7e6f	0.5566167
158	0xbdc5d21d	-0.096592166
159	0x3cb93faf	0.022613375
160	0x3f26142a	0.6487452
161	0x3d12fbe1	0.03588474
162	0xbd38ffd6	-0.04516586
163	0xbed79837	-0.42108318
164	0x3dfe8d0c	0.12429246
165	0xbe32b206	-0.17450723
166	0xbe0fad16	-0.14030871
167	0x3d50e0cb	0.05099563
168	0xbf610698	-0.87900686
169	0xbdae3960	-0.08507037
170	0x3e4f8419	0.20265235
171	0xbef0efb2	-0.47057873
172	0x3f3d46d5	0.73936206
173	0xbe080112	-0.13281658
174	0x3d6939e1	0.056939963
175	0xbe40d18b	-0.18829934
176	0xbeebf21e	-0.46083158
177	0xbf623297	-0.88358444
178	0x3ebea6c9	0.37236622
179	0xbea9586b	-0.3307527
180	0x3f40f0c6	0.7536739
181	0xbe7948f9	-0.24344243
182	0x3e01e613	0.12685423
183	0x3f590433	0.8477203
184	0x3d9d2676	0.076733515
185	0x3eb6ac4b	0.35678324
186	0xbe43feeb	-0.19140212
187	0x3dec1c60	0.115288496
188	0xbeff180a	-0.49823028
189	0xbeb3fedd	-0.35155383
190	0xbf1cd58c	-0.61263347
191	0xbde2b3a4	-0.1106942
192	0x3dafb047	0.08578544
193	0x3e90b260	0.2826109
194	0x3de5fe6a	0.11230166
195	0x3e1087fc	0.14114374
196	0xbdc83ad9	-0.09776849
197	0xbe5ad5e1	-0.21370651
198	0xbc8f266e	-0.01747438
199	0xbceeb45a	-0.029138733
200	0x3b8e2ee3	0.0043390854
201	0xbe931236	-0.2872483
202	0x3d3729e2	0.044717677
203	0xbe128c43	-0.14311318
204	0x3d1c24a4	0.03812088
205	0xbc9772b7	-0.018487317
206	0xbe76e2d5	-0.24109967
207	0x3f07b68c	0.5301292
208	0xbd1a89cd	-0.037729073
209	0xbd287d5a	-0.04113517
210	0xbf150748	-0.58214235
211	0xbe4beeb7	-0.19915281
212	0xbecffc6d	-0.40622273
213	0x3c5b6c90	0.013392583
214	0xbf1fe8b5	-0.6246446
215	0x3db891b9	0.090121694
216	0xbe36d314	-0.17853957
217	0xbf29fc2e	-0.6640042
218	0x3e794f0b	0.24346559
219	0xbe3c423a	-0.18384638
220	0xbf2cc2db	-0.67484826
221	0x3ec855f6	0.39128083
222	0x3f1de80c	0.616822
223	0x3cf37b2a	0.029721815
224	0xbf44d049	-0.7688032
225	0xbea92fe3	-0.33044347
226	0x3e07e06e	0.13269207
227	0xbe4c0e6b	-0.19927375
228	0x3d8b7bbc	0.0681071
229	0x3ee7496b	0.451732
230	0x3e292d40	0.16521168
231	0xbc4af981	-0.012388588
232	0x3ee57464	0.44815361
233	0x3eb54122	0.35401255
234	0x3e7e5a6c	0.2483918
235	0x3e4a74fb	0.19771187
236	0xbf35a8c1	-0.70960623
237	0x3e443a2e	0.19162819
238	0x3e272e6f	0.16326307
239	0xbf010433	-0.5039703
240	0xbe2ddc54	-0.1697858
241	0xbdbf1d98	-0.093318164
242	0x3f18ae32	0.596408
243	0x3e86d887	0.26337072
244	0x3d784975	0.06061693
245	0xbfa7dd59	-1.3114425
246	0xbd91fec9	-0.071286745
247	0xbf09a622	-0.53769124
248	0x3eda97df	0.42693993
249	0x3c7536f5	0.014966716
250	0x3f079d0d	0.52974015
251	0x3ecaa856	0.39581555
252	0xbe883062	-0.26599413
253	0xbea0012d	-0.31250897
254	0x3eae4bab	0.34042105
255	0x3eafdf23	0.34349927

l3/W f4 [256, 256]
0	0xbcce758e	-0.025202539
1	0xbe5dc142	-0.21655753
2	0x3e015aab	0.12632243
3	0xbd8ce7b3	-0.068801306
4	0xbcd67721	-0.026179852
5	0xbe29e74b	-0.16592138
6	0xbde15ed6	-0.11004417
7	0xbd5beca0	-0.05369246
8	0xbd1b93d4	-0.037982777
9	0x3b970c8f	0.0046096514
10	0xbe05c95e	-0.13065097
11	0xbd70cb4c	-0.05878763
12	0x3e221197	0.15827022
13	0xbdb8d616	-0.09025209
14	0x3e3fdacc	0.18735808
15	0x3df5fb7c	0.120108575
16	0xbdf65aee	-0.12029062
17	0xbc9f5d4f	-0.019453673
18	0xbe38b38d	-0.18037243
19	0xbba7f23c	-0.005125312
20	0x3dd49608	0.10380179
21	0xbd0e3021	-0.034713868
22	0x3e4fcd3e	0.20293137
23	0x3c4b0940	0.012392342
24	0x3d68ef55	0.05686887
25	0xbe1cbaa4	-0.15305573
26	0xbb5dc518	-0.00338394
27	0xbb7af288	-0.0038291533
28	0x3dafcabb	0.0858359
29	0xbdd8d881	-0.1058817
30	0x3dc7521c	0.09732458
31	0xbdf4a6a2	-0.11945845
32	0x3d911f37	0.07086032
33	0xbdd8ee2d	-0.105923034
34	0xb9653ae0	-0.00021861074
35	0x3d393466	0.045215987
36	0xbcd45242	-0.02591813
37	0x3d85af44	0.0652757
38	0x3df3d36d	0.11905561
39	0x3d9c4f33	0.076322936
40	0xbe2934aa	-0.16523996
41	0xbda12a98	-0.07869452
42	0xbdfbc60f	-0.12293636
43	0xbd92bceb	-0.071649395
44	0x3d0fba16	0.035089575
45	0x3da684db	0.08130809
46	0xbdd08511	-0.101816304
47	0xbb9d8afd	-0.0048078285
48	0xbd943098	-0.07235831
49	0x3e214073	0.15747242
50	0xbdc5abf9	-0.09651942
51	0x3d213f72	0.039367147
52	0x3db8d8a3	0.09025695
53	0xbd58d9db	-0.05294214
54	0x3da3a80a	0.07991035
55	0x3d9a1a89	0.075245924
56	0x3da45e0b	0.0802575
57	0xbe19cfa3	-0.15020613
58	0xbd1c7c81	-0.038204674
59	0x3d2c1f71	0.042022172
60	0xbe15c75c	-0.14626831
61	0xbd80df47	-0.06292587
62	0xbe083b9a	-0.13303986
63	0x3dcdb30e	0.100439176
64	0x3c02b01e	0.00797656
65	0xbd202465	-0.03909721
66	0xbcffcd4e	-0.031225827
67	0x3ecbdb87	0.39815924
68	0xbd2804c3	-0.041020166
69	0xbdb22ca6	-0.08699922
70	0x3d8c67b0	0.06855714
71	0xbdc237d6	-0.09483306
72	0x3c91e1b8	0.017807826
73	0x3d9f665d	0.07783196
74	0x3d8510fc	0.0649738
75	0x3ddcceae	0.107816085
76	0x3c9e11ce	0.0192956
77	0x3d7a0381	0.061038498
78	0xbe8082ae	-0.250997
79	0xbdf4f57a	-0.119608834
80	0xbbe2652b	-0.006909033
81	0xbe492aa5	-0.19645174
82	0xbe06785c	-0.13131851
83	0x3d08a861	0.033363704
84	0x3d55d779	0.052207444
85	0x3d3574c4	0.04430081
86	0xbe28e7de	-0.164947
87	0xbd88bb68	-0.0667637
88	0x3e01d0a3	0.12677245
89	0x3e07a9fd	0.13248439
90	0xbd3cb49f	-0.04607069
91	0x3da78d09	0.08181197
92	0x3e45fc0f	0.19334434
93	0x3bf10fc1	0.0073566143
94	0xbcef4a04	-0.029210098
95	0xbcc57f9a	-0.024108697
96	0x3e378267	0.17920838
97	0xbd325250	-0.04353553
98	0xbe0868c8	-0.13321221
99	0x3d6400e1	0.0556649
100	0x3e565e6c	0.20934457
101	0xbd31b17e	-0.04338216
102	0x3dc271f9	0.09494395
103	0xbdad6b9f	-0.08467793
104	0x3dff449e	0.124642596
105	0xbe0ff09d	-0.1405663
106	0x3dcd3548	0.10019928
107	0x3a4747fe	0.0007601975
108	0xbe0682a0	-0.13135767
109	0xbda49218	-0.08035678
110	0xbd8fde86	-0.07024865
111	0x3a7089e2	0.00091758196
112	0xbc9cdf59	-0.01914947
113	0xbe1ae98d	-0.15128155
114	0xbb24ef90	-0.0025167204
115	0xbcc69ae2	-0.024243776
116	0xbd23614a	-0.039887704
117	0xbdd3988a	-0.10331829
118	0xbd9cf7e2	-0.076644674
119	0x3c55da42	0.013052525
120	0xbe004184	-0.12524992
121	0xbe0854a6	-0.13313541
122	0x3d5288d5	0.051400024
123	0x3d3a3194	0.045457438
124	0xbcf9e3fb	-0.030504217
125	0xbdf9fc15	-0.12206284
126	0xbe25bf11	-0.16186167
127	0xbdb56768	-0.08857614
128	0xbb8b3953	-0.004248777
129	0xbe077f7c	-0.13232225
130	0x3d80aa65	0.062825
131	0x3e54eac2	0.20792678
132	0xbdbe7067	-0.09298783
133	0xbc59aaf9	-0.013285392
134	0x3dc71f9d	0.09722827
135	0x3d53fb01	0.051753048
136	0xbe1d83ce	-0.15382311
137	0x3d8a111e	0.06741546
138	0x3e1d8bd7	0.15385376
139	0x3d5fb205	0.054613132
140	0xbd5c5a5f	-0.053797122
141	0x3a0199f5	0.0004943901
142	0x3dab02db	0.08350154
143	0xbd5cb4e3	-0.053883445
144	0x3c183743	0.009290519
145	0xbd1166ac	-0.035498306
146	0xbdbabac2	-0.091176525
147	0x3cb77b9c	0.022397809
148	0x3c3e06d3	0.011598307
149	0xbd6c5c75	-0.05770536
150	0x3e36ac67	0.17839204
151	0x3c167d06	0.009185081
152	0xbe8355f7	-0.25651523
153	0x3b5a447c	0.003330498
154	0xbd4c5c4c	-0.04989271
155	0xbde7cd45	-0.11318449
156	0xbd21d6d6	-0.039511524
157	0xbdc04f55	-0.093901314
158	0x3ce4462b	0.02786549
159	0x3b1afe04	0.002364994
160	0x3d2e5180	0.042558193
161	0x3dde23e1	0.10846687
162	0xbcaf27fd	-0.021381373
163	0x3d945f2d	0.07244716
164	0xbd7e47ac	-0.06208007
165	0xbc45411d	-0.01203945
166	0xbd94d404	-0.07267001
167	0x3dbc65ce	0.09199105
168	0xbd45c148	-0.04828003
169	0x3e5fc02d	0.21850653
170	0x3d47534c	0.048663422
171	0x3d1032a0	0.03520453
172	0xbe188c65	-0.14897306
173	0xbc94e1d5	-0.018174091
174	0x3d4b5b7a	0.049647786
175	0xbb7a7a3f	-0.0038219837
176	0x3cd720c6	0.026260745
177	0x3d0014bb	0.03126977
178	0xbd106b13	-0.035258364
179	0x3e0605ca	0.13088146
180	0x3ccb3cb2	0.024809215
181	0xbcf0ba2b	-0.029385647
182	0xbd7c0221	-0.061525468
183	0x3c9ff030	0.01952371
184	0x3d23f017	0.04002389
185	0xbe344ffe	-0.1760864
186	0x3da66727	0.081251435
187	0x3dbfcb69	0.09364969
188	0xbe0a4f69	-0.13506855
189	0xbe06b68c	-0.13155574
190	0x3dacbffc	0.084350556
191	0x3e035694	0.12825996
192	0x3d1a9d45	0.03774764
193	0xbd9e1778	-0.0771932
194	0x3dd0b3c6	0.10190539
195	0xbd85fe3b	-0.06542631
196	0xbe333388	-0.17500126
197	0xbebf6454	-0.37381232
198	0x3d6b40af	0.057434734
199	0x3dcf39f7	0.10118478
200	0xbd4ee80f	-0.050514277
201	0x3dcf2dbc	0.10116145
202	0xbd82dc28	-0.06389648
203	0xbddf1278	-0.108921945
204	0xbd911351	-0.070837624
205	0xbd270c1c	-0.040783033
206	0xbe17ba04	-0.14817053
207	0xbdd2b781	-0.10288907
208	0x3d625dad	0.055265117
209	0xbe499434	-0.19685441
210	0xbe14d726	-0.14535198
211	0xbd26e801	-0.0407486
212	0xbbea30a6	-0.0071469126
213	0x3dbdcddf	0.092677824
214	0xbe3e1dc2	-0.18566039
215	0xbc7afc25	-0.015318905
216	0x3d86cd4a	0.065821245
217	0xbce58d19	-0.028021382
218	0x3ef60065	0.48047176
219	0xbccc085a	-0.024906326
220	0xbd1e272e	-0.038611583
221	0x3c010c12	0.007876413
222	0x3ded8552	0.115976945
223	0x3da347ac	0.07972655
224	0xbd8aa66f	-0.06770026
225	0xbd1bc68b	-0.038031142
226	0x3d876fdd	0.06613133
227	0xbbb9c080	-0.0056686997
228	0x3c8b2424	0.016985007
229	0xbe3175aa	-0.17330042
230	0xbe0e9bba	-0.13926592
231	0xbd58e904	-0.052956596
232	0x3e271b47	0.16318999
233	0xbe9b71a7	-0.30360147
234	0xbdad36b5	-0.084577
235	0xbcd29d85	-0.025709877
236	0xbcf296fe	-0.029613014
237	0xbd4c3f37	-0.049864974
238	0xbdb0946f	-0.086220615
239	0x3e3a6ffc	0.18206781
240	0x3e144c96	0.1448234
241	0xbdf1f8e1	-0.11815048
242	0xbd892799	-0.06697006
243	0xbe482465	-0.19545133
244	0x3d4347b9	0.047675822
245	0xbe4e47d4	-0.20144588
246	0x3dd6376d	0.104597904
247	0x3e52d434	0.20588762
248	0xbdd8d838	-0.105881155
249	0xbde145bc	-0.10999629
250	0x3e09c5c0	0.13454342
251	0xbd917b62	-0.071036115
252	0x3e87787a	0.26459104
253	0x3da6b943	0.081408046
254	0x3df6dfe0	0.120544195
255	0x3d437c3f	0.047725912

l4/W f4 [16, 256]
0	0x3debf60e	0.115215406
1	0x3e0ad668	0.13558352
2	0x3dd8e91c	0.10591337
3	0xbc9036ac	-0.017604195
4	0xbe8e2f93	-0.2777067
5	0xbe9bd9d2	-0.3043962
6	0xbe809ba1	-0.25118735
7	0xbea9b0d6	-0.33142728
8	0xbe040ea7	-0.12896214
9	0x3e70e753	0.23525743
10	0xbe36dd1c	-0.17857784
11	0xbcd3095c	-0.025761299
12	0x3da3eaa0	0.080037355
13	0xbe9ac19b	-0.30225834
14	0x3e57cc3f	0.21074007
15	0x3dbd94d9	0.09256906
16	0x3dc13d8e	0.09435569
17	0xbd2ab803	-0.041679394
18	0x3d4c4513	0.04987056
19	0xbead7c6c	-0.3388399
20	0x3e96195e	0.2931623
21	0xbec581ae	-0.385755
22	0xbd54e8c4	-0.051979795
23	0x3d75e918	0.06003675
24	0xbce69e3a	-0.02815162
25	0x3e8c90d4	0.27454245
26	0xbc9e48c6	-0.01932181
27	0x3ebec94a	0.37262946
28	0x3cea8466	0.028627586
29	0x3e15ec08	0.1464082
30	0x3ca6cee8	0.020362332
31	0xbd02a336	-0.03189393
32	0x3d923937	0.07139819
33	0x3e0cbced	0.13743944
34	0x3d8208a1	0.06349302
35	0x3e202e62	0.15642694
36	0x3ea27dfb	0.3173674
37	0x3d8183a7	0.06323939
38	0x3ebea3c1	0.3723431
39	0xbe706a43	-0.23478036
40	0x3ec2495d	0.37946597
41	0x3e73f67b	0.23824494
42	0xbd0423ec	-0.03226082
43	0x3e82fb6a	0.2558244
44	0xbd318e3a	-0.04334853
45	0x3dc5568b	0.096356474
46	0x3ea601a1	0.32423118
47	0x3e1d09bf	0.15335749
48	0x3e5e43bb	0.21705525
49	0x3e141d81	0.1446438
50	0xbd5de0c6	-0.05416944
51	0x3d01e311	0.031710688
52	0xbd910bc7	-0.070823245
53	0x3e750a6b	0.23929755
54	0xbec1afda	-0.37829477
55	0x3dae6517	0.08515375
56	0x3e8c850a	0.2744525
57	0xbdb25d1c	-0.087091655
58	0xbe11aa97	-0.14225231
59	0xbed0e766	-0.40801543
60	0xbe41a20e	-0.18909475
61	0x3e392011	0.18078639
62	0xbd8c23dd	-0.06842778
63	0xbe3d0aa2	-0.18461087
64	0xbe2b5d09	-0.16734709
65	0x3b98ceae	0.00466331
66	0xbe1f7c51	-0.15574767
67	0xbe756522	-0.2396436
68	0x3d6d152b	0.057881515
69	0x3e999922	0.29999644
70	0x3d95de6b	0.073178135
71	0x3eac8425	0.33694568
72	0xbec55fd4	-0.38549674
73	0x3df035c3	0.11729004
74	0xbea328ef	-0.31867167
75	0xbd63fe61	-0.055662517
76	0xbdeba3e7	-0.11505871
77	0x3d2e5cc1	0.042568926
78	0xbe24fd0b	-0.16112153
79	0x3e22db33	0.1590393
80	0xbe2bd300	-0.16779709
81	0xbeaac9cb	-0.3335708
82	0xbb42b001	-0.0029706957
83	0xbedea3ca	-0.43484336
84	0xbe295ba8	-0.1653887
85	0xbdff74d4	-0.12473455
86	0x3c326f39	0.010890775
87	0xbdc3684b	-0.09541377
88	0xbec46e1d	-0.3836526
89	0x3ca6228e	0.020280149
90	0x3ed4b7fc	0.4154662
91	0xbdeda81e	-0.116043314
92	0x3e67cdfb	0.22637169
93	0x3dfe3604	0.124126464
94	0x3e9bd6b1	0.30437234
95	0x3eaba776	0.335262
96	0x3d4ec22d	0.05047815
97	0xbdf1a59f	-0.11799168
98	0xbc2f3209	-0.010693082
99	0xbe55e7e9	-0.20889248
100	0xbd9d8bab	-0.07692655
101	0x3c13bbc0	0.009016931
102	0xbe00909b	-0.12555163
103	0x3dd49b8a	0.10381229
104	0x3d88f5ac	0.06687483
105	0xbdec4e65	-0.1153839
106	0xbc9e539f	-0.019326983
107	0x3d3f056e	0.046636038
108	0x3c4baf9c	0.012432005
109	0x3e18bbb3	0.14915352
110	0xbe1c63b9	-0.15272416
111	0xbe326555	-0.17421468
112	0xbe83abaa	-0.25716907
113	0xbcff411b	-0.031158974
114	0x3e014d5b	0.12627165
115	0x3ee5e144	0.44898427
116	0x3eb80891	0.35944036
117	0x3d05e1df	0.03268611
118	0xbea168b0	-0.31525183
119	0xbe7895a9	-0.24275841
120	0xbe25c200	-0.16187286
121	0xbe30b3a9	-0.17256035
122	0x3e816646	0.2527334
123	0x3dffe817	0.124954395
124	0x3d344fa5	0.044021267
125	0x3e22bfa3	0.15893416
126	0xbecbfc85	-0.39841095
127	0x3d8205e2	0.06348778
128	0xbcc85f62	-0.024459545
129	0x3e08b55e	0.13350436
130	0x3e01e94b	0.1268665
131	0x3e0509e9	0.12992062
132	0x3e2a8aca	0.16654506
133	0x3e074f6b	0.1321389
134	0x3e620ddc	0.220756
135	0xbe048d86	-0.12944612
136	0x3cde0d52	0.027105961
137	0xbf07c455	-0.53033954
138	0x3d34f19c	0.04417573
139	0xbd3700e1	-0.044678573
140	0x3e0adb08	0.13560116
141	0xbeee94ae	-0.4659781
142	0xbe72f4c9	-0.2372619
143	0x3e4114d3	0.188556
144	0xbcfdf067	-0.030998422
145	0xbe9e7340	-0.30947304
146	0x3d4a21bf	0.04934859
147	0xbd1af119	-0.037827585
148	0x3e48f57a	0.19624892
149	0x3e122e7b	0.14275543
150	0xbe44bd4b	-0.19212835
151	0xbecbd4f5	-0.3981091
152	0x3e2fba01	0.17160799
153	0xbd8eb0e6	-0.069673344
154	0xbd13293c	-0.035927996
155	0xbe0f23a4	-0.1397844
156	0xbded0f6b	-0.11575206
157	0x3d97c063	0.07409742
158	0x3eb4944a	0.35269386
159	0x3e1995a3	0.14998488
160	0xbe54bda1	-0.20775463
161	0xbe85fcb5	-0.26169363
162	0x3e431dbf	0.19054316
163	0x3d868d33	0.065699
164	0xbe0d0b87	-0.13773929
165	0x3e172538	0.14760292
166	0xbdfda188	-0.12384325
167	0x3e6bb4a7	0.23018132
168	0xbe48896f	-0.19583677
169	0x3c926f40	0.017875314
170	0x3e5bd988	0.214697
171	0xbe90565f	-0.28190896
172	0x3da10b7c	0.078635186
173	0xbe18c3c8	-0.14918435
174	0x3e8bd68e	0.2731213
175	0x3ca4daf6	0.02012394
176	0x3d47cb44	0.048777834
177	0x3e328b17	0.17435871
178	0x3e1a3e57	0.15062843
179	0xbeb1bbc4	-0.34713566
180	0x3dfe64c0	0.1242156
181	0xbe4efeb4	-0.20214349
182	0xbe0b44eb	-0.13600509
183	0x3d5bac11	0.053630892
184	0xbd927c49	-0.07152612
185	0xbe7a103b	-0.24420254
186	0x3e57568d	0.2102911
187	0xbe6bfe23	-0.23046164
188	0xbb95c147	-0.0045701596
189	0xbefe9a7d	-0.4972724
190	0x3e817754	0.25286353
191	0x3d3a7a50	0.045526803
192	0xbf0aafeb	-0.5417468
193	0x3d292646	0.041296266
194	0x3dbf8e40	0.09353304
195	0xbe42b34c	-0.19013709
196	0x3df0c780	0.117568016
197	0x3e0a7495	0.13521035
198	0x3d44a108	0.048005134
199	0xbea3c457	-0.31985733
200	0xbcbca775	-0.023029068
201	0x3e2fb464	0.17158657
202	0xbe96e8d9	-0.29474524
203	0xbdbdc339	-0.092657514
204	0xbe82c6bd	-0.2554225
205	0x3de03243	0.10947087
206	0x3ede47a4	0.43414032
207	0xbe10e4dc	-0.14149803
208	0xbd986d31	-0.074427016
209	0xbe19d5c4	-0.15022951
210	0xbd070389	-0.032962356
211	0xbe138b1f	-0.14408539
212	0xbe9f223a	-0.310808
213	0x3d4d3944	0.05010344
214	0xbe853f8a	-0.2602504
215	0x3e002591	0.1251433
216	0x3d10eea1	0.035383824
217	0xbe1368c0	-0.14395428
218	0x3e6a3192	0.22870472
219	0xbe4d68a3	-0.20059447
220	0x3e2e2552	0.17006424
221	0x3e4f205d	0.2022719
222	0x3e4cff96	0.20019373
223	0x3ddbd35d	0.10733674
224	0x3e1e2fe7	0.15447961
225	0xbea21fe3	-0.31664953
226	0xbd9e5efc	-0.077329606
227	0xbf071eb1	-0.52781206
228	0xbe00e551	-0.12587477
229	0x3dd43ca6	0.1036313
230	0x3cb100e5	0.021606872
231	0x3db7a04c	0.08966121
232	0x3dc559b3	0.096362494
233	0xbe08b313	-0.13349561
234	0x3df9bbdf	0.12194037
235	0x3d1564de	0.036473148
236	0xbd86ded1	-0.065854676
237	0xbdc117e6	-0.094283864
238	0xbee1734c	-0.44033277
239	0x3eada28f	0.33913085
240	0x3e55414c	0.2082569
241	0xbe3bbb67	-0.18333207
242	0x3e5fcdbc	0.21855825
243	0x3ebc5e9f	0.3679094
244	0x3d88f7e6	0.06687908
245	0xbd9c273b	-0.0762467
246	0x3e567b78	0.20945537
247	0x3e3fff7c	0.18749803
248	0xbe37414a	-0.17896
249	0xbdbb0003	-0.091308616
250	0xbdf1a1f0	-0.11798465
251	0x3e051259	0.1299528
252	0xbd2c1dbc	-0.042020544
253	0x3e447b67	0.191877
254	0xbe09f3c2	-0.13471892
255	0xbd3e86d8	-0.046515316

l2/W f4 [256, 256]
0	0x3b9ebeac	0.004844507
1	0xbe21246c	-0.1573655
2	0xbd48d3ed	-0.049030233
3	0x3e3effa1	0.18652202
4	0x3cda3d17	0.026640458
5	0x3ad0581d	0.00158954
6	0x3cec9ba1	0.028882803
7	0xbc701bf1	-0.014655099
8	0x3e043672	0.12911394
9	0xbe637545	-0.22212704
10	0xbd7e7ee7	-0.062132742
11	0x3db9decb	0.090756975
12	0xbdab1f0f	-0.08355533
13	0x3e0b5f5b	0.13610594
14	0xbd96a82a	-0.073562935
15	0x3e01a010	0.12658715
16	0x3e524a06	0.2053605
17	0x3e083ed3	0.13305216
18	0xbe3cb9c9	-0.18430246
19	0xbd911696	-0.07084386
20	0x3bb7c64f	0.005608357
21	0x3dee22eb	0.11627754
22	0xbe89ce19	-0.26915053
23	0x3c235c9c	0.00997081
24	0x3e065b4a	0.13120762
25	0xbddb285e	-0.10701059
26	0xbc9ac302	-0.018891815
27	0xbe038566	-0.12843856
28	0x3dd748c4	0.10511926
29	0xbc94acad	-0.018148744
30	0x3d893ad5	0.067006744
31	0xbe0992ba	-0.13434878
32	0xbddc438e	-0.107550725
33	0xbc4cb52b	-0.012494366
34	0xbd966c28	-0.07344848
35	0xbd84c3c1	-0.064826496
36	0xbcc00607	-0.023440374
37	0xbbe81088	-0.007082049
38	0xbd8ffe10	-0.070308805
39	0xbdf9ce69	-0.12197573
40	0xbd2c8a8e	-0.042124324
41	0x3e2ce6dc	0.16884941
42	0xbd4437ab	-0.04790465
43	0xbdd0eaee	-0.10201059
44	0x3dede25f	0.116154425
45	0x3bb79866	0.005602884
46	0x3da52966	0.08064537
47	0x3d242d76	0.040082417
48	0xbbd34cab	-0.0064483485
49	0x3d4adc50	0.049526513
50	0xbd984fe4	-0.07437113
51	0x3da457ca	0.08024557
52	0x3e1923cb	0.1495506
53	0xbcaf64ad	-0.02141031
54	0x3e003bea	0.12522855
55	0x3e0d5e0f	0.13805412
56	0xbd9dc0e8	-0.077028096
57	0x3dfcc81f	0.123428576
58	0xbd455538	-0.048176974
59	0xbdcbe6d3	-0.099561356
60	0xbc6d9172	-0.014500009
61	0x3cadd0ff	0.021217821
62	0xbcbf58ea	-0.023357827
63	0x3c965e80	0.018355608
64	0x3d17454d	0.036931325
65	0xbda813e9	-0.082069226
66	0x3e9990e9	0.2999337
67	0x3d6b7356	0.05748304
68	0x3d4d54f0	0.05012983
69	0xbdf1a4b4	-0.11798993
70	0xbdf9fb7a	-0.122061685
71	0x3e516ff2	0.2045286
72	0xbcc58e66	-0.024115752
73	0xbe0f2e16	-0.13982424
74	0x3e863468	0.26211858
75	0xbd49a135	-0.049226005
76	0x3d5b8c8a	0.053600825
77	0xbbd42ae5	-0.00647484
78	0x3e580bf4	0.2109831
79	0xbd59038c	-0.0529819
80	0xbced62d0	-0.028977782
81	0xbcdc775d	-0.026912386
82	0xbc8e0412	-0.017335925
83	0xbddc8f8b	-0.10769566
84	0xbcfbf1f1	-0.030755015
85	0x3d9c457c	0.076304406
86	0x3cabfc83	0.02099443
87	0x3e0773f6	0.1322783
88	0xbd085f8c	-0.033294246
89	0x3ded6de6	0.11593227
90	0xbe86eeba	-0.2635401
91	0x3d3cb541	0.046071295
92	0x3d13adba	0.03605435
93	0xbd464658	-0.04840693
94	0xbe7f138c	-0.249098
95	0xbe36f1cf	-0.1786568
96	0xbcfe12e9	-0.031014876
97	0xbd53d3f3	-0.051715802
98	0x3cd09a2a	0.025464136
99	0x3e24613d	0.16052718
100	0x3d003781	0.031302933
101	0xbea7c747	-0.32769224
102	0x3d72cd22	0.05927766
103	0xbe041163	-0.12897258
104	0xbc73e920	-0.014887124
105	0x3d61e997	0.05515441
106	0x3e1df2e1	0.15424682
107	0x3d1f3b1f	0.03887474
108	0x3e0a4fc6	0.13506994
109	0x3db25345	0.08707289
110	0x3cad9ef8	0.021193966
111	0xbe19d217	-0.15021549
112	0x3d1f9ccc	0.038967893
113	0x3dead034	0.11465493
114	0x3d37d3dc	0.04487978
115	0x3e2e40ff	0.17016982
116	0x3e0e392a	0.13888994
117	0x3d715694	0.058920458
118	0xbd85dc0a	-0.0653611
119	0xbdf9b23a	-0.12192197
120	0x3d9fb2e9	0.07797796
121	0x3d441a52	0.047876664
122	0xbdb94ef9	-0.09048266
123	0x3c632c64	0.013865564
124	0xbdc14fb4	-0.0943903
125	0xbe41b661	-0.18917228
126	0x3d130711	0.03589541
127	0x3e651867	0.2237259
128	0xbdaa0cf0	-0.08303249
129	0xbc7213e4	-0.01477525
130	0xbdacaeca	-0.08431776
131	0x3d98fe71	0.07470406
132	0xbe901f5c	-0.28148925
133	0x3d25fc85	0.040524025
134	0xbb91edf8	-0.004453417
135	0xbd950191	-0.072756894
136	0x3e04a5ed	0.1295392
137	0xbd022213	-0.031770777
138	0x3e082192	0.13294056
139	0xbc1b52f2	-0.009480225
140	0x3e1accce	0.1511719
141	0x3e4abc19	0.19798316
142	0x3e1d40b5	0.15356715
143	0xbe306ed8	-0.17229784
144	0xbe0cc7aa	-0.13748041
145	0xbcb9ee45	-0.022696624
146	0xbda7fb2d	-0.08202205
147	0x3d10f544	0.035390154
148	0xbd8c84f1	-0.06861294
149	0xbdd4d3ec	-0.103919834
150	0x3cfbe600	0.030749321
151	0xbe0ad158	-0.13556421
152	0x3c8678b0	0.01641497
153	0xbcaeb987	-0.0213287
154	0x3e229821	0.15878345
155	0x3d347d21	0.044064645
156	0xbdbcad28	-0.092127144
157	0x3d303e55	0.043028194
158	0xbd222a7c	-0.039591298
159	0xbd66166a	-0.05617372
160	0xbe513ca6	-0.20433292
161	0x3dcbcf47	0.099516444
162	0xbd2b3769	-0.04180089
163	0xbddd3e37	-0.10802882
164	0xbd46373a	-0.048392512
165	0x3d087b62	0.033320792
166	0xbceeb36c	-0.02913829
167	0xbd905801	-0.070480354
168	0xbe2df82e	-0.16989204
169	0x3e0aad56	0.13542685
170	0xbd302f46	-0.043013833
171	0xbda8740b	-0.082252584
172	0xbd8ae719	-0.0678236
173	0xbd8487af	-0.06471192
174	0x3d15cacf	0.036570366
175	0xbe52f21d	-0.20600171
176	0xbbcc507e	-0.0062351814
177	0xbb59c7b5	-0.0033230607
178	0xbc81fe5c	-0.015868358
179	0xbc304498	-0.0107585415
180	0x3e371c20	0.17881823
181	0x3d209631	0.039205734
182	0x3e79df23	0.24401526
183	0xbe2b18f3	-0.16708736
184	0xbe07cfff	-0.13262938
185	0x3c32efb3	0.010921407
186	0xbb411e2c	-0.0029467447
187	0x3ce1a527	0.027544571
188	0x3d79930d	0.060931254
189	0x3e30815f	0.17236851
190	0xbc95078b	-0.018192073
191	0x3b33261f	0.0027335954
192	0xbcd5eb58	-0.026113197
193	0x3c40d0d3	0.011768538
194	0x3da1499e	0.078753695
195	0xbe77cb2e	-0.241986
196	0xbdb6db22	-0.08928515
197	0x3d7478da	0.059685566
198	0xbd98ae06	-0.07455067
199	0xbcb8a644	-0.02254022
200	0xbd2abfd6	-0.041686855
201	0x3e101d12	0.1407359
202	0x3e052733	0.13003235
203	0x3e6fe2bb	0.23426335
204	0x3ce83a63	0.028348153
205	0x3dc464ab	0.095895134
206	0xbdec8d34	-0.1155037
207	0xbd173244	-0.03691317
208	0xbde3f399	-0.11130447
209	0xbe0262db	-0.12733023
210	0x3e2c3eb3	0.16820793
211	0x3da25589	0.07926471
212	0xb9e2baff	-0.00043245402
213	0x3d99774b	0.074934565
214	0xbe0676f7	-0.13131319
215	0xbe3b2e89	-0.1827947
216	0xbd0f4a0f	-0.034982737
217	0x3e426a9a	0.18985978
218	0x3bf95ff2	0.0076103145
219	0xbd9df797	-0.0771324
220	0xbd1dc252	-0.038515396
221	0x3e0eb5ee	0.13936588
222	0x3d27452a	0.040837444
223	0x3da96865	0.08271865
224	0xbe55e5e6	-0.2088848
225	0x3e0787c9	0.13235392
226	0x3c8d0fa6	0.017219376
227	0xbd4d5de1	-0.050138358
228	0xbe1ba0f3	-0.15198116
229	0xbe6203ad	-0.22071715
230	0x3d7dfebd	0.062010515
231	0xbd709717	-0.05873784
232	0x3cbaa820	0.022785246
233	0x3dc12f2b	0.09432825
234	0x3e60c64e	0.21950647
235	0x3d26edb5	0.04075404
236	0xbdb2b4d0	-0.087258935
237	0xbe1a5b75	-0.1507395
238	0xbbbbf26f	-0.0057356874
239	0x3d5bff3b	0.053710204
240	0xbdc12cc0	-0.094323635
241	0xbd717dd9	-0.05895791
242	0xbd2860a7	-0.0411078
243	0x3e1e7527	0.15474378
244	0xbbbfa9aa	-0.005849083
245	0x3cc0f750	0.023555428
246	0x3d801ba1	0.0625527
247	0xbdbf92ca	-0.0935417
248	0x3dd87492	0.10569109
249	0xbe02ef43	-0.12786584
250	0xbe2b03f4	-0.16700727
251	0xbdc3a59d	-0.095530726
252	0x3a6a2b5b	0.0008932852
253	0xbdff99fe	-0.124805436
254	0xbe2c8c87	-0.16850482
255	0x3d5f7198	0.05455169

l1/b f4 [256]
0	0xbd5ba08c	-0.053619906
1	0xbe19f744	-0.1503573
2	0x3d1a993f	0.037743803
3	0xbdcc2e32	-0.099697486
4	0xbbb01cc6	-0.005374524
5	0x3b0cbcbb	0.0021474797
6	0xbe1cd9d6	-0.15317473
7	0x3d254584	0.0403495
8	0xbb64276b	-0.0034813534
9	0xbe6d330e	-0.23164007
10	0x3e6fcba2	0.23417524
11	0x3e0b508d	0.13604946
12	0xbe346690	-0.1761725
13	0x3c0b737c	0.00851142
14	0xbe5d132b	-0.21589343
15	0xbbf05471	-0.007334285
16	0xbd9d9a8e	-0.076954946
17	0x3db85dfd	0.09002302
18	0x3cd19faf	0.025588838
19	0xbd3a6699	-0.045508
20	0xbec747b0	-0.3892188
21	0x3db8dc65	0.09026412
22	0xbdeaee4e	-0.11471234
23	0xbdea045f	-0.11426615
24	0xbda5e9d8	-0.08101243
25	0x3cd99af3	0.026563143
26	0x3c89e57b	0.016833058
27	0x3d8eeb47	0.06978469
28	0x00000000	0.0
29	0xbc4a576c	-0.012349945
30	0x3d13b982	0.036065586
31	0xbcd44d0a	-0.025915641
32	0xbe618225	-0.22022302
33	0x3d80d77c	0.062911004
34	0xbe774a4c	-0.24149436
35	0xbc2b99f6	-0.010473719
36	0xbbe0606e	-0.006847433
37	0x3cbedb49	0.023297923
38	0x3d8297e6	0.063766286
39	0xbca8f1c2	-0.020623092
40	0x3d7a5edd	0.061125625
41	0xbb847e9a	-0.0040434124
42	0xbe8b5c65	-0.2721893
43	0xbdf5eb4e	-0.120077714
44	0x3da70869	0.08155901
45	0xbdfd292e	-0.1236137
46	0x3caedb38	0.021344766
47	0x3c4500b9	0.012024098
48	0x3d12a42b	0.035801094
49	0x3d8702a2	0.06592299
50	0xbcdc0de0	-0.026862085
51	0x3dad838f	0.084723584
52	0xbee2c2ee	-0.44289345
53	0x3d6fa3e1	0.058505896
54	0xbda29970	-0.07939422
55	0x3cbe31c6	0.023217093
56	0xbe5c0c19	-0.2148899
57	0x3d3a5208	0.045488387
58	0xbcaad928	-0.020855501
59	0xbdbc83fd	-0.09204862
60	0xbdfc2af0	-0.12312877
61	0x3d511afb	0.05105112
62	0x3d96486a	0.07338031
63	0x3bf15fce	0.007366157
64	0x3ce916aa	0.02845319
65	0x3ca06e86	0.019583952
66	0xbcfc2b93	-0.030782497
67	0x3b92254c	0.0044600125
68	0xbdb452a2	-0.088048235
69	0x3d2d0948	0.04224518
70	0x3b8e19c6	0.0043365685
71	0xbdd7d5df	-0.105388395
72	0xbd080411	-0.033207003
73	0x3dc3ca7a	0.09560104
74	0xbdabec37	-0.08394664
75	0x3d43ee59	0.047834728
76	0xbd9e3342	-0.077246204
77	0xbd0bce5f	-0.034132358
78	0xbcbc4e1a	-0.02298646
79	0xbe0bf4f2	-0.13667658
80	0x3d8d692e	0.06904827
81	0x3cc46509	0.023973959
82	0xbe800a90	-0.2500806
83	0x3cf14aa4	0.029454537
84	0x3cd5fc23	0.026121205
85	0x3de35f63	0.11102178
86	0xbd4bba57	-0.049738254
87	0x3ce8d5ec	0.028422318
88	0xbdc8701e	-0.0978701
89	0xbe8a2af6	-0.26985902
90	0xbeb3af67	-0.3509476
91	0x3db2e363	0.08734777
92	0xbdb9bcf7	-0.09069245
93	0x3dfe9249	0.124302454
94	0xbced3db5	-0.028960088
95	0xbc006e71	-0.007838831
96	0xbe73bf6d	-0.23803492
97	0xbd59b1df	-0.053148147
98	0x3b861314	0.0040916298
99	0x3d686077	0.05673262
100	0x3ce44e97	0.027869506
101	0xbb06640b	-0.0020506408
102	0x3cfaee02	0.03063107
103	0x3d725f76	0.05917307
104	0xbdbe32b2	-0.09287013
105	0x3c52ca25	0.012865578
106	0x3ddddc42	0.108330265
107	0x3cdf50d5	0.027260223
108	0x3d93af8a	0.07211216
109	0xbcc4fa4b	-0.02404513
110	0xbc354cce	-0.011065675
111	0xbdda9ec6	-0.10674815
112	0x3dceb11d	0.100923754
113	0x3d264af4	0.040598825
114	0xbea75bb9	-0.32687166
115	0x3bc6395a	0.0060493173
116	0x3e07ea22	0.13272908
117	0xbd514f34	-0.051100925
118	0x3c81e9fb	0.01585864
119	0xbe81c267	-0.2534363
120	0xbcb5c954	-0.022190727
121	0x3db5740b	0.08860024
122	0xbc5bc3a5	-0.0134133445
123	0x3cf84c58	0.030309841
124	0xbbf1a931	-0.0073749055
125	0xbb428662	-0.002968215
126	0x3dbac6a4	0.09119919
127	0x3e161b9b	0.14658968
128	0x3d318225	0.043337006
129	0x3d4ff6ea	0.050772585
130	0xbde93713	-0.11387458
131	0x3e10ffdb	0.14160101
132	0xbe7119f5	-0.23545058
133	0x3d27e3e5	0.04098882
134	0xba8c8ff5	-0.0010724055
135	0xbe36419b	-0.17798464
136	0x399ad804	0.00029534113
137	0xbd398df8	-0.045301408
138	0xbdc9d33c	-0.09854743
139	0x3d773d76	0.060361348
140	0x3cc0ebaa	0.023549873
141	0x3d87e62a	0.06635697
142	0x3d5ab8a7	0.053398754
143	0x3dba61b0	0.09100664
144	0xbcae3872	-0.02126715
145	0x3db2c5e8	0.08729154
146	0x3d80b897	0.06285208
147	0xbe86dee5	-0.2634193
148	0x3d561c24	0.05227293
149	0x3daa9e3e	0.083309636
150	0xbe25328e	-0.16132566
151	0xbde0c78a	-0.10975559
152	0x3c52da4f	0.012869432
153	0xbeb38196	-0.35059804
154	0x3d4c1318	0.049822897
155	0xbb69179e	-0.0035567055
156	0x3e3423a9	0.17591728
157	0xbdce07c3	-0.10060074
158	0x3e1c51be	0.15265557
159	0x3a2647a7	0.00063430745
160	0xbb422353	-0.0029623106
161	0x3ceacf2d	0.028663242
162	0x3d8e576c	0.06950268
163	0xbd124c1d	-0.03571712
164	0xbddd8c63	-0.10817792
165	0xbe87922a	-0.26478702
166	0x3dcfb33f	0.1014161
167	0x3e06b797	0.13155971
168	0xbd7c69f1	-0.06162447
169	0xbd42d7f5	-0.047569234
170	0x3dbad81e	0.09123252
171	0xbe28c10c	-0.16479892
172	0x3cf3d2ca	0.029763598
173	0x3c9571cf	0.018242745
174	0xbc005054	-0.007831652
175	0xbe4c157c	-0.1993007
176	0xbeada951	-0.3391824
177	0x3d0ead1c	0.03483306
178	0x3d81ba47	0.06334358
179	0xbe2072d2	-0.156688
180	0x3e1771cb	0.14789502
181	0xbe604d54	-0.21904498
182	0xbe6a2a02	-0.22867587
183	0xbd301fd0	-0.04299909
184	0xbd921149	-0.07132203
185	0xbe8dcc7e	-0.27695078
186	0xbe4618a6	-0.1934534
187	0x3bd23294	0.006414721
188	0x3b4b76e5	0.0031046208
189	0x3d541c02	0.051784523
190	0x3d96918f	0.07351982
191	0xbe92a2c9	-0.2863982
192	0x3cd6d9a0	0.026226819
193	0xbce83039	-0.028343307
194	0xba3768d2	-0.00069965154
195	0x3ce23c41	0.027616622
196	0x3e47ab8f	0.19499038
197	0xbdc4f219	-0.09616489
198	0xbd37f85f	-0.0449146
199	0x3dd84660	0.10560298
200	0xbe17a147	-0.14807616
201	0x3dc56f26	0.096403405
202	0x3d1a82ca	0.037722386
203	0x3d2a2390	0.04153782
204	0x3dd1a86e	0.102372035
205	0x3e232c48	0.1593486
206	0x3c9148c7	0.017734898
207	0x3e1272e1	0.14301635
208	0xbaa5201b	-0.0012598069
209	0x3db62913	0.08894553
210	0xbe55ec7e	-0.20890996
211	0x3d9b36cd	0.07578812
212	0x3dbb28d0	0.09138644
213	0x3cf5ad27	0.029989792
214	0xbe93b76b	-0.28850874
215	0x3dba9381	0.091101654
216	0xbd7da305	-0.061923046
217	0xbc6b9ab8	-0.01438015
218	0x3d82f700	0.06394768
219	0xbc98a119	-0.018631505
220	0xbea5c6f6	-0.32378358
221	0x3d5457a1	0.051841382
222	0x3d45f3a1	0.048328046
223	0x3d790b83	0.060801994
224	0x3d973784	0.07383636
225	0xbbcc1720	-0.0062283427
226	0xbe282526	-0.16420421
227	0xbc45a6c3	-0.012063685
228	0xbdca60e4	-0.09881762
229	0x3d15e3bd	0.03659414
230	0x3df0ccfa	0.11757846
231	0x3d5628df	0.05228507
232	0xbd9cba77	-0.07652753
233	0xbe54e50c	-0.207905
234	0x3cd855eb	0.026408156
235	0x3c1688b9	0.009187871
236	0xbda4a05a	-0.08038397
237	0x3d284683	0.04108287
238	0xbda9a489	-0.08283336
239	0xbc9121af	-0.017716257
240	0x3dc94cdc	0.09829113
241	0xbe4db05b	-0.20086806
242	0xbb77c01a	-0.003780371
243	0x3d7c6903	0.061623584
244	0xbd9f25b2	-0.07770862
245	0x3d3dbf82	0.046325214
246	0xbe1b6ba1	-0.15177776
247	0xbd79cd0e	-0.06098657
248	0x3ab2351d	0.0013596151
249	0x3dc15431	0.09439886
250	0xbd8b0c02	-0.067894
251	0x3ba24a2f	0.004952691
252	0xbeb36f8d	-0.35046044
253	0xbe90a5d5	-0.2825152
254	0xbdc1b517	-0.09458368
255	0xbe41d22f	-0.18927835

l3/b f4 [256]
0	0x3de5ad1e	0.1121466
1	0xbb594b59	-0.0033156483
2	0xbd0c57ef	-0.034263548
3	0xbd80479a	-0.06263657
4	0xbd9962c5	-0.07489542
5	0x3d2e7caa	0.042599358
6	0xbc9e3ed5	-0.01931707
7	0xbc94bea0	-0.018157303
8	0xbd1a2a0c	-0.037637755
9	0x3b4a2fb7	0.0030851194
10	0x3b67bf0c	0.0035361676
11	0xbccfd8d4	-0.025371946
12	0x3d7f6608	0.062353164
13	0xbd7b8e43	-0.06141497
14	0x3d391dc9	0.04519442
15	0x3ce99e86	0.028517973
16	0xbd0bbbd9	-0.034114692
17	0xbda70ae9	-0.08156378
18	0x3c32798f	0.01089324
19	0x3d6807ae	0.05664795
20	0x3d1baffa	0.03800962
21	0xbd975a63	-0.07390287
22	0xbd4a53ec	-0.04939644
23	0xbbfddda9	-0.007747371
24	0x3d13e977	0.03611132
25	0x3d81c4f8	0.06336397
26	0x3d1dc0bc	0.038513884
27	0xbda492d4	-0.08035818
28	0x3d1bd669	0.038046274
29	0xbcccb9e7	-0.024990989
30	0x3d541663	0.051779162
31	0xbcf9f22c	-0.030510984
32	0xbcc46ec7	-0.023978604
33	0xbdcaae03	-0.09896471
34	0xbd8c50d7	-0.068513565
35	0x3d131762	0.03591097
36	0xbdafdbcb	-0.08586844
37	0x3d75354c	0.05986528
38	0xbc4aadc1	-0.012370528
39	0xbddca049	-0.107727595
40	0x3dc8814e	0.09790288
41	0x3daf1a71	0.08549965
42	0x3ca4dcd2	0.020124827
43	0x3d18d472	0.03731198
44	0xbcf737b1	-0.030177923
45	0xbbd159b1	-0.006388866
46	0xbd45bd7e	-0.048276417
47	0xbcb02022	-0.021499697
48	0x3d9e4896	0.077286884
49	0xbda2f150	-0.07956183
50	0xbcf2f73a	-0.029658902
51	0x3d829190	0.0637542
52	0xbc8ef789	-0.017452018
53	0x3dd7900f	0.10525524
54	0xbbf2a878	-0.007405337
55	0x3bada992	0.0052997554
56	0x3b752333	0.0037405014
57	0x3a80da0e	0.000983061
58	0x3d2ae61f	0.041723367
59	0xbdb2cf1c	-0.08730909
60	0x3c016399	0.007897281
61	0x3c85b91c	0.016323619
62	0xbcf099b7	-0.029370172
63	0xbda7b93b	-0.08189627
64	0xbd583d25	-0.052792687
65	0x3cc38a36	0.023869615
66	0xbd63a36b	-0.05557577
67	0xbce6f1ab	-0.028191408
68	0xbd1fd24f	-0.039018925
69	0x3da4cbd6	0.08046691
70	0x3d4c3c3c	0.04986213
71	0xbd11d705	-0.03560545
72	0xbd573fca	-0.05255107
73	0xbcb4af5c	-0.022056274
74	0xbda4e7fe	-0.080520615
75	0x3d0137a9	0.031547222
76	0xbd081f69	-0.03323308
77	0x3d7c57d6	0.061607204
78	0x3d3e6c65	0.04649009
79	0xbcd6a76b	-0.026202878
80	0x3ceaf4c6	0.02868117
81	0xbd3d878c	-0.046271846
82	0x3d54f146	0.05198791
83	0xbddf21ae	-0.10895096
84	0xbb24ed98	-0.002516603
85	0x3d07a301	0.033114437
86	0xbce73c3a	-0.02822696
87	0x3ccde9ed	0.025135959
88	0xbd22b69f	-0.039724942
89	0xbd9dfb81	-0.07713986
90	0xbda1db7a	-0.0790319
91	0xbb8d8629	-0.0043189717
92	0x3da8bbf3	0.082389735
93	0xbc696dad	-0.01424734
94	0x3d9b20c3	0.07574608
95	0xbd04f560	-0.03246057
96	0xbc561d7b	-0.013068552
97	0x3cf37cfc	0.029722683
98	0xbb0912a3	-0.002091565
99	0xbc552dc2	-0.013011398
100	0x3c27939f	0.010228067
101	0xbc3fb233	-0.011700201
102	0xbd7e61c6	-0.062104963
103	0xbd74fdf3	-0.059812497
104	0xbc52f646	-0.012876099
105	0xbd60ced1	-0.054884735
106	0xbd27dc2d	-0.04098146
107	0xbc8d3315	-0.017236272
108	0xbc4e8418	-0.012604736
109	0x3cd75f1e	0.026290473
110	0xbd24cdcc	-0.040235326
111	0x3d11a601	0.035558704
112	0xbdb1f902	-0.086900726
113	0xbd8ddbcf	-0.06926691
114	0xbd135234	-0.035967067
115	0xbcd7c8ea	-0.02634092
116	0xbc5a412f	-0.013321205
117	0xbd3380bd	-0.043823946
118	0x3a492222	0.00076726277
119	0xbb8d9e71	-0.004321866
120	0xbcdb3982	-0.02676082
121	0xbb3e7ad4	-0.002906491
122	0x3d6848c3	0.056710016
123	0xbd026ef2	-0.031844087
124	0x3c840dd8	0.016119882
125	0xbc10bf8b	-0.00883473
126	0xbd3d21c8	-0.046174794
127	0xbcdd0c45	-0.02698339
128	0xbc4931c2	-0.01227993
129	0xbcb8d286	-0.022561323
130	0x3d59b23f	0.053148504
131	0x3c88e536	0.016710859
132	0xbce26499	-0.02763586
133	0x3d69d4e5	0.057087798
134	0xbdc5e78e	-0.09663306
135	0x3db759bd	0.08952663
136	0xbca239e1	-0.01980299
137	0xbca0e6e1	-0.019641342
138	0x3d8b2149	0.06793458
139	0x3be1c324	0.0068897177
140	0x3c0631ea	0.008190611
141	0xbd2ad130	-0.041703403
142	0x3becdce9	0.007228483
143	0x3d394576	0.04523226
144	0xbcba9160	-0.022774398
145	0xbb9b0e37	-0.004731919
146	0xbc047fe3	-0.008087131
147	0xbd1d0c2b	-0.038341682
148	0xbc5d9141	-0.013523401
149	0x3d31193b	0.043236952
150	0xbc2aa67d	-0.01041567
151	0xbc4b093e	-0.01239234
152	0xbbad1375	-0.0052818605
153	0x3d0c113e	0.03419613
154	0xbb6c9301	-0.0036098363
155	0xbd72ab34	-0.059245303
156	0xbe0b8ee8	-0.13628733
157	0xbb9dcbe2	-0.0048155645
158	0x3cd92f85	0.026511917
159	0xbd4d528d	-0.050127555
160	0xbcd99239	-0.026558982
161	0xbc927da3	-0.017882174
162	0xbcc8f4dd	-0.024530822
163	0xbcd3b86d	-0.025844777
164	0xbd595511	-0.05305964
165	0xbcfd3d04	-0.030912884
166	0xbc868ec3	-0.016425496
167	0x3cb434ac	0.021997772
168	0x3d5bde64	0.053678885
169	0xbd3a5cca	-0.045498647
170	0xbc47ecd5	-0.012202461
171	0xbd30935d	-0.043109287
172	0xbd46d783	-0.04854537
173	0xbca17dd8	-0.019713327
174	0xbd8c752a	-0.06858285
175	0xbc275776	-0.010213723
176	0x3d91639d	0.07099078
177	0xbca35202	-0.019936565
178	0xbd28b2c5	-0.041186113
179	0xbcf92b3b	-0.030416122
180	0xbdb59561	-0.088663824
181	0xbcdcc43f	-0.026949046
182	0xbd330fc5	-0.04371621
183	0xbc3bef6a	-0.011470655
184	0xbce9ee6e	-0.028556075
185	0x3c3c4402	0.011490824
186	0xb9b79ddf	-0.00035022103
187	0xbd9eb568	-0.07749444
188	0xbd53cbce	-0.051708035
189	0xbcc6583e	-0.024211999
190	0x3d077b37	0.03307649
191	0xbd324daa	-0.043531097
192	0x3d07cede	0.03315627
193	0x3d29950c	0.041401908
194	0xbb842c20	-0.0040335804
195	0xbcc2663e	-0.023730393
196	0xbcd59e53	-0.026076471
197	0xbcf553b2	-0.029947136
198	0xbd2d3b58	-0.042292923
199	0xbcfe1de9	-0.031020122
200	0xbce92a64	-0.028462596
201	0xbb82b843	-0.003989251
202	0xbccd1103	-0.025032526
203	0xbce5973a	-0.028026212
204	0x3ca93093	0.020653045
205	0x3da2000f	0.079101674
206	0xbc31448b	-0.010819565
207	0x3b6815a7	0.0035413296
208	0x3d66b669	0.056326304
209	0x3c689d26	0.014197623
210	0xbcacbb5e	-0.021085437
211	0xbd5731b7	-0.052537646
212	0x3d9e9945	0.077440776
213	0xbd4ad92f	-0.04952353
214	0xbd535d2f	-0.05160254
215	0x3ba4721b	0.0050184852
216	0xbcd18d08	-0.025579944
217	0x3d0ef83b	0.0349047
218	0x3c0a962f	0.008458658
219	0xbdbe03d6	-0.092780754
220	0xbca1f34c	-0.019769333
221	0xbca3db64	-0.020002075
222	0xbd608c42	-0.05482126
223	0x3d09602f	0.033538993
224	0xbcefcc86	-0.029272329
225	0xbd65fe4f	-0.05615073
226	0x3d933ab0	0.07188928
227	0xbdabc16f	-0.08386504
228	0xbd0b8fde	-0.03407275
229	0x3ca2913b	0.019844642
230	0xbc97bd7b	-0.018522969
231	0x3d413566	0.047170065
232	0x3d352436	0.044223987
233	0xbdbec8ba	-0.09315629
234	0x3c2d6195	0.010582347
235	0x3d854383	0.065070175
236	0xbd2ffbec	-0.04296486
237	0xbc70d8b6	-0.014700105
238	0xbde72b25	-0.11287526
239	0xbd694886	-0.05695393
240	0xbcda0e2c	-0.026618086
241	0xbb1ed57f	-0.002423614
242	0x3d6aa8b9	0.057289813
243	0x3d3c4d0e	0.045971923
244	0x3dcfb857	0.10142582
245	0xbdb4393a	-0.087999776
246	0x3d1e534a	0.03865365
247	0x3ccb810e	0.024841812
248	0xbcd41084	-0.025886782
249	0x3c818023	0.01580817
250	0xbc921566	-0.01783247
251	0x3d0ce8b9	0.03440163
252	0xbc77bb6e	-0.01512037
253	0x3d387ffa	0.045043923
254	0xbd86081e	-0.06544517
255	0x3cdb0dbd	0.02673995

l4/b f4 [16]
0	0xbdd7138b	-0.105017744
1	0xbe3eaa40	-0.18619633
2	0xbd9c3149	-0.07626588
3	0xbd92b1d8	-0.07162827
4	0xbd8d8255	-0.069096245
5	0xbe5757eb	-0.21029632
6	0xbe40fe73	-0.18847065
7	0xbda285ce	-0.079356775
8	0xbd3d4150	-0.046204865
9	0xbe2f43ba	-0.1711568
10	0xbe390ee3	-0.18072085
11	0xbdaa0490	-0.083016515
12	0xbcaa283f	-0.020771144
13	0xbc54e289	-0.012993463
14	0xbcf50169	-0.029907899
15	0xbd5f2322	-0.054476865
