examples/ch4/reversi_DQN_CNN/agent_white_8000/target_model.npz (npz, 35985 bytes, 10 tensors)

c3/b f4 [16]
0	0xbec19e7b	-0.37816224
1	0xbe943973	-0.2895008
2	0x00000000	0.0
3	0x3f6b8e6e	0.92014205
4	0x3f0f7722	0.5604116
5	0x3f3ab3b7	0.72930473
6	0x3e8b2068	0.27173162
7	0x3d2008a1	0.03907073
8	0x00000000	0.0
9	0xbabcabaa	-0.0014394422
10	0x3eaff9e8	0.3437035
11	0xbdba858f	-0.091075055
12	0xbe8f9300	-0.2804184
13	0xbcf691a0	-0.030098736
14	0x3e858fba	0.26086217
15	0xbcddb104	-0.027061947

c1/W f4 [4, 1, 2, 2]
0	0x3f8d7e7c	1.1054225
1	0xbf22e97f	-0.63637537
2	0xbf80382b	-1.0017141
3	0x3e4ff0d7	0.20306717
4	0xbf4b0c2b	-0.7931544
5	0x3defaa04	0.1170235
6	0xbec0fff0	-0.37695265
7	0x3f17d302	0.5930635
8	0x3f1f6dda	0.62276995
9	0x3e86ab0a	0.26302367
10	0x3e97abe1	0.2962332
11	0x3b63b37b	0.003474443
12	0xbe02b0f1	-0.1276281
13	0x3e8ced90	0.27524996
14	0x3e54ce63	0.20781855
15	0x3f505f79	0.8139568

l5/W f4 [16, 256]
0	0xbf4a3fcd	-0.790036
1	0x3ea7ac6e	0.3274874
2	0xbea2fa5c	-0.31831634
3	0xbe82b353	-0.2552744
4	0xbd64516f	-0.055741724
5	0xbe67394b	-0.2258045
6	0x3e89ace3	0.26889715
7	0xbf2a25fe	-0.6646422
8	0x3d93468f	0.07191192
9	0xbeacee89	-0.33775738
10	0x3e4f8640	0.20266056
11	0xbbf22fca	-0.007390951
12	0x3eb0fdce	0.34568638
13	0xbd3cb840	-0.046074152
14	0xbe17beb1	-0.14818837
15	0xbe3e6b21	-0.18595554
16	0x3ee0387e	0.437931
17	0x3dcb9ed4	0.099424034
18	0xbd478142	-0.048707254
19	0x3d9acd09	0.075586386
20	0xbea3048a	-0.318394
21	0x3cd66d24	0.02617509
22	0xbdc716a0	-0.09721112
23	0xbea537cd	-0.32269135
24	0x3d1f2ddc	0.038862094
25	0xbe4c46ce	-0.19948885
26	0x3e88dcca	0.2673095
27	0xbf04c523	-0.51863307
28	0x3f73f32a	0.95292914
29	0x3dcf4de3	0.101222776
30	0x3da10d8a	0.078639105
31	0xbee28cb2	-0.44247967
32	0x3e9a99d9	0.301955
33	0x3de6ac64	0.1126335
34	0x3ebcbadf	0.3686132
35	0x3d07bf68	0.033141524
36	0x3dbe19b2	0.09282245
37	0xbac8cc72	-0.0015319719
38	0xbe0a018f	-0.13477157
39	0xbe0fb263	-0.14032893
40	0xbedbf429	-0.42959717
41	0xbe9970ef	-0.29968974
42	0x3db0d269	0.086338826
43	0x3e798f79	0.24371137
44	0x3d47876e	0.04871314
45	0x3da6737a	0.08127494
46	0xbe025a90	-0.1272986
47	0x3f2a1119	0.6643234
48	0x3e01cb6d	0.12675257
49	0xbeabab06	-0.33528918
50	0xbeff13e3	-0.4981986
51	0xbbf3c6a3	-0.007439451
52	0xbee1b106	-0.4408037
53	0x3e4959cf	0.19663166
54	0x3e81c814	0.2534796
55	0xbe8c0457	-0.2734706
56	0xbdb2df5c	-0.08734009
57	0x3e6b634e	0.229871
58	0xbddaf113	-0.106905125
59	0x3d4aa2b9	0.04947159
60	0x3ece6fad	0.40319577
61	0x3d8e83b0	0.06958711
62	0x3f133efd	0.5751799
63	0x3eed52ab	0.46352133
64	0xbda21db6	-0.07915823
65	0xbd0821b9	-0.033235285
66	0xbf3c8023	-0.7363302
67	0xbdc05cd1	-0.09392703
68	0xbf5aee0a	-0.8551947
69	0x3ebb3712	0.36565453
70	0xbdbda124	-0.09259251
71	0x3df304c0	0.1186614
72	0xbd4bd360	-0.04976213
73	0x3e95a1f5	0.29225126
74	0x3d9272db	0.07150813
75	0x3ee0caf9	0.43904856
76	0x3e7aaba8	0.24479544
77	0xbd0c3a9c	-0.03423558
78	0xbdc2bcc8	-0.095086634
79	0x3be08049	0.0068512303
80	0x3ea0f7c7	0.3143904
81	0xbea51386	-0.32241458
82	0xbe721f9f	-0.23644875
83	0x3f22f7d2	0.63659394
84	0xbe963ec8	-0.29344773
85	0x3e3c9105	0.18414696
86	0xbda8c12a	-0.08239968
87	0x3eae7480	0.34073257
88	0x3e6dd8be	0.23227212
89	0xbd681674	-0.056662038
90	0xbd39263a	-0.04520247
91	0xbe5473a6	-0.20747241
92	0xbcdb1c60	-0.026746929
93	0xbe09e546	-0.13466367
94	0xbe978744	-0.29595387
95	0xbe08f989	-0.1337644
96	0xbe10837c	-0.14112657
97	0x3e50b777	0.20382486
98	0x3e472a50	0.19449735
99	0x3f4748ba	0.77845347
100	0xbd9069ef	-0.07051455
101	0x3e3a480b	0.18191545
102	0x3c815198	0.015785977
103	0x3d8c020f	0.0683633
104	0xbd0b2b41	-0.033976797
105	0xbedb4518	-0.42826152
106	0x3e7b963f	0.24569033
107	0xbf07117c	-0.52761054
108	0xbe9691e7	-0.2940819
109	0xbe4182a9	-0.18897499
110	0xbdd156e4	-0.10221651
111	0x3f04e286	0.5190815
112	0x3f217f05	0.6308444
113	0x3ec6c30a	0.38820678
114	0xbedefbdd	-0.4355153
115	0xbe268b0d	-0.16263981
116	0x3e51607d	0.20446964
117	0xbdc531c0	-0.0962863
118	0x3dc8cb63	0.09804418
119	0xbe3ca225	-0.18421228
120	0xbf0f2d44	-0.55928445
121	0xbc1a0d19	-0.009402537
122	0x3d9ccc51	0.07656158
123	0x3ea230e1	0.31677917
124	0xbf0cb897	-0.5496916
125	0xbeaefc79	-0.34176996
126	0x3e292e1d	0.16521497
127	0x3f4c0458	0.7969413
128	0xbe8e2e71	-0.27769807
129	0x3e9a060b	0.30082735
130	0x3e6d31b8	0.23163497
131	0x3f35f383	0.71074694
132	0x3edec859	0.43512228
133	0x3dc7bfdc	0.09753391
134	0x3e27283b	0.1632394
135	0xbe23d922	-0.16000798
136	0xbdac3d16	-0.08410089
137	0xbe0da14e	-0.13831064
138	0x3e00b981	0.12570764
139	0xbf106d97	-0.5641722
140	0xbe605457	-0.21907173
141	0xbe053cf5	-0.13011535
142	0xbeca299f	-0.3948488
143	0xbe8dfae1	-0.27730468
144	0xbe0bd232	-0.13654402
145	0x3e837f13	0.25682887
146	0x3d72613d	0.059174765
147	0xbf1c9931	-0.6117125
148	0x3f158dc5	0.5841945
149	0x3e00cd68	0.12578356
150	0xbe6c00b7	-0.23047148
151	0x3d4dc91c	0.05024062
152	0xbec7cdfd	-0.39024344
153	0x3daea55d	0.08527634
154	0x3f5ed4b6	0.8704332
155	0x3e21fe31	0.15819623
156	0x3d4bb66b	0.049734514
157	0x3f253c0c	0.6454475
158	0x3d77237c	0.060336575
159	0x3e99ca1b	0.30037007
160	0xbec8ace3	-0.39194402
161	0xbcbd8a71	-0.023137303
162	0xbe8d96a7	-0.27654
163	0x3ee4bb5d	0.44674197
164	0x3cdf4a98	0.027257249
165	0xbe609d75	-0.21935065
166	0xbd3a181b	-0.045433145
167	0xbe7631fb	-0.24042504
168	0x3ea5ea60	0.32405376
169	0xbf349b26	-0.7054924
170	0xbe054cdf	-0.13017605
171	0x3e19d5c5	0.15022953
172	0xbdceedb6	-0.101039335
173	0xbdf979ce	-0.121814355
174	0x3d3083e2	0.043094523
175	0x3d60299d	0.054727186
176	0xbebeaf33	-0.3724304
177	0x3d0bc395	0.03412207
178	0xbf2ba6d5	-0.6705144
179	0xbcd6c754	-0.026218094
180	0x3e71d99b	0.23618166
181	0xbe9a9532	-0.30191952
182	0x3ec280ba	0.37988836
183	0xbf5f91cc	-0.87331843
184	0x3bbb98f0	0.0057250187
185	0x3f0ccfa3	0.5500433
186	0xbc5c93ec	-0.013463002
187	0xbd99846c	-0.074959606
188	0xbed50183	-0.41602716
189	0x3f696bfd	0.911804
190	0x3ea60ca4	0.3243152
191	0x3e98ef00	0.29869843
192	0xbf239854	-0.6390431
193	0x3ed770b9	0.42078188
194	0x3f1bc263	0.60843486
195	0xbeb3409c	-0.3501023
196	0x3e01d8ee	0.12680408
197	0xbf0f7e3f	-0.5605201
198	0xbe20a826	-0.15689144
199	0xbef7a8ee	-0.4837107
200	0xbe487d24	-0.19578987
201	0x3e58f54a	0.2118732
202	0x3edf94b7	0.43668148
203	0x3cf80501	0.030275824
204	0x3d11f18d	0.03563075
205	0xbeba0635	-0.3633286
206	0x3e0331da	0.12811986
207	0xbddb7448	-0.10715538
208	0xbf36fdd2	-0.7148105
209	0x3d810b19	0.06300945
210	0xbdf828cf	-0.121171586
211	0xbf57de95	-0.8432401
212	0xbebe9282	-0.37221152
213	0x3f08496e	0.53237045
214	0x3d96ee41	0.07369662
215	0x3f50bd09	0.81538445
216	0x3e825b8f	0.2546048
217	0xbe24c7ea	-0.16091886
218	0xbeb8930e	-0.36049694
219	0xbe35fe62	-0.1777282
220	0x3ebcadda	0.36851388
221	0x3dba0ebd	0.09084842
222	0xbf14e893	-0.5816738
223	0xbf4a147c	-0.78937507
224	0x3c76205d	0.015022364
225	0x3e8aa71f	0.27080628
226	0xbe9f293d	-0.3108615
227	0xbe6245eb	-0.22096984
228	0x3ec7fd40	0.39060402
229	0xbeeab6a5	-0.45842472
230	0x3e3eae02	0.18621066
231	0xbe8f8f05	-0.28038803
232	0xbdb6a5f0	-0.08918369
233	0x3e0fedd0	0.14055562
234	0x3db14bf9	0.08657069
235	0x3eeda6d6	0.46416348
236	0x3e50b57c	0.20381731
237	0xbf445b3c	-0.7670171
238	0x3db57eff	0.08862113
239	0x3f1ef1bc	0.6208761
240	0xbf17aa57	-0.5924429
241	0xbe3386a9	-0.17531838
242	0xbf791587	-0.97298473
243	0x3cb329cc	0.021870516
244	0xbf04f115	-0.5193036
245	0xbe0f1b06	-0.13975152
246	0x3f32ad83	0.6979601
247	0xbdb6a82c	-0.08918795
248	0x3ecdf113	0.40222988
249	0x3ed46695	0.41484514
250	0xbf691c84	-0.91059136
251	0xbe8e25f5	-0.27763334
252	0x3eb0a070	0.34497404
253	0xbea1abc5	-0.31576362
254	0xbecbac4b	-0.39779887
255	0x3ec2da29	0.38057068

c2/W f4 [8, 4, 2, 2]
0	0xbe6235ae	-0.2209079
1	0x3f369b76	0.71330965
2	0xbea9a2fc	-0.3313216
3	0x3f2af153	0.6677448
4	0xbee63cc2	-0.4496823
5	0xbb509c71	-0.0031831528
6	0x3ea75d4b	0.32688364
7	0xbd695be3	-0.056972396
8	0x3f0f5341	0.5598641
9	0xbe6f8454	-0.23390323
10	0xbe5a9dc5	-0.21349247
11	0x3f08bae3	0.53410167
12	0x3edd6e8a	0.43248397
13	0xbe5141f7	-0.2043532
14	0x3d974f15	0.073881306
15	0xbef6014a	-0.48047858
16	0x3de97dd8	0.11400956
17	0x3e542f15	0.20721085
18	0x3d2e435e	0.042544715
19	0xbd0353ae	-0.032062225
20	0x3ee23875	0.44183698
21	0xbe8f71c0	-0.28016472
22	0x3f1e9ea9	0.61960846
23	0x3f0e2038	0.5551791
24	0xbec43a81	-0.38325885
25	0x3e8f7c44	0.28024495
26	0xbd50ada5	-0.05094685
27	0x3ee67f10	0.45018816
28	0x3ebc6107	0.36792776
29	0x3f454157	0.77052826
30	0xbefe154b	-0.4962562
31	0x3dcacef4	0.099027544
32	0xbe1dfb94	-0.15428
33	0xbf06cb3d	-0.52653867
34	0x3f479ef5	0.77976924
35	0x3e3f4ca0	0.18681574
36	0x3e681f08	0.22668087
37	0xbf2cdac6	-0.6752132
38	0x3ef63e0b	0.4809421
39	0x3f4a4a2d	0.79019433
40	0x3ecc7d6d	0.39939442
41	0x3eaf9bc2	0.3429852
42	0x3e5c9c8c	0.21544093
43	0xbec7aa56	-0.38997144
44	0xbc8908ba	-0.016727794
45	0x3f165a0f	0.5873117
46	0xbc8e498e	-0.017369058
47	0xbeaa8091	-0.33301213
48	0xbf1260db	-0.5717904
49	0xbda72711	-0.08161748
50	0xbc39b9ca	-0.0113357995
51	0x3f0ab86a	0.54187644
52	0xbf394b0b	-0.7238013
53	0x3e02a163	0.12756877
54	0xbe749b42	-0.23887351
55	0xbf2f3d66	-0.6845306
56	0x3e9ad4bb	0.30240425
57	0x3ea18ca3	0.3155261
58	0xbeec4a7b	-0.46150574
59	0x3e2c708f	0.16839813
60	0xbeb2bbf7	-0.3490903
61	0x3e320131	0.17383267
62	0x3f036dbc	0.51339316
63	0x3e8b9b82	0.2726708
64	0xbece3f70	-0.40282774
65	0xbcd1e89d	-0.025623614
66	0xbf50bf3f	-0.8154182
67	0xbe6db989	-0.23215307
68	0xbf041f41	-0.5161019
69	0x3f05effd	0.5231932
70	0xbf2fd0b0	-0.68677807
71	0xbd67eb7e	-0.056621067
72	0x3f292ffd	0.6608885
73	0xbe7a46d7	-0.24441086
74	0x3eafd7c3	0.343443
75	0x3e9b0fc0	0.30285454
76	0x3e4f4d91	0.20244433
77	0x3db4f7b2	0.08836307
78	0xbd5bd34d	-0.05366831
79	0x3eb39524	0.35074723
80	0xbe6048ed	-0.21902819
81	0x3f7118ef	0.9417867
82	0xbfca344c	-1.579721
83	0xbe4727bd	-0.19448753
84	0xbf2acf2e	-0.6672238
85	0xbf5bddf1	-0.8588553
86	0xbea3762f	-0.31926104
87	0xbe52839e	-0.2055802
88	0x3ea54bd2	0.3228441
89	0xbdc460d7	-0.09588783
90	0x3ea61d0b	0.32444033
91	0xbec06e52	-0.37584168
92	0xbd954029	-0.07287628
93	0xbeb91a56	-0.36152905
94	0x3e42dc2d	0.19029303
95	0x3d090b73	0.033458184
96	0xbd9d8c21	-0.07692743
97	0x3ed73b87	0.42037603
98	0x3e37e4bc	0.17958349
99	0xbea22387	-0.3166773
100	0xbe05211d	-0.13000913
101	0xbdcf6b6d	-0.10127912
102	0xbf486ef5	-0.78294307
103	0x3ed16dab	0.40903983
104	0xbeefc827	-0.46832392
105	0xbf569dbe	-0.83834445
106	0x3e1f2547	0.15541564
107	0xbcf2a9bd	-0.029621953
108	0xbec93dd9	-0.39305
109	0x3ed2011b	0.41016468
110	0x3d498140	0.049195528
111	0x3f2017b9	0.625362
112	0xbe52f041	-0.20599462
113	0x3f0ee9b0	0.5582533
114	0xbf240519	-0.6407028
115	0x3ebd044c	0.3691734
116	0xbf257ac0	-0.64640427
117	0x3f6db911	0.92860514
118	0x3edf2e10	0.4358983
119	0xbe99a4a2	-0.30008417
120	0xbe916ec1	-0.2840481
121	0xbe2233a6	-0.15840015
122	0xbce9861a	-0.028506327
123	0x3ec65be1	0.38741973
124	0xbdc9a1a5	-0.098452844
125	0x3f607eb9	0.87693363
126	0xbf18ceff	-0.5969085
127	0xbeb7194b	-0.35761485

l4/W f4 [256, 16]
0	0x3efdc0c2	0.49561125
1	0xbe95074e	-0.29107136
2	0x3e9f263a	0.31083852
3	0xbf00fcdd	-0.5038584
4	0xbd83cf15	-0.06435982
5	0xbec911c0	-0.39271355
6	0x3f1e85ae	0.6192273
7	0xbd9a1400	-0.07523346
8	0x3db3f6b8	0.08787292
9	0x3cff551c	0.031168513
10	0xbe6c43c4	-0.23072726
11	0xbf51b7bd	-0.8192099
12	0x3e8cdab9	0.27510622
13	0x3f1908cb	0.5977904
14	0x3d11485d	0.0354694
15	0x3ee867b0	0.45391607
16	0xbf447482	-0.76740277
17	0x3ed93d88	0.42429757
18	0x3e832512	0.2561422
19	0xbec2552f	-0.37955615
20	0x3eeab697	0.4584243
21	0x3ea6fef1	0.3261638
22	0x3ea37e95	0.31932512
23	0x3e373e4c	0.17894858
24	0xbec8c49b	-0.39212498
25	0xbf431496	-0.76203287
26	0xbcb00690	-0.021487504
27	0xbe325560	-0.1741538
28	0xbf4db14d	-0.80348665
29	0x3e48938e	0.19587538
30	0xbf3756c3	-0.7161676
31	0x3d4cdc1b	0.050014596
32	0x3e2f209a	0.1710228
33	0x3dcfdbf3	0.10149374
34	0xbec58692	-0.38579232
35	0xbf2a29c0	-0.66469955
36	0x3efd1ad6	0.49434537
37	0x3c1c72c9	0.009548851
38	0x3e611ffd	0.21984859
39	0x3ed9b5cb	0.4252151
40	0x3f1b9f4c	0.6078994
41	0xbd694052	-0.056946106
42	0xbef4252e	-0.47684616
43	0x3cd3beea	0.02584787
44	0xbedfcf28	-0.43712735
45	0xbe5e9c27	-0.21739255
46	0xbfcb1e71	-1.5868665
47	0x3e3fd67f	0.18734168
48	0x3d53b283	0.051683914
49	0xbf8c8fa4	-1.0981336
50	0x3f4ad22f	0.79226965
51	0xbe39f4e3	-0.18159823
52	0x3ed97ef5	0.42479673
53	0xbe45b943	-0.19308953
54	0xbdc0ece1	-0.09420181
55	0x3e997e8e	0.29979366
56	0x3ec0ded1	0.37669995
57	0x3e0270f9	0.12738408
58	0xbe7bea82	-0.24601176
59	0x3f557257	0.83377594
60	0xbed0f304	-0.40810406
61	0xbee65ae2	-0.44991213
62	0x3d5a953c	0.053364977
63	0xbdd5abca	-0.10433157
64	0xbed5eafc	-0.4178084
65	0xbeca502f	-0.395143
66	0x3f22d733	0.6360962
67	0x3e25fccd	0.16209717
68	0x3e1a3c38	0.15062034
69	0x3e802cde	0.2503423
70	0xbf1f6bee	-0.6227406
71	0x3e3e6a03	0.18595128
72	0xbdff3cbd	-0.12462757
73	0xbefb4be2	-0.49081331
74	0x3df689f7	0.120380335
75	0x3f11e84f	0.569951
76	0xbf95ee7b	-1.1713403
77	0xbf7b2c4b	-0.9811446
78	0x3e0de1b0	0.13855624
79	0xbcbd592e	-0.023113813
80	0xbf0bc01e	-0.5459002
81	0xbda211fb	-0.07913586
82	0xbf363b41	-0.71184164
83	0xbe8260b2	-0.25464398
84	0xbea5ec32	-0.32406765
85	0x3e669f56	0.2252172
86	0x3e2e196d	0.17001887
87	0xbc11eac1	-0.008906067
88	0x3e5588d7	0.20852982
89	0x3e80dcd0	0.25168467
90	0x3edf1cf7	0.43576786
91	0xbe194012	-0.14965847
92	0xbeb0b10d	-0.3451008
93	0xbe69954a	-0.22810856
94	0x3ea646fd	0.32476035
95	0x3e856eb5	0.26061025
96	0x3ea20aa5	0.31648746
97	0x3e7fa317	0.24964558
98	0x3e0a269e	0.13491294
99	0xbdb03220	-0.086033106
100	0x3d1d306c	0.038376257
101	0xbed33384	-0.4125024
102	0xbf79bc22	-0.9755269
103	0x3de66aaf	0.11250817
104	0xbe4cdf41	-0.2000704
105	0x3ed084c2	0.40726286
106	0xbe1fddb2	-0.15611914
107	0x3ea1a7f4	0.3157345
108	0xbd6a54a1	-0.057209615
109	0x3e72782a	0.23678651
110	0xbd539b54	-0.051661804
111	0x3e77b4b0	0.2419002
112	0x3e3c5e73	0.18395405
113	0xbe9a4063	-0.30127248
114	0x3ece5736	0.40300912
115	0x3f0a4359	0.54009014
116	0xbf5ea8fe	-0.8697661
117	0xbe05e74d	-0.13076515
118	0xbf01012b	-0.5039241
119	0x3eca156d	0.39469472
120	0x3f2a6a27	0.66568226
121	0xbd741847	-0.059593465
122	0xbf83f1d7	-1.0308179
123	0x3ec21923	0.37909803
124	0x3c814022	0.015777651
125	0xbbd9040b	-0.0066227964
126	0xbd91064f	-0.070812814
127	0xbeee0a25	-0.46492115
128	0x3e9f4b59	0.31112173
129	0xbf7e6c89	-0.9938436
130	0xbeefe042	-0.46850783
131	0x3de4760b	0.111553274
132	0xbf4451a0	-0.7668705
133	0x3dbe8af6	0.093038484
134	0x3f2a7258	0.66580725
135	0xbea450f2	-0.32093006
136	0xbe099873	-0.13437061
137	0xbe32e444	-0.17469889
138	0xbee165d0	-0.4402299
139	0xbe2fc331	-0.17164303
140	0xbe230aa1	-0.15922023
141	0xbf441875	-0.7659982
142	0x3efcdb9d	0.49386302
143	0xbeb408bd	-0.35162917
144	0x3e5380cb	0.206546
145	0x3eba2d80	0.3636284
146	0xbed093e9	-0.40737846
147	0xbf67eabc	-0.9059255
148	0xbe36f172	-0.17865542
149	0x3cf573c0	0.02996242
150	0xbdf1c0a0	-0.118043184
151	0xbeabcb40	-0.33553505
152	0xbdad864c	-0.08472881
153	0xbf667929	-0.90028626
154	0xbe8c8775	-0.27447096
155	0xbe6bd97e	-0.23032185
156	0x3d596ec3	0.053084146
157	0xbddf8569	-0.10914118
158	0x3ed34dce	0.41270298
159	0x3daf784a	0.08567865
160	0xbf8411a1	-1.031788
161	0xbf1ebf2a	-0.62010443
162	0x3f166481	0.58747107
163	0xbf120f37	-0.57054466
164	0x3e247f9a	0.16064301
165	0xbebe66a7	-0.37187693
166	0x3dfc035a	0.12305327
167	0xbe9e07c0	-0.30865288
168	0xbe525834	-0.2054146
169	0x3e78f556	0.24312338
170	0xbccb5143	-0.024819022
171	0xbcc7eb76	-0.024404269
172	0xbe109727	-0.1412016
173	0x3d8ffec6	0.07031016
174	0x3e3b4278	0.18287075
175	0xbf025b83	-0.50920886
176	0xbccce7d4	-0.025012888
177	0xbf76a0d1	-0.96339136
178	0xbda40c29	-0.08010132
179	0xbf0ebeb5	-0.55759746
180	0xbea2af0e	-0.3177418
181	0xbe9e0397	-0.30862114
182	0x3da31896	0.07963674
183	0x3eacbd7f	0.33738324
184	0xbe81960b	-0.25309786
185	0x3d6f25a2	0.0583855
186	0x3ebba538	0.3664949
187	0x3e742b37	0.2384461
188	0xbf3a03df	-0.72662157
189	0x3e287bb4	0.16453439
190	0xbdbe83ca	-0.093024805
191	0xbe4e6983	-0.20157437
192	0x3e834697	0.25639793
193	0xbd8bdb58	-0.06828946
194	0xbe9dbe09	-0.30809048
195	0xbf0101a8	-0.5039315
196	0xbe60ca1b	-0.21952097
197	0x3dfec023	0.12438991
198	0x3ef97d31	0.48728326
199	0xbe9207ed	-0.28521672
200	0xbeb2dde3	-0.3493491
201	0x3e321385	0.17390259
202	0x3b3df789	0.0028986654
203	0x3e81f563	0.25382528
204	0xbe0e4c98	-0.13896406
205	0xbd3761e5	-0.044771094
206	0xbddf367d	-0.10899065
207	0xbcbdf36e	-0.023187365
208	0xbed59cd3	-0.4172121
209	0x3f07c7ee	0.53039443
210	0x3f074017	0.5283217
211	0xbecc5783	-0.39910516
212	0x3ed11ee8	0.40843892
213	0xbd980af1	-0.07423962
214	0xbebfbce1	-0.3744879
215	0x3e427adf	0.18992184
216	0x3d19634d	0.037448216
217	0xbf18dc51	-0.59711176
218	0xbe733e56	-0.23754248
219	0xbd9fbf94	-0.078002125
220	0x3c6e944f	0.014561727
221	0xbe760224	-0.24024254
222	0xbc90ebe3	-0.017690605
223	0xbe940491	-0.28909734
224	0xbeb2801d	-0.34863368
225	0x3ebe82ce	0.3720917
226	0x3da937a3	0.08262565
227	0xbf54a8fd	-0.83070356
228	0xbe45e2ce	-0.193248
229	0xbf42d62e	-0.7610806
230	0xbc80f7fb	-0.015743246
231	0x3c9336de	0.017970499
232	0x3eaf989e	0.34296125
233	0x3d6e2750	0.05814296
234	0x3f18a27b	0.59622926
235	0x3d17e5e3	0.03708447
236	0x3e75a26d	0.23987742
237	0x3cefd675	0.029277066
238	0xbe914f02	-0.2838059
239	0xbf485e8e	-0.7826928
240	0xbc73cce3	-0.014880392
241	0x3d4febf9	0.05076215
242	0xbe8344c3	-0.256384
243	0x3e85666c	0.26054704
244	0x3ed973a9	0.42471054
245	0xbeb8057b	-0.3594168
246	0xbe8239fa	-0.25434858
247	0xbe028461	-0.12745811
248	0xbe1edec6	-0.15514669
249	0xbc48254f	-0.012215926
250	0x3d42b53d	0.047536124
251	0x3eef5a7e	0.46748728
252	0x3e9c38c4	0.3051206
253	0x3c268d3d	0.01016551
254	0x3bcf7149	0.0063306433
255	0x3e6488c8	0.22317803

c3/W f4 [16, 8, 2, 2]
0	0x3eb09a3e	0.34492677
1	0xbdc105c0	-0.09424925
2	0x3d21480d	0.039375354
3	0xbe2297da	-0.1587824
4	0xbd056b39	-0.03257296
5	0xbea16369	-0.31521156
6	0x3e2f25de	0.17104289
7	0x3bf62fd5	0.0075130262
8	0x3eadd099	0.3394821
9	0xbf0bb915	-0.5457929
10	0xbdbf22b9	-0.09332795
11	0xbdfa91a8	-0.12234813
12	0x3e37b778	0.17941082
13	0xbea1cd42	-0.31601912
14	0x3f3b14cc	0.7307861
15	0xbd43f62d	-0.047842193
16	0x3f30e3a4	0.6909735
17	0x3f281aa5	0.65665656
18	0x3d6e9b31	0.05825347
19	0xbdc9b99a	-0.09849854
20	0x3d9398ea	0.072069004
21	0xbea2a2a7	-0.3176472
22	0xbe0f3f2a	-0.13988939
23	0xbd3a3213	-0.04545791
24	0xbf01d458	-0.50714636
25	0xbe293773	-0.16525058
26	0xbf05ca35	-0.5226167
27	0xbe0fb2bc	-0.14033026
28	0xbf3a29fc	-0.72720313
29	0x3c1a46ea	0.009416321
30	0x3ef8e111	0.48609212
31	0xbe505346	-0.20344266
32	0x3e755c71	0.23961045
33	0x3e9a1e9a	0.30101472
34	0xbf06fd53	-0.5273029
35	0xbe3c688d	-0.18399258
36	0x3e1da4d3	0.15394907
37	0x3ebe75a3	0.37199125
38	0x3de6bb71	0.1126622
39	0x3f1ae211	0.605012
40	0x3c3b20e9	0.011421421
41	0x3ecb0b4e	0.39657062
42	0x3eb227df	0.34796044
43	0xbf357543	-0.7088205
44	0x3e82c9a0	0.25544453
45	0x3e784926	0.24246654
46	0xbb9ce4c9	-0.0047880155
47	0x3e1e5336	0.1546143
48	0x3ead3feb	0.33837828
49	0x3e12e302	0.14344409
50	0xbf160a66	-0.58609617
51	0xbef0493a	-0.46930867
52	0x3ebbfd08	0.36716485
53	0xbe9eed94	-0.31040633
54	0xbe427287	-0.18989001
55	0xbea1f792	-0.31634194
56	0x3d8eb089	0.06967265
57	0x3e475d47	0.19469176
58	0xbf450c11	-0.76971537
59	0x3ea908c4	0.330145
60	0xbe666bac	-0.22502011
61	0x3e020d36	0.12700352
62	0xbea3b037	-0.3197038
63	0xbf7fe193	-0.99953574
64	0xbc911f59	-0.017715143
65	0xbd387f09	-0.045043025
66	0x3d69fa3b	0.057123404
67	0x3c3ab115	0.011394759
68	0xbe0f0f0c	-0.13970584
69	0xbdc3a539	-0.09552998
70	0xbe45173f	-0.19247149
71	0x3d9e6364	0.07733801
72	0x3d2d45cc	0.04230289
73	0xbe1da85f	-0.1539626
74	0xb8c7bfac	-9.524761e-05
75	0xbf02c9bb	-0.51089066
76	0xbe4e5e63	-0.20153193
77	0x3e38de7f	0.18053626
78	0x3ca04857	0.019565744
79	0xbdcc4b3f	-0.099752896
80	0xbd76fa4e	-0.060297303
81	0xbe6c23e9	-0.23060574
82	0x3d2fd7d9	0.042930458
83	0xbe8bdcf1	-0.27317002
84	0x3d20891d	0.03919326
85	0x3e6447d3	0.22293024
86	0x3b949e24	0.0045354534
87	0xbcc92ef9	-0.024558531
88	0xbe7d8139	-0.24756326
89	0xbe1a881a	-0.15090981
90	0xbd1bda33	-0.038049888
91	0xbcb6660d	-0.022265458
92	0xbddf2a38	-0.108967245
93	0xbe4e64af	-0.20155595
94	0x3d79e717	0.0610114
95	0x3e60cdd0	0.21953511
96	0xbf07d18d	-0.53054124
97	0x3e666177	0.22498117
98	0x3de3cdc3	0.1112323
99	0x3d265cb8	0.040615767
100	0x3eaabbca	0.33346397
101	0xbf82991c	-1.0202975
102	0xbeb2b929	-0.3490689
103	0x3ec2b1d4	0.38026297
104	0xbd00b0df	-0.031418677
105	0x3ea56335	0.3230225
106	0x3ec27d7d	0.37986365
107	0xbeff1469	-0.4982026
108	0x3e1bebdd	0.15226693
109	0xbe391588	-0.1807462
110	0x3efa5a0c	0.48896825
111	0xbf1a2707	-0.602158
112	0x3f119e76	0.5688242
113	0xbf184422	-0.5947896
114	0x3d01f022	0.03172315
115	0xbe26c299	-0.1628517
116	0x3f089726	0.53355634
117	0x3d4b111f	0.049576875
118	0xbeb6aefb	-0.35680375
119	0xbe7aef08	-0.24505246
120	0x3de191dd	0.11014149
121	0xbf401d2a	-0.750445
122	0xbf3a1a08	-0.7269597
123	0x3f4a6946	0.79066885
124	0x3f06353a	0.5242497
125	0xbaa30652	-0.0012437797
126	0x3ba98525	0.005173343
127	0xbf18dcd8	-0.5971198
128	0x3ed93a63	0.42427358
129	0x3e170332	0.14747313
130	0xbf332995	-0.69985324
131	0x3dcf0a00	0.10109329
132	0xbce9df10	-0.028548747
133	0xbee1bb63	-0.44088277
134	0x3d697d97	0.057004537
135	0x3e88110a	0.265755
136	0xbefdcd43	-0.49570665
137	0x3f3aa33a	0.72905314
138	0x3dd6d30a	0.10489471
139	0x3ee8883a	0.45416433
140	0xbeab3c40	-0.33444405
141	0x3e7e97ba	0.24862567
142	0xbf0adebf	-0.54246134
143	0xbf14e7f5	-0.5816644
144	0xbf081c03	-0.5316774
145	0xbef8f2e2	-0.48622805
146	0x3e835a4a	0.25654823
147	0xbe91a447	-0.28445646
148	0xbcea5ffc	-0.028610222
149	0xbd1dce42	-0.03852678
150	0xbf3fb385	-0.748833
151	0xbea75cc1	-0.32687953
152	0x3f10326d	0.56326944
153	0xbe6b920e	-0.23004934
154	0xbe25f093	-0.16205053
155	0x3eb250e7	0.3482735
156	0xbf38ce2c	-0.72189593
157	0x3f18026c	0.59378695
158	0x3f129405	0.5725711
159	0xbf719271	-0.94364077
160	0xbc96b371	-0.018396111
161	0xbe8ae0a4	-0.27124512
162	0xbecd958a	-0.40153152
163	0x3f667741	0.9002572
164	0xbd00ecad	-0.03147571
165	0x3f0edb8e	0.55803764
166	0x3d86b05f	0.06576609
167	0xbe5b884f	-0.21438716
168	0xbe3376f9	-0.17525853
169	0x3eb242b5	0.34816518
170	0xbe39714b	-0.18109624
171	0xbb8eb3ec	-0.0043549445
172	0x3f15fd37	0.585895
173	0xbeaddba7	-0.33956644
174	0xbdcecd31	-0.10097731
175	0xbec76735	-0.38945928
176	0x3e224794	0.15847617
177	0xbd296301	-0.041354183
178	0xbdb591b1	-0.08865679
179	0xbe3a62fe	-0.18201825
180	0x3e13ee6a	0.14446416
181	0x3e4c64ea	0.1996037
182	0x3f0af7dd	0.5428446
183	0x3e23b39c	0.15986484
184	0xbe098c16	-0.13432345
185	0x3d536fa6	0.051620148
186	0xbe2bc074	-0.16772634
187	0xbf12aa35	-0.57290965
188	0x3e5c60aa	0.2152125
189	0x3ef24064	0.4731475
190	0xbeeb09b6	-0.45905846
191	0x3f0aaa35	0.54165965
192	0x3ea75efe	0.3268966
193	0xbe81ad53	-0.25327548
194	0x3efbfccc	0.49216306
195	0xbe27447f	-0.16334723
196	0xbf547a78	-0.8299937
197	0x3ed71b1f	0.4201288
198	0xbdcd6f23	-0.10030963
199	0x3e1820bf	0.14856242
200	0xbf2c2a5c	-0.67252135
201	0x3edebcce	0.43503422
202	0x3eaf0643	0.34184465
203	0xbee159be	-0.4401378
204	0xbd9211df	-0.07132315
205	0x3e9cc180	0.3061638
206	0x3f07f19b	0.53103036
207	0x3ea4f3a1	0.32217124
208	0x3d9295b7	0.07157462
209	0xbbf17009	-0.007368092
210	0x3df22e89	0.11825282
211	0x3dd63343	0.10458996
212	0x3eb141d3	0.34620532
213	0x3dc24d52	0.09487404
214	0xbe6feed9	-0.23430957
215	0xbde19435	-0.110145964
216	0x3f23ce6f	0.6398687
217	0xbddd69ca	-0.10811193
218	0x3f5b4bfe	0.8566283
219	0x3e2a7e9b	0.16649859
220	0xbe8260b9	-0.2546442
221	0x3b7a5120	0.0038195327
222	0xbf0a819f	-0.54104036
223	0xbe8933d4	-0.26797354
224	0xbe11e2fc	-0.14246744
225	0xbf7d53b7	-0.98955864
226	0x3cab9f56	0.02095
227	0xbca6a9ef	-0.020344703
228	0x3ed17af2	0.40914112
229	0xbf0a8c52	-0.5412036
230	0xbec3ef20	-0.38268375
231	0x3f66ac99	0.90107113
232	0xbe530593	-0.20607595
233	0x3d115b3a	0.03548739
234	0x3cd52e54	0.026023068
235	0x3da43169	0.08017237
236	0xbe03d6ff	-0.12874983
237	0xbebc5758	-0.36785388
238	0xbcb158d0	-0.021648794
239	0x3ef0fcb8	0.4706781
240	0xbed57e36	-0.41697854
241	0xbc2f952e	-0.01071672
242	0x3e7a5f49	0.24450411
243	0x3ea75860	0.32684612
244	0xbe6f5150	-0.23370862
245	0x3e05f29f	0.13080834
246	0x3e3b1b14	0.18272048
247	0xbd48ff55	-0.04907163
248	0x3dbeb8be	0.093125805
249	0xbe9f2084	-0.31079495
250	0xbf2633b0	-0.6492262
251	0x3e9a4850	0.30133295
252	0x3e3062cd	0.1722519
253	0x3ecf1753	0.40447482
254	0x3e5a1fc3	0.21301179
255	0x3edfb68e	0.43693966

l5/b f4 [16]
0	0xbe8daf14	-0.27672637
1	0xbe2c7951	-0.16843154
2	0xbd987004	-0.0744324
3	0x3da7efe0	0.082000494
4	0xbeb2fa4d	-0.3495659
5	0xbe92836e	-0.28615898
6	0xbead5295	-0.33852068
7	0xbe0bd512	-0.13655499
8	0x3dca4aa0	0.09877515
9	0xbe8acc41	-0.27108958
10	0xbe9036da	-0.28166848
11	0xbe8fd2dc	-0.2809056
12	0xbbc06270	-0.0058711097
13	0x3c0ee6c1	0.008722008
14	0xbe899e54	-0.26878607
15	0xbc870f71	-0.016486855

c1/b f4 [4]
0	0x3e7a937e	0.24470326
1	0x3ea72b9e	0.32650465
2	0xbed4b17d	-0.41541663
3	0xbe8cb841	-0.27484325

l4/b f4 [256]
0	0x3f2ae4cf	0.66755384
1	0x3e03dac8	0.12876427
2	0x3e3577f1	0.17721535
3	0xbeb7ae6d	-0.35875264
4	0xbf29da2d	-0.66348535
5	0xbeae87ea	-0.3408807
6	0x3dc164e4	0.094430715
7	0x3dc428b4	0.09578076
8	0xbe82e08a	-0.25561935
9	0x3ef99d56	0.4875285
10	0x3f786062	0.9702207
11	0x3eea5476	0.45767564
12	0xbeb9a68d	-0.3625988
13	0x3f1de168	0.6167207
14	0xbeede4e1	-0.46463683
15	0xbe1e300e	-0.15448019
16	0xbbe77130	-0.0070630535
17	0x3e4ec09d	0.20190664
18	0x3c78727b	0.015164013
19	0x3ed1fa5c	0.41011322
20	0x3f1f6a2d	0.62271386
21	0x3e6bf57c	0.23042864
22	0xbe39f5d3	-0.18160181
23	0x3c02d0de	0.007984368
24	0x3eb779f0	0.35835218
25	0x3eb5459c	0.3540467
26	0x3e204a3b	0.15653317
27	0xbe832b75	-0.25619093
28	0x3d9a6cb0	0.07540262
29	0x3df6fa57	0.12059467
30	0x3f0ad2b9	0.5422779
31	0xbde3b476	-0.111184046
32	0x3cd758c6	0.026287448
33	0xbf314295	-0.6924222
34	0xbf858601	-1.043152
35	0x3dd4629a	0.10370369
36	0xbea2a374	-0.3176533
37	0x3ea33c28	0.31881833
38	0xbe316d40	-0.17326832
39	0xbeb3decf	-0.35130927
40	0xbf646730	-0.8921995
41	0xbde8251f	-0.11335205
42	0x3e2f5677	0.17122827
43	0x3db22905	0.0869923
44	0xbdba2c7b	-0.09090515
45	0xbdcced6e	-0.100062236
46	0xbe81900a	-0.25305206
47	0xbd92dde4	-0.071712285
48	0x3d8b8912	0.068132535
49	0xbeb283a4	-0.3486606
50	0xbe654657	-0.22390114
51	0x3d5ba137	0.053620543
52	0xbcfa3516	-0.030542891
53	0xbe44cec4	-0.192195
54	0x3d1ff61f	0.03905308
55	0xbf1bc53c	-0.6084783
56	0x3d269607	0.04067042
57	0xbd9ccbfe	-0.07656096
58	0x3e784765	0.24245985
59	0x3ecd5907	0.40106985
60	0xbe894114	-0.26807463
61	0x3f042f9b	0.5163514
62	0x3ea63cf4	0.3246838
63	0xbedb8d52	-0.42881256
64	0xbeda24ea	-0.42606288
65	0xbcd09fb9	-0.025466787
66	0x3f4eab16	0.80729806
67	0xbd0941ba	-0.033509947
68	0xbf955983	-1.1667942
69	0xbf3ebd8d	-0.7450798
70	0x3d6e7067	0.058212664
71	0xbecde8e9	-0.4021676
72	0x3dac034c	0.08399066
73	0xbf137654	-0.5760243
74	0x3f1c336b	0.6101596
75	0x3e7f504a	0.24932972
76	0xbda3abe6	-0.079917714
77	0x3c31fff2	0.010864245
78	0x3e6cce59	0.2312559
79	0x3b41cc56	0.0029571257
80	0xbe5b43ac	-0.21412534
81	0xbee536ae	-0.4476828
82	0x3f3999e3	0.7250044
83	0xbe89b0dc	-0.26892745
84	0xbf238de8	-0.63888407
85	0x3d4707b5	0.048591334
86	0xbdf5d503	-0.120035194
87	0xbe73dc7d	-0.23814578
88	0xbe4045af	-0.18776582
89	0x3d7f1900	0.0622797
90	0x3e57fda9	0.21092857
91	0xbe827bec	-0.2548517
92	0x3d9a83bd	0.07544658
93	0x3e434f92	0.19073322
94	0xbe97ed57	-0.29673263
95	0x3cd85f16	0.026412528
96	0xbe08ddd7	-0.13365875
97	0x3e3843e9	0.17994656
98	0x3dc24809	0.09486396
99	0x3edef74a	0.43548042
100	0x3c4c76f8	0.012479536
101	0x3f262af4	0.6490929
102	0x3f3acc9d	0.72968465
103	0x3eb74262	0.35792834
104	0x3ecc2b8d	0.39876977
105	0xbe10a744	-0.14126307
106	0xbdf9594b	-0.121752344
107	0x3eae8150	0.34083033
108	0xbe9d9e01	-0.3078461
109	0xbe5c2784	-0.21499449
110	0xbeb01f59	-0.34398916
111	0xbef1c154	-0.4721781
112	0x3e6b8ed1	0.23003699
113	0xbe998b99	-0.29989317
114	0xbe93bc9b	-0.28854832
115	0x3d3549c4	0.0442598
116	0xbf1a578d	-0.6028984
117	0x3e5e7053	0.21722536
118	0xbeaff739	-0.34368303
119	0x3ca65fc9	0.020309346
120	0x3e64d2b8	0.22346008
121	0x3e17b61c	0.14815563
122	0x3df4878c	0.11939916
123	0xbeb55074	-0.35412943
124	0xbe94e335	-0.29079595
125	0x3ed0705b	0.4071072
126	0xbe9c9071	-0.3057895
127	0xbf3d3f87	-0.7392506
128	0x3f072597	0.5279173
129	0xbf826a47	-1.0188683
130	0xbe40f8aa	-0.18844858
131	0x3ea7259d	0.32645884
132	0xbe47937d	-0.19489856
133	0x3e6eaa10	0.23307061
134	0xbebeaec4	-0.3724271
135	0xbd7791df	-0.060441848
136	0x3e68407d	0.2268085
137	0xbe7dc832	-0.247834
138	0x3e41481b	0.18875162
139	0xbe7b4a44	-0.24540049
140	0xbf0046dd	-0.5010813
141	0xbc8fee76	-0.017569762
142	0x3d59a6b1	0.053137485
143	0xbdd2fdd4	-0.1030232
144	0xbd79b0a5	-0.060959477
145	0x3d86e1cf	0.06586038
146	0x3e546ffc	0.20745844
147	0xbf57d76d	-0.8431309
148	0x3f30f534	0.6912415
149	0x3afe881d	0.0019419227
150	0xbd3c6844	-0.045997873
151	0xbe19fd79	-0.15038098
152	0xbedd5310	-0.43227434
153	0xbe5a46f8	-0.21316135
154	0x3f575104	0.84107995
155	0xbe2f2c66	-0.1710678
156	0xbcdebf16	-0.027190726
157	0xbebf2ba8	-0.37337995
158	0xbf14cc6b	-0.5812442
159	0x3f2bc784	0.6710131
160	0x3f03f9c2	0.51552975
161	0xbea255d4	-0.31706107
162	0xbebe64c6	-0.3718626
163	0x3ed227e0	0.41046047
164	0x3d9cd55a	0.07657881
165	0xbf202f55	-0.6257222
166	0xbe1fe9e2	-0.15616563
167	0x3ea18f27	0.3155453
168	0xbd68d436	-0.056843005
169	0xbf49ad93	-0.7878048
170	0xbe931a75	-0.28731123
171	0x3e070926	0.13187084
172	0x3e8fb091	0.28064397
173	0xbdb3c94a	-0.08778627
174	0xbd4aa424	-0.049472943
175	0x3ee47f19	0.44628218
176	0xbe195987	-0.14975558
177	0xbf3975c5	-0.7244533
178	0x3a7f7b1a	0.00097458216
179	0xbf4b0f95	-0.7932065
180	0x3e63424b	0.22193258
181	0xbefe17f3	-0.49627647
182	0xbd4b9716	-0.049704634
183	0x3df5720f	0.119846456
184	0xbcf98446	-0.03045858
185	0x3f449bbf	0.7680015
186	0xbd847d6d	-0.064692356
187	0xbe975739	-0.29558733
188	0x3eeadbe5	0.4587089
189	0x3e76ad67	0.24089585
190	0x3e703ed6	0.2346147
191	0xbe26a70c	-0.16274661
192	0xbe0e882b	-0.13919131
193	0x3c92245a	0.0178396
194	0x3eef0170	0.46680784
195	0x3df381a3	0.118899606
196	0x3e45c462	0.19313195
197	0x3c07b509	0.008282908
198	0xbee99e03	-0.45628366
199	0xbd75b14e	-0.059983544
200	0xbf4774d2	-0.7791263
201	0x3e937c14	0.28805602
202	0xbe4470b9	-0.19183625
203	0x3f253aef	0.6454305
204	0x3db9037c	0.09033868
205	0xbeae2d3a	-0.3401888
206	0xbcb9ffc3	-0.022704965
207	0x3f0987a1	0.5372258
208	0xbf1cdee3	-0.612776
209	0xbd82e2fb	-0.06390949
210	0x3d9477a6	0.07249384
211	0xbf49b224	-0.78787446
212	0x3e569074	0.20953542
213	0xbf569b6e	-0.83830917
214	0xbed95041	-0.4244404
215	0xbed176b8	-0.40910888
216	0x3d88f5ba	0.066874936
217	0xbe19ff1c	-0.15038723
218	0xbf2b5784	-0.66930413
219	0x3daafe8f	0.083493344
220	0xbd2553fb	-0.040363293
221	0x3f05e3a4	0.5230048
222	0xbf0ddecc	-0.55418086
223	0xbeea2a65	-0.4573547
224	0xbe824dce	-0.25449985
225	0xbeb1b62f	-0.34709308
226	0x3efacc60	0.4898405
227	0xbe04df21	-0.12975742
228	0x3ea3b34e	0.31972736
229	0x3e1f0706	0.15530023
230	0xbe95e7c9	-0.292784
231	0xbe117939	-0.14206399
232	0xbdda2230	-0.10651052
233	0xbf1edee0	-0.6205883
234	0xbe1705da	-0.14748326
235	0x3d2b5601	0.041830067
236	0xbf127563	-0.5721037
237	0xbe42a3fe	-0.1900787
238	0xbf07f70f	-0.53111356
239	0xbf7e7140	-0.99391556
240	0x3e65558c	0.22395915
241	0xbe34426c	-0.17603463
242	0xbefaef15	-0.4901053
243	0xbea66b07	-0.3250353
244	0x3f186404	0.5952761
245	0x3ea95e37	0.33079693
246	0x3eb6ceba	0.35704595
247	0xbf043787	-0.5164723
248	0x3e8185c0	0.25297356
249	0x3f0cae80	0.54953766
250	0xbe803dd8	-0.25047183
251	0xbd01583d	-0.03157829
252	0xbe02874f	-0.12746929
253	0xbe83740e	-0.2567448
254	0xbee9712d	-0.4559416
255	0xbdfdef8d	-0.12399206

c2/b f4 [8]
0	0x3d5e1349	0.05421761
1	0x3d5e0a4a	0.05420903
2	0xbeb47bcd	-0.35250703
3	0xbe8167c7	-0.25274488
4	0xbe910a2c	-0.28328073
5	0xbeba479d	-0.36382762
6	0x3d4b1b62	0.04958666
7	0xbe97dfc4	-0.29662907
