examples/ch4/reversi_DQN_CNN/agent_white_4000/target_model.npz (npz, 35949 bytes, 10 tensors)

c3/b f4 [16]
00000000: 45f7 8dbe 81d7 70be 0000 0000 e34c 283f
00000010: 1d59 273e 4cf4 093f bb0b 863e 4f2e 893e
00000020: 0000 0000 aaab bcba 48b2 783e 29cc 0c3c
00000030: ce92 6cbe 2501 13bd 40a0 5f3e e042 c6bc
-0.27727714 -0.23519708 0.0 0.6574232 0.16342588 0.5388839 0.26180825 0.26793143
0.0 -0.0014394422 0.24286759 0.008593597 -0.23102877 -0.035889763 0.21838474 -0.02420181

c1/W f4 [4, 1, 2, 2]
00000000: efae 893f 5356 24bf ab72 4ebf 8eb1 a43d
00000010: 5c5b 2fbf 9a84 033e 234e f0be cba8 fa3e
00000020: 9660 1c3f 573b 9f3e 823e ad3e c586 16bd
00000030: f810 b5bd f6f6 973e 8eaf e43d 1937 603f
1.075651 -0.6419422 -0.8064372 0.08041678 -0.6849878 0.12843552 -0.46934614 0.48956904
0.6108488 0.3109996 0.33836752 -0.03674962 -0.08841127 0.29680604 0.11166297 0.8758407

l5/W f4 [16, 256]
00000000: 550b 46bf 4c8a 863e 1815 22bd de4b 523e
00000010: b0d7 3abe 4360 51be f394 163e 36de 29bf
00000020: 4243 913d af63 51be 8d1f 2fbe 27bb 75bb
00000030: a693 8d3e 6cc8 03be 19eb 043c 5584 e2bc
00000040: d093 6a3e 1171 a83d fd43 96bc 70fc 9d3d
00000050: 7b0f c9be 4f40 033f 5441 d0bd d42a b5bd
00000060: 5c70 bbbe 67b5 f5bd 24cd 363d 24ef b0be
00000070: fe69 d13e 3638 ebbc d1f2 293e 9cf4 87be
00000080: b85e 9d3e ad57 91bd 7b0e 4abc 1672 903d
00000090: 22ca 5f3e 750a b5be bb1e cdbc 853f 1c3d
000000a0: c98d 55bf 8066 8d3d da6a 41bd 49a8 713e
000000b0: 4939 b3bd 5d4f a03c 3e4d 1bbd 5019 903e
000000c0: 8b10 383e db24 c3bd 202b 0dbf 4348 1d3e
000000d0: d898 12be 34ba bb3c daa2 0b3d ca67 46be
000000e0: c7f7 8f3b 4057 e43d 01a7 cfbe b901 d13a
000000f0: 453e f8bd 17d1 643e 2c47 b43e 1835 c23e
00000100: 97cf b4bd e052 86bd c244 0dbf a7c7 77be
00000110: c860 b8be 7d11 bf3e d7e0 45bd 7189 383e
00000120: a2a9 03be ae98 5e3d a497 0a3e c775 01bd
00000130: 28ac 863e 5a04 38be 7312 ea3d ba1b d03e
00000140: 2deb 0b3e ef83 69be b9ed 213f c17f 853c
00000150: 97d9 6cbd ce2c c93d 3c9f e9bd 1b41 c53d
00000160: b0ac d9bb 85e4 c63c 3260 613d 0908 a5be
00000170: d41c 7a3e 0297 c6bd 8968 95be 28a8 75bd
00000180: 8426 73be 27db 0c3e 08c9 a03e 64b5 0e3f
00000190: 5abf 6abe 3c95 193f c6dc 863e c6c6 e6bc
000001a0: b823 f73d e1a4 a7bd bf1b 393e 12e6 f2be
000001b0: 8f6b d6be 4a33 9ebd 4c7c 99bc c938 f83e
000001c0: c5b2 683e b605 cd3d b0b6 e8be cb63 03be
000001d0: e5d7 033e d40e 27be 0b3b 383e e56a b0be
000001e0: 46c2 14bf ac6f 5d3d 2848 173e 651f 4c3e
000001f0: e695 af3c 88c6 86be a7b8 4f3d 1f0f 2c3f
00000200: 4a76 f5bc 5b6d 453e c64c 613d 4f9a 083e
00000210: 0dc3 b63e b598 aa3e 5397 c23e 91b0 30bd
00000220: 6f04 973e 2a2f 98be a4d6 49be 2747 81be
00000230: e43f 8ebd dfa5 78be 0748 8ebe f524 e0be
00000240: f278 1abe f4fc f93d 5371 803d d920 46be
00000250: b7dd 773e d6c8 b6be c223 bfbd 9e48 cdbb
00000260: d81b f9be 00a2 7d3e 336b fd3d 21f6 3a3c
00000270: f09b 4b3d 359f 343f a4ea 53bd 5935 1d3d
00000280: f811 24bd 2103 aa3d d67e c03c ed8e d8be
00000290: 8956 34bc 9325 8ebd 32ad e9bd 92f7 b7be
000002a0: c6e0 5b3e 7ccb 12bf b8c2 fcbd 3225 7f3e
000002b0: afee c6bb 9573 2a3d f475 5dbe c1fe eb3d
000002c0: bb3c cebe f61a d93d cfc6 d2be 97e1 1bbe
000002d0: 8eaa a43d 8f99 3fbd 9a4e cc3d f11f 10be
000002e0: e4b8 1abd ccb1 ae3e 146f 06be e08f e7bd
000002f0: 66ce f7bd 3359 6d3f 7d56 1bbe b8fb 483e
00000300: 25c8 90be d77d a43e 88ac 693e a4ab b7be
00000310: 35ed 11bc a586 efbd debe 3a3b a91b 80be
00000320: fb1d 7abe 950c cd3d 2149 0c3e d8a3 653e
00000330: 3ddd 123d 932c 013f 1c45 2fbc 4d9e d8be
00000340: aa2a 32bf 09e4 823e 95d3 40be a885 fabe
00000350: d882 8bbc 25d1 833e f4ba a6bd 37f4 023f
00000360: a744 423e 669e 1ebd 5456 9cbc 92b7 93be
00000370: 4998 333e bcda dfbd db06 46be d35f 1abf
00000380: 58d0 c53d 5a2a 4b3f 675f 10be cfdf b4be
00000390: 3e9f 693e 5ce2 0bbf 9ddb 58bc 3aaa 02be
000003a0: 4de2 d4bd abdc c2bd 72ff 48be e25b 9e3e
000003b0: 5d49 15bd f16b a2be b22f 24bd 3f31 c13e
000003c0: 28a6 b9be b2c5 22be 205a 2abf 0517 273e
000003d0: f542 a4be 104c 65be a3a6 b23e e1f2 b0bd
000003e0: 68c3 a33e 1bd5 c23e 7d38 68be c434 0bbd
000003f0: 888d 093e 0e20 a5be a722 a33e 6279 a23d
-0.7736104 0.26277387 -0.039570898 0.20536754 -0.18246341 -0.20446877 0.14705257 -0.6635469
0.070929065 -0.20448183 -0.1710188 -0.0037495585 0.2765171 -0.12869424 0.008112692 -0.027650991
0.22907948 0.08224691 -0.018342966 0.07714164 -0.39269623 0.5127 -0.1016871 -0.088460594
-0.3660916 -0.119974904 0.04462923 -0.3455745 0.40901178 -0.028713327 0.16596533 -0.2655381
0.30736327 -0.07096801 -0.012332554 0.0705301 0.21854451 -0.3535954 -0.025039067 0.038146514
-0.8341947 0.06904316 -0.047221042 0.23599352 -0.08751161 0.019569093 -0.03791546 0.28144312
0.1797506 -0.09528514 -0.5514393 0.15359597 -0.14316118 0.022915937 0.034090854 -0.1937553
0.004393551 0.11149454 -0.405571 0.0015945948 -0.12121252 0.22345386 0.3521055 0.37931132
-0.08828657 -0.06558776 -0.5518304 -0.24197255 -0.36011338 0.3731803 -0.048310127 0.1802118
-0.12857679 0.054344825 0.13534409 -0.03160646 0.2630322 -0.1797041 0.114293 0.40646154
0.13663931 -0.22804235 0.6325336 0.01629627 -0.057824697 0.09822999 -0.11407325 0.096315585
-0.0066429004 0.024278888 0.05502338 -0.32232693 0.2442506 -0.09696771 -0.29181316 -0.05997482
-0.23745161 0.13755475 0.31403375 0.5574553 -0.22924557 0.5999334 0.26340312 -0.028170954
0.1206736 -0.08185745 0.1807699 -0.47441155 -0.41878936 -0.07724626 -0.018736027 0.48480824
0.22724445 0.10010855 -0.4545188 -0.12831037 0.12875326 -0.1631425 0.17991273 -0.34456554
-0.5810894 0.054061577 0.14773619 0.19933851 0.021433782 -0.26323342 0.050713208 0.6721057
-0.029963631 0.19279997 0.055004857 0.13340114 0.35695687 0.3331963 0.38006076 -0.043137137
0.2949557 -0.29723483 -0.19710785 -0.25249597 -0.0694578 -0.24282025 -0.27789328 -0.43778196
-0.150852 0.1220645 0.06271615 -0.19348468 0.24205671 -0.357001 -0.09332992 -0.00626476
-0.48654056 0.2476883 0.12373962 0.011411221 0.04970926 0.7055543 -0.051737443 0.038380954
-0.0400562 0.08301378 0.02349798 -0.42296544 -0.01100696 -0.069407605 -0.114099875 -0.3593107
0.21472463 -0.5734174 -0.12341827 0.24916533 -0.006070934 0.041614134 -0.21627027 0.115232
-0.4028071 0.106008455 -0.41167304 -0.15222774 0.08040343 -0.046777304 0.099759296 -0.14074685
-0.03777398 0.34120023 -0.1312831 -0.11306739 -0.12099914 0.9271423 -0.15169711 0.19627273
-0.28277698 0.32127258 0.22819722 -0.3587314 -0.008906652 -0.11695603 0.0028495113 -0.25021103
-0.24425499 0.100121655 0.13699771 0.22425783 0.03585552 0.5045864 -0.010697629 -0.42308274
-0.6959635 0.25564602 -0.18830712 -0.48930097 -0.017030165 0.25745502 -0.08141127 0.5115389
0.18971501 -0.03872528 -0.019084133 -0.2885099 0.17538561 -0.10930392 -0.19338553 -0.60302466
0.09658879 0.793615 -0.14098893 -0.35327002 0.22814652 -0.5464227 -0.013235954 -0.12760249
-0.10394726 -0.09514745 -0.19628695 0.30929476 -0.036446918 -0.31722978 -0.04008455 0.37732884
-0.3625958 -0.15895727 -0.6654377 0.16317375 -0.32082334 -0.22392297 0.3489276 -0.086400755
0.3198502 0.38053212 -0.22677799 -0.033985868 0.13432896 -0.32251018 0.31862375 0.07933308

c2/W f4 [8, 4, 2, 2]
00000000: 7e16 4bbe 7dc5 1c3f 0bce acbe 3108 cd3e
00000010: 38fe edbe efaf 9cbe ef35 993e 5bc3 e93d
00000020: f2a3 073f 016e 11be caa6 423c 3515 f53e
00000030: 51a1 a93e f148 80be 82b0 2cbd fb77 d4be
00000040: 75db f63b 8b9c 543e df21 913d af5c 2f3c
00000050: 28cc f23e f3bc f7bd cdda c73e 6e44 413f
00000060: 394d 90be d0be 123e 51ed 09be 48ec e23e
00000070: 4133 983e f535 4f3f 63fe cbbe 9195 b33d
00000080: ea03 bf3c 4903 f0be 51d5 253f 7c26 d1bd
00000090: ee11 fc3e e8ab 11bf 55ab 833e 7170 033e
000000a0: 5cb7 0b3f 19c6 6f3e d538 78bd ee20 79be
000000b0: f3a9 15bd 550b c83e 905b 163d 3727 96be
000000c0: 8de8 d2be 0bcc 973d f449 c7bd 962b 013f
000000d0: dc02 22bf b469 4cbe 5090 44be db78 4dbf
000000e0: 9fb7 293e f5da 3c3e 63d6 2ebe 4a32 7e3d
000000f0: 5756 95be cab5 aa3e 7535 c53e ddda 883e
00000100: 5906 a0bd 7297 98be e2c8 0fbf 7d07 95be
00000110: 7be8 06bf cc15 f83e e5aa 66bf 0638 3cbe
00000120: 4581 0f3f 77f8 f7bd 353c 053f 67f2 3b3e
00000130: cab3 8a3d 1621 253e 4b7e 25be 2508 663e
00000140: 5030 d8be f8df 6e3f 98d9 6cbf 8f3f e7be
00000150: e993 30bf 1aa7 f7be 9b33 323e 7e4f 853e
00000160: 3cb6 643c e525 ebbd 98a8 803e 26b0 9dbe
00000170: f118 d13d 2837 eabe a077 aa3e 3d86 44be
00000180: aedd 1abd 0e04 c63e ed7d c53d 6b98 8abd
00000190: 8f1b 35be 489c 01be cc30 2ebf 3057 dc3e
000001a0: 0dd9 6bbe 908f 3cbf e92d 2b3e a164 d4bd
000001b0: 98d7 81be 6f5d d43e 8294 f3bc 6aa7 e83e
000001c0: 587a 48be a40c 9f3e 1cc9 d2be 45b6 6a3e
000001d0: e31b 22bf 838a 2e3f 7ffd 923d 21b2 1bbf
000001e0: 0adb e9be 2b39 cfbd 3008 16bd 3068 993e
000001f0: ac74 cdbd b34a 483f 920f f2be 8003 61be
-0.19832799 0.61238843 -0.33750948 0.40045312 -0.46483016 -0.30602977 0.2992396 0.11414214
0.52984536 -0.1420212 0.011880586 0.47867742 0.33130887 -0.2505565 -0.04216052 -0.41497788
0.0075334855 0.20762841 0.070865385 0.01070325 0.47421384 -0.12096586 0.3903412 0.7549504
-0.28183916 0.14330602 -0.13469435 0.44320893 0.29726604 0.80941707 -0.3984252 0.08768762
0.023317296 -0.46877506 0.6477862 -0.102124184 0.4923243 -0.56902933 0.25716653 0.12835862
0.5457666 0.23415412 -0.060601074 -0.24328968 -0.03653903 0.39071146 0.036708415 -0.29326794
-0.41193047 0.07411965 -0.09730902 0.5045713 -0.63285613 -0.19962198 -0.19195676 -0.80262536
0.16573952 0.184429 -0.1707397 0.062059678 -0.29167435 0.3334182 0.38517347 0.2672948
-0.07813711 -0.29803044 -0.561659 -0.29107276 -0.5269849 0.4845413 -0.90104514 -0.18380746
0.56056625 -0.12107938 0.52044994 0.18354188 0.06772573 0.16125903 -0.16161458 0.22464044
-0.4222436 0.933105 -0.9251952 -0.4516568 -0.68975693 -0.48369676 0.17402498 0.2603721
0.013959464 -0.11481837 0.25128627 -0.30798453 0.10209835 -0.45745206 0.33294392 -0.19191833
-0.037809066 0.38674968 0.09643159 -0.06767353 -0.17686294 -0.12657273 -0.6804321 0.4303527
-0.23032017 -0.7365656 0.16716732 -0.10370756 -0.25359797 0.41477534 -0.0297339 0.45440227
-0.1957792 0.31064332 -0.4116906 0.22921093 -0.633238 0.681801 0.07177257 -0.6081868
-0.45674926 -0.10118326 -0.036628902 0.299623 -0.10032019 0.7823898 -0.47277504 -0.21973991

l4/W f4 [256, 16]
00000000: ac16 c33e f066 823d 3a26 9f3e d802 53be
00000010: 5e94 9dbd 296b ebbe 8780 0d3f 3989 14be
00000020: b8f6 b33d 1c55 ff3c f79f 75be a4c5 6fbf
00000030: eb45 0abc cade 183f 1695 cebc b067 e83e
00000040: df05 01bf 1d4c b63e 1225 833e 3595 3ebd
00000050: e058 cf3e 1927 5d3e 6a28 1c3f 2c42 413e
00000060: 9bc4 c8be 9614 43bf a3ce ccbd d752 bfbe
00000070: 72df 26be 1a94 483e a846 b6be 0cdc 4c3d
00000080: f9a0 f13d 3991 6c3d 9286 c5be 5f07 1cbf
00000090: 0ac7 613d b308 bf3e 8b84 593e d123 4d3e
000000a0: 4c9f 1b3f 5240 69bd 83ed f9be 7e45 c13d
000000b0: ee12 c6bd 587b 5ebe 89d6 c7bf 9ad6 3f3e
000000c0: a8e8 453e 2741 0abf 2fd2 4a3f 1eb7 9e3e
000000d0: 5cc6 933e f03f 993d 424a 82be 41ee c03e
000000e0: d1de c03e f970 023e f795 0dbf a870 233f
000000f0: 6dc7 27bf e25a e6be 75f4 74bd caab d5bd
00000100: bbc9 c1be 7c56 fbbe 33d7 223f c1ca 82be
00000110: 018d c33e 7450 aa3e 10a6 89bf 7795 183f
00000120: bd3c ffbd e24b fbbe 7271 4d3e 0444 bd3e
00000130: 806e 56bf 4b2c 7bbf caff 993e 2e59 bdbc
00000140: 09e0 81be c784 4fbe 413b 36bf f98c 8ebe
00000150: 9aca 87be 722d b43e 1f13 2fbe e30c 0e3e
00000160: d788 553e d0dc 803e d026 bd3e 9ba8 75be
00000170: 9d36 d8be c0fe 69be a20e ac3e b56e 853e
00000180: 50c8 453e 6cc6 283e 9e26 0a3e d890 0abe
00000190: 835f 0d3e fdc9 9cbe f892 e2be edfa 913e
000001a0: 41df 4cbe c284 d03e e338 53bd 8bee bf3d
000001b0: cfb3 39be 2a78 723e bbfe 2b3c b0b4 773e
000001c0: 11fc 8b3e 115c 19bf 3657 ce3e d76a a83e
000001d0: 6b9e 75bf 167a a2be 008c a5be ba95 f23e
000001e0: 276a 2a3f 4718 74bd 1607 56bf e0e8 1a3e
000001f0: a648 873d 0b04 d9bb 1d89 163e 250a eebe
00000200: 12f7 e33e 8533 91bf 42e0 efbe 1e6e 10be
00000210: 30f6 5bbe dd17 e13d 8222 f43e 758f d7b9
00000220: 7398 09be 44e4 32be 21c2 a3be 9a50 52bd
00000230: 7bd5 9abe d918 44bf 3bc4 b83e bd08 b4be
00000240: bbff 563e bb74 d93e e993 d0be 7f3b 51bf
00000250: f147 03be 5e8a 803d 4b2c 7abd fb95 3cbe
00000260: 4c86 adbd 2979 66bf 1643 a9be fa2d 9fbe
00000270: a57e 08bc 278d dfbd acd1 fd3e 1378 af3d
00000280: e704 7fbf 181c e2be 8164 163f 195a d7be
00000290: 03df d63e ba23 34be 1dc6 96be 0f74 05bf
000002a0: 3458 52be 56f5 783e 86b6 dfbd 7530 5d3e
000002b0: 0639 fbbe 0138 903d b69e 403e 835b 02bf
000002c0: 7dd3 263e f559 79bf 290c a4bd 9634 42be
000002d0: 0118 96be dacc abbe 6bb9 96bd e8cf e63e
000002e0: 0b96 81be a225 6f3d ab6c 9f3e 6d4c a33d
000002f0: 594e 49bf 2fbe 283e 9247 85be 8369 4ebe
00000300: 3b38 893e a2f3 b4bd 09be 9dbe d7f6 11bf
00000310: 5057 9e3d 7594 c23d c6a1 b73e ecec 57be
00000320: e3dd b2be 8513 323e e445 74be 4e9d d13e
00000330: 5410 543e e561 37bd a0ad b8bd 9af3 bdbc
00000340: 91c8 11bf 8800 fb3e 1740 073f d799 2dbe
00000350: 6364 433e c4c5 76bc 7f35 9cbe 438e e23d
00000360: 4d63 193d 51dc 18bf b7b2 173d deae efbd
00000370: fd1a a0be 3df9 75be 05de 2d3e 9104 94be
00000380: 8f5c 35bf 3463 863e a337 a93d 6fda 0cbf
00000390: c32b 283e bd7e fcbe fa76 07bf e420 9bbd
000003a0: 9e98 af3e 5027 6e3d 3e6a 0b3f 3f84 9a3d
000003b0: 2197 cd3e 75d6 ef3c 962d aabe 8e5e 48bf
000003c0: dbd7 a83e 8505 2a3e c344 83be 0bc1 733e
000003d0: a1f0 eb3e f9c3 9cbe e5b8 0abe 72fd 75be
000003e0: c6de 1ebe 4f25 48bc 167b eabd d435 ed3e
000003f0: c394 873e 61a1 263c 1db5 303e c888 643e
0.38103235 0.0636729 0.31083852 -0.20606554 -0.076943144 -0.45980194 0.5527424 -0.14505471
0.08787292 0.031168513 -0.23986803 -0.9366095 -0.008439521 0.5971495 -0.025217574 0.45391607
-0.50399584 0.35604945 0.2561422 -0.046529014 0.40497494 0.21596946 0.60999167 0.18872899
-0.39212498 -0.76203287 -0.1000035 -0.3736789 -0.16296175 0.19587746 -0.3560078 0.05001454
0.11798281 0.057755683 -0.38579232 -0.6094875 0.05512146 0.37311324 0.21241967 0.20033194
0.6078994 -0.056946106 -0.4881402 0.09437083 -0.09671579 -0.2172674 -1.5612346 0.18734208
0.19327033 -0.54005665 0.79226965 0.30999082 0.28862274 0.07482898 -0.2544728 0.37681773
0.37669995 0.12738408 -0.55306953 0.63843775 -0.65538675 -0.44991213 -0.059803445 -0.10433157
-0.3784922 -0.4908942 0.6360962 -0.25545314 0.38193515 0.33264506 -1.0753803 0.59603065
-0.12462757 -0.49081331 0.20062807 0.36965954 -0.8376236 -0.9811446 0.30077964 -0.023113813
-0.25366238 -0.20265494 -0.71184164 -0.2784193 -0.2652176 0.35190922 -0.17097138 0.13872103
0.20852982 0.25168467 0.36943674 -0.23990099 -0.42229167 -0.22851086 0.33604914 0.26061025
0.19314694 0.16481942 0.13491294 -0.13531816 0.13805966 -0.30622855 -0.44252753 0.28511754
-0.2000704 0.40726286 -0.051567923 0.0937167 -0.18134998 0.23678651 0.010497744 0.2419002
0.2734075 -0.5990611 0.40300912 0.32894012 -0.9594485 -0.3173377 -0.32333374 0.47379857
0.66568226 -0.059593465 -0.8360456 0.15127897 0.066056535 -0.0066227964 0.14700742 -0.46492115
0.44524437 -1.1343848 -0.46850783 -0.14104506 -0.21480632 0.1099088 0.47682577 -0.0004111488
-0.13437061 -0.17469889 -0.31984046 -0.0513464 -0.30240998 -0.76600415 0.36087212 -0.35162917
0.20995991 0.4247187 -0.40737846 -0.8173141 -0.12820412 0.062763914 -0.061077397 -0.18416588
-0.08472881 -0.90028626 -0.33058995 -0.31089765 -0.008330976 -0.109155945 0.4957403 0.08567824
-0.99616855 -0.4416206 0.58747107 -0.42060927 0.4196702 -0.17591754 -0.29448023 -0.52130216
-0.2054146 0.24312338 -0.109234855 0.21600516 -0.49066943 0.07041932 0.18810543 -0.50920886
0.16291614 -0.9740289 -0.08010132 -0.18965372 -0.2931519 -0.33554727 -0.073595844 0.45080495
-0.25309786 0.0583855 0.31137595 0.079735614 -0.78635174 0.164788 -0.26031166 -0.20157437
0.26800713 -0.08835532 -0.30809048 -0.5701727 0.07731497 0.09500972 0.3586561 -0.21086472
-0.3493491 0.17390259 -0.23854786 0.40940326 0.20709354 -0.044771094 -0.09017491 -0.023187447
-0.56946665 0.49023843 0.5283217 -0.16953216 0.19081263 -0.015061799 -0.30509564 0.110622905
0.037448216 -0.59711176 0.03703567 -0.11703275 -0.3127059 -0.24020858 0.16979225 -0.28909734
-0.7084436 0.2624756 0.08262565 -0.55020803 0.16422944 -0.49315444 -0.5291592 -0.07574633
0.34296125 0.05814296 0.5445899 0.07544755 0.40154365 0.029277066 -0.33237904 -0.7826928
0.32977185 0.16603668 -0.256384 0.23804109 0.46082023 -0.30618265 -0.13547094 -0.24022463
-0.15514669 -0.012215926 -0.11449258 0.4633013 0.26480684 0.010170312 0.17256589 0.22317803

c3/W f4 [16, 8, 2, 2]
00000000: 4672 443e 92ce 94bc f366 f33d d6b2 0cbe
00000010: ad87 dd3c b4dc 83be 5a05 013e e6fa a9bd
00000020: 022b d13e c1fb b2be d911 aebd 54c9 1fbe
00000030: 1119 d5bd 1731 20bc 6cca 423f 9b8b 543c
00000040: 0143 0b3f d7ee 043f a28f 7fbc aae6 76be
00000050: d7b3 443f 4b6e 27be bd8d 1fbb 086c 03be
00000060: b997 40be 8896 613e 969a 56be fa7b 70be
00000070: 9fed 5dbf bd83 4ebd 283b 893e b553 81be
00000080: fd65 f73d 5074 473e 3289 0bbf 3bf8 51be
00000090: eb07 e33d 062c 6c3e 6dba bc3d 316a e33e
000000a0: 50e8 853d 7568 c13e 1406 883e a4aa a7be
000000b0: 3879 163e 911b 933e a1a4 78bd 81e7 443e
000000c0: aabf 773e 265a 8d3d 2b17 bebe e86b 98be
000000d0: 5d21 e8bb 8f21 81be 139d 793e c26c bd3d
000000e0: 8bb8 a33d 535f 013e b8dd fabe 980a d73b
000000f0: 430a 873d 8675 ad3d a0bb c4be 39ea 58bf
00000100: 591f 91bc 097f 38bd 3bfa 693d 15b1 3a3c
00000110: 0c0f 0fbe 39a5 c3bd 3f17 45be 6463 9e3d
00000120: cc45 2d3d 5fa8 1dbe acbf c7b8 bbc9 02bf
00000130: 635e 4ebe 7fde 383e 5748 a03c 3f4b ccbd
00000140: 4efa 76bd e923 6cbe d9d7 2f3d f1dc 8bbe
00000150: 1d89 203d d347 643e 249e 943b f92e c9bc
00000160: 3981 7dbe 1a88 1abe 33da 1bbd 0d66 b6bc
00000170: 382a dfbd af64 4ebe 17e7 793d d0cd 603e
00000180: 16a7 d7be 6cab 703e eb0b d23d b736 8bbc
00000190: d399 6f3e ea13 43bf b50e 9abe ff8d 523e
000001a0: 1bfa 90bd a6fa 5e3e 7312 aa3e dcc4 35be
000001b0: a40f a8bd aebd 19bf 5d3c e13e 6c1e 42be
000001c0: 7cd2 0d3f 2311 cfbe 12e8 963c 93f6 7cbe
000001d0: 6dca b83e 2d3e 043d 85ad f3be 68f9 fc3d
000001e0: 9a9d 6cbe f1ff ccbe 8a9a 86bc 8627 283f
000001f0: 1488 ac3e c4a0 ad3d ba7d 8fbd 7b7a 09bf
00000200: 4aec 1d3e 3996 ec3c 7c67 f4be 608d acbd
00000210: 120f 4c3e ab2f a0be 7231 1d3e 2b76 143e
00000220: b90c dcbd a7ed ff3e 7f84 32be 0317 b33e
00000230: 1671 a9be 0d4d f63d 3f63 69bf 93e8 0ebf
00000240: 0d64 f0bd 3047 b3be 24e4 9f3d 552d b1be
00000250: 92bb 05be ccba 64be f640 6b3d 3456 3d3e
00000260: 35d1 ab3e 3a99 6dbe 765d a93e b74c 383e
00000270: 76bd 15bf 2e98 a13e f51b 083f 09a6 20be
00000280: b8e7 8f3d 38b3 b0be 1052 2abe 03ac 403f
00000290: 9573 903d 0cfb 0d3f 3e8b ad3d 2a68 ebbd
000002a0: 8edc ae3d 026f 633e a019 263d 025f 88be
000002b0: 655f 923e 616f 53be 595c a13d 88fb 02bf
000002c0: e3a2 963d ef97 79bd fad8 52be 2c6d bebe
000002d0: 83a0 99be 521b 683e 0efc c73e 6e3c 653e
000002e0: 30db 35be 2ec2 9cbd 5633 183e 5d1c 1abf
000002f0: 0244 c13d 619b e23e 3f98 9abe 9966 83bd
00000300: 926f 703e 8efa 5bbe 7348 a93e f1be 0bbe
00000310: be47 2cbf 5e6f b13e d208 a4bd c5eb 013e
00000320: c1a5 f6be 57c8 273e 01b8 c73d 9070 0fbe
00000330: 6b32 35be 299f 9f3d eca6 fa3e 83bc 153e
00000340: 3447 8e3d 2602 503b 793c c03e da3c 6bbd
00000350: 0d9c 273e 3f08 65be c51a 8a3e 9796 2c3c
00000360: 2de8 203f 1bcb 34be a25b 633f 1145 8a3e
00000370: de07 343e c949 85bd 794f 01bf 7ae7 16be
00000380: 95f3 90be 83e2 0dbf beea ec3d ed0e f03c
00000390: 8ce3 023e 390f 05bf d734 74be d3c8 523f
000003a0: 2167 aabe 2c31 74be 7344 18be 0528 8b3e
000003b0: 93fa 15bd e172 84be 44c5 debd 3ddc e63d
000003c0: 95c9 e5be 062f d03d 91d7 e93c 6306 d93e
000003d0: e754 8dbe d07f bd3c 01b3 8d3d 41c0 adbe
000003e0: f77e e2bd c518 cabe f221 9a3d 8b5d 9a3e
000003f0: f8b8 2a3e 35dc 4f3e 574b ed3d 8a0e 283e
0.19184217 -0.018164907 0.118848704 -0.13740095 0.027042234 -0.2575432 0.12599698 -0.08299808
0.40853125 -0.34957698 -0.08499498 -0.15604144 -0.10405172 -0.009777329 0.7609012 0.012972738
0.54399115 0.5192694 -0.01559821 -0.24111429 0.76836914 -0.16350667 -0.0024345957 -0.1283418
-0.18807878 0.2203008 -0.20957407 -0.23484793 -0.86690706 -0.050418604 0.26802945 -0.25259176
0.120799996 0.19477963 -0.5450622 -0.20504849 0.110854946 0.23063669 0.092152454 0.44416955
0.06538451 0.37775007 0.26567137 -0.32747376 0.14694679 0.2873197 -0.060703877 0.19228937
0.24194208 0.0690196 -0.3712705 -0.29769826 -0.0070840553 -0.25220916 0.24376325 0.092492595
0.07994183 0.1263402 -0.48997283 0.006562542 0.06593754 0.084696814 -0.38424397 -0.84732395
-0.017715143 -0.045043025 0.057123404 0.011394759 -0.13970584 -0.09552998 -0.19247149 0.07733801
0.04230289 -0.1539626 -9.524761e-05 -0.51089066 -0.20153193 0.18053626 0.019565744 -0.099752896
-0.060297303 -0.23060574 0.042930458 -0.27317002 0.03919326 0.22293024 0.0045354534 -0.024558531
-0.24756326 -0.15090981 -0.038049888 -0.022265458 -0.108967245 -0.20155595 0.0610114 0.21953511
-0.42119664 0.23502892 0.102561794 -0.016993864 0.23398523 -0.7620226 -0.30089346 0.2056198
-0.07078954 0.21775302 0.332172 -0.17750877 -0.08206108 -0.60055053 0.43991366 -0.18956918
0.553993 -0.40442762 0.018421207 -0.24703436 0.3609194 0.032285858 -0.47593322 0.12352258
-0.23106995 -0.40039018 -0.016431112 0.6568531 0.3369757 0.08477929 -0.07006402 -0.53702515
0.15422168 0.028880225 -0.47735202 -0.08425403 0.19927624 -0.31286368 0.15350893 0.14498203
-0.10744614 0.49986002 -0.17433356 0.34978494 -0.3309409 0.12026415 -0.9116706 -0.5582363
-0.11737833 -0.3501525 0.07807186 -0.34604898 -0.13059834 -0.22336882 0.057435 0.18489915
0.3355805 -0.23202983 0.33079118 0.17998014 -0.5849222 0.31561416 0.5316766 -0.15688337
0.07026619 -0.34511733 -0.16632867 0.7526247 0.070532955 0.5546119 0.08473824 -0.11494477
0.08538161 0.22210315 0.04055178 -0.26634985 0.28588405 -0.20647956 0.07878942 -0.51165056
0.07355287 -0.06093591 -0.20590582 -0.37192667 -0.30005273 0.22666672 0.3905949 0.22386333
-0.17759395 -0.07654224 0.14863333 -0.6019953 0.094367996 0.4425917 -0.3019428 -0.06416053
0.2348006 -0.21482298 0.33063087 -0.13647057 -0.6729697 0.3465528 -0.08009495 0.12687595
-0.48173335 0.16385017 0.09751893 -0.14007783 -0.17695014 0.07794029 0.48955476 0.14622693
0.06947175 0.0031739562 0.37546137 -0.05743108 0.16368122 -0.22366427 0.2697355 0.01053395
0.6285427 -0.17655604 0.88811696 0.27005818 0.17581126 -0.06508214 -0.5051189 -0.14736739
-0.28310838 -0.55423754 0.11568211 0.029303992 0.12782115 -0.5197635 -0.23848282 0.82337683
-0.33281806 -0.23846883 -0.14869861 0.2717897 -0.03661592 -0.25868896 -0.10877469 0.11272476
-0.44880357 0.10165219 0.028545173 0.42387685 -0.27603838 0.023132235 0.06918908 -0.3393574
-0.11059373 -0.39472023 0.07526006 0.30149493 0.16672122 0.20298846 0.115866356 0.16411796

l5/b f4 [16]
00000000: da77 afbd c26c 15bd 2379 1ebd 5536 a23d
00000010: 1b5e d7bd 0a32 aabd 353f f7bd 90ed 803d
00000020: 1f2f e93c c465 a8bd 01ee bcbd bf9e 16be
00000030: 6c77 9f3d 0ae4 ba3c 371c 3fbd f759 9bbd
-0.08567782 -0.036480673 -0.038689744 0.07920519 -0.10515996 -0.083103254 -0.12072603 0.062953115
0.028464852 -0.08222535 -0.09225083 -0.14708994 0.0778645 0.022813816 -0.046657767 -0.07585519

c1/b f4 [4]
00000000: 84eb 523e 0605 b73e de89 aebe ca8c a1be
0.20597655 0.3574602 -0.3408956 -0.31552726

l4/b f4 [256]
00000000: 5bbd 013f 89cf 063d f681 a03d 9a95 61be
00000010: 43d5 fbbe 0a17 5cbe 0243 103e 2f22 2e3c
00000020: e967 243c bf0c 133e 9d36 0d3f 02f0 943e
00000030: efbc 863d b4c2 823e 854b 233c 4b42 4dbd
00000040: 317b b03c 1465 a93d 82c6 163e 661d 203e
00000050: fd61 0d3f da31 fb3d 9f55 94bd 1daf 453e
00000060: 6a79 a33c 2d7c a33e 6a4f 383e d80b 6d3d
00000070: 6cf2 023e d94e 373c f254 083f 3be7 c3bd
00000080: b4a3 e03d 8a13 bebe 3ba5 10bf 213e de3d
00000090: c829 4ebe 9727 183e 95b2 c7bc b636 b1be
000000a0: 65e4 1fbf 0e33 22be 29e7 863d b486 84bc
000000b0: 930b 97bc 3046 68be 69b9 48bd bc3f c3bd
000000c0: f164 cabe 900a 7cbd 8acf 263d f714 c5bd
000000d0: 219d 01be 7cdc e13b 41dc 803e cd9a 7fbe
000000e0: 991a a73d 8318 bf3d d68d 703d 551e 553e
000000f0: 1d8f 82be 71de 593e 000f ab3e 99c5 63be
00000100: 5826 19be 0fac 1ebe 21f8 e83e 4c02 32bd
00000110: 9244 b9be 8df6 d8be f9ce f43d 6c24 98be
00000120: 602a acbc 8725 87be d13a 853e 4f6a ba3d
00000130: 2083 a83d aeff e7bc 3536 853d 81fa 2d3d
00000140: 05c9 8fbe fd60 08be 9fe5 823d 77bc c3be
00000150: e409 02bf e115 0e3e 99fa cfbd 87ba 8abe
00000160: 9e76 0c3e 93d4 bcbd 93ca 8f3e 0d36 52be
00000170: 4145 32be 4cbe 093e 2bb5 16be 756a be3d
00000180: a6b2 31be a9e3 c13c bc7b bbbd e5a2 b43e
00000190: 0bee 823e ef9c db3e 8acd 993e c18a 213e
000001a0: 2d2c 663e 6c6b 3bbe 0d1d 293c 7962 763e
000001b0: 96b4 b2be 7eae 93bd a35e 12bf 63a7 0ebd
000001c0: 89ea 4b3e d45e 8ebe 36ed 9e3d ed3a 5fbd
000001d0: 43da 54be e5b4 6b3b c257 af3c 0bc3 05bd
000001e0: c26e fe3e 01f3 b0bd 9af0 823c 34e9 3fbe
000001f0: 67ad b53c 8096 7b3e 48e5 863c a024 53be
00000200: 08bd 22bd a831 0fbf 03fa 823c 60b9 acbd
00000210: 6439 5fbd 3701 afbc 7423 b0be eea3 4d3e
00000220: 9ec4 b43e c597 76be cfe8 b63b f53d bfbd
00000230: f9dd 80be 6dbc 803d c1e2 7f3b f17e 27be
00000240: f9c5 e2bd 4e5d 003e f4e5 c6ba 9452 0abf
00000250: b4b2 b13e 7931 bebd 9657 d0bc f3ef a3bd
00000260: 0707 c7be 8bda 363a 2e02 6e3e c6ec 20be
00000270: 6122 d8bc a7b8 56be 3b7f d3be 4563 4c3e
00000280: 57ba ab3e 3095 60be a744 a7be 7cdb 1a3e
00000290: c518 87be d401 6cbe f8e4 dbbd 91c9 433e
000002a0: 04a7 6ebe 7e83 0bbf 69ed 0f3d 5268 303e
000002b0: e568 4a3e 73a7 98bd fb70 82be a296 053e
000002c0: b5cd 8ebd 7265 90be b58f eb3b 8e8e 59be
000002d0: 9e74 243e c0be adbe c720 7e3e fbde 763c
000002e0: e53b a43d 23cd 0d3f 50a4 b2bd 0e43 08be
000002f0: 3faf 553e ea37 a33d be43 373e 3cd8 4d3e
00000300: ce7f 90bd 9001 d1bd 587e 9d3e 9c6b a33e
00000310: bcbb b5bd 05bf 803d fe01 07be e9bd db3d
00000320: 15fc c2be c7ff 943d b8a2 a8bd 94b3 1c3f
00000330: e974 1e3d 2cc5 bcbd 63b3 3d3c c1df 973e
00000340: 66a9 c4be ab4b a8bc 28ab be3d ffed e7be
00000350: 9a1f 7b3d ca52 e5be 3c0d 82be 1d24 6bbe
00000360: bdb8 babd 8c5a 7d3b 6ec3 82be 67c1 cabd
00000370: 553a 6e3e 4b86 803e ebe5 49be 17e2 97be
00000380: fc9b 59be 9ae0 48bc d13a 713e 44e7 47be
00000390: 199f 0a3e 6aa2 2b3a c506 cfbd 5e1a 40be
000003a0: efbf 33be 07b1 e0be 1e64 c0bd 1671 d13d
000003b0: 6c31 d9be e557 56be 84d5 a4be a523 2abf
000003c0: 9d24 5c3e ea78 8cbc 0317 79be 9730 a2be
000003d0: e7bc 1d3f b8bb 883c 833a 253d 9eeb e4be
000003e0: 261b 053e d720 963e bcc7 a0be 3b1c 13be
000003f0: 7595 3fbe 5fc9 b2bd ab32 c3be 4b5c 29be
0.5067956 0.032912765 0.07837288 -0.22029725 -0.49186143 -0.21493164 0.14088061 0.010628267
0.01003454 0.14360331 0.5516146 0.2908936 0.06579005 0.25539172 0.009966736 -0.05011205
0.021543117 0.08271232 0.14724162 0.15636215 0.55227643 0.12265368 -0.072428934 0.19305082
0.019955356 0.31930676 0.17999044 0.057872623 0.12787789 0.011188232 0.53254616 -0.09565588
0.10968724 -0.37124282 -0.5650212 0.10851694 -0.20133126 0.14858852 -0.024377147 -0.34612054
-0.6245788 -0.15839788 0.06587059 -0.016177513 -0.018438136 -0.22683024 -0.049004946 -0.09533641
-0.39530137 -0.06153351 0.04072527 -0.09623139 -0.12657596 0.006892739 0.2516804 -0.24961396
0.0815937 0.09330847 0.058729015 0.20812352 -0.25499812 0.21276261 0.33409882 -0.22243346
-0.14956033 -0.15495323 0.45501807 -0.04345922 -0.36185127 -0.42375603 0.119535394 -0.29715288
-0.0210163 -0.2639582 0.26021436 0.09102308 0.08228135 -0.02832016 0.0650448 0.042475227
-0.28083053 -0.13318248 0.06391453 -0.38229725 -0.5079634 0.13875534 -0.101552196 -0.27095434
0.13717124 -0.09220233 0.2808424 -0.20528431 -0.17409231 0.13451499 -0.14717548 0.09297649
-0.17353305 0.023668127 -0.0915446 0.3528053 0.25572237 0.42893168 0.30039626 0.15775587
0.22477789 -0.18302697 0.010321868 0.24061002 -0.349034 -0.07211016 -0.57175654 -0.0348276
0.19913687 -0.27806723 0.07760088 -0.054499555 -0.20786385 0.0035965976 0.02140415 -0.03265671
0.49693877 -0.08640099 0.015983868 -0.18741304 0.022177411 0.2456913 0.016466752 -0.2061944
-0.039731055 -0.55935144 0.015988356 -0.08433795 -0.05449809 -0.021362884 -0.3440205 0.20082065
0.35306257 -0.24081333 0.005581952 -0.09337989 -0.25169352 0.06285939 0.0039045068 -0.16357018
-0.110729165 0.12535593 -0.0015174733 -0.54032254 0.34706652 -0.0928678 -0.02543239 -0.08004751
-0.3887255 0.00069753145 0.23243019 -0.15715322 -0.02638358 -0.20968877 -0.41308007 0.19959743
0.33540604 -0.2193191 -0.32669565 0.15122789 -0.26386085 -0.23047572 -0.10737032 0.1911986
-0.23305899 -0.54497516 0.03513852 0.17227295 0.19766577 -0.074538134 -0.25476822 0.13045743
-0.06972829 -0.28202397 0.007188762 -0.21245787 0.16060111 -0.33934593 0.24817191 0.015067811
0.080192365 0.5539114 -0.08722746 -0.1330683 0.20867632 0.07969649 0.17896935 0.20102018
-0.07055627 -0.10205376 0.30760455 0.31918037 -0.08873698 0.06286434 -0.13184354 0.10729582
-0.38082948 0.07275348 -0.08234161 0.61211514 0.038685713 -0.09217295 0.011578414 0.29662898
-0.3841049 -0.020543894 0.09309989 -0.45298764 0.061309434 -0.44789726 -0.25400722 -0.22962995
-0.09117267 0.0038658706 -0.25539726 -0.0990017 0.2326444 0.25102457 -0.19716613 -0.2966468
-0.2125091 -0.01226058 0.23557593 -0.19521815 0.13537253 0.0006547334 -0.10108713 -0.18760058
-0.17553686 -0.4388506 -0.09394096 0.102266476 -0.42420518 -0.20931967 -0.3219415 -0.6646064
0.21498342 -0.0171475 -0.24325185 -0.31677696 0.6161637 0.016691074 0.040339004 -0.44711012
0.12998638 0.2932193 -0.31402385 -0.14366238 -0.18709357 -0.08729815 -0.38124594 -0.16539113

c2/b f4 [8]
00000000: e229 773e ba70 593e fc92 8cbe 428e a4be
00000010: 6269 8abe e206 1abf abaf 36bd f7a2 1b3d
0.24137071 0.21234408 -0.2745589 -0.32139784 -0.27033526 -0.6016675 -0.044601124 0.037997212
