examples/ch4/reversi_DQN_CNN/agent_white_6000/model.npz (npz, 35948 bytes, 10 tensors)

c3/b f4 [16]
0	0xbe99c51d	-0.30033198
1	0xbe917472	-0.28409153
2	0x00000000	0.0
3	0x3f404af7	0.7511439
4	0x3ec86e0b	0.39146456
5	0x3f1d8e91	0.61545664
6	0x3ea4f285	0.32216278
7	0x3e6a982e	0.22909614
8	0x00000000	0.0
9	0xbabcabaa	-0.0014394422
10	0x3e77e4e9	0.24208416
11	0xbda0196b	-0.07817348
12	0xbe075c65	-0.1321884
13	0xbd130125	-0.035889763
14	0x3e95b656	0.29240674
15	0xbcddb104	-0.027061947

c1/W f4 [4, 1, 2, 2]
0	0x3f8f1bb4	1.1180329
1	0xbf24ad99	-0.6432739
2	0xbf704404	-0.93853784
3	0x3e141e89	0.14464773
4	0xbf44a42c	-0.76813006
5	0x3e095c8c	0.1341421
6	0xbec850f2	-0.39124256
7	0x3f15bcd7	0.5849127
8	0x3f1cbf97	0.6122984
9	0x3e9686d7	0.2939975
10	0x3e996da6	0.29966468
11	0x3c62f3cc	0.013852071
12	0xbde9bfa4	-0.11413506
13	0x3ea48de5	0.32139507
14	0x3e3a8c69	0.18217625
15	0x3f55d893	0.8353359

l5/W f4 [16, 256]
0	0xbf6f18fa	-0.93397486
1	0x3f04a473	0.5181343
2	0xbe36e4bd	-0.17860694
3	0xbdfa2d50	-0.12215674
4	0xbdbe92b8	-0.09305328
5	0xbe45ac38	-0.19303977
6	0x3e386f7b	0.18011276
7	0xbf1a9d4c	-0.60396266
8	0x3e1b598e	0.15170881
9	0xbe95ae3c	-0.29234493
10	0x3db76e7f	0.08956622
11	0xbd4f5ca5	-0.050625462
12	0x3ea62ae2	0.32454592
13	0xbd9f7516	-0.07786004
14	0x3c0e3303	0.008679154
15	0xbe04aece	-0.12957308
16	0x3e843f3c	0.25829494
17	0x3da76699	0.08173866
18	0xbda3f44e	-0.08005582
19	0x3dc2e334	0.09515992
20	0xbeb0b070	-0.3450961
21	0x3d8e753b	0.06955954
22	0x3dca74e9	0.0988558
23	0xbe2a58c7	-0.16635428
24	0xbde96aa2	-0.11397292
25	0x3da195d7	0.07889908
26	0x3e494333	0.1965454
27	0xbf06449f	-0.5244846
28	0x3f3d9660	0.7405758
29	0xbd760df5	-0.060071904
30	0x3c94e875	0.01817725
31	0xbede91b2	-0.43470532
32	0x3eb63d1f	0.35593507
33	0xbde83007	-0.113372855
34	0x3e049183	0.12946133
35	0x3d7dbfd4	0.06195052
36	0x3e150c01	0.1455536
37	0xbe81c196	-0.25343007
38	0xbcb64862	-0.022251312
39	0x3df8f87a	0.12156768
40	0xbf2b4f3d	-0.66917783
41	0xbd825c72	-0.06365289
42	0x3c6af018	0.014339469
43	0x3eafc326	0.34328574
44	0x3dae5de2	0.085140005
45	0x3b4050cd	0.0029345036
46	0xbddfffbd	-0.1093745
47	0x3ecbf2eb	0.3983377
48	0x3e26b8d4	0.16281444
49	0xbea93e3a	-0.33055288
50	0xbf22f9f1	-0.6366263
51	0x3d264fbc	0.040603384
52	0xbe8d4a44	-0.27595723
53	0x3da25bcb	0.07927664
54	0x3e66a886	0.22525224
55	0xbe1b8aaf	-0.15189622
56	0xbe1fe1e2	-0.15613511
57	0x3e201504	0.15633017
58	0xbeb1adf1	-0.3470302
59	0xbc489250	-0.012241915
60	0x3cf64c51	0.030065687
61	0x3e0e8c4b	0.13920705
62	0x3f060006	0.52343786
63	0x3ec2c497	0.3804061
64	0xbdedfec9	-0.11620862
65	0xbe37deb4	-0.17956048
66	0xbf24c370	-0.64360714
67	0xbe7653a1	-0.2405534
68	0xbf330a2f	-0.69937414
69	0x3ec112ec	0.3770975
70	0xbbd94696	-0.006630729
71	0x3e59296d	0.21207209
72	0xbde09aa7	-0.109669976
73	0x3e04e041	0.12976171
74	0x3e105208	0.14093792
75	0x3cc41c60	0.023939312
76	0x3e62c514	0.22145492
77	0xbe1fc998	-0.15604246
78	0x3cd1f4ad	0.025629366
79	0x3e04d0e8	0.12970316
80	0x3e3ec8d4	0.18631297
81	0xbe9d1b7b	-0.30685028
82	0x3e292226	0.16516933
83	0x3ee02d4f	0.43784568
84	0xbdfcfe9d	-0.12353251
85	0x3e5252c7	0.2053939
86	0xbcc27f9e	-0.023742493
87	0x3ea82796	0.32842702
88	0x3daae65c	0.08344719
89	0x3d34035f	0.043948527
90	0x3d659aee	0.056055956
91	0xbe86ec81	-0.26352313
92	0x3d9406c5	0.07227854
93	0xbe087e4d	-0.1332943
94	0xbea11a81	-0.31465533
95	0xbdac8571	-0.084238894
96	0xbe345122	-0.17609075
97	0x3e9b89f9	0.30378702
98	0x3e74c1a6	0.23901996
99	0x3f30f66e	0.6912602
100	0xbe855d33	-0.26047668
101	0x3ec2765e	0.37980932
102	0x3e8e9c96	0.2785384
103	0xbd14a7a2	-0.03629268
104	0xbcb3a4ae	-0.021929111
105	0xbdbfbdf6	-0.09362404
106	0x3e7921e1	0.2432933
107	0xbf170ea6	-0.59006727
108	0xbec986a9	-0.3936055
109	0xbd948eb0	-0.07253778
110	0xbd4b1e98	-0.049589723
111	0x3efd20f7	0.49439213
112	0x3f0a1b9a	0.53948367
113	0x3e8a66ee	0.27031654
114	0xbf0b8fb2	-0.54516137
115	0xbe286553	-0.16444902
116	0x3d41b79b	0.04729424
117	0xbe03dc31	-0.12876965
118	0xbdc8ff8c	-0.09814367
119	0xbef61888	-0.4806559
120	0xbf2bd4f9	-0.67121845
121	0x3d4f8776	0.050666295
122	0x3e88ea57	0.26741287
123	0x3e97bbc9	0.29635456
124	0xbeddcf7b	-0.43322358
125	0xbe976c04	-0.29574597
126	0x3e691e20	0.22765398
127	0x3f2ee45b	0.6831719
128	0xbe30f99d	-0.1728272
129	0x3ed1a2fb	0.40944657
130	0x3e7a15b9	0.24422349
131	0x3ed25f69	0.41088417
132	0x3f07f117	0.5310225
133	0x3ec1c0a2	0.3784228
134	0x3e8dddaf	0.27708194
135	0xbd8b56c7	-0.06803661
136	0x3db0aece	0.08627091
137	0xbdd98440	-0.10620928
138	0xbe422464	-0.18959194
139	0xbed51cb0	-0.4162345
140	0xbe8b2e7a	-0.27183896
141	0xbe6836a4	-0.22677094
142	0xbea650d5	-0.32483545
143	0xbebec227	-0.372575
144	0xbe89d8b2	-0.26923138
145	0x3e7c8b74	0.24662572
146	0x3d4aeecd	0.049544144
147	0xbf012957	-0.50453705
148	0x3e6e2aeb	0.2325856
149	0x3dcf347c	0.101174325
150	0xbe3df730	-0.18551326
151	0x3bf741a3	0.0075456663
152	0xbef73242	-0.4828053
153	0x3e2f19e8	0.17099726
154	0x3f3387ae	0.70128906
155	0x3d5fcbe5	0.05463781
156	0x3d4baef4	0.049727395
157	0x3f136413	0.57574576
158	0x3c8030d5	0.015648285
159	0x3dd91c2f	0.10601079
160	0xbe39aad6	-0.18131575
161	0x3e0dce36	0.13848194
162	0xbda9b391	-0.08286203
163	0x3ea13afb	0.3149031
164	0xbcd357d2	-0.025798712
165	0xbe32ff74	-0.1748026
166	0xbe214090	-0.15747285
167	0xbeab1747	-0.33416197
168	0x3e2840e0	0.16430998
169	0xbf44ef6d	-0.76927835
170	0xbd221c4d	-0.03957777
171	0x3e48ed08	0.1962167
172	0xbdc7b4a9	-0.09751255
173	0xbda88ff8	-0.08230585
174	0xbe9a6a46	-0.30159205
175	0x3d9d97ab	0.07694944
176	0xbea7da45	-0.32783714
177	0x3deb3f5d	0.11486695
178	0xbeb8ddf6	-0.36106843
179	0x3da3548a	0.07975109
180	0x3e5ef95e	0.21774814
181	0x3d1c8659	0.03821406
182	0x3ea0d76d	0.31414357
183	0xbea956a3	-0.3307391
184	0x3cba6f96	0.022758286
185	0x3e750c81	0.23930551
186	0xbd3c0086	-0.045898937
187	0xbd297b22	-0.041377194
188	0xbef981af	-0.48731753
189	0x3f46b8ea	0.77625906
190	0x3de63880	0.11241245
191	0x3e6ba0d7	0.23010574
192	0xbeb99fea	-0.36254817
193	0x3ec014c1	0.37515834
194	0x3f03aae1	0.51432616
195	0xbea5171a	-0.32244188
196	0x3a483ebe	0.0007638744
197	0xbeca43b4	-0.39504778
198	0x3d975191	0.073886044
199	0xbea004be	-0.31253618
200	0xbe12e0b2	-0.14343527
201	0x3e1bd0c5	0.15216358
202	0x3e8808ab	0.26569113
203	0x3dec9594	0.11551967
204	0xbc43a614	-0.011941452
205	0x3d14e16b	0.036347788
206	0x3e360c68	0.1777817
207	0xbe60e245	-0.21961315
208	0xbf3b2ae9	-0.7311235
209	0x3e897ea3	0.2685443
210	0xbe4ce574	-0.20009404
211	0xbf507db3	-0.814418
212	0xbe9c6e4e	-0.30552906
213	0x3ecc6711	0.39922383
214	0x3d0841f5	0.033266027
215	0x3f40bc95	0.75287753
216	0x3eb31ed6	0.34984463
217	0xbe276a96	-0.16349253
218	0xbe4665e7	-0.1937481
219	0xbeab3e20	-0.33445835
220	0x3ea7c11b	0.32764515
221	0x3d97d88d	0.07414351
222	0xbede5137	-0.43421337
223	0xbf7c14bc	-0.9846914
224	0x3d0dc1cb	0.034608644
225	0x3ede4b1a	0.43416673
226	0xbeb690a7	-0.35657236
227	0xbecdbe70	-0.40184355
228	0x3ea269de	0.31721395
229	0xbed84120	-0.42237186
230	0x3df007ea	0.117202595
231	0xbe8b3b87	-0.27193853
232	0xbdd3c9df	-0.10341238
233	0x3b792b17	0.0038020068
234	0x3d6e4ab0	0.058176696
235	0x3ec29f0c	0.38011968
236	0x3d165127	0.036698487
237	0xbefaac22	-0.48959452
238	0x3d69c183	0.057069313
239	0x3f0f91f4	0.5608208
240	0xbf0e436b	-0.5557162
241	0xbd85a734	-0.06526032
242	0xbf6cec78	-0.9254832
243	0x3d2b9343	0.041888487
244	0xbeb90924	-0.36139786
245	0xbe64cf88	-0.22344792
246	0x3f1cdcde	0.61274517
247	0xbe005bd0	-0.12535024
248	0x3eba7540	0.3641758
249	0x3edb37ee	0.42816108
250	0xbf5b949a	-0.85773623
251	0xbddf0832	-0.10890235
252	0x3ec7c8ee	0.39020485
253	0xbec21959	-0.37909964
254	0x3d16fd97	0.036862936
255	0x3e61995b	0.22031157

c2/W f4 [8, 4, 2, 2]
0	0xbe849ca9	-0.25900772
1	0x3f2a44ca	0.66511214
2	0xbeb40ce0	-0.35166073
3	0x3f140b88	0.57830095
4	0xbf0f2ad5	-0.5592473
5	0xbd6dc182	-0.05804587
6	0x3eb1ad14	0.3470236
7	0x3dc1beb4	0.09460202
8	0x3efb5073	0.49084815
9	0xbe5eea7f	-0.2176914
10	0xbe0dd773	-0.13851719
11	0x3f157f5e	0.5839747
12	0x3edab7c5	0.4271833
13	0xbe3f72a1	-0.18696071
14	0x3d52ecaf	0.05149525
15	0xbee2d26e	-0.4430117
16	0x3de14ba6	0.11000757
17	0x3e65f1dd	0.22455545
18	0x3dbb5749	0.09147508
19	0x3c2f883e	0.010713635
20	0x3ef240be	0.4731502
21	0xbe455a59	-0.19272746
22	0x3f00ac5d	0.50263005
23	0x3f2a3cea	0.664992
24	0xbebc5fa2	-0.36791712
25	0x3e93f9dc	0.28901565
26	0xbdb301c3	-0.087405704
27	0x3eeba12e	0.46021408
28	0x3ebfb687	0.37443945
29	0x3f48cec1	0.7844048
30	0xbee0cbe9	-0.4390557
31	0x3d54a838	0.05191824
32	0xbdae9873	-0.08525171
33	0xbf019cb7	-0.5062975
34	0x3f4790e5	0.77955467
35	0x3e535891	0.20639254
36	0x3ebc3e10	0.367661
37	0xbef42c5e	-0.476901
38	0x3ed480f7	0.41504642
39	0x3eedfa61	0.46480086
40	0x3ef62e8e	0.48082393
41	0x3e926937	0.28595898
42	0x3e00c812	0.12576321
43	0xbe9fc070	-0.31201506
44	0xbd6da0cb	-0.058014672
45	0x3efd3752	0.4945627
46	0x3ca3efa5	0.020011732
47	0xbea4ffe4	-0.3222648
48	0xbf09ae11	-0.5378123
49	0x3d496ab8	0.04917404
50	0xbdc95716	-0.098310634
51	0x3efd3a3e	0.49458498
52	0xbf3372dc	-0.70097136
53	0xbbac34ce	-0.0052553182
54	0xbe63b693	-0.22237615
55	0xbf1fb3e8	-0.6238389
56	0x3e85a6de	0.26103872
57	0x3e90f35e	0.28310674
58	0xbea65517	-0.32486793
59	0x3dbf9023	0.09353664
60	0xbeac7668	-0.33684087
61	0x3e547fc0	0.20751858
62	0x3eff1f87	0.4982874
63	0x3e705e79	0.23473538
64	0xbe92f790	-0.287045
65	0xbe45118a	-0.19244972
66	0xbf33e62b	-0.70273083
67	0xbe68511b	-0.2268719
68	0xbf0dbca9	-0.55366
69	0x3f2fc311	0.6865702
70	0xbf43505b	-0.7629449
71	0xbd0f8b42	-0.035044916
72	0x3f2022af	0.6255292
73	0xbe49b078	-0.19696224
74	0x3ecf5b31	0.4049926
75	0x3e831875	0.25604597
76	0x3e147801	0.14498903
77	0x3e23f22a	0.16010347
78	0xbe014b9a	-0.12626496
79	0x3e924caa	0.28574115
80	0xbe37af8f	-0.17938064
81	0x3f618ede	0.88108623
82	0xbfa2b9d1	-1.2712957
83	0xbf180624	-0.5938437
84	0xbf1afee8	-0.60545206
85	0xbf1f24db	-0.6216561
86	0xbe280d85	-0.16411407
87	0x3eb8f6f2	0.36125904
88	0x3e542f84	0.20721251
89	0xbd859761	-0.06523014
90	0x3ea6ded8	0.3259189
91	0xbec9a716	-0.3938529
92	0xbd2eafa3	-0.04264797
93	0xbe8e84e8	-0.27835774
94	0x3e6ad68e	0.22933409
95	0xbd2cfb2d	-0.042231727
96	0xbc1d66cd	-0.009607029
97	0x3eda50de	0.42639822
98	0x3e8188af	0.25299594
99	0xbe48e74e	-0.19619486
100	0xbe4e55ef	-0.20149969
101	0xbd894f79	-0.06704611
102	0xbf4f1db6	-0.8090471
103	0x3edae15c	0.4275006
104	0xbec47627	-0.38371393
105	0xbf3cf99f	-0.7381839
106	0x3e1173f3	0.14204387
107	0xbdd93623	-0.10606029
108	0xbecbcb18	-0.39803386
109	0x3ec9ca1a	0.39412004
110	0x3d8ebea9	0.06969959
111	0x3f1858d4	0.5951054
112	0xbe2723b4	-0.16322213
113	0x3f0384e0	0.51374626
114	0xbf1153ff	-0.5676879
115	0x3edd8640	0.43266487
116	0xbf16a627	-0.5884728
117	0x3f6fbb2e	0.9364499
118	0x3ec1de32	0.37864834
119	0xbedcc199	-0.43116453
120	0xbe9f5fd4	-0.311278
121	0xbe36e38a	-0.17860237
122	0xbc276112	-0.010216014
123	0x3ea131a2	0.3148318
124	0xbe1c50ef	-0.15265249
125	0x3f514490	0.81745243
126	0xbf0f6828	-0.56018305
127	0xbe89f07b	-0.26941285

l4/W f4 [256, 16]
0	0x3f0772cb	0.52909535
1	0xbe7c74e1	-0.24653961
2	0x3e9f263a	0.31083852
3	0xbedb642e	-0.4284987
4	0xbd3dc697	-0.04633197
5	0xbeaa73a9	-0.33291367
6	0x3f1566a6	0.58359754
7	0xbe191ec1	-0.14953138
8	0x3db3f6b8	0.08787292
9	0x3cff551c	0.031168513
10	0xbe6417e2	-0.22274736
11	0xbf49d9aa	-0.78847754
12	0xbc7c93c7	-0.015416092
13	0x3f18deca	0.5971495
14	0xbdca56ae	-0.09879814
15	0x3ee867b0	0.45391607
16	0xbf2f58e7	-0.6849503
17	0x3eaa8029	0.33300903
18	0x3e832512	0.2561422
19	0xbee02001	-0.43774417
20	0x3e8d894b	0.2764381
21	0x3ee04c3e	0.43808168
22	0x3f0512c3	0.51981753
23	0x3e46cdbf	0.19414423
24	0xbec8c49b	-0.39212498
25	0xbf431496	-0.76203287
26	0xbd3b5186	-0.045732044
27	0xbe7fc47a	-0.24977294
28	0xbf2c62c4	-0.67338204
29	0x3e48941a	0.19587746
30	0xbf175f61	-0.5912991
31	0x3d4cdc1b	0.050014596
32	0x3e22b382	0.1588879
33	0x3d880417	0.06641405
34	0xbec58692	-0.38579232
35	0xbf3f496f	-0.74721426
36	0x3f1225fd	0.57089216
37	0x3e1d438d	0.153578
38	0x3e277860	0.16354513
39	0x3e8cb36f	0.27480647
40	0x3f1b9f4c	0.6078994
41	0xbd694052	-0.056946106
42	0xbed76072	-0.4206577
43	0x3df1952c	0.117960304
44	0xbe006475	-0.12538321
45	0xbe5e7b58	-0.2172674
46	0xbfc0ef72	-1.5073073
47	0x3e3fd67f	0.18734168
48	0x3dbf26b7	0.09333556
49	0xbf9384cf	-1.1524905
50	0x3f4ad22f	0.79226965
51	0x3df6ab78	0.12044424
52	0x3eff642e	0.4988112
53	0xbd8115d9	-0.06302995
54	0xbe0c60ff	-0.13708876
55	0x3e8fa1d0	0.2805314
56	0x3ec0ded1	0.37669995
57	0x3e0270f9	0.12738408
58	0xbea0dc86	-0.31418246
59	0x3f48e8f1	0.7848044
60	0xbf019ef0	-0.50633144
61	0xbee65ae2	-0.44991213
62	0xbdec7c02	-0.1154709
63	0xbdd5abca	-0.10433157
64	0xbecdb849	-0.4017966
65	0xbeb49e60	-0.3527708
66	0x3f22d733	0.6360962
67	0xbda98456	-0.08277194
68	0x3e597908	0.21237576
69	0x3e968325	0.2939693
70	0xbf07a927	-0.5299248
71	0x3e821c53	0.25412235
72	0xbdff3cbd	-0.12462757
73	0xbefb4be2	-0.49081331
74	0x3e002131	0.12512662
75	0x3ee1b972	0.44086796
76	0xbf88195f	-1.0632743
77	0xbf7b2c4b	-0.9811446
78	0x3e937140	0.2879734
79	0xbcbd592e	-0.023113813
80	0xbe9f3681	-0.3109627
81	0xbdd2b330	-0.102880836
82	0xbf363b41	-0.71184164
83	0xbe9b5a11	-0.30342153
84	0xbe8e0981	-0.27741626
85	0x3e9f60b9	0.3112848
86	0xbd38484f	-0.044990834
87	0x3d98dd4f	0.07464086
88	0x3e5588d7	0.20852982
89	0x3e80dcd0	0.25168467
90	0x3ec07064	0.37585747
91	0xbe4b1a11	-0.19834162
92	0xbee756a7	-0.45183298
93	0xbe69fec0	-0.22851086
94	0x3e9d0987	0.3067133
95	0x3e856eb5	0.26061025
96	0x3e68ef79	0.22747602
97	0x3e2e572b	0.1702544
98	0x3e0a269e	0.13491294
99	0xbd813cd7	-0.063104324
100	0x3dc089d2	0.09401287
101	0xbe99c7e9	-0.30035332
102	0xbf4834f8	-0.78205824
103	0x3e7e175c	0.24813598
104	0xbe4cdf41	-0.2000704
105	0x3ed084c2	0.40726286
106	0xbe25f4de	-0.1620669
107	0x3e43c7eb	0.19119231
108	0xbdedc1fa	-0.11609264
109	0x3e72782a	0.23678651
110	0xbe1fcca4	-0.15605408
111	0x3e77b4b0	0.2419002
112	0x3e6b132d	0.22956534
113	0xbeb08829	-0.34478882
114	0x3ece5736	0.40300912
115	0x3ecc6af7	0.39925358
116	0xbf7134b1	-0.94221026
117	0xbdd8d790	-0.1058799
118	0xbf020bcc	-0.5079925
119	0x3e8f1792	0.2794767
120	0x3f2a6a27	0.66568226
121	0xbd741847	-0.059593465
122	0xbf4aaa0b	-0.79165715
123	0x3e97e754	0.29668677
124	0x3d78dd7a	0.06075809
125	0xbbd9040b	-0.0066227964
126	0x3d2a3b26	0.041560315
127	0xbeee0a25	-0.46492115
128	0x3ed666da	0.41875345
129	0xbf8ee31c	-1.1163058
130	0xbeefe042	-0.46850783
131	0xbd31a813	-0.04337318
132	0xbf1ba7d7	-0.6080298
133	0x3da38dd3	0.07986035
134	0x3f1d472e	0.61436737
135	0x3e306fb9	0.17230119
136	0xbe099873	-0.13437061
137	0xbe32e444	-0.17469889
138	0xbeb53201	-0.35389712
139	0xbe3d4e71	-0.18486954
140	0xbec1d420	-0.3785715
141	0xbf4418d9	-0.76600415
142	0x3ec5862f	0.38578936
143	0xbeb408bd	-0.35162917
144	0x3e1c0b2d	0.15238638
145	0x3edddf60	0.43334484
146	0xbed093e9	-0.40737846
147	0xbf772678	-0.96543074
148	0xbe2bf0de	-0.16791102
149	0x3d477ce2	0.048703082
150	0xbd364225	-0.044496674
151	0xbe8cf9e6	-0.27534407
152	0xbdad864c	-0.08472881
153	0xbf667929	-0.90028626
154	0xbe943c82	-0.28952414
155	0xbe992d73	-0.29917488
156	0xbe811198	-0.25208735
157	0xbddf8d27	-0.109155945
158	0x3ec60913	0.38678798
159	0x3daf784a	0.08567865
160	0xbf642c27	-0.8912987
161	0xbf189366	-0.5959991
162	0x3f166481	0.58747107
163	0xbed9c3fd	-0.4253234
164	0x3e804d53	0.25058994
165	0xbeba5e86	-0.3640024
166	0x3d27267d	0.04080819
167	0xbebf486c	-0.3735994
168	0xbe525834	-0.2054146
169	0x3e78f556	0.24312338
170	0xbd607013	-0.054794382
171	0x3de83a51	0.11339248
172	0xbe201856	-0.15634283
173	0x3d903801	0.07041932
174	0x3e10a040	0.1412363
175	0xbf025b83	-0.50920886
176	0x3de553a0	0.11197591
177	0xbf81d5f3	-1.0143417
178	0xbda40c29	-0.08010132
179	0xbee1f1ed	-0.44129887
180	0xbe95def1	-0.29271653
181	0xbec46c3b	-0.38363823
182	0x3d1d0bca	0.03834132
183	0x3ee1e205	0.44117752
184	0xbe81960b	-0.25309786
185	0x3d6f25a2	0.0583855
186	0x3e99496b	0.29938826
187	0x3e7440ce	0.23852846
188	0xbf2186f0	-0.63096523
189	0x3e28be2f	0.164788
190	0xbe0c71b2	-0.13715246
191	0xbe4e6983	-0.20157437
192	0x3e7fec78	0.2499255
193	0xbdeaf47d	-0.11472414
194	0xbe9dbe09	-0.30809048
195	0xbeeb4e01	-0.4595795
196	0xbe3440dd	-0.17602868
197	0x3dee129a	0.11624642
198	0x3ede70c2	0.43445402
199	0xbe7a1ac4	-0.24424273
200	0xbeb2dde3	-0.3493491
201	0x3e321385	0.17390259
202	0xbe099e7b	-0.13439362
203	0x3ed8c1bb	0.42335305
204	0x3dd9cc17	0.1063463
205	0xbd3761e5	-0.044771094
206	0xbddd3b56	-0.10802333
207	0xbcbdf36e	-0.023187365
208	0xbef9f07b	-0.48816285
209	0x3ee7f488	0.4530375
210	0x3f074017	0.5283217
211	0xbebd5bbf	-0.3698406
212	0x3ea93a18	0.33052135
213	0xbe010e44	-0.12603098
214	0xbebdf659	-0.3710201
215	0x3e82695a	0.25471002
216	0x3d19634d	0.037448216
217	0xbf18dc51	-0.59711176
218	0xbe366177	-0.17810617
219	0xbd64f5fb	-0.055898648
220	0xbdce8560	-0.10084033
221	0xbe75f93d	-0.24020858
222	0x3dbb9fc3	0.091613315
223	0xbe940491	-0.28909734
224	0xbf000d4d	-0.50020295
225	0x3e844ec0	0.2584133
226	0x3da937a3	0.08262565
227	0xbf231b72	-0.63713753
228	0x3c813ada	0.015775133
229	0xbf342cf1	-0.70381075
230	0x3b291e81	0.0025805535
231	0xbdbd255c	-0.09235641
232	0x3eaf989e	0.34296125
233	0x3d6e2750	0.05814296
234	0x3f1a7f37	0.60350364
235	0x3d0b8fb0	0.034072578
236	0x3ee191d6	0.44056576
237	0x3cefd675	0.029277066
238	0xbe42ee6e	-0.19036266
239	0xbf485e8e	-0.7826928
240	0x3e0c4ef4	0.13701993
241	0x3e2f82b7	0.17139708
242	0xbe8344c3	-0.256384
243	0x3e328aac	0.17435712
244	0x3f198fe9	0.59985214
245	0xbeb55e28	-0.35423398
246	0xbd705969	-0.05867902
247	0xbddf1f7c	-0.10894677
248	0xbe1edec6	-0.15514669
249	0xbc48254f	-0.012215926
250	0x3c0403eb	0.008057575
251	0x3eeb7fdf	0.45995995
252	0x3ea7d4d9	0.32779577
253	0x3c26a161	0.010170312
254	0x3d32f822	0.04369367
255	0x3e6488c8	0.22317803

c3/W f4 [16, 8, 2, 2]
0	0x3ea73228	0.32655454
1	0xbd9d8524	-0.0769141
2	0x3d311b8b	0.043239158
3	0xbe0c8f6b	-0.13726585
4	0xbd03e85b	-0.032204013
5	0xbe871713	-0.26384792
6	0x3e3f46b9	0.18679322
7	0xbdb92f7c	-0.0904226
8	0x3e8ed0c6	0.27893656
9	0xbf10c0d0	-0.5654421
10	0xbd50cf89	-0.05097917
11	0xbe1b315c	-0.15155548
12	0x3dbfea8b	0.093709074
13	0xbe0b8faa	-0.13629022
14	0x3f322831	0.6959258
15	0xbbb9eb95	-0.0056738355
16	0x3f19909b	0.59986275
17	0x3f25b693	0.6473171
18	0x3d7cff07	0.06176665
19	0xbe39e587	-0.18153964
20	0x3b5733b6	0.0032837219
21	0xbe8f8446	-0.28030604
22	0xbe23e60d	-0.16005726
23	0xbd908d9e	-0.07058261
24	0xbee49fa2	-0.4465304
25	0xbd9e63af	-0.07733857
26	0xbefcbfca	-0.49365073
27	0xbe487d9f	-0.1957917
28	0xbf41c865	-0.756964
29	0xbe0071b8	-0.1254338
30	0x3efb7ca3	0.49118528
31	0xbe7962d9	-0.24354114
32	0x3e6c0ab4	0.23050958
33	0x3e8c3f8e	0.27392238
34	0xbf1e818a	-0.6191641
35	0xbe101c8b	-0.14073388
36	0x3de9e3d9	0.114204116
37	0x3e85a071	0.2609897
38	0x3d787607	0.060659435
39	0x3f0f2389	0.559136
40	0x3ce16d63	0.02751798
41	0x3edb1486	0.42789096
42	0x3e9c8b3d	0.3057498
43	0xbeea9c9d	-0.4582261
44	0x3e48e298	0.19617689
45	0x3e4a57bc	0.1976003
46	0xbc6ae20c	-0.01433612
47	0x3e8a3802	0.26995856
48	0x3e9d1175	0.3067738
49	0x3e32a5e8	0.174461
50	0xbf05e3d2	-0.5230075
51	0xbee26378	-0.44216514
52	0x3e879ca6	0.264867
53	0xbe68a365	-0.2271858
54	0xbe6b0708	-0.22951901
55	0xbe99f3be	-0.30068773
56	0x3d85fe39	0.0654263
57	0x3e8fbc5a	0.28073388
58	0xbf42589f	-0.75916475
59	0x3dfbaf03	0.1228924
60	0xbdafefb4	-0.085906416
61	0x3e2f076d	0.17092676
62	0xbed3a504	-0.41336834
63	0xbf92d7ef	-1.1472148
64	0xbc911f59	-0.017715143
65	0xbd387f09	-0.045043025
66	0x3d69fa3b	0.057123404
67	0x3c3ab115	0.011394759
68	0xbe0f0f0c	-0.13970584
69	0xbdc3a539	-0.09552998
70	0xbe45173f	-0.19247149
71	0x3d9e6364	0.07733801
72	0x3d2d45cc	0.04230289
73	0xbe1da85f	-0.1539626
74	0xb8c7bfac	-9.524761e-05
75	0xbf02c9bb	-0.51089066
76	0xbe4e5e63	-0.20153193
77	0x3e38de7f	0.18053626
78	0x3ca04857	0.019565744
79	0xbdcc4b3f	-0.099752896
80	0xbd76fa4e	-0.060297303
81	0xbe6c23e9	-0.23060574
82	0x3d2fd7d9	0.042930458
83	0xbe8bdcf1	-0.27317002
84	0x3d20891d	0.03919326
85	0x3e6447d3	0.22293024
86	0x3b949e24	0.0045354534
87	0xbcc92ef9	-0.024558531
88	0xbe7d8139	-0.24756326
89	0xbe1a881a	-0.15090981
90	0xbd1bda33	-0.038049888
91	0xbcb6660d	-0.022265458
92	0xbddf2a38	-0.108967245
93	0xbe4e64af	-0.20155595
94	0x3d79e717	0.0610114
95	0x3e60cdd0	0.21953511
96	0xbf04db49	-0.518971
97	0x3e47436d	0.19459315
98	0x3e03f2c6	0.1288558
99	0x3d5409ac	0.051767036
100	0x3e83c421	0.25735572
101	0xbf798db8	-0.9748187
102	0xbeb40128	-0.35157132
103	0x3eb453af	0.35220096
104	0xbdaddcb5	-0.08489362
105	0x3ec53696	0.38518208
106	0x3ee8f9c6	0.45503062
107	0xbecc4bc5	-0.39901558
108	0x3d8cf9e6	0.06883602
109	0xbe8f1bbd	-0.2795085
110	0x3eb9b255	0.3626887
111	0xbe791251	-0.24323393
112	0x3f0ed844	0.55798745
113	0xbef107d7	-0.47076294
114	0x3d195ec2	0.037443884
115	0xbe5de1be	-0.21668145
116	0x3f1afb65	0.6053985
117	0xbb1bd889	-0.0023780188
118	0xbe222fb3	-0.15838508
119	0xbe75bc16	-0.2399753
120	0xbd727f45	-0.059203405
121	0xbf83d115	-1.0298182
122	0xbee5542a	-0.44790775
123	0x3f4f94b4	0.8108628
124	0x3ed7d9fe	0.42158502
125	0x3e3359d1	0.17514731
126	0xbbefb494	-0.0073152278
127	0xbf1c657c	-0.6109235
128	0x3e9fc607	0.3120577
129	0x3dd32438	0.103096426
130	0xbf165df9	-0.5873714
131	0x3d405464	0.04695548
132	0xbd4960af	-0.04916447
133	0xbe965316	-0.29360265
134	0x3df10a21	0.1176951
135	0x3e7717ee	0.24130222
136	0xbecee42b	-0.40408453
137	0x3f22c9fc	0.63589454
138	0x3df03ec8	0.117307246
139	0x3ec69e79	0.3879278
140	0xbe7bf85d	-0.24606462
141	0x3e40f72b	0.18844287
142	0xbf01c13d	-0.50685483
143	0xbf27e4e7	-0.6558365
144	0xbf16c3a6	-0.58892286
145	0xbee449c1	-0.4458752
146	0x3e7ae8fc	0.24502939
147	0xbe9cbb85	-0.30611816
148	0xbdb63655	-0.08897082
149	0xbe3e9299	-0.1861061
150	0xbea9ff8a	-0.33202773
151	0x3d5b13a3	0.053485524
152	0x3f058b00	0.5216522
153	0xbeb97559	-0.36222342
154	0x3df45fc5	0.11932329
155	0x3ecb2bfd	0.39681998
156	0xbf272b31	-0.6530028
157	0x3ea69e3b	0.32542595
158	0x3f13d07c	0.57739997
159	0xbee84497	-0.4536483
160	0x3d5443a0	0.051822305
161	0xbe845495	-0.2584578
162	0xbe640ead	-0.22271223
163	0x3f6c1f19	0.9223495
164	0xbd04156d	-0.032246996
165	0x3f1ea0a2	0.61963856
166	0x3d163599	0.03667221
167	0xbe5e36dd	-0.21700616
168	0xbde66df8	-0.112514436
169	0x3e646bc6	0.22306737
170	0xbd93ce9b	-0.07217141
171	0xbe0d5bf8	-0.13804615
172	0x3ecc05be	0.3984813
173	0xbe810001	-0.25195315
174	0x3d0a96aa	0.03383509
175	0xbeeb5572	-0.45963627
176	0x3d9b9ce8	0.07598287
177	0x3b6ad3c3	0.0035831786
178	0xbdffb6b3	-0.12486019
179	0xbe99df05	-0.30052963
180	0x3ccff64d	0.025386
181	0x3e1cfe22	0.15331319
182	0x3eb2f744	0.34954274
183	0x3dc880c6	0.097901866
184	0xbe7c3284	-0.24628645
185	0x3c45fdf7	0.012084476
186	0xbe0d4427	-0.1379553
187	0xbef97c06	-0.48727435
188	0x3e1bb7b7	0.152068
189	0x3ef7e6ad	0.4841818
190	0xbea27ce5	-0.31735912
191	0x3e85002d	0.25976697
192	0x3ea5b177	0.32361957
193	0xbe8f1e68	-0.27952886
194	0x3eedb04f	0.46423575
195	0xbe32b6f2	-0.174526
196	0xbf4b51e0	-0.79421806
197	0x3eaa96f8	0.33318305
198	0xbe1475b1	-0.1449802
199	0x3e3b1d67	0.18272935
200	0xbeeac6d3	-0.45854816
201	0x3eb4859f	0.35258195
202	0x3e60358c	0.21895427
203	0xbe8565ef	-0.26054332
204	0xbdce5e10	-0.10076535
205	0x3e5358b8	0.20639312
206	0x3f27bc53	0.65521735
207	0x3e663abf	0.22483347
208	0x3d0121eb	0.031526487
209	0xbb9e391a	-0.0048285844
210	0x3e212085	0.15735061
211	0xbcb0a211	-0.021561654
212	0x3ed91c9d	0.42404643
213	0xbd81ed5b	-0.063441
214	0xbe8eacfa	-0.27866346
215	0x3dbd2dc7	0.09237247
216	0x3f3f045b	0.7461602
217	0xbdf03b44	-0.11730054
218	0x3f6e3d75	0.93062526
219	0x3e23a08a	0.1597921
220	0xbe136474	-0.14393789
221	0xbc9419e4	-0.018078752
222	0xbf275748	-0.65367556
223	0xbd4601a1	-0.048341397
224	0xbe6db08b	-0.23211877
225	0xbf352ef2	-0.7077476
226	0x3db84e4a	0.089993075
227	0xbd69a6c0	-0.05704379
228	0x3e716d66	0.23576888
229	0xbf00be73	-0.502906
230	0xbe94e45c	-0.29080474
231	0x3f4a3cbc	0.78998923
232	0xbe83d404	-0.25747693
233	0x3d86607c	0.06561372
234	0xbc88ab4e	-0.016683247
235	0x3e25a3bc	0.16175741
236	0xbe4c0859	-0.1992506
237	0xbeb76030	-0.35815573
238	0x3c4455c3	0.011983338
239	0x3eab9a16	0.33515996
240	0xbed9e4ce	-0.42557377
241	0xbbe4a604	-0.0069777984
242	0x3e47ed49	0.19524111
243	0x3ec288a6	0.3799488
244	0x3d6c8641	0.057745222
245	0x3df5f2b1	0.1200918
246	0x3e1360ea	0.14392439
247	0x393fb14c	0.00018281228
248	0xbde949b2	-0.113910094
249	0xbeb7b7bf	-0.35882375
250	0xbec8c945	-0.39216056
251	0x3e896d25	0.26841083
252	0x3e9fa62f	0.31181476
253	0x3e941554	0.28922522
254	0x3e81351b	0.2523583
255	0x3ebeb355	0.37246194

l5/b f4 [16]
0	0xbe5f5308	-0.21809018
1	0xbe0ab815	-0.13546784
2	0xbdb69003	-0.08914187
3	0x3d617f9f	0.05505335
4	0xbe8a36ff	-0.26995084
5	0xbe2c18b2	-0.16806296
6	0xbe38d246	-0.18048963
7	0xbd4a37fb	-0.049369793
8	0x3dddb6cd	0.10825882
9	0xbe1b8071	-0.15185715
10	0xbe05186c	-0.12997597
11	0xbe66197d	-0.2247066
12	0x3c8091cd	0.015694523
13	0x3d6bdfb5	0.05758639
14	0xbe45c531	-0.19313504
15	0xbda9fdff	-0.08300399

c1/b f4 [4]
0	0x3e674d16	0.22588
1	0x3e944dd8	0.2896564
2	0xbec6b076	-0.38806504
3	0xbeacafe8	-0.33727956

l4/b f4 [256]
0	0x3f183b04	0.5946505
1	0x3d533462	0.051563628
2	0x3dfa715e	0.12228654
3	0xbe8b2b58	-0.27181506
4	0xbf20ed98	-0.6286254
5	0xbe88fd67	-0.2675583
6	0x3e860f3a	0.26183492
7	0x3e4f0b62	0.20219186
8	0xbd3258fe	-0.0435419
9	0x3edb9dc3	0.428938
10	0x3f49fbf1	0.7890006
11	0x3eea7f3f	0.45800206
12	0xbd526b0d	-0.051371623
13	0x3f021b2c	0.5082271
14	0xbe96f031	-0.29480127
15	0xbdfbe0c2	-0.122987285
16	0x3d92308d	0.071381666
17	0x3e0df05c	0.13861221
18	0x3bddfad4	0.006774286
19	0x3eba65b7	0.36405727
20	0x3ef6e765	0.48223415
21	0x3e901f0d	0.2814869
22	0xbdcdadc7	-0.10042911
23	0x3c8300b8	0.015991554
24	0x3e579462	0.21052697
25	0x3e9be016	0.30444402
26	0x3e50b2b0	0.20380664
27	0xbdc9054a	-0.09815462
28	0x3e4815a9	0.19539513
29	0x3d28acf8	0.04118058
30	0x3f0b5061	0.54419523
31	0xbdecc3e6	-0.11560802
32	0xbd8670a6	-0.06564455
33	0xbf21537f	-0.6301803
34	0xbf5901d8	-0.8476844
35	0x3e4bc88b	0.1990072
36	0xbe851423	-0.25991926
37	0x3e9f9b2b	0.3117307
38	0xbd80d859	-0.06291265
39	0xbeae62c1	-0.34059718
40	0xbf59f123	-0.8513357
41	0xbe57a1cf	-0.21057819
42	0x3c993e6a	0.01870652
43	0xbe3d8914	-0.18509322
44	0x3d1422b9	0.036165927
45	0xbe0f5705	-0.13998039
46	0xbe08734a	-0.1332523
47	0xbe4c9e3a	-0.19982234
48	0xbdf86964	-0.12129477
49	0xbe72b5e8	-0.23702204
50	0x3cd1f9f8	0.02563189
51	0x3d3b9114	0.045792654
52	0xbd9100da	-0.070802405
53	0xbd501068	-0.050796896
54	0x3df27910	0.11839497
55	0xbed1efcf	-0.41003272
56	0x3b602c0c	0.0034205941
57	0xbcb6f876	-0.022335272
58	0x3e5ae469	0.21376194
59	0x3ea522e0	0.3225317
60	0xbe3bf1a3	-0.18353896
61	0x3eaf2e83	0.34215173
62	0x3e88fa4c	0.2675346
63	0xbeb2977c	-0.34881198
64	0xbe8f1b4e	-0.2795052
65	0xbdf97401	-0.12180329
66	0x3f3ca0a6	0.7368263
67	0x3d0ff954	0.035149887
68	0xbf4d316f	-0.80153555
69	0xbf177baf	-0.591731
70	0x3dbe0b14	0.09279457
71	0xbef7672d	-0.48320904
72	0x3cf86f88	0.03032662
73	0xbf03dd04	-0.5150912
74	0x3f19bfa3	0.6005804
75	0x3e6101ea	0.21973386
76	0x3cf40739	0.0297886
77	0x3c95c53e	0.018282529
78	0x3e24bb9b	0.16087191
79	0xbd740f56	-0.059584938
80	0xbe329c6b	-0.17442481
81	0xbe7c801f	-0.2465825
82	0x3eed1e1c	0.46312034
83	0xbed5ef45	-0.4178411
84	0xbf242d8d	-0.64132005
85	0x3df07cc7	0.117425494
86	0xbe2326d1	-0.15932776
87	0xbe8566cf	-0.26055
88	0xbd20e666	-0.039282225
89	0xbd63eab1	-0.05564374
90	0x3e9fd08f	0.31213805
91	0xbe741418	-0.2383579
92	0x3c65b153	0.014019328
93	0x3deae3e3	0.11469247
94	0xbdf94317	-0.121709995
95	0x3d88406b	0.06652912
96	0xbe1398b1	-0.14413716
97	0x3e37d4b0	0.17952228
98	0x3d711e43	0.05886675
99	0x3eec4833	0.46148834
100	0x3e1ec57d	0.15505023
101	0x3f252ca3	0.64521235
102	0x3efd2776	0.4944417
103	0x3e904277	0.2817571
104	0x3e9c9523	0.30582532
105	0xbe2049f6	-0.15653214
106	0xbdd06ee0	-0.10177398
107	0x3e8e050b	0.27738222
108	0xbe9920be	-0.29907793
109	0xbe216d06	-0.15764245
110	0xbeee6b1d	-0.46566096
111	0xbe8ff3b9	-0.28115633
112	0x3e986925	0.2976772
113	0xbe6727be	-0.22573754
114	0xbd884c94	-0.06655231
115	0x3d7e1e4e	0.06204062
116	0xbeecd9b5	-0.46259847
117	0x3df147f3	0.11781301
118	0xbe9c4e91	-0.3052869
119	0xbcd5cd88	-0.026098981
120	0x3eb17035	0.3465592
121	0xbcbece0b	-0.023291608
122	0x3d5d5fee	0.054046564
123	0xbe62b4ad	-0.22139235
124	0xbdb91f17	-0.09039133
125	0x3ecbc401	0.39797977
126	0xbdf7ff17	-0.121092014
127	0xbf034d63	-0.5128996
128	0x3e094512	0.13405254
129	0xbf6ad7af	-0.9173536
130	0xbd782f25	-0.060591836
131	0x3d139dab	0.036039036
132	0xbdf93b6b	-0.12169536
133	0x3dbd9bc9	0.09258229
134	0xbecf9de6	-0.40550154
135	0x3d8697f7	0.06571954
136	0x3e322649	0.17397417
137	0xbe660c65	-0.22465666
138	0x3dc35652	0.09537949
139	0xbe47a876	-0.19497856
140	0xbe84bf3b	-0.25927147
141	0x3c505f3b	0.012718017
142	0x3c04b278	0.008099191
143	0xbe192171	-0.14954163
144	0xbcea952d	-0.028635586
145	0x3e569323	0.20954566
146	0x3e50a655	0.2037595
147	0xbf40ebc6	-0.7535976
148	0x3f0bd84f	0.54626936
149	0xbd2a5d88	-0.041593105
150	0xbc43bffa	-0.011947626
151	0xbe08a32f	-0.133435
152	0xbeaee119	-0.3415611
153	0xbdbcd1a6	-0.09219675
154	0x3f102bc9	0.5631681
155	0xbe0d1018	-0.1377567
156	0xbcdf2df7	-0.027243597
157	0xbea2b3dd	-0.3177785
158	0xbeff842c	-0.49905527
159	0x3f225341	0.63408285
160	0x3ebc5ed6	0.36791104
161	0xbe9764a5	-0.29568973
162	0xbefa7a89	-0.48921612
163	0x3eca4170	0.3950305
164	0xbe17b0ae	-0.14813492
165	0xbefa1104	-0.48841107
166	0xbe6ab76f	-0.22921537
167	0x3e934f3f	0.28771397
168	0xbdf3f977	-0.11912816
169	0xbf3fb1fa	-0.74880946
170	0xbdc719e4	-0.09721735
171	0x3e32bf62	0.17455819
172	0x3e92219b	0.28541264
173	0xbd8d4416	-0.06897752
174	0xbe6c7f73	-0.23095493
175	0x3e97ecb7	0.29672787
176	0xbd8ef245	-0.06979803
177	0xbf119761	-0.5687161
178	0x3d4122d9	0.047152374
179	0xbf11de2e	-0.56979644
180	0x3e62e638	0.22158134
181	0xbed85355	-0.42251077
182	0x3d9281e9	0.07153685
183	0x3e5c86b3	0.21535759
184	0x3a88f6ad	0.0010449492
185	0x3f2f68b2	0.6851913
186	0xbdd9f2b4	-0.10641995
187	0xbe464dce	-0.19365618
188	0x3ead1ead	0.33812466
189	0x3e0e2168	0.13879931
190	0x3e5850fa	0.2112464
191	0xbd7476a8	-0.059683472
192	0xbe2e4d09	-0.17021574
193	0xbd9fb604	-0.077983886
194	0x3ecfd731	0.40593866
195	0x3e83b81c	0.25726402
196	0x3e22212c	0.15832967
197	0x3dbe2524	0.09284428
198	0xbe90f5a0	-0.28312397
199	0x3e0f4bb2	0.13993719
200	0xbf0b542b	-0.54425305
201	0x3e11fb79	0.14256085
202	0xbd0192de	-0.031634204
203	0x3f1d4073	0.61426467
204	0x3c529c66	0.012854671
205	0xbe60c7b4	-0.2195118
206	0x3db97488	0.0905543
207	0x3ea168fd	0.31525412
208	0xbef01e88	-0.46898293
209	0xbde9af92	-0.114104405
210	0x3d759627	0.05995765
211	0xbf2cfdf4	-0.67575
212	0x3e8c13fc	0.27358997
213	0xbf18536c	-0.5950229
214	0xbeb566e8	-0.35430074
215	0xbeba8e26	-0.36436576
216	0xbd26e982	-0.040750034
217	0xbe051bcd	-0.12998886
218	0xbeecbb4c	-0.46236646
219	0x3dcdd61b	0.10050603
220	0xbd04c9ac	-0.03241889
221	0x3eddff4a	0.43358833
222	0xbeae2d30	-0.3401885
223	0xbef9c94c	-0.4878639
224	0xbe88de00	-0.26731873
225	0xbe9b70bd	-0.3035945
226	0x3e8bd15b	0.27308163
227	0xbe8526af	-0.26006076
228	0x3eba2e4c	0.36363447
229	0x3e36afb5	0.17840464
230	0xbe375bff	-0.17906187
231	0xbe538638	-0.20656669
232	0xbe15fba3	-0.14646773
233	0xbefbe99d	-0.4920167
234	0xbdc6f95d	-0.09715531
235	0x3de3b9d1	0.11119426
236	0xbf07bff6	-0.53027284
237	0xbe341120	-0.17584658
238	0xbee7a124	-0.45240128
239	0xbf6ee1f7	-0.93313545
240	0x3e7975bc	0.24361318
241	0xbe191c7d	-0.14952274
242	0xbec0397d	-0.3754386
243	0xbea2d078	-0.31799674
244	0x3f0fbe56	0.56149805
245	0x3e8693d4	0.2628466
246	0x3e47ce1e	0.19512221
247	0xbf0b9162	-0.5451871
248	0x3e7757d8	0.24154603
249	0x3f00cb22	0.50309956
250	0xbe9d8732	-0.30767208
251	0x3b9de427	0.0048184576
252	0xbe120778	-0.14260662
253	0xbe0b1cf0	-0.13585258
254	0xbeb6ad84	-0.35679257
255	0xbe7e1bd6	-0.24815306

c2/b f4 [8]
0	0x3da995c5	0.082805194
1	0x3dd234da	0.10263987
2	0xbeabac82	-0.3353005
3	0xbe84d207	-0.25941488
4	0xbe8ff18a	-0.28113967
5	0xbeb75325	-0.35805622
6	0xbd8568f8	-0.06514162
7	0xbe274cf5	-0.1633795
