examples/ch4/reversi_DQN_CNN/agent_white_6000/target_model.npz (npz, 35955 bytes, 10 tensors)

c3/b f4 [16]
0	0xbe991a69	-0.29902962
1	0xbe91f023	-0.28503522
2	0x00000000	0.0
3	0x3f40b50f	0.75276273
4	0x3ec6a6dc	0.3879918
5	0x3f1cf490	0.6131067
6	0x3ea7ba61	0.32759383
7	0x3e6ebd1d	0.23314328
8	0x00000000	0.0
9	0xbabcabaa	-0.0014394422
10	0x3e77d0cd	0.24200745
11	0xbda97a86	-0.082753226
12	0xbe0476b7	-0.12935911
13	0xbd130125	-0.035889763
14	0x3e971134	0.29505312
15	0xbcddb104	-0.027061947

c1/W f4 [4, 1, 2, 2]
0	0x3f8f4cd7	1.1195325
1	0xbf24fa53	-0.64444464
2	0xbf7034a8	-0.9383035
3	0x3e12dfdc	0.14343208
4	0xbf44df30	-0.7690306
5	0x3e039fdc	0.1285395
6	0xbec61272	-0.38685948
7	0x3f15daab	0.58536786
8	0x3f1c8b88	0.6115041
9	0x3e99e79b	0.30059513
10	0x3e9c14d5	0.30484644
11	0x3c8161c2	0.015793685
12	0xbde95ac6	-0.11394267
13	0x3ea6f7b5	0.3261086
14	0x3e360542	0.17775443
15	0x3f55b984	0.834862

l5/W f4 [16, 256]
0	0xbf708780	-0.93956757
1	0x3f047fc1	0.51757437
2	0xbe3a32d7	-0.18183456
3	0xbdfb8db2	-0.122828856
4	0xbdc50941	-0.09620906
5	0xbe4c2dbe	-0.19939324
6	0x3e394e04	0.18096167
7	0xbf175c1a	-0.5912491
8	0x3e28245c	0.1642012
9	0xbe97564b	-0.29558024
10	0x3dd0e221	0.10199381
11	0xbd599ae1	-0.05312622
12	0x3ea3ae28	0.31968808
13	0xbd924f44	-0.07144025
14	0x3c95eb62	0.018300716
15	0xbe017d2e	-0.12645409
16	0x3e8756e0	0.26433468
17	0x3daed664	0.085369855
18	0xbdaa5009	-0.08316047
19	0x3dbafa13	0.09129729
20	0xbeadcbcc	-0.33944547
21	0x3d8e070e	0.06934939
22	0x3de2c7de	0.11073278
23	0xbe2c4263	-0.168222
24	0xbde40dd6	-0.111354515
25	0x3d9e3619	0.07725162
26	0x3e660abb	0.22465031
27	0xbf05d4cc	-0.5227783
28	0x3f3b8f72	0.73265755
29	0xbd89cc02	-0.067283645
30	0x3c624499	0.0138103
31	0xbedd5bfb	-0.43234238
32	0x3eb75319	0.35805586
33	0xbdf5e401	-0.12006379
34	0x3df674eb	0.12034019
35	0x3d7b827c	0.061403736
36	0x3e0f2acb	0.13981168
37	0xbe7d5c32	-0.24742201
38	0xbce2029a	-0.027589131
39	0x3df8cb87	0.12148195
40	0xbf2dfe22	-0.679659
41	0xbd7c9475	-0.061665017
42	0x3c4ccfec	0.012500744
43	0x3ea6c3b8	0.32571197
44	0x3db61bb9	0.088920064
45	0x3c1a8b51	0.00943263
46	0xbde38a2f	-0.11110341
47	0x3ecbfd52	0.39841706
48	0x3e21f28f	0.15815185
49	0xbeab2b35	-0.33431402
50	0xbf2083f8	-0.6270137
51	0x3d7f306d	0.06230204
52	0xbe75768f	-0.23971008
53	0x3d8d849f	0.06910061
54	0x3e74bbc9	0.2389976
55	0xbe27b9fd	-0.16379543
56	0xbe152659	-0.1456541
57	0x3e19e0a3	0.15027098
58	0xbeacbef4	-0.33739436
59	0xbc0507b7	-0.008119515
60	0x3cec0248	0.028809682
61	0x3e181faf	0.14855836
62	0x3f05956d	0.5218113
63	0x3ec6c396	0.38821095
64	0xbde34b9d	-0.110984065
65	0xbe2e3340	-0.17011738
66	0xbf21e498	-0.6323943
67	0xbe75ec22	-0.24015859
68	0xbf3310e6	-0.6994766
69	0x3ec1019c	0.3769654
70	0xbc53edff	-0.012935161
71	0x3e5def7d	0.21673389
72	0xbdec1c0e	-0.115287885
73	0x3df94f2e	0.121733055
74	0x3e0ca47e	0.13734624
75	0x3cad2a0b	0.021138212
76	0x3e60eb2b	0.2196471
77	0xbe13e35a	-0.14442196
78	0x3d0e781b	0.03478251
79	0x3e0687f1	0.13137795
80	0x3e32aa07	0.17447673
81	0xbea25924	-0.31708634
82	0x3e29af4a	0.16570774
83	0x3ee78752	0.4522043
84	0xbdd9b3bb	-0.10629984
85	0x3e3b9b49	0.18320955
86	0xbbbcdfdb	-0.0057639903
87	0x3ea6dcfb	0.3259047
88	0x3db20d42	0.08693935
89	0x3d3238af	0.04351109
90	0x3d7f50ab	0.06233279
91	0xbe860606	-0.2617647
92	0x3d8c9000	0.06863403
93	0xbe11596a	-0.14194265
94	0xbea2e081	-0.31811908
95	0xbdb20cee	-0.086938724
96	0xbe376074	-0.17907888
97	0x3e94cb04	0.2906114
98	0x3e70f8bf	0.23532389
99	0x3f332d6b	0.6999118
100	0xbe80dd6f	-0.2516894
101	0x3ec65f3b	0.3874453
102	0x3e93cc98	0.2886703
103	0xbd01fdd6	-0.031736217
104	0xbcbb6a9f	-0.02287799
105	0xbd93d9a5	-0.07219247
106	0x3e7cc35f	0.24683903
107	0xbf199501	-0.59992987
108	0xbed07e45	-0.40721336
109	0xbda8a825	-0.08235196
110	0xbd5df835	-0.054191787
111	0x3f0068f8	0.5016017
112	0x3f09b7e9	0.5379625
113	0x3e859431	0.26089624
114	0xbf0e22c6	-0.5552181
115	0xbe25d5b7	-0.16194807
116	0x3d13e55c	0.036107406
117	0xbe0c875a	-0.13723508
118	0xbda56939	-0.0807671
119	0xbef712e2	-0.48256594
120	0xbf2a90c7	-0.6662716
121	0x3d4f9c22	0.05068601
122	0x3e8a598d	0.27021447
123	0x3e9b8026	0.30371207
124	0xbed9a78f	-0.4251065
125	0xbe94df68	-0.29076695
126	0x3e645022	0.22296193
127	0x3f319040	0.69360733
128	0xbe2d6eb5	-0.16936763
129	0x3ec6b68f	0.38811156
130	0x3e787223	0.2426229
131	0x3ed0b824	0.40765488
132	0x3f06169d	0.52378255
133	0x3ec5ca25	0.38630787
134	0x3e89dbe2	0.2692557
135	0xbd5cd20a	-0.053911246
136	0x3d9c2e4a	0.076260164
137	0xbdf637cd	-0.12022362
138	0xbe51cd08	-0.2048837
139	0xbec76c56	-0.3894984
140	0xbe8a5a23	-0.27021894
141	0xbe6982c0	-0.22803783
142	0xbea1827e	-0.3154487
143	0xbebe88cf	-0.37213752
144	0xbe896eab	-0.26842245
145	0x3e83798f	0.2567868
146	0x3d4aeecd	0.049544144
147	0xbf0373b8	-0.5134845
148	0x3e7a448f	0.24440216
149	0x3dd6f40d	0.10495768
150	0xbe338856	-0.17532477
151	0x3be5404b	0.0069961897
152	0xbefa5da9	-0.48899582
153	0x3e38b604	0.18038183
154	0x3f35f919	0.7108322
155	0x3d855846	0.065109774
156	0x3d4baef4	0.049727395
157	0x3f144b5b	0.57927483
158	0x3c994da6	0.018713783
159	0x3d678e3e	0.056532137
160	0xbe29810a	-0.16553131
161	0x3e114346	0.14185819
162	0xbdac4c62	-0.08413006
163	0x3ea10cab	0.31454977
164	0xbcd506c2	-0.026004199
165	0xbe38539e	-0.18000647
166	0xbe1fd02d	-0.15606757
167	0xbeacfeb9	-0.33788088
168	0x3e275ca6	0.16343936
169	0xbf3f9070	-0.7482977
170	0xbd2611d2	-0.04054434
171	0x3e467d97	0.19383846
172	0xbdd433fd	-0.103614785
173	0xbd9f239c	-0.07770464
174	0xbe9d09cb	-0.30671534
175	0x3dab6c5d	0.08370278
176	0xbea8c27b	-0.32960877
177	0x3df4c794	0.11952129
178	0xbeb8f697	-0.36125633
179	0x3d9f69f0	0.07783878
180	0x3e5db480	0.21650887
181	0x3d32a357	0.043612804
182	0x3ea79cb7	0.3273675
183	0xbeada9cb	-0.33918604
184	0x3ca1b21b	0.019738248
185	0x3e72bdc1	0.23705198
186	0xbd30fb9c	-0.043208703
187	0xbd265e83	-0.040617477
188	0xbef0e6a8	-0.47050977
189	0x3f48156b	0.7815768
190	0x3de0faeb	0.10985359
191	0x3e6ac455	0.22926457
192	0xbeae6d89	-0.34067944
193	0x3ec3e13c	0.38257778
194	0x3f052aae	0.5201825
195	0xbea97b28	-0.33101773
196	0xbc82c828	-0.015964583
197	0xbec48756	-0.38384503
198	0x3da75c81	0.081719406
199	0xbe9d02ee	-0.30666298
200	0xbe1693dd	-0.14704843
201	0x3e1a652a	0.15077654
202	0x3e7d8983	0.24759488
203	0x3dff8b1d	0.12477706
204	0xbce2875e	-0.027652439
205	0x3d0fbcce	0.035092168
206	0x3e3051ec	0.1721875
207	0xbe681899	-0.22665633
208	0xbf3d81d3	-0.7402622
209	0x3e89dcad	0.26926175
210	0xbe4f2c40	-0.20231724
211	0xbf55cad5	-0.8351262
212	0xbe98244b	-0.2971519
213	0x3ec8ddb1	0.39231637
214	0x3ca8941b	0.020578435
215	0x3f41f50a	0.75764525
216	0x3eb913f2	0.3614803
217	0xbe1dcda8	-0.15410483
218	0xbe4ab09b	-0.19793932
219	0xbeaf88ae	-0.34283966
220	0x3ea5b520	0.3236475
221	0x3db184d2	0.086679116
222	0xbee1aebc	-0.44078624
223	0xbf7a6c4e	-0.9782151
224	0x3d101837	0.035179343
225	0x3ee0269c	0.43779457
226	0xbeb4eed7	-0.3533847
227	0xbecdad62	-0.40171343
228	0x3ea23d8c	0.31687582
229	0xbed64f99	-0.41857603
230	0x3df94fc2	0.12173416
231	0xbe8f9442	-0.280428
232	0xbdd70346	-0.10498671
233	0x3c097651	0.008390025
234	0x3d526f08	0.05137542
235	0x3ec47fce	0.38378757
236	0x3d3463dc	0.044040546
237	0xbef70d1b	-0.48252186
238	0x3d975119	0.07388515
239	0x3f0bcef2	0.5461265
240	0xbf0ba185	-0.54543334
241	0xbd849021	-0.06472803
242	0xbf6c702a	-0.9235865
243	0x3d32d336	0.043658458
244	0xbeb66b5e	-0.3562879
245	0xbe4733aa	-0.19453302
246	0x3f1d9bcc	0.6156585
247	0xbe12e4d0	-0.14345098
248	0x3eafdde7	0.34348986
249	0x3ee2bfa3	0.44286832
250	0xbf5d4c2f	-0.8644437
251	0xbdd4a439	-0.103828855
252	0x3ecbee34	0.39830172
253	0xbebd3138	-0.36951613
254	0x3d862dcb	0.06551703
255	0x3e561b59	0.2090887

c2/W f4 [8, 4, 2, 2]
0	0xbe872bdd	-0.26400653
1	0x3f2b9f58	0.67040014
2	0xbeb30a00	-0.34968567
3	0x3f145a92	0.579507
4	0xbf106abd	-0.5641287
5	0xbd8c5927	-0.06852942
6	0x3ea69548	0.32535768
7	0x3dc1f506	0.09470563
8	0x3efb5a75	0.4909245
9	0xbe61ecd7	-0.22063003
10	0xbe0c6824	-0.13711601
11	0x3f15ecec	0.5856464
12	0x3edb665a	0.42851526
13	0xbe3ebc71	-0.18626572
14	0x3d3af58a	0.04564432
15	0xbee16fc0	-0.4403057
16	0x3dd41692	0.103558674
17	0x3e5e1e31	0.21691205
18	0x3dc4ded9	0.09612817
19	0x3c173199	0.009228134
20	0x3efa66cc	0.48906553
21	0xbe4212ef	-0.18952535
22	0x3efd8858	0.49518085
23	0x3f2e7c29	0.68158203
24	0xbebc7b72	-0.3681293
25	0x3e938fe3	0.28820714
26	0xbdb36124	-0.087587625
27	0x3eebd81e	0.46063322
28	0x3ec09198	0.3761108
29	0x3f482110	0.7817545
30	0xbee1d8c0	-0.4411068
31	0x3d731f5d	0.059356082
32	0xbd99daaf	-0.07512414
33	0xbf030b1a	-0.51188815
34	0x3f47caad	0.78043634
35	0x3e53505a	0.2063612
36	0x3ec1bc60	0.3783903
37	0xbef375e4	-0.4755088
38	0x3ecd2942	0.4007054
39	0x3eeb7c61	0.4599333
40	0x3ef573ca	0.47939903
41	0x3e9307b4	0.28716815
42	0x3e000687	0.1250249
43	0xbea21fcb	-0.3166488
44	0xbd741526	-0.05959048
45	0x3ef8fe23	0.4863139
46	0x3c877cc5	0.016538987
47	0xbea5e3fd	-0.32400504
48	0xbf0b89d2	-0.5450717
49	0x3d010623	0.031499993
50	0xbdb199d0	-0.086719155
51	0x3efa49c4	0.48884404
52	0xbf329630	-0.6976042
53	0x3c7e9673	0.0155388
54	0xbe55153f	-0.20808886
55	0xbf1efa30	-0.62100506
56	0x3e85802a	0.26074344
57	0x3e92c0b1	0.28662637
58	0xbea61a84	-0.32442105
59	0x3dc1eafb	0.09468647
60	0xbeac2641	-0.33622935
61	0x3e59cc10	0.2126925
62	0x3f0021bf	0.5005149
63	0x3e737880	0.23776436
64	0xbe979f7c	-0.29613864
65	0xbe435de4	-0.19078785
66	0xbf34b34a	-0.70586073
67	0xbe72415d	-0.23657747
68	0xbf0b4af3	-0.5441124
69	0x3f2ce2e2	0.67533696
70	0xbf4508a1	-0.7696629
71	0xbd508e0f	-0.050916728
72	0x3f1ede48	0.62057924
73	0xbe500712	-0.20315197
74	0x3ed200cd	0.41016236
75	0x3e84c7f5	0.25933805
76	0x3e1360da	0.14392415
77	0x3e27a378	0.16370952
78	0xbdfa5ce6	-0.1222475
79	0x3e901753	0.28142795
80	0xbe4bdbc1	-0.19908048
81	0x3f6048da	0.8761116
82	0xbfa29a65	-1.2703367
83	0xbf170848	-0.5899701
84	0xbf1befef	-0.60912985
85	0xbf1c7e39	-0.611301
86	0xbe28c3c3	-0.16480927
87	0x3ec72488	0.3889506
88	0x3e500a6b	0.20316474
89	0xbd7da4cb	-0.061924737
90	0x3ea4e536	0.32206124
91	0xbecd07c5	-0.4004499
92	0xbd463485	-0.04838993
93	0xbe8becca	-0.27329093
94	0x3e65da7e	0.2244663
95	0xbd180671	-0.037115518
96	0xbbb32e3b	-0.0054681576
97	0x3ed95b0a	0.4245227
98	0x3e79fbd8	0.24412477
99	0xbe4a16c2	-0.19735244
100	0xbe3c686c	-0.18399209
101	0xbd6d64b2	-0.05795736
102	0xbf4f897c	-0.8106916
103	0x3ee2ce50	0.4429803
104	0xbec6eae0	-0.3885107
105	0xbf3d7296	-0.7400297
106	0x3e0f8ae6	0.1401783
107	0xbddc15f5	-0.107463755
108	0xbeccb35f	-0.399806
109	0x3eca9886	0.3956949
110	0x3d8cb0e3	0.06869676
111	0x3f18d5db	0.5970132
112	0xbe1e0dda	-0.15434971
113	0x3f06435e	0.52446544
114	0xbf121571	-0.57063967
115	0x3edb78cb	0.42865595
116	0xbf189a41	-0.5961037
117	0x3f70a10e	0.9399575
118	0x3eb78528	0.35843778
119	0xbedf99ae	-0.43671936
120	0xbe9d85db	-0.30766186
121	0xbe32c256	-0.17456946
122	0xbbbeb38f	-0.005819745
123	0x3e9f8de2	0.31162935
124	0xbe1d4cf2	-0.15361384
125	0x3f5158c4	0.8177607
126	0xbf105e92	-0.563943
127	0xbe87cbc3	-0.26522645

l4/W f4 [256, 16]
0	0x3f066145	0.5249217
1	0xbe78d073	-0.24298267
2	0x3e9f263a	0.31083852
3	0xbee00e3e	-0.43760866
4	0xbd3e182f	-0.046409782
5	0xbea9612a	-0.33081943
6	0x3f155a30	0.5834074
7	0xbe18e2ba	-0.1493024
8	0x3db3f6b8	0.08787292
9	0x3cff551c	0.031168513
10	0xbe68a9de	-0.22721049
11	0xbf4d1779	-0.8011394
12	0xbc8ba6b5	-0.017047266
13	0x3f18deca	0.5971495
14	0xbdd5ed0b	-0.10445603
15	0x3ee867b0	0.45391607
16	0xbf2f7c2c	-0.68548846
17	0x3eacbc28	0.33737302
18	0x3e832512	0.2561422
19	0xbed93467	-0.42422792
20	0x3e898e5f	0.26866433
21	0x3edfc13c	0.43702114
22	0x3f04ff4d	0.5195206
23	0x3e45ee70	0.19329238
24	0xbec8c49b	-0.39212498
25	0xbf431496	-0.76203287
26	0xbd208ae9	-0.039194975
27	0xbe8577c1	-0.26067927
28	0xbf2c0185	-0.6718982
29	0x3e48941a	0.19587746
30	0xbf16f134	-0.58961797
31	0x3d4cdc1b	0.050014596
32	0x3e241517	0.1602367
33	0x3d87bb13	0.066274785
34	0xbec58692	-0.38579232
35	0xbf3f0f9c	-0.74633193
36	0x3f112092	0.56690323
37	0x3e1aaf0e	0.1510584
38	0x3e36fa97	0.1786903
39	0x3e8d60f3	0.2761303
40	0x3f1b9f4c	0.6078994
41	0xbd694052	-0.056946106
42	0xbedc7c9c	-0.4306382
43	0x3de54075	0.11193935
44	0xbe0883db	-0.13331549
45	0xbe5e7b58	-0.2172674
46	0xbfc10f2a	-1.5082753
47	0x3e3fd67f	0.18734168
48	0x3dc5f342	0.09665538
49	0xbf940081	-1.1562654
50	0x3f4ad22f	0.79226965
51	0x3e0239eb	0.12717406
52	0x3ef61b46	0.48067683
53	0xbda0b9f2	-0.07847966
54	0xbe131128	-0.14362013
55	0x3e8ef4ee	0.27921242
56	0x3ec0ded1	0.37669995
57	0x3e0270f9	0.12738408
58	0xbe9e8a04	-0.30964673
59	0x3f4932ea	0.78593314
60	0xbef821f1	-0.48463395
61	0xbee65ae2	-0.44991213
62	0xbded6094	-0.115906864
63	0xbdd5abca	-0.10433157
64	0xbed0b159	-0.40760306
65	0xbeb6e2ce	-0.35719913
66	0x3f22d733	0.6360962
67	0xbdb21327	-0.08695059
68	0x3e50a93d	0.2037706
69	0x3e9412a6	0.28920478
70	0xbf0649e5	-0.52456504
71	0x3e7f92a5	0.24958284
72	0xbdff3cbd	-0.12462757
73	0xbefb4be2	-0.49081331
74	0x3e05482f	0.13015817
75	0x3ee0794e	0.43842548
76	0xbf871d3a	-1.0555794
77	0xbf7b2c4b	-0.9811446
78	0x3e90022f	0.28126666
79	0xbcbd592e	-0.023113813
80	0xbe953220	-0.29139805
81	0xbdcc9962	-0.09990193
82	0xbf363b41	-0.71184164
83	0xbe9e9398	-0.3097198
84	0xbe9051bb	-0.28187355
85	0x3ea1f786	0.31634158
86	0xbd9297ff	-0.07157897
87	0x3d92ee3e	0.07174347
88	0x3e5588d7	0.20852982
89	0x3e80dcd0	0.25168467
90	0x3ebf2e92	0.37340218
91	0xbe417da0	-0.18895578
92	0xbeeae300	-0.45876312
93	0xbe69fec0	-0.22851086
94	0x3ea0fde0	0.3144369
95	0x3e856eb5	0.26061025
96	0x3e64bc2f	0.22337411
97	0x3e2b3ae2	0.16721681
98	0x3e0a269e	0.13491294
99	0xbd8a4755	-0.06751887
100	0x3daa28b9	0.083085485
101	0xbe9c9227	-0.30580255
102	0xbf48ea29	-0.784823
103	0x3e714073	0.23559742
104	0xbe4cdf41	-0.2000704
105	0x3ed084c2	0.40726286
106	0xbe2c8203	-0.1684647
107	0x3e48fe84	0.1962834
108	0xbe02a383	-0.12757687
109	0x3e72782a	0.23678651
110	0xbe14f247	-0.14545546
111	0x3e77b4b0	0.2419002
112	0x3e6e1ef4	0.23253995
113	0xbeb8cc27	-0.36093256
114	0x3ece5736	0.40300912
115	0x3ec22eff	0.3792648
116	0xbf71f9da	-0.9452187
117	0xbdef1daf	-0.116755836
118	0xbefb8a8e	-0.49129146
119	0x3e878e7a	0.26475888
120	0x3f2a6a27	0.66568226
121	0xbd741847	-0.059593465
122	0xbf4dc7ad	-0.80382806
123	0x3e947b3a	0.29000264
124	0x3d797513	0.060902666
125	0xbbd9040b	-0.0066227964
126	0x3d0a0e73	0.033705186
127	0xbeee0a25	-0.46492115
128	0x3ed25fe4	0.41088784
129	0xbf911caa	-1.1336873
130	0xbeefe042	-0.46850783
131	0xbd2ecec1	-0.042677645
132	0xbf189652	-0.5960437
133	0x3da00ef8	0.07815355
134	0x3f1a0711	0.6016703
135	0x3e395375	0.18098243
136	0xbe099873	-0.13437061
137	0xbe32e444	-0.17469889
138	0xbeb238fa	-0.34809095
139	0xbe43731b	-0.19086878
140	0xbec26c12	-0.37973076
141	0xbf4418d9	-0.76600415
142	0x3ec46d2c	0.38364542
143	0xbeb408bd	-0.35162917
144	0x3e14bf7d	0.14526172
145	0x3edef3d3	0.43545398
146	0xbed093e9	-0.40737846
147	0xbf7d0f9d	-0.9885195
148	0xbe2a5729	-0.16634811
149	0x3d0f5f86	0.035003208
150	0xbd41e223	-0.0473348
151	0xbe895d81	-0.2682915
152	0xbdad864c	-0.08472881
153	0xbf667929	-0.90028626
154	0xbe958b82	-0.29208
155	0xbe9b8458	-0.30374408
156	0xbe8365dc	-0.2566365
157	0xbddf8d27	-0.109155945
158	0x3ebfbeda	0.37450296
159	0x3daf784a	0.08567865
160	0xbf6a5115	-0.9152997
161	0xbf182e48	-0.5944562
162	0x3f166481	0.58747107
163	0xbed7e8e6	-0.42169875
164	0x3e808b9e	0.2510652
165	0xbeb737ad	-0.35784665
166	0x3d4443b4	0.04791613
167	0xbebaf1b7	-0.3651254
168	0xbe525834	-0.2054146
169	0x3e78f556	0.24312338
170	0xbd6ac2b3	-0.057314586
171	0x3df1bd2a	0.11803658
172	0xbe1f42fa	-0.15552893
173	0x3d903801	0.07041932
174	0x3e05bfe3	0.1306148
175	0xbf025b83	-0.50920886
176	0x3deeed1c	0.11666319
177	0xbf813a85	-1.0095984
178	0xbda40c29	-0.08010132
179	0xbee7cdd0	-0.4527421
180	0xbe8deea3	-0.27721128
181	0xbecba5c9	-0.39774922
182	0x3d3a5be6	0.045497797
183	0x3ee7e8ea	0.45294887
184	0xbe81960b	-0.25309786
185	0x3d6f25a2	0.0583855
186	0x3e977aea	0.29585963
187	0x3e6e0400	0.23243713
188	0xbf223fe9	-0.6337877
189	0x3e28be2f	0.164788
190	0xbe17ee58	-0.14837015
191	0xbe4e6983	-0.20157437
192	0x3e77f448	0.2421428
193	0xbe0c8710	-0.13723397
194	0xbe9dbe09	-0.30809048
195	0xbeea7218	-0.45790172
196	0xbe24cc13	-0.16093473
197	0x3dd459ce	0.103686914
198	0x3edb5a64	0.428424
199	0xbe814e74	-0.25255167
200	0xbeb2dde3	-0.3493491
201	0x3e321385	0.17390259
202	0xbe0f61a8	-0.14002097
203	0x3ed66e35	0.41880956
204	0x3ddee4f4	0.10883513
205	0xbd3761e5	-0.044771094
206	0xbde459c9	-0.11149938
207	0xbcbdf36e	-0.023187365
208	0xbefcc7d2	-0.493712
209	0x3ee5cb42	0.44881636
210	0x3f074017	0.5283217
211	0xbebe4c2d	-0.37167493
212	0x3ea27564	0.31730187
213	0xbe062499	-0.13099898
214	0xbec43d39	-0.3832796
215	0x3e762b3a	0.24039927
216	0x3d19634d	0.037448216
217	0xbf18dc51	-0.59711176
218	0xbe3b2fd8	-0.1827997
219	0xbd82f88a	-0.06395061
220	0xbddb8a7e	-0.10719775
221	0xbe75f93d	-0.24020858
222	0x3dae6075	0.085144915
223	0xbe940491	-0.28909734
224	0xbf01b614	-0.50668454
225	0x3e83de22	0.2575541
226	0x3da937a3	0.08262565
227	0xbf23dcc0	-0.6400871
228	0x3ca19099	0.01972227
229	0xbf307958	-0.68935156
230	0xbb822d34	-0.003972674
231	0xbdcd1c2d	-0.1001514
232	0x3eaf989e	0.34296125
233	0x3d6e2750	0.05814296
234	0x3f1aae72	0.6042243
235	0x3cebcdf6	0.028784733
236	0x3edc0977	0.4297597
237	0x3cefd675	0.029277066
238	0xbe51bf4e	-0.20483133
239	0xbf485e8e	-0.7826928
240	0x3e064d5d	0.13115449
241	0x3e2cbfdb	0.16870062
242	0xbe8344c3	-0.256384
243	0x3e364f15	0.17803605
244	0x3f1cb9ea	0.6122118
245	0xbeb4953a	-0.352701
246	0xbd5ae4bf	-0.053440806
247	0xbdd7f323	-0.105444215
248	0xbe1edec6	-0.15514669
249	0xbc48254f	-0.012215926
250	0x3c7350e6	0.014850831
251	0x3eec753f	0.46183202
252	0x3ea84f70	0.32873106
253	0x3c26a161	0.010170312
254	0x3d2052b5	0.039141376
255	0x3e6488c8	0.22317803

c3/W f4 [16, 8, 2, 2]
0	0x3e9f5448	0.3111899
1	0xbd899b99	-0.06719131
2	0x3d1f6199	0.038911436
3	0xbe070df9	-0.13188924
4	0xbcf8a141	-0.03035033
5	0xbe85f78e	-0.26165432
6	0x3e44a54d	0.19203682
7	0xbdb8f9cf	-0.09032022
8	0x3e93366f	0.28752467
9	0xbf1313f7	-0.5745234
10	0xbd4f467c	-0.05060433
11	0xbe19259c	-0.14955753
12	0x3db06e2e	0.08614765
13	0xbe061aaa	-0.13096109
14	0x3f333265	0.6999877
15	0x3a9c80dc	0.0011940259
16	0x3f17b2b8	0.5925708
17	0x3f26f39a	0.65215456
18	0x3d7498c2	0.059715994
19	0xbe37f4e1	-0.17964508
20	0xbca29261	-0.01984519
21	0xbe8ed697	-0.27898094
22	0xbe208406	-0.15675363
23	0xbd706582	-0.058690555
24	0xbee0e464	-0.43924248
25	0xbd865c3e	-0.065605626
26	0xbefd185e	-0.49432653
27	0xbe58f4f8	-0.21187198
28	0xbf441059	-0.76587445
29	0xbddb0eee	-0.10696207
30	0x3f011a14	0.5043042
31	0xbe83952c	-0.25699747
32	0x3e71ef3e	0.2362642
33	0x3e843626	0.25822562
34	0xbf1f72d8	-0.6228461
35	0xbe1b2980	-0.1515255
36	0x3dd86557	0.10566204
37	0x3e822fe2	0.25427157
38	0x3d7f8e5a	0.062391616
39	0x3f0f6da1	0.56026655
40	0x3d151d5c	0.036404952
41	0x3eda25bb	0.4260691
42	0x3e9c00f9	0.30469492
43	0xbee8c39c	-0.45461738
44	0x3e3e0504	0.18556601
45	0x3e3f69c4	0.1869269
46	0xbcdf63e3	-0.02726931
47	0x3e896697	0.26836082
48	0x3e9b4563	0.30326375
49	0x3e37b82a	0.17941347
50	0xbf0a6886	-0.5406574
51	0xbee32e2e	-0.4437117
52	0x3e8699b5	0.26289144
53	0xbe5fc1fc	-0.21851343
54	0xbe697e03	-0.22801976
55	0xbea20071	-0.31640962
56	0x3da3053c	0.07959983
57	0x3e99f312	0.3006826
58	0xbf485f73	-0.78270644
59	0x3df4e825	0.119583406
60	0xbdbd5938	-0.09245533
61	0x3e47c61e	0.1950917
62	0xbed2fa75	-0.4120671
63	0xbf93005b	-1.1484483
64	0xbc911f59	-0.017715143
65	0xbd387f09	-0.045043025
66	0x3d69fa3b	0.057123404
67	0x3c3ab115	0.011394759
68	0xbe0f0f0c	-0.13970584
69	0xbdc3a539	-0.09552998
70	0xbe45173f	-0.19247149
71	0x3d9e6364	0.07733801
72	0x3d2d45cc	0.04230289
73	0xbe1da85f	-0.1539626
74	0xb8c7bfac	-9.524761e-05
75	0xbf02c9bb	-0.51089066
76	0xbe4e5e63	-0.20153193
77	0x3e38de7f	0.18053626
78	0x3ca04857	0.019565744
79	0xbdcc4b3f	-0.099752896
80	0xbd76fa4e	-0.060297303
81	0xbe6c23e9	-0.23060574
82	0x3d2fd7d9	0.042930458
83	0xbe8bdcf1	-0.27317002
84	0x3d20891d	0.03919326
85	0x3e6447d3	0.22293024
86	0x3b949e24	0.0045354534
87	0xbcc92ef9	-0.024558531
88	0xbe7d8139	-0.24756326
89	0xbe1a881a	-0.15090981
90	0xbd1bda33	-0.038049888
91	0xbcb6660d	-0.022265458
92	0xbddf2a38	-0.108967245
93	0xbe4e64af	-0.20155595
94	0x3d79e717	0.0610114
95	0x3e60cdd0	0.21953511
96	0xbf020f1f	-0.5080432
97	0x3e4a85c3	0.19777589
98	0x3e05ec21	0.13078357
99	0x3d6620ab	0.0561835
100	0x3e8359fa	0.25654584
101	0xbf7c9cf2	-0.9867698
102	0xbeb62ce1	-0.35581115
103	0x3eae7bfb	0.34078965
104	0xbdb042b3	-0.08606472
105	0x3ec38558	0.3818767
106	0x3eec4118	0.46143413
107	0xbeccb32d	-0.3998045
108	0x3d885dc0	0.066585064
109	0xbe9172c8	-0.28407884
110	0x3ebaab7d	0.3645896
111	0xbe7e9180	-0.24860191
112	0x3f0fd42c	0.56183124
113	0xbeef3ba2	-0.46725184
114	0x3d145509	0.03621391
115	0xbe5edcca	-0.21763912
116	0x3f1f393d	0.62196714
117	0x3c42c08b	0.011886726
118	0xbe2809c2	-0.16409972
119	0xbe76c575	-0.24098761
120	0xbd9e0890	-0.07716477
121	0xbf850f1f	-1.039524
122	0xbee42fa5	-0.445676
123	0x3f4cd8cd	0.8001831
124	0x3ed34213	0.41261348
125	0x3e40b30f	0.18818305
126	0xbca6c945	-0.020359645
127	0xbf20834f	-0.6270036
128	0x3e9e2868	0.30890203
129	0x3ddc1fad	0.10748229
130	0xbf1525d3	-0.5826084
131	0x3d3344ed	0.043766905
132	0xbd290b5c	-0.0412706
133	0xbe908a2c	-0.28230417
134	0x3dfd520f	0.12369167
135	0x3e73c788	0.23806584
136	0xbec50d06	-0.384865
137	0x3f22a202	0.63528454
138	0x3dcce2f3	0.10004225
139	0x3ec69913	0.3878866
140	0xbe7acf84	-0.24493223
141	0x3e4eec9e	0.2020745
142	0xbf062782	-0.52404034
143	0xbf29cf53	-0.66331977
144	0xbf1912fe	-0.59794605
145	0xbee05c8e	-0.43820614
146	0x3e7af379	0.2450694
147	0xbe9a949d	-0.30191508
148	0xbdb8933c	-0.09012458
149	0xbe3155d9	-0.17317905
150	0xbea63ecf	-0.32469794
151	0x3d75332c	0.059863254
152	0x3effb9f3	0.49946555
153	0xbebb6efe	-0.36608118
154	0x3df9dd77	0.12200444
155	0x3ecc99b3	0.39961013
156	0xbf2692e8	-0.6506791
157	0x3eaa77fe	0.33294672
158	0x3f14fceb	0.5819842
159	0xbee02db4	-0.4378487
160	0x3d3d474a	0.046210565
161	0xbe85ec04	-0.26156628
162	0xbe69e76c	-0.22842187
163	0x3f6cdb89	0.92522484
164	0xbce38599	-0.027773665
165	0x3f1ca096	0.61182535
166	0x3d0dc286	0.03460934
167	0xbe5c1ff6	-0.21496567
168	0xbde9460f	-0.11390316
169	0x3e65249b	0.22377245
170	0xbd8a7aa6	-0.067616746
171	0xbe0bc9d3	-0.13651209
172	0x3ec8a136	0.39185494
173	0xbe832de7	-0.25620958
174	0x3cff9475	0.03119872
175	0xbee9bb87	-0.45650885
176	0x3d92c690	0.07166779
177	0xbb341d5c	-0.002748332
178	0xbe066cf1	-0.13127495
179	0xbe9ef2fb	-0.31044754
180	0x3cdab65e	0.026698288
181	0x3e23dd0a	0.16002288
182	0x3eb30115	0.34961763
183	0x3dd781d1	0.105228074
184	0xbe867c48	-0.26266694
185	0x3b9c40fb	0.0047684885
186	0xbdfe1ab1	-0.12407435
187	0xbefabbcb	-0.489714
188	0x3e28f531	0.16499783
189	0x3ee9eb0d	0.45687142
190	0xbea134db	-0.31485638
191	0x3e88f587	0.26749822
192	0x3ea5a28e	0.32350582
193	0xbe8e5494	-0.27798903
194	0x3eee9464	0.46597588
195	0xbe2db6ed	-0.16964312
196	0xbf4bd26a	-0.7961794
197	0x3eac3286	0.33632296
198	0xbe11add4	-0.14226466
199	0x3e38fbdf	0.18064831
200	0xbee81df3	-0.4533535
201	0x3eb5b439	0.3548906
202	0x3e6007b3	0.21877937
203	0xbe8316c0	-0.25603294
204	0xbdc6d581	-0.097086914
205	0x3e4f6283	0.20252423
206	0x3f279c4b	0.6547286
207	0x3e5c6ee4	0.21526676
208	0x3d03430e	0.03204637
209	0xbad9b71b	-0.0016610356
210	0x3e2b8544	0.16750056
211	0xbccf4a90	-0.025304109
212	0x3edb353d	0.42814055
213	0xbd84f781	-0.0649252
214	0xbe89c723	-0.26909742
215	0x3dc922e9	0.09821112
216	0x3f3f5e07	0.7475285
217	0xbdd8c512	-0.10584463
218	0x3f6f3a2f	0.93448156
219	0x3e27b481	0.1637745
220	0xbe148215	-0.14502747
221	0x3bfee543	0.007778795
222	0xbf23f5d1	-0.6404696
223	0xbd65a80b	-0.05606846
224	0xbe7714b9	-0.24128999
225	0xbf341f3e	-0.7036017
226	0x3db94086	0.0904551
227	0xbd478012	-0.04870612
228	0x3e702f28	0.23455489
229	0xbf034415	-0.5127576
230	0xbe8f5fc5	-0.28002754
231	0x3f492c43	0.78583163
232	0xbe828412	-0.25491387
233	0x3d451caa	0.04812304
234	0xbc99234d	-0.01869359
235	0x3e23e3d1	0.16004874
236	0xbe4d07ad	-0.2002246
237	0xbeb5a33b	-0.35476097
238	0x3c23d177	0.009998671
239	0x3eaac2d2	0.3335176
240	0xbedf54c2	-0.43619353
241	0xbbea3c82	-0.0071483264
242	0x3e392332	0.18079832
243	0x3ec5bcf6	0.38620728
244	0x3d4ec481	0.05048037
245	0x3e09144d	0.1338665
246	0x3e0fd178	0.1404475
247	0xbc95dcdd	-0.018293792
248	0xbdddc5d2	-0.10828747
249	0xbeb7b93a	-0.35883504
250	0xbecbcc6d	-0.39804402
251	0x3e85a61e	0.261033
252	0x3e9011de	0.28138632
253	0x3e91c035	0.28466955
254	0x3e81a51c	0.2532128
255	0x3eb6e548	0.35721803

l5/b f4 [16]
0	0xbe55a0b9	-0.20862092
1	0xbe051505	-0.129963
2	0xbda5ab36	-0.080892965
3	0x3d6e9536	0.058247767
4	0xbe8d7cd3	-0.27634296
5	0xbe261152	-0.16217545
6	0xbe3df932	-0.18552092
7	0xbd299a48	-0.0414069
8	0x3df04a43	0.11732914
9	0xbe1b4cb1	-0.15165974
10	0xbe048030	-0.12939525
11	0xbe6505f4	-0.22365552
12	0x3cb592de	0.022164758
13	0x3d730465	0.059330363
14	0xbe441a68	-0.19150698
15	0xbdac0dc4	-0.08401063

c1/b f4 [4]
0	0x3e69f70e	0.2284815
1	0x3e94b9b8	0.29047942
2	0xbec8b77c	-0.39202487
3	0xbeb03609	-0.34416226

l4/b f4 [256]
0	0x3f168fef	0.58813375
1	0x3d604891	0.054756705
2	0x3de8cd0f	0.11367237
3	0xbe8eb4f8	-0.27872443
4	0xbf21c8d1	-0.63197047
5	0xbe8ae2ab	-0.2712606
6	0x3e87fb12	0.2655874
7	0x3e43c98d	0.19119854
8	0xbd32dbcc	-0.043666646
9	0x3ed437fd	0.41448966
10	0x3f47d3b1	0.7805739
11	0x3ee92344	0.45534718
12	0xbd7039b6	-0.058648787
13	0x3efb8894	0.49127638
14	0xbe97bf3f	-0.29638097
15	0xbe0644dd	-0.13112207
16	0x3d92d3d7	0.071693115
17	0x3e00c61d	0.12575574
18	0xbb30f0c3	-0.0026998974
19	0x3eba64e4	0.36405098
20	0x3ef67b0e	0.48140758
21	0x3e8b3edf	0.27196404
22	0xbde6e1ad	-0.11273513
23	0x3ca8df08	0.020614162
24	0x3e54aba5	0.20768602
25	0x3e9de879	0.30841425
26	0x3e4ed100	0.20196915
27	0xbdd17a27	-0.10228377
28	0x3e520705	0.2051049
29	0x3d3c0d5c	0.045911178
30	0x3f0d2e37	0.55148643
31	0xbdff32ae	-0.12460838
32	0xbd653eb2	-0.055967994
33	0xbf20b392	-0.62774
34	0xbf56c055	-0.83887225
35	0x3e4d86d8	0.2007097
36	0xbe83de60	-0.25755596
37	0x3e99bc59	0.3002651
38	0xbd5dd9d1	-0.054162804
39	0xbeae6edd	-0.34068957
40	0xbf5b6784	-0.8570483
41	0xbe4a09ba	-0.19730273
42	0x3c90cf36	0.01767693
43	0xbe3d703b	-0.18499844
44	0x3d2f0e77	0.042738404
45	0xbe1172c1	-0.14203931
46	0xbe011354	-0.1260503
47	0xbe3506c9	-0.1767837
48	0xbdf3f4ce	-0.11911927
49	0xbe772f28	-0.24139082
50	0x3cc5fe6c	0.02416917
51	0x3d19b3b1	0.037524883
52	0xbd841ca0	-0.06450772
53	0xbd5cc18a	-0.05389551
54	0x3df6b687	0.12046533
55	0xbecd0a7a	-0.40047055
56	0x3c56514f	0.013080909
57	0xbc9cab6b	-0.019124707
58	0x3e50976b	0.20370261
59	0x3ea531ed	0.32264653
60	0xbe466c74	-0.19377309
61	0x3eae2613	0.34013423
62	0x3e8d1648	0.27556062
63	0xbeb0a147	-0.34498045
64	0xbe8d0a6e	-0.2754702
65	0xbe04b3e3	-0.12959246
66	0x3f3a3950	0.727437
67	0x3d093586	0.03349831
68	0xbf492c70	-0.7858343
69	0xbf1497cd	-0.5804413
70	0x3db3e16c	0.0878323
71	0xbef6c560	-0.4819746
72	0x3d01737b	0.03160427
73	0xbf035c66	-0.51312864
74	0x3f18988a	0.59607756
75	0x3e53cb66	0.20683059
76	0x3cfe2d03	0.031027323
77	0x3cb5963e	0.022166368
78	0x3e1e2b6f	0.15446256
79	0xbd79bf68	-0.060973555
80	0xbe36661d	-0.1781239
81	0xbe757354	-0.23969775
82	0x3ee30206	0.4433748
83	0xbed8c379	-0.42336634
84	0xbf24c1aa	-0.6435801
85	0x3e094320	0.13404512
86	0xbe1fff29	-0.1562468
87	0xbe8c9516	-0.27457494
88	0xbd2ceffe	-0.042221062
89	0xbd81c293	-0.0633594
90	0x3ea1fbaa	0.31637317
91	0xbe70c072	-0.23510912
92	0x3bde405b	0.006782574
93	0x3df02943	0.1172662
94	0xbdfaab73	-0.122397326
95	0x3d82c54e	0.06385289
96	0xbe1e88ba	-0.15481845
97	0x3e332449	0.1749431
98	0x3d79d78d	0.06099658
99	0x3ef1fbe2	0.47262484
100	0x3e24f103	0.16107564
101	0x3f28f21d	0.65994436
102	0x3efb15ba	0.49040014
103	0x3e8fafb4	0.28063738
104	0x3ea2f215	0.3182532
105	0xbe1e5df3	-0.15465526
106	0xbdd710d6	-0.10501258
107	0x3e88be2f	0.267076
108	0xbe9a5099	-0.30139616
109	0xbe2548ba	-0.16141024
110	0xbeefe40e	-0.4685368
111	0xbe8f5169	-0.279918
112	0x3e941cc9	0.2892821
113	0xbe5c17b5	-0.21493419
114	0xbd80cce1	-0.062890776
115	0x3d66f730	0.05638808
116	0xbee905a0	-0.45512104
117	0x3dd29432	0.10282172
118	0xbe9ca745	-0.30596367
119	0xbd20620e	-0.039156012
120	0x3eb1b7a6	0.34710425
121	0xbc893528	-0.01674898
122	0x3d2a3c99	0.041561697
123	0xbe644c7b	-0.222948
124	0xbdaae38c	-0.08344182
125	0x3ecc556e	0.39908928
126	0xbde185e0	-0.11011863
127	0xbf0346aa	-0.512797
128	0x3e0293ad	0.12751646
129	0xbf69cfa7	-0.9133248
130	0xbd81262c	-0.06306109
131	0x3d0ddb90	0.03463322
132	0xbe016ac0	-0.12638378
133	0x3dac50fa	0.084138826
134	0xbecdbc7c	-0.40182865
135	0x3d97b3ce	0.07407342
136	0x3e363573	0.17793827
137	0xbe702b40	-0.23453999
138	0x3da90dcf	0.08254587
139	0xbe4ec7c2	-0.20193389
140	0xbe7fa929	-0.24966873
141	0x3c4e061b	0.012574698
142	0xba9f8736	-0.0012171033
143	0xbe15601c	-0.14587444
144	0xbcd70124	-0.026245661
145	0x3e5b9ce0	0.21446562
146	0x3e4763f5	0.19471724
147	0xbf41562b	-0.75522107
148	0x3f0bf900	0.5467682
149	0xbd0d16d6	-0.034445606
150	0xbb914807	-0.004433635
151	0xbe08aa1a	-0.13346139
152	0xbeaf2919	-0.34211043
153	0xbdd1a2ce	-0.10236131
154	0x3f10abf9	0.5651241
155	0xbe12eb85	-0.14347656
156	0xbcdf2df7	-0.027243597
157	0xbea600c6	-0.32422465
158	0xbefd42d4	-0.49465048
159	0x3f24c972	0.6436988
160	0x3eb8c321	0.36086372
161	0xbe90e664	-0.28300774
162	0xbeff18ad	-0.49823514
163	0x3ec94a0e	0.39314312
164	0xbe0b8719	-0.13625754
165	0xbeff2aea	-0.49837428
166	0xbe735c51	-0.23765685
167	0x3e957dba	0.29197484
168	0xbdee037d	-0.11621759
169	0xbf4496a7	-0.7679238
170	0xbdbdfa6c	-0.0927628
171	0x3e398043	0.18115334
172	0x3e927c2a	0.28610355
173	0xbd896636	-0.06708948
174	0xbe6c276f	-0.23061918
175	0x3e98492f	0.29743335
176	0xbdb1caf6	-0.0868129
177	0xbf143fac	-0.57909656
178	0x3d2c5a38	0.042078227
179	0xbf1106a7	-0.56650776
180	0x3e68a7d4	0.22720271
181	0xbed9c297	-0.42531273
182	0x3db07752	0.086165085
183	0x3e5be5b1	0.21474339
184	0x3c1fbb25	0.009749209
185	0x3f2d39e4	0.6766646
186	0xbdeae7a1	-0.11469961
187	0xbe44eaf7	-0.19230257
188	0x3ea812f5	0.32826963
189	0x3e141a7a	0.14463225
190	0x3e4c0548	0.1992389
191	0xbd6660b8	-0.056244582
192	0xbe365684	-0.1780644
193	0xbd8eb516	-0.06968133
194	0x3ed88023	0.4228526
195	0x3e8bb4d3	0.27286395
196	0x3e35acbc	0.17741674
197	0x3dc25d91	0.094905026
198	0xbe907c11	-0.28219655
199	0x3e0d70d4	0.13812572
200	0xbf095cf4	-0.5365746
201	0x3e196f44	0.1498385
202	0xbc31777b	-0.010831709
203	0x3f1dfce3	0.61714
204	0x3b9e752b	0.004835745
205	0xbe5a1797	-0.21298061
206	0x3db74df2	0.08950414
207	0x3e9f1be0	0.31075954
208	0xbeea36cc	-0.45744932
209	0xbdf9ca19	-0.1219675
210	0x3d6b4b02	0.05744458
211	0xbf2cad1d	-0.6745165
212	0x3e88eba9	0.26742294
213	0xbf17e1d4	-0.5932896
214	0xbeb58bf9	-0.35458353
215	0xbeb5ee2b	-0.3553327
216	0xbd2adfec	-0.041717455
217	0xbe02c005	-0.12768562
218	0xbeec19e4	-0.46113503
219	0x3ddf662c	0.109081596
220	0xbc9c05d2	-0.019045744
221	0x3ee0a13c	0.43873012
222	0xbeb089e9	-0.34480217
223	0xbefa5838	-0.4889543
224	0xbe89d0e0	-0.2691717
225	0xbe964799	-0.293515
226	0x3e880fd4	0.26574576
227	0xbe8ad9d3	-0.27119312
228	0x3ebbb5b2	0.3666206
229	0x3e24a8d3	0.16080026
230	0xbe38990c	-0.18027133
231	0xbe567d00	-0.20946121
232	0xbe25b900	-0.16183853
233	0xbefce1bf	-0.4939098
234	0xbdcc1f77	-0.09966939
235	0x3df5923c	0.119907826
236	0xbf04355d	-0.51643926
237	0xbe331375	-0.17487891
238	0xbee844c3	-0.4536496
239	0xbf6fcc4d	-0.93671113
240	0x3e762f04	0.24041373
241	0xbe1b5b59	-0.15171565
242	0xbec1f592	-0.37882668
243	0xbea4236c	-0.32058275
244	0x3f0c3dfb	0.54782075
245	0x3e86260d	0.26200905
246	0x3e503906	0.20334253
247	0xbf0a5d58	-0.5404868
248	0x3e7cdeda	0.24694386
249	0x3eff51d0	0.49867105
250	0xbe9c63e2	-0.30544955
251	0x3bb41bde	0.005496486
252	0xbe156630	-0.14589763
253	0xbe0b349b	-0.13594286
254	0xbebbbf7d	-0.3666953
255	0xbe738da6	-0.23784503

c2/b f4 [8]
0	0x3da14701	0.07874871
1	0x3dd1cbad	0.10243926
2	0xbeaeb77a	-0.34124357
3	0xbe84c3ea	-0.2593072
4	0xbe91abe3	-0.28451452
5	0xbeba0b8b	-0.36336932
6	0xbd825eb8	-0.063657224
7	0xbe28e760	-0.16494513
