examples/ch4/reversi_DQN_CNN/agent_black_2000/target_model.npz (npz, 35890 bytes, 10 tensors)

c3/b f4 [16]
-0.13632314 -0.27063572 0.0 0.3869901 -0.008149456 0.372355 0.14492826 0.24396107
0.0 -0.0014394422 0.23863955 -0.098572925 -0.10916931 -0.035889763 0.19430266 -7.5432676e-05
00000000: 4b98 0bbe c490 8abe 0000 0000 9123 c63e
00000010: 4c85 05bc 51a5 be3e 1368 143e eed0 793e
00000020: 0000 0000 aaab bcba ed5d 743e 9ae0 c9bd
00000030: 2994 dfbd 2501 13bd 47f7 463e 9c31 9eb8

c1/W f4 [4, 1, 2, 2]
1.0693543 -0.7230159 -0.7172996 -0.057859432 -0.52925676 0.11134901 -0.432603 0.4349213
0.57496834 0.28225157 0.452129 0.03886809 0.0017669444 0.18095678 0.14077662 0.99478215
00000000: 9ae0 883f 9217 39bf f2a0 37bf 03fe 6cbd
00000010: 5f7d 07bf f30a e43d 247e ddbe 01ae de3e
00000020: 2031 133f 4783 903e 747d e73e 2534 1f3d
00000030: d198 e73a bc4c 393e bf27 103e 0baa 7e3f

l5/W f4 [16, 256]
-0.49101022 0.2735166 -0.16827562 0.086363636 -0.2862498 -0.10098875 0.06397331 0.0049674856
0.3628751 0.008566053 -0.15573993 -0.12498233 0.123434424 -0.11708456 0.016056271 -0.059098296
0.1647551 0.13850592 0.033978485 -0.012865135 -0.38668478 0.42515287 -0.09078133 0.051038116
-0.06839356 -0.05776132 0.18524618 -0.21528661 0.09280171 -0.053525653 0.23250318 -0.27878138
0.4406721 -0.10718892 0.29865158 -0.0028727916 0.1863461 0.024906326 -0.09042077 0.06306298
-0.7670255 0.2168259 -0.025490072 0.18083939 -0.0031413042 0.111455455 -0.013977422 -0.054700416
0.1960059 0.02556 -0.269857 0.24816142 -0.11411996 0.0047474233 0.11299048 -0.33515096
0.123593874 0.10055719 -0.13851503 0.051672436 -0.2995177 0.13876757 0.09626171 0.1407685
-0.26997125 -0.104169525 -0.42086616 -0.061055075 -0.28225636 0.2036297 -0.117578216 0.21305844
-0.115322255 0.050881997 -0.008199061 -0.10212662 0.20268936 -0.050610725 0.047143888 0.45426798
0.17682207 0.164815 0.7898247 0.16123812 -0.14819714 0.06504877 -0.23800759 -0.028928591
-0.114465795 0.039097913 0.04156888 -0.34489253 0.21665742 -0.16219679 -0.13543332 0.00954988
-0.23331162 0.18477252 0.281507 0.38728195 -0.041446812 0.4615863 0.047725584 -0.09539869
0.10809341 0.017415639 0.06320439 -0.26665822 -0.3376409 -0.16614957 0.07705362 0.4618452
0.12171564 -0.044583254 0.115303054 -0.022365842 0.21273719 -0.12221152 0.18958715 -0.066654295
-0.013277554 0.13313724 0.102658734 0.066532426 -0.048108693 -0.27752885 0.11346388 0.52357155
-0.06342403 0.09988303 0.036145486 -0.018933587 -0.0593922 0.1113211 0.18026027 0.005320486
0.37378666 -0.27850783 0.048800945 -0.24912924 0.09709917 -0.15893167 -0.13024935 0.17927815
-0.076343045 -0.038157847 0.060989913 -0.07125383 0.07014433 -0.03749917 -0.0626939 -0.01924771
-0.34384042 0.1565359 -0.09386507 0.084031865 0.04970926 0.113309436 -0.06499623 -0.2212925
-0.0057587023 0.018573385 0.07793218 -0.45473403 0.08650626 0.017304355 -0.032957822 -0.12818778
0.1562854 -0.49725556 -0.1491196 0.22342893 -0.1326612 0.0980782 0.046742935 0.18633157
-0.4103045 0.04140423 -0.3339023 -0.13892321 0.17083605 -0.33305413 0.27569506 -0.08150479
-0.015994092 0.3743081 -0.07064059 0.018652419 -0.04658729 0.66351396 0.16410427 0.31084186
-0.13461474 0.17736924 0.27797312 -0.24132186 0.1829498 -0.07041695 -0.17028607 0.03599928
-0.25307086 0.08149997 0.0009620731 0.45430616 0.111987814 0.13101327 -0.016248304 -0.30377644
-0.15752512 -0.07619735 -0.012941872 -0.19705005 -0.03498775 -0.046526685 0.15233615 -0.011125261
0.05649356 0.11006651 -0.049451895 -0.12060697 -0.0490777 -0.060417414 -0.060500436 -0.14267966
0.08480688 0.6191079 -0.17513046 -0.12046121 0.17630035 -0.12019484 -0.06841616 0.012711277
-0.08090207 -0.06884176 -0.16963956 0.052332025 -0.0032699686 -0.14547095 -0.044138487 0.21429868
-0.11215134 -0.09763186 -0.38566586 0.16445582 -0.15681522 -0.09857048 0.11541496 -0.027936915
-0.057477985 0.3465518 -0.066274144 -0.0820828 0.2759844 -0.14103346 0.21007046 -0.024550634
00000000: b165 fbbe 5e0a 8c3e 7250 2cbe 6bdf b03d
00000010: 558f 92be 31d3 cebd 7004 833d 4ac6 a23b
00000020: c4ca b93e a158 0c3c 4a7a 1fbe bcf6 ffbd
00000030: 30cb fc3d 08ca efbd 7188 833c 0e11 72bd
00000040: 90b5 283e 7fd4 0d3e 062d 0b3d 4ac8 52bc
00000050: 8cfb c5be a3ad d93e 90eb b9bd 580d 513d
00000060: ec11 8cbd 2297 6cbd 2db1 3d3e 1874 5cbe
00000070: d30e be3d b73d 5bbd 5015 6e3e 6fbc 8ebe
00000080: c69f e13e dd85 dbbd dce8 983e 7245 3cbb
00000090: 83d1 3e3e 5a08 cc3c 862e b9bd 2a27 813d
000000a0: c85b 44bf 9c07 5e3e 8ed0 d0bc f62d 393e
000000b0: 57de 4dbb c242 e43d 8f01 65bc 8b0d 60bd
000000c0: c5b5 483e 3563 d13c b22a 8abe 071e 7e3e
000000d0: bab7 e9bd 4690 9b3b 8e67 e73d e898 abbe
000000e0: c91e fd3d eef0 cd3d e2d6 0dbe 7aa6 533d
000000f0: 625a 99be 1619 0e3e dc24 c53d 9e25 103e
00000100: ac39 8abe d556 d5bd c57b d7be e314 7abd
00000110: e883 90be 4e84 503e d9cc f0bd fe2b 5a3e
00000120: 132e ecbd a469 503d 5b55 06bc c327 d1bd
00000130: cd8d 4f3e 314d 4fbd f319 413d d095 e83e
00000140: d810 353e 43c5 283e f431 4a3f 9b1b 253e
00000150: fec0 17be 4a38 853d 43b8 73be a7fb ecbc
00000160: 0b6d eabd 2225 203d 2144 2a3d c195 b0be
00000170: 71db 5d3e ea16 26be 08af 0abe 1a77 1c3c
00000180: 3ee9 6ebe 0235 3d3e af21 903e d249 c63e
00000190: 22c4 29bd 0a55 ec3e e77b 433d 6360 c3bd
000001a0: 1460 dd3d 3eab 8e3c 4e71 813d 6d87 88be
000001b0: 45df acbe 1d23 2abe 4ace 9d3d f976 ec3e
000001c0: 0d46 f93d ee9c 36bd 0224 ec3d 9238 b7bc
000001d0: c7d7 593e 094a fabd 2223 423e 0c82 88bd
000001e0: 198a 59bc 2155 083e be3e d23d 2742 883d
000001f0: 9f0d 45bd 4318 8ebe c05f e83d c908 063f
00000200: 75e4 81bd 798f cc3d 4a0d 143d 9c1a 9bbc
00000210: 3c45 73bd 51fc e33d 2696 383e 7957 ae3b
00000220: f760 bf3e 9498 8ebe 80e3 473d bc1b 7fbe
00000230: eedb c63d fcbe 22be 1660 05be b194 373e
00000240: be59 9cbd 674b 1cbd 8fd0 793d 87ed 91bd
00000250: d5a7 8f3d bb98 19bd a965 80bd 60ad 9dbc
00000260: da0b b0be f24a 203e 543c c0bd e618 ac3d
00000270: f09b 4b3d c70e e83d be1c 85bd 809a 62be
00000280: 7fb3 bcbb 3627 983c e89a 9f3d e6d2 e8be
00000290: 322a b13d ddc1 8d3c c8fe 06bd a843 03be
000002a0: 4809 203e 4898 febe cfb2 18be 8eca 643e
000002b0: 56d8 07be 39dd c83d 8575 3f3d b4cd 3e3e
000002c0: 6e13 d2be 7b97 293d 3ef5 aabe e341 0ebe
000002d0: a5ef 2e3e 1286 aabe e727 8d3e fceb a6bd
000002e0: 0b06 83bc 50a5 bf3e 03ac 90bd f5cc 983c
000002f0: 50d2 3ebd 0ddc 293f f30a 283e aa26 9f3e
00000300: 72d8 09be 48a0 353e 7e52 8e3e 141d 77be
00000310: 3157 3b3e c336 90bd 795f 2ebe fb73 133d
00000320: 8192 81be 75e9 a63d a233 7c3a d19a e83e
00000330: de59 e53d 5828 063e 2a1b 85bc 9688 9bbe
00000340: 444e 21be 5b0d 9cbd 250a 54bc 7dc7 49be
00000350: 514f 0fbd c492 3ebd 02fe 1b3e ba46 36bc
00000360: cb65 673d 8d6a e13d 128e 4abd c900 f7bd
00000370: b305 49bd 4078 77bd 4ecf 77bd 9e1a 12be
00000380: 3baf ad3d db7d 1e3f 6655 33be 5eb4 f6bd
00000390: 1488 343e b628 f6bd c61d 8cbd f642 503c
000003a0: fcaf a5bd e9fc 8cbd feb5 2dbe 1b5a 563d
000003b0: f84c 56bb 56f6 14be 8fca 34bd 1d71 5b3e
000003c0: 9aaf e5bd 36f3 c7bd ff75 c5be 1b67 283e
000003d0: 2b94 20be 52df c9bd ae5e ec3d f5db e4bc
000003e0: 096e 6bbd 3d6f b13e bdba 87bd 071b a8bd
000003f0: d44d 8d3e 136b 10be b61c 573e 691e c9bc

c2/W f4 [8, 4, 2, 2]
-0.19336013 0.46709433 -0.35972926 0.4150063 -0.40405846 -0.31720877 0.49857548 -0.00043118373
0.5713494 -0.06130249 -0.019931925 0.41798428 0.23670855 -0.2673289 -0.06985689 -0.34235567
0.019595543 0.29714376 -0.0011948679 -0.027951915 0.48327103 -0.30779964 0.20786332 0.41313103
-0.2776096 -0.02059201 -0.027100231 0.42133582 0.25818476 0.89014983 -0.39249238 0.032509692
0.16941153 -0.48381346 0.5359405 -0.2126822 0.54699945 -0.40512282 0.24450833 0.04482737
0.49086556 0.25645575 -0.09077636 -0.13252601 0.08875088 0.36288586 0.08707947 -0.3309045
-0.38193753 0.054257125 -0.21888943 0.47424805 -0.64604247 0.08673502 -0.22551985 -0.45808557
0.13199344 0.17373855 -0.13313091 0.015154917 -0.26068273 0.3688031 0.31900597 0.19168587
-0.09589859 -0.407627 -0.44380885 -0.28693578 -0.3875332 0.50479186 -0.84060407 -0.24491334
0.4230681 -0.062340636 0.53125995 0.16715801 0.06877306 0.14322276 -0.22930369 0.15440673
-0.39759824 0.947071 -0.54001576 -0.37018633 -0.20496109 -0.4272993 -0.2669157 -0.033174556
-0.29922575 -0.262408 0.46124834 -0.34697625 0.087915525 -0.049045213 0.1850865 -0.2832339
0.051068913 0.2421239 0.0070001874 0.10101321 -0.111518234 -0.1377722 -0.298093 0.32203782
-0.04086505 -0.5212547 0.13308091 -0.18825968 -0.2953041 0.4477572 -0.06258509 0.25947693
-0.2937479 0.14799379 -0.5630545 0.27578908 -0.67299074 0.4179731 0.048617586 -0.518922
-0.4426326 -0.039034355 -0.057282355 0.27168676 -0.13281614 0.7195383 -0.35813633 -0.18710725
00000000: 3300 46be fd26 ef3e 6f2e b8be b57b d43e
00000010: c0e0 cebe 3069 a2be 4945 ff3e 8010 e2b9
00000020: f443 123f 5218 7bbd 4748 a3bc 0902 d63e
00000030: ba63 723e 55df 88be 2111 8fbd 3e49 afbe
00000040: d586 a03c 3a23 983e 1d9d 9cba 6afb e4bc
00000050: 4d6f f73e ea97 9dbe 1fda 543e e985 d33e
00000060: d822 8ebe 93b0 a8bc 4e01 debc 54b9 d73e
00000070: cb30 843e dce0 633f c3f4 c8be e228 053d
00000080: 377a 2d3e 66b6 f7be 6633 093f 5dc9 59be
00000090: 2808 0c3f 426c cfbe 6460 7a3e e89c 373d
000000a0: bb52 fb3e 2b4e 833e f5e8 b9bd e6b4 07be
000000b0: 05c3 b53d 2dcc b93e b956 b23d 516c a9be
000000c0: 518d c3be b83c 5e3d 8d24 60be a4d0 f23e
000000d0: 0a63 25bf 21a2 b13d adee 66be 318a eabe
000000e0: 4a29 073e 85e8 313e 7853 08be 544c 783c
000000f0: 3578 85be c3d3 bc3e c054 a33e 4d49 443e
00000100: 7b66 c4bd 7cb4 d0be ea3a e3be 3fe9 92be
00000110: c06a c6be 0a3a 013f d431 57bf 90ca 7abe
00000120: 629c d83e e558 7fbd a700 083f 782b 2b3e
00000130: e4d8 8c3d fda8 123e 96ce 6abe cc1c 1e3e
00000140: ff91 cbbe 3f73 723f 793e 0abf 1089 bdbe
00000150: 52e1 51be f9c6 dabe 2da9 88be 0be2 07bd
00000160: 1e34 99be 575a 86be be28 ec3e dfa6 b1be
00000170: 0e0d b43d a2e3 48bd 5187 3d3e 0904 91be
00000180: a32d 513d 54ef 773e d461 e53b 04e0 ce3d
00000190: ac63 e4bd 2814 0dbe a59f 98be 24e2 a43e
000001a0: 1c62 27bd f370 05bf 5d46 083e 25c7 40be
000001b0: 1932 97be 6f40 e53e 9d2c 80bd 29da 843e
000001c0: 2066 96be af8b 173e 5724 10bf 3a34 8d3e
000001d0: 1f49 2cbf 9200 d63e 3c23 473d 12d8 04bf
000001e0: bda0 e2be 7de2 1fbd e7a0 6abd 871a 8b3e
000001f0: f400 08be a933 383f a55d b7be 0b99 3fbe

l4/W f4 [256, 16]
0.26222593 0.08098789 0.31083852 0.039942574 -0.16871476 -0.2990789 0.42274362 0.07253861
0.08787292 0.031168513 -0.026130665 -1.0225896 -0.0097745275 0.5971495 0.28488243 0.4548343
-0.30854753 0.3814073 0.2561422 0.084041215 0.5130442 0.16033359 0.68257767 0.20537554
-0.39212498 -0.76203287 -0.081784815 -0.45498404 -0.0986898 0.19587746 -0.14330477 0.05113411
0.052672226 0.21636306 -0.38579232 -0.24903803 -0.26466507 0.29982194 0.07987424 0.110717975
0.6078994 -0.056946106 -0.49047914 -0.06948146 -0.09722117 -0.2172674 -1.0551114 0.18776745
0.23380838 -0.19341893 0.79226965 0.0928163 0.31420094 0.047492616 -0.29380864 0.4457763
0.37669995 0.12738408 -0.64946455 0.46726635 -0.6152302 -0.44991213 0.11762687 -0.10443437
-0.16332798 -0.7160709 0.6360962 -0.17656726 0.28510183 0.46571758 -1.0916691 0.550105
-0.12462757 -0.49081331 0.18946066 0.2988483 -0.6303281 -0.9811446 0.61941427 -0.023122689
-0.36148578 -0.26672044 -0.71184164 -0.06252871 -0.10893819 0.34148434 -0.11024483 0.15896286
0.20852982 0.25168467 0.4248934 -0.36502743 -0.49460247 -0.22851086 0.4157916 0.2605861
0.16527174 0.10562689 0.13491294 -0.27774784 0.26515377 -0.32491174 -0.36331758 0.40227368
-0.2000704 0.40726286 0.07359361 0.15080954 -0.10737328 0.23678651 0.07211245 0.24138646
0.26607168 -0.25222105 0.40300912 -0.0722736 -0.9628275 -0.2695948 -0.24024792 0.23560104
0.66568226 -0.059593465 -0.6577375 0.06846894 0.06668542 -0.0066227964 -0.08361884 -0.46492115
0.14817439 -1.1469336 -0.46850783 -0.32732967 -0.19872859 0.037367705 0.32945353 -0.022394609
-0.13437061 -0.17469889 -0.5969328 -0.040829472 -0.2269815 -0.76600415 0.6430362 -0.35162917
0.25483966 0.37820345 -0.40737846 -0.9247985 0.0062618963 0.23102756 0.17092872 -0.24780168
-0.08472881 -0.90028626 -0.37525988 -0.20479755 0.0037019697 -0.109155945 0.3550612 0.085106745
-0.8143518 -0.38678017 0.58747107 -0.32382247 0.50470954 -0.09226818 -0.18945669 -0.2052725
-0.2054146 0.24312338 -0.06623678 0.17412014 -0.44857392 0.07041932 0.31602678 -0.50920886
0.09847222 -0.6083532 -0.08010132 -0.22551669 -0.017608872 -0.3388975 0.09391026 0.7626326
-0.25309786 0.0583855 0.11532441 0.06033073 -1.0318725 0.164788 -0.22101358 -0.20129298
0.15250884 -0.07846621 -0.30809048 -0.6608078 -0.0066250516 0.095436074 0.33312786 -0.11220608
-0.3493491 0.17390259 -0.18879811 0.50716215 0.24919108 -0.044771094 -0.014054322 -0.023003913
-0.5082274 0.523087 0.5283217 -0.23943888 0.25442147 0.05441168 -0.2441319 0.11252119
0.037448216 -0.59711176 0.13095644 -0.10913795 -0.36076766 -0.24020858 0.0575608 -0.2889852
-0.800804 0.28735435 0.08262565 -0.60450786 -0.13996522 -0.52010924 -0.82490206 -0.083852954
0.34296125 0.05814296 0.39622587 0.29831252 0.35555825 0.029277066 -0.15480335 -0.7828358
0.38983482 0.1127333 -0.256384 0.39467174 0.30524042 -0.289291 -0.2918217 -0.046349257
-0.15514669 -0.012215926 -0.18170094 0.503846 0.35344216 0.010170312 0.06513578 0.22318916
00000000: 7a42 863e fbdc a53d 3a26 9f3e d39a 233d
00000010: 90c3 2cbe df20 99be da71 d83e 1f8f 943d
00000020: b8f6 b33d 1c55 ff3c fa0f d6bc 37e4 82bf
00000030: 5725 20bc cade 183f 1cdc 913e 0be0 e83e
00000040: f1f9 9dbe d147 c33e 1225 833e cd1d ac3d
00000050: dd56 033f 7d2e 243e 69bd 2e3f f74d 523e
00000060: 9bc4 c8be 9614 43bf cc7e a7bd abf3 e8be
00000070: e11d cabd 1a94 483e 7cbe 12be 0072 513d
00000080: d5be 573d 478e 5d3e 9286 c5be d303 7fbe
00000090: 2e82 87be 4382 993e 1b95 a33d 1bc0 e23d
000000a0: 4c9f 1b3f 5240 69bd 1520 fbbe 4c4c 8ebd
000000b0: e51b c7bd 587b 5ebe e40d 87bf 1c46 403e
000000c0: 776b 6f3e 9d0f 46be 2fd2 4a3f 7916 be3d
000000d0: f2de a03e 9e87 423d 166e 96be cb3c e43e
000000e0: d1de c03e f970 023e 4f43 26bf 893d ef3e
000000f0: ba7f 1dbf e25a e6be 5be6 f03d b0e1 d5bd
00000100: 733f 27be 6c50 37bf 33d7 223f 0cce 34be
00000110: def8 913e 8972 ee3e d0bb 8bbf aed3 0c3f
00000120: bd3c ffbd e24b fbbe fa01 423e a502 993e
00000130: 2f5d 21bf 4b2c 7bbf ef91 1e3f cb6b bdbc
00000140: aa14 b9be 958f 88be 413b 36bf 0d0f 80bd
00000150: fc1a dfbd 09d7 ae3e 0bc8 e1bd 29c7 223e
00000160: d788 553e d0dc 803e a18b d93e e0e4 babe
00000170: 893c fdbe c0fe 69be a3e2 d43e 8b6b 853e
00000180: ff3c 293e e952 d83d 9e26 0a3e f734 8ebe
00000190: 3cc2 873e d55a a6be c304 babe d1f6 cd3e
000001a0: 41df 4cbe c284 d03e 3fb8 963d d16d 1a3e
000001b0: 86e6 dbbd 2a78 723e b1af 933d 032e 773e
000001c0: 8c3a 883e 1e23 81be 3657 ce3e 2e04 94bd
000001d0: dd7b 76bf 5408 8abe 8d03 76be 6641 713e
000001e0: 276a 2a3f 4718 74bd 7c61 28bf 7239 8c3d
000001f0: 5e92 883d 0b04 d9bb 5b40 abbd 250a eebe
00000200: 07bb 173e b8ce 92bf 42e0 efbe c197 a7be
00000210: 827f 4bbe e10e 193d 22ae a83e e674 b7bc
00000220: 7398 09be 44e4 32be 97d0 18bf ce3c 27bd
00000230: d76d 68be d918 44bf 059e 243f bd08 b4be
00000240: 587a 823e e2a3 c13e e993 d0be 98bf 6cbf
00000250: 9830 cd3b 7d92 6c3e f007 2f3e b9bf 7dbe
00000260: 4c86 adbd 2979 66bf 1022 c0be 73b6 51be
00000270: bf9c 723b 278d dfbd 95ca b53e 724c ae3d
00000280: 5c79 50bf 0d08 c6be 8164 163f 0fcc a5be
00000290: a534 013f 19f7 bcbd ef00 42be f432 52be
000002a0: 3458 52be 56f5 783e 26a7 87bd 8d4c 323e
000002b0: 7bab e5be 0138 903d 43ce a13e 835b 02bf
000002c0: ceab c93d 09bd 1bbf 290c a4bd d9ed 66be
000002d0: 7b40 90bc f983 adbe 0654 c03d e43b 433f
000002e0: 0b96 81be a225 6f3d 342f ec3d 5b1d 773d
000002f0: 6614 84bf 2fbe 283e 6251 62be bf1f 4ebe
00000300: 472b 1c3e e4b2 a0bd 09be 9dbe b32a 29bf
00000310: f616 d9bb fd73 c33d bc8f aa3e 4dcc e5bd
00000320: e3dd b2be 8513 323e 4b54 41be 61d5 013f
00000330: f22b 7f3e e561 37bd 1944 66bc b472 bcbc
00000340: 311b 02bf 08e9 053f 1740 073f 772f 75be
00000350: 8843 823e c8de 5e3d b6fd 79be 8271 e63d
00000360: 4d63 193d 51dc 18bf 7219 063e b883 dfbd
00000370: 8ab6 b8be 3df9 75be e0c4 6b3d def5 93be
00000380: 7e01 4dbf 1c20 933e a337 a93d 07c1 1abf
00000390: 0b53 0fbe e125 05bf c82c 53bf 19bb abbd
000003a0: 9e98 af3e 5027 6e3d 1ede ca3e 6bbc 983e
000003b0: bb0b b63e 75d6 ef3c c584 1ebe ed67 48bf
000003c0: 6e98 c73e b7e0 e63d c344 83be 6a12 ca3e
000003d0: 7948 9c3e f31d 94be a769 95be b8d8 3dbd
000003e0: c6de 1ebe 4f25 48bc d00f 3abe 0dfc 003f
000003f0: 5ff6 b43e 61a1 263c e865 853d b38b 643e

c3/W f4 [16, 8, 2, 2]
0.0726644 0.043269895 0.2067611 -0.19893245 -0.117653154 -0.27105084 0.089577205 -0.035470597
0.32292762 -0.08092158 0.096367195 -0.1875391 -0.113721564 0.15790881 0.7693964 -0.019145912
0.3418791 0.46390107 -0.054887865 -0.30026248 0.3764777 -0.16766448 -0.086650975 0.24881487
-0.26119098 0.22375491 0.17444044 -0.22942637 -0.7847862 0.019858837 0.22095428 -0.280303
0.1719242 0.24740906 -0.4470542 -0.10501704 0.104866095 0.28054196 -0.029334025 0.39778242
0.054710332 0.25778413 0.25404885 -0.2597264 0.05040327 0.0849128 -0.18161526 0.30019754
0.115394376 0.16738765 -0.3147981 -0.2147316 0.032968577 -0.105931684 0.2501243 -0.091183245
0.20934537 0.10811509 -0.33977157 -0.2961058 -0.06473478 -0.015342591 -0.020872412 -0.66062635
-0.017715143 -0.045043025 0.057123404 0.011394759 -0.13970584 -0.09552998 -0.19247149 0.07733801
0.04230289 -0.1539626 -9.524761e-05 -0.51089066 -0.20153193 0.18053626 0.019565744 -0.099752896
-0.060297303 -0.23060574 0.042930458 -0.27317002 0.03919326 0.22293024 0.0045354534 -0.024558531
-0.24756326 -0.15090981 -0.038049888 -0.022265458 -0.108967245 -0.20155595 0.0610114 0.21953511
-0.3211167 0.20284598 0.22425896 -0.019679056 0.20024987 -0.5184259 -0.28726983 -0.021050561
-0.05887585 0.030368308 0.40034133 -0.12702285 -0.14087579 -0.47040528 0.47505596 0.008889876
0.47314048 -0.42623913 0.036269505 -0.28791186 0.045584813 0.121613264 -0.33323053 -0.14733675
-0.30422652 -0.14977492 -0.07417241 0.32137766 -0.046819024 0.02027166 0.006979754 -0.40413505
-0.022328457 0.048443463 -0.28307647 -0.23882973 0.2079716 -0.23858221 0.1762122 0.15670262
-0.043200172 0.16357787 -0.098003104 0.4772834 -0.3480497 -0.15479726 -0.57262856 -0.25702843
0.19387257 -0.4235549 -0.39345422 -0.28268838 -0.060470633 -0.34935984 0.057085235 0.21323378
0.04328214 0.013645623 0.07818885 -0.034353152 -0.13762479 0.031857904 0.16327977 0.063290246
0.08650001 -0.26263845 -0.22280788 0.6467739 0.13176827 0.49637225 0.15926133 -0.11388319
0.09325704 0.15317723 0.13533236 -0.32792604 0.2202568 -0.14633504 -0.050376154 -0.44233316
0.021123454 -0.09696184 -0.15403242 -0.35422605 0.25399962 0.039862525 0.17697182 0.15048103
-0.07006244 -0.06932162 -0.1854084 -0.34050345 0.03846946 0.55326235 -0.43034428 -0.18701234
0.29957148 -0.19083011 0.31250876 -0.018094027 -0.5730214 0.34368688 -0.093392275 0.12213829
-0.26026323 0.081043355 0.06797162 0.01801062 -0.13243449 -0.18408318 0.55755085 0.01724244
-0.017787231 -0.10370192 0.3972848 -0.05080109 0.22308043 -0.027690932 0.023005899 -0.14369036
0.48888737 0.027126258 0.49902466 -0.054679688 0.22158186 0.00819532 -0.4354969 -0.098217785
-0.11043318 -0.33256587 0.0622485 -0.02520469 0.113290936 -0.46417597 -0.100562975 0.7056273
-0.38575187 -0.2071416 -0.118520156 0.33605155 -0.00012336302 -0.3983798 -0.13973343 0.12738833
-0.32907796 0.28118545 -0.11240447 0.29388067 -0.30859008 0.0349157 -0.14883754 -0.050155845
0.09468371 -0.14846772 -0.010441251 0.27425924 0.34193188 0.1596793 -0.1898849 0.07747985
00000000: 13d1 943d c63b 313d 2fb9 533e f3b4 4bbe
00000010: 23f4 f0bd 2dc7 8abe 4174 b73d 9e49 11bd
00000020: c556 a53e 37ba a5bd 2a5c c53d 400a 40be
00000030: dae6 e8bd d9b2 213e 2af7 443f e3d7 9cbc
00000040: c70a af3e 7184 ed3e 19d2 60bd 01bc 99be
00000050: afc1 c03e 3db0 2bbe 1176 b1bd 53c9 7e3e
00000060: d3ba 85be 0220 653e 84a0 323e bfee 6abe
00000070: c0e7 48bf 00af a23c d741 623e e083 8fbe
00000080: e60c 303e cd58 7d3e 4ae4 e4be 2d13 d7bd
00000090: 09c4 d63d 32a3 8f3e e94d f0bc 23aa cb3e
000000a0: f117 603d 48fc 833e b112 823e dcfa 84be
000000b0: a973 4e3d c3e6 ad3d 5af9 39be 7eb3 993e
000000c0: e353 ec3d ab67 2b3e 372d a1be 9ae2 5bbe
000000d0: 0f0a 073d b6f2 d8bd 4b10 803e 48be babd
000000e0: a25e 563e 726b dd3d 8af6 adbe 2e9b 97be
000000f0: ab93 84bd 7e5f 7bbc 9ffc aabc cf1e 29bf
00000100: 591f 91bc 097f 38bd 3bfa 693d 15b1 3a3c
00000110: 0c0f 0fbe 39a5 c3bd 3f17 45be 6463 9e3d
00000120: cc45 2d3d 5fa8 1dbe acbf c7b8 bbc9 02bf
00000130: 635e 4ebe 7fde 383e 5748 a03c 3f4b ccbd
00000140: 4efa 76bd e923 6cbe d9d7 2f3d f1dc 8bbe
00000150: 1d89 203d d347 643e 249e 943b f92e c9bc
00000160: 3981 7dbe 1a88 1abe 33da 1bbd 0d66 b6bc
00000170: 382a dfbd af64 4ebe 17e7 793d d0cd 603e
00000180: 6869 a4be dbb6 4f3e 24a4 653e f935 a1bc
00000190: 4d0e 4d3e 8fb7 04bf 0815 93be 3a72 acbc
000001a0: ce27 71bd f5c6 f83c 8af9 cc3e 4712 02be
000001b0: be41 10be f6d8 f0be 893a f33e d8a6 113c
000001c0: 783f f23e 043c dabe 558f 143d 2f69 93be
000001d0: 24b7 3a3d 6010 f93d 319d aabe 72df 16be
000001e0: 94c3 9bbe 995e 19be b4e7 97bd 9d8b a43e
000001f0: 4ec5 3fbd c110 a63c 6cb6 e43b caea cebe
00000200: 2bea b6bc a76c 463d 66ef 90be c88f 74be
00000210: 82f6 543e e54e 74be f970 343e a776 203e
00000220: aaf2 30bd f580 273e dab5 c8bd 7d5e f43e
00000230: 9233 b2be 2c83 1ebe c997 12bf 3b99 83be
00000240: 8886 463e 30dc d8be d572 c9be 88bc 90be
00000250: 0eb0 77bd 4bdf b2be 35d2 693d f559 5a3e
00000260: 9d48 313d e491 5f3c 7a21 a03d e4b5 0cbd
00000270: 83ed 0cbe 6f7d 023d d032 273e 519e 813d
00000280: eb26 b13d 8c78 86be c027 64be f992 253f
00000290: 43ee 063e 8124 fe3e 6715 233e 973b e9bd
000002a0: 8cfd be3d 7eda 1c3e 9194 0a3e ece5 a7be
000002b0: 008b 613e dad8 15be 3a57 4ebd 7e79 e2be
000002c0: 180b ad3c ee93 c6bd adba 1dbe 1e5d b5be
000002d0: 3d0c 823e e346 233d 1a38 353e b317 1a3e
000002e0: e67c 8fbd 7ef8 8dbd b3db 3dbe 7856 aebe
000002f0: 2792 1d3d 9aa2 0d3f 1656 dcbe 2a80 3fbe
00000300: 6f61 993e f868 43be 2601 a03e ed39 94bc
00000310: 88b1 12bf baf7 af3e 7344 bfbd a423 fa3d
00000320: 3941 85be 0ffa a53d b434 8b3d 028b 933c
00000330: e89c 07be 4d80 3cbe a7bb 0e3f 0440 8d3c
00000340: 87b6 91bc ac61 d4bd ea68 cb3e ce14 50bd
00000350: 326f 643e 18d8 e2bc de76 bc3c 9123 13be
00000360: 724f fa3e e337 de3c 2980 ff3e cff7 5fbd
00000370: 5be6 623e aa45 063c 73f9 debe 6826 c9bd
00000380: cb2a e2bd 1346 aabe 48f8 7e3d 117a cebc
00000390: 1405 e83d 79a8 edbe f6f3 cdbd fea3 343f
000003a0: 4581 c5be ed1c 54be b2ba f2bd f30e ac3e
000003b0: 025b 01b9 70f8 cbbe 4816 0fbe 1672 023e
000003c0: e87c a8be 8af7 8f3e 5134 e6bd 8777 963e
000003d0: 85ff 9dbe c403 0f3d de68 18be 3770 4dbd
000003e0: 88e9 c13d ec07 18be c811 2bbc b56b 8c3e
000003f0: b211 af3e f882 233e 3071 42be c1ad 9e3d

l5/b f4 [16]
0.001876524 0.044872023 0.012745885 0.085066766 0.05204949 -0.03540938 -0.027713804 0.07427339
0.055294465 -0.034111194 -0.017384615 -0.014445824 0.075100735 0.09432622 0.019818313 -0.008860612
00000000: b2f5 f53a bacb 373d 1ed4 503c 7c37 ae3d
00000010: d931 553d 6d09 11bd 0f08 e3bc a61c 983d
00000020: 737c 623d 2eb8 0bbd 2e6a 8ebc 2dae 6cbc
00000030: 6ace 993d 1b2e c13d 045a a23c 1a2c 11bc

c1/b f4 [4]
0.29770935 0.28968605 -0.2720247 -0.22597739
00000000: 5c6d 983e bb51 943e d246 8bbe 9e66 67be

l4/b f4 [256]
0.3295168 0.041270956 -0.044465426 -0.10956318 -0.26737538 -0.07470943 0.07024627 0.03348542
0.049224574 0.11446299 0.29279506 0.28575692 0.011063522 0.052166868 -0.030757327 -0.090365075
0.025665645 0.07786603 0.13633709 0.051463973 0.31369883 0.076048695 -0.054861475 0.09988646
-0.09065189 0.27275902 0.1869186 -0.029492892 0.10032345 0.069613434 0.35349497 -0.075332165
0.1107759 -0.2749941 -0.48701814 0.12732203 -0.115205236 -0.0011950597 -0.030457562 -0.21932344
-0.3644984 -0.12034693 0.12128099 0.022473976 -0.012007475 -0.1281513 0.027730713 -0.010344339
-0.10694897 -0.037804566 -0.017354568 -0.1934735 0.0967127 -0.0777048 0.12657896 -0.2901028
0.10100768 -0.008002621 -0.117666334 0.008950796 -0.3066188 0.022778666 0.21784368 -0.19949086
0.034205943 -0.24605975 0.3481789 0.014405327 -0.23507318 -0.394942 0.08081121 -0.15171745
0.111039996 -0.124850415 0.15767087 -0.067235194 0.11113611 -0.026326478 0.006287349 -0.0223298
-0.229005 -0.12180558 -0.039120816 -0.3348796 -0.3582727 0.105057485 0.0017809608 -0.15681769
-0.0038594957 -0.17802674 0.19248797 -0.11758895 -0.14638612 0.013129172 -0.12625962 0.014706739
-0.22081406 0.08012274 -0.14012964 0.21777461 0.12121753 0.23759228 0.15198646 0.08115564
0.108106084 -0.12675546 -0.062259413 0.17945266 -0.36477065 -0.02576082 -0.46120518 0.12513544
0.2370427 -0.18108316 0.118896365 0.016112164 -0.22877695 -0.029895043 0.10639233 0.01690847
0.3569032 -0.086958736 -0.08823461 -0.12067891 -0.0070302477 0.16679342 0.09218985 -0.15406269
-0.09395093 -0.16762573 0.070914134 0.013550178 -0.19861759 -0.034912433 -0.14408718 0.23310097
0.21464954 -0.10194307 0.03871139 -0.09077641 -0.14591435 -0.00379598 -0.086697064 -0.08673629
-0.105794296 0.09566595 -0.048703216 -0.17127311 0.17200106 -0.069708146 0.022718027 -0.010186513
-0.2462888 0.013798918 0.13688378 -0.162748 -0.021826902 -0.22753684 -0.26621562 0.032718014
0.16578425 -0.120285675 -0.268183 0.09188811 -0.18793914 -0.21536134 -0.06063933 0.16201825
-0.27436674 -0.48423553 -0.029580977 0.16642573 0.042360056 -0.087232426 -0.220164 0.16265456
-0.038288232 -0.17327885 0.039972752 -0.25555536 0.24416788 -0.20931253 0.04137328 0.0067727333
0.089918874 0.3996109 -0.06364992 -0.05269438 0.04355571 -0.022744697 0.13285649 0.12450755
0.03533676 -0.017605625 0.16078413 0.36478034 -0.10468194 0.010881972 -0.09136762 0.11048447
-0.38283262 0.053129606 -0.0743531 0.4778468 -0.004378427 -0.120665014 0.0046799104 0.112388715
-0.30270377 -0.09968987 0.045369815 -0.32537436 0.05910838 -0.17528301 -0.09340775 -0.12172813
-0.062368397 0.017502123 -0.15892296 -0.033463955 0.12672736 0.060485825 -0.053799484 -0.17455584
-0.08358702 -0.10601494 0.04349513 -0.18435837 0.20733742 0.031192033 -0.015395868 -0.07709409
-0.14715144 -0.19517802 -0.08760976 0.07710016 -0.17131373 -0.102712765 -0.16811152 -0.2860308
0.15825476 -0.01209349 -0.08020133 -0.13745613 0.47109026 0.11082431 0.04853953 -0.25990513
-0.02542579 0.02390043 -0.15404643 -0.16212901 -0.18120416 -0.20144738 -0.25404894 -0.06974994
00000000: 6db6 a83e bc0b 293d 6121 36bd a962 e0bd
00000010: 6de5 88be 4201 99bd 47dd 8f3d 0228 093d
00000020: b59f 493d 926b ea3d 3ce9 953e bb4e 923e
00000030: c643 353c edac 553d caf6 fbbc 5311 b9bd
00000040: c240 d23c 3a78 9f3d f39b 0b3e e3cb 523d
00000050: 229d a03e 6bbf 9b3d 6db6 60bd 4691 cc3d
00000060: b3a7 b9bd 12a7 8b3e 9767 3f3e 149b f1bc
00000070: 6276 cd3d 7d91 8e3d 4bfd b43e c047 9abd
00000080: 7ade e23d 07cc 8cbe 715a f9be b560 023e
00000090: b9f0 ebbd 8da3 9cba 2382 f9bc 5396 60be
000000a0: 899f babe 7478 f6bd 2b62 f83d 581b b83c
000000b0: 00bb 44bc 183a 03be 852b e33c 4d7b 29bc
000000c0: 1008 dbbd f6d8 1abd 2b2b 8ebc eb1d 46be
000000d0: 4f11 c63d b223 9fbd ea9d 013e 5b88 94be
000000e0: 1ddd ce3d 6d1d 03bc 0cfb f0bd 5ca6 123c
000000f0: 24fd 9cbe 539a ba3c 6a12 5f3e 5547 4cbe
00000100: 881b 0c3d 16f7 7bbe 8144 b23e 5204 6c3c
00000110: 06b7 70be d635 cabe 5980 a53d d25b 1bbe
00000120: f068 e33d 93b1 ffbd 7974 213e 9bb2 89bd
00000130: 549b e33d a0aa d7bc 1b06 ce3b fcec b6bc
00000140: 4980 6abe 3475 f9bd 263d 20bd 5775 abbe
00000150: 856f b7be 6128 d73d 216f e93a d194 20be
00000160: 98ef 7cbb a44c 36be 911b 453e 7ad2 f0bd
00000170: 3ee6 15be bd1b 573c 344a 01be 89f4 703c
00000180: 151d 62be 6417 a43d 257e 0fbe 4f00 5f3e
00000190: e540 f83d 644b 733e 57a2 1b3e ee34 a63d
000001a0: b966 dd3d 2fcc 01be ba03 7fbd 70c2 373e
000001b0: 38c3 babe 5b08 d3bc 1623 ecbe 8123 003e
000001c0: 52bb 723e dd6d 39be f07f f33d a8fd 833c
000001d0: 8144 6abe 73e6 f4bc 39e4 d93d a283 8a3c
000001e0: 04bc b63e 6c17 b2bd 59b4 b4bd 8126 f7bd
000001f0: fe5d e6bb e5cb 2a3e 08ce bc3d 9cc2 1dbe
00000200: 5869 c0bd 14a6 2bbe 6e3b 913d 9101 5e3c
00000210: 6962 4bbe 5700 0fbd 978b 13be 05b2 6e3e
00000220: 17cd 5b3e 87c7 d0bd d68f 1e3d fce8 b9bd
00000230: 926a 15be fac5 78bb 3b8e b1bd cca2 b1bd
00000240: aeaa d8bd 82ec c33d 067d 47bd 3862 2fbe
00000250: 0c21 303e 25c3 8ebd 281b ba3c 55e5 26bc
00000260: 2233 7cbe db14 623c 432b 0c3e 69a7 26be
00000270: 55ce b2bc 6bff 68be 6a4d 88be 5303 063d
00000280: 59c3 293e 5658 f6bd 484f 89be d52f bc3d
00000290: 1e73 40be af87 5cbe f260 78bd 1de8 253e
000002a0: cc79 8cbe b8ed f7be ce53 f2bc 826b 2a3e
000002b0: bd81 2d3d eaa6 b2bd ac72 61be eb8e 263e
000002c0: 1fd4 1cbd 0370 31be 78ba 233d 27d8 82be
000002d0: 2507 7a3e 0656 56be 0777 293d ceed dd3b
000002e0: 6327 b83d cd99 cc3e e45a 82bd 10d6 57bd
000002f0: 7967 323d 1653 babc 880b 083e d0fd fe3d
00000300: 47bd 103d ac39 90bc 98a4 243e 7dc4 ba3e
00000310: 7c63 d6bd 4c4a 323c f21e bbbd af45 e23d
00000320: a302 c4be 6e9e 593d 7046 98bd 56a8 f43e
00000330: e878 8fbb 381f f7bd ef59 993b 0e2c e63d
00000340: fdfb 9abe 342a ccbd b3d5 393d 7897 a6be
00000350: a11b 723d 647d 33be 904c bfbd 994c f9bd
00000360: 0176 7fbd 9d60 8f3c b3bc 22be 8011 09bd
00000370: d1c4 013e fcbf 773d d95c 5cbd c4be 32be
00000380: ac2f abbd 5c1e d9bd f327 323d 71c8 3cbe
00000390: 4350 543e 6f86 ff3c f33e 7cbc 82e3 9dbd
000003a0: deae 16be bfdc 47be bf6c b3bd b0e6 9d3d
000003b0: de6c 2fbe 125b d2bd 6d25 2cbe a172 92be
000003c0: 890d 223e c623 46bc 9840 a4bd 4dc1 0cbe
000003d0: be32 f13e dbf7 e23d 63d1 463d 4912 85be
000003e0: bf49 d0bc d6ca c33c 59be 1dbe 2605 26be
000003f0: 958d 39be 3948 4ebe b412 82be 0ed9 8ebd

c2/b f4 [8]
0.14680247 0.19814613 -0.11169624 -0.23460235 -0.27630362 -0.2368729 0.014492506 0.01579489
00000000: 6353 163e d2e6 4a3e 00c1 e4bd 993b 70be
00000010: ab77 8dbe cf8e 72be fa71 6d3c 4964 813c
