examples/ch4/reversi_DQN_DNN/agent_black_6000/target_model.npz (npz, 521972 bytes, 8 tensors)

l2/b f4 [256]
-0.039623808 0.006352229 0.039450306 0.018331923 -0.007839935 -0.07033986 0.076842934 0.028020168
-0.0028033685 0.014558959 -0.063134156 0.030201698 0.04954658 -0.032981537 0.000742127 0.009916984
-0.060080033 -0.030853834 0.008941456 0.019498058 0.025920264 0.059864987 0.09533133 -0.008682344
-0.012660062 0.06409403 0.024259366 0.019660171 -0.041981906 -0.034131974 -0.0017530175 0.04438582
0.035137273 -0.016829547 0.05410269 -0.047391508 -0.012814788 -0.002972979 0.039718714 -0.005332704
-0.12803939 -0.0020153322 -0.0002458529 0.08653912 -0.06000068 -0.024818687 -0.003951875 -0.0460563
-0.04960741 0.035794627 0.064644925 0.014929554 0.017699044 0.0109143965 -0.011165791 0.025911994
0.016748741 -0.00013014549 -0.0675461 -0.0069819614 -0.010219035 -0.0033131638 -0.014397823 0.061713822
-0.0072757057 -0.0037436914 0.005097488 0.02403389 -0.0030389917 0.046437804 0.050563388 0.059668366
-0.0060872417 0.04768087 0.0028000032 0.009583462 0.00045738785 0.027254153 -0.06443482 -0.048859254
0.04201105 -0.0059781526 -0.020206487 -0.03010263 -0.029433224 -0.000111460744 -0.06428792 0.023151493
-0.055486456 -0.015147095 0.07174883 -0.031015242 -0.0061522215 -0.0048063146 -0.0005584659 -0.034990415
0.07729399 -0.057540324 -0.053160492 -0.04110385 0.013144246 -0.060110856 0.03152894 -0.013702146
0.09253308 -0.028822638 0.0018597172 -0.029486714 0.023442512 0.0023145715 -0.018579079 -0.007371996
-0.014618618 0.07150186 -0.067629576 -0.009418443 -0.043148383 0.003848194 -0.027381158 0.03188963
-0.010706361 0.0058315936 0.049461983 -0.0018722705 0.05240548 -0.04669069 -0.05167951 -0.04797064
-0.05900629 -0.0075423773 0.0010000883 -0.003004615 0.061433762 -0.08653708 0.010179204 0.015905734
0.024806261 -0.020862205 0.03909773 -0.022286652 0.013145297 0.018468902 -0.012311626 0.04337808
0.063708186 -0.07461827 -0.058928046 -0.047836598 0.011187 0.012135961 0.012698782 0.044087343
0.043853372 -0.05743734 -0.012411579 -0.030266777 -0.060915623 -0.06689132 -0.015618045 -0.04781066
-0.019444477 0.02446079 -0.020655993 0.050635457 -0.0075752847 -0.01641477 -0.05747928 0.049546413
0.014767075 -0.020603081 -0.016313238 0.02687297 0.034682408 -0.009366353 0.048816107 -0.021151403
0.04057722 0.05255156 -0.01493666 0.045920007 -0.012034007 -0.025196416 -0.017592272 0.032656867
-0.044239324 -0.06660779 -0.06524925 0.08854429 0.007822617 0.007015112 -0.09140672 -0.025935479
0.038473133 -0.009918182 0.042865954 -0.031894255 -0.033946916 -0.029151388 -0.04456986 -0.07160885
-0.02358475 0.0665107 -0.0036453772 0.035107728 -0.004042477 -0.03266405 0.009168105 -0.0029562842
-0.023725843 -0.059356373 0.008463892 0.0032779863 -0.071567625 -0.01795124 0.029753815 -0.0468029
0.07158715 0.073690206 0.023034407 -0.06790385 0.027450552 -0.04703266 -0.019134665 -0.04470056
0.013644102 0.06817676 -0.052064296 -0.029167157 0.00026256425 -0.022536814 -0.07462775 -0.030629154
0.031261425 -0.011630061 -0.026087033 0.052860253 0.10597942 0.03295906 -0.025009446 4.600208e-05
-0.011304233 0.040296216 0.055461816 -0.015895633 0.01104169 -0.01007604 -0.01754453 -0.0036226108
-0.021141702 0.00025419315 -0.030161275 0.0133008985 0.0038287626 0.03187202 -0.042108145 -0.06930261
00000000: 934c 22bd 5c26 d03b a596 213d d42c 963c
00000010: 1273 00bc 580e 90bd d45f 9d3d 8d8a e53c
00000020: b8b8 37bb b388 6e3c 7b4c 81bd 8d69 f73c
00000030: 5bf1 4a3d a617 07bd 4d8b 423a d87a 223c
00000040: 7b16 76bd 2ec1 fcbc 2f7f 123c 64ba 9f3c
00000050: bc56 d43c fd34 753d 133d c33d 6440 0ebc
00000060: 266c 4fbc bb43 833d 94bb c63c 5e0e a13c
00000070: 38f5 2bbd f8cd 0bbd 82c5 e5ba e8cd 353d
00000080: 1aec 0f3d 1ede 89bc c89a 5d3d 991d 42bd
00000090: 1ef5 51bc 50d6 42bb 17b0 223d f7bd aebb
000000a0: c21c 03be aa13 04bb d1e5 80b9 6c3b b13d
000000b0: 46c3 75bd 8f50 cbbc bb7e 81bb 88a5 3cbd
000000c0: 2431 4bbd 639d 123d 8f64 843d 179b 743c
000000d0: 96fd 903c 4cd2 323c b9f0 36bc 6445 d43c
000000e0: a834 893c aa77 08b9 9c55 8abd f0c8 e4bb
000000f0: bd6d 27bc aa21 59bb d9e4 6bbc a2c7 7c3d
00000100: 0b69 eebb b858 75bb d408 a73b b8e2 c43c
00000110: d229 47bb 9135 3e3d 8e1b 4f3d d166 743d
00000120: 7c77 c7bb 044d 433d 4280 373b f403 1d3c
00000130: 8fcd ef39 1a44 df3c 67f6 83bd a420 48bd
00000140: c713 2c3d 61e4 c3bb 1388 a5bc ca99 f6bc
00000150: f21d f1bc 08c0 e9b8 63a9 83bd 33a8 bd3c
00000160: c445 63bd 852b 78bc 0df1 923d ad13 febc
00000170: 9398 c9bb 4a7e 9dbb 0366 12ba 1c52 0fbd
00000180: 504c 9e3d 67af 6bbd d1be 59bd 835c 28bd
00000190: f75a 573c cd36 76bd 7d24 013d f77e 60bc
000001a0: fc81 bd3d 741d ecbc c1c1 f33a 1f8e f1bc
000001b0: 830a c03c 11b0 173b 2733 98bc c990 f1bb
000001c0: ee82 6fbc 916f 923d 6081 8abd d04f 1abc
000001d0: 5cbc 30bd fb31 7c3b 734e e0bc b39e 023d
000001e0: bc69 2fbc f416 bf3b a698 4a3d f966 f5ba
000001f0: 21a7 563d bd3e 3fbd e5ad 53bd dd7c 44bd
00000200: 94b0 71bd 0c26 f7bb 6515 833a 13e9 44bb
00000210: f8a1 7b3d 5a3a b1bd adc6 263c be4c 823c
00000220: 8036 cb3c 37e7 aabc f124 203d 7f92 b6bc
00000230: 5f5f 573c 184c 973c b4b6 49bc 37ad 313d
00000240: 7079 823d 77d1 98bd 895e 71bd 4ff0 43bd
00000250: ae49 373c e9d5 463c 8d0e 503c ee94 343d
00000260: 989f 333d 6b43 6bbd ef59 4bbc 08f2 f7bc
00000270: a982 79bd 51fe 88bd d4e2 7fbc 1cd5 43bd
00000280: 064a 9fbc ff61 c83c c236 a9bc 2067 4f3d
00000290: 183a f8bb 4578 86bc 656f 6bbd 2ef1 4a3d
000002a0: 9af1 713c cbc7 a8bc 57a3 85bc b424 dc3c
000002b0: 240f 0e3d 5575 19bc 66f3 473d b545 adbc
000002c0: 4d34 263d 4e40 573d e5b8 74bc 9e16 3c3d
000002d0: 492a 45bc b768 cebc ab1d 90bc 35c3 053d
000002e0: 4b34 35bd aa69 88bd 66a1 85bd b556 b53d
000002f0: 6f2a 003c 06df e53b 7233 bbbd a476 d4bc
00000300: 0196 1d3d df7f 22bc 3694 2f3d 8da3 02bd
00000310: ec0b 0bbd e4ce eebc e38e 36bd a9a7 92bd
00000320: ce34 c1bc c336 883d 48e7 6ebb 1fcd 0f3d
00000330: c176 84bb bdca 05bd d235 163c 38be 41bb
00000340: b35c c2bc ab1f 73bd 23ac 0a3c 7cd3 563b
00000350: 0c92 92bd 7b0e 93bc 46be f33c 66b4 3fbd
00000360: 499c 923d e4ea 963d a7b2 bc3c 2c11 8bbd
00000370: fbdf e03c 52a5 40bd 4dc0 9cbc ef17 37bd
00000380: 838b 5f3c 42a0 8b3d 5f41 55bd f6ef eebc
00000390: c7a8 8939 209f b8bc 6fd6 98bd fee9 fabc
000003a0: fb0b 003d 038c 3ebc 79b4 d5bc fe83 583d
000003b0: bd0b d93d 1400 073d 9ce0 ccbc 5bf2 4038
000003c0: 6435 39bc a50d 253d ee2b 633d 8f37 82bc
000003d0: 34e8 343c fa15 25bc 8cb9 8fbc 5369 6dbb
000003e0: 5d31 adbc 3a45 8539 c714 f7bc 03ec 593c
000003f0: faeb 7a3b 3c8c 023d 9779 2cbd 87ee 8dbd

l1/W f4 [256, 16]
0.18762521 -0.40510824 0.21745846 0.31295645 -0.4222352 -0.29865015 0.192786 0.48760825
-0.2178816 -0.53231925 0.550665 -0.24376187 0.018308368 -0.20218498 0.53978705 -0.042825375
0.43406728 -0.48744905 0.05952004 -0.41385177 -0.04625226 -0.4704262 -0.20882973 0.13725248
0.41606602 -0.50439954 0.49792716 0.057341147 0.8339727 0.28992093 0.20634235 -0.0738896
-0.2913448 -0.31932256 -0.42802605 0.1644784 -0.067266665 -0.032867275 -0.14102076 0.27790567
-0.36513296 0.030516999 -0.36886412 0.04425465 -0.06584189 0.07912554 -0.138201 0.80070364
0.14248051 -0.60944176 -0.21733558 0.047561634 -0.112056814 -0.46184283 0.65908766 -0.44483584
0.75292283 0.76912564 0.2375626 -0.64654315 -0.3000335 -0.49112877 0.15206088 0.6559877
-0.033123393 0.13546875 -0.35164756 -0.2228564 -0.0836895 -0.20482153 0.38031736 0.85220224
-0.031264454 -0.110028625 0.2292757 -0.9815565 0.027407944 0.40404713 -0.42736036 -0.33754846
0.43576032 -0.4078495 -0.3059265 0.12910607 -0.1448589 -0.6970441 0.49399 0.5116516
-0.52946055 0.45792186 -0.33066693 0.24547511 0.38221678 -0.5119701 0.10547781 0.4964193
-0.013289011 -0.021047149 0.091496386 0.7032852 -0.7997238 0.2033691 0.6805951 0.04243223
0.07453709 -0.16162328 -0.031023806 -0.078821994 0.09077043 -0.42276126 0.22959843 0.18613765
0.4910663 0.061041385 0.26828012 0.11573549 -0.16390632 -0.36236095 -0.9689573 -0.4596912
-0.14505903 0.04729052 0.16234785 0.11853864 0.10729323 0.5272585 0.13480733 0.15324731
-0.4359556 -0.38699856 0.060399406 0.60954726 0.06428889 -0.20069046 0.4285921 -0.26095614
-0.36528507 0.5710106 -0.225984 0.273992 -0.90689385 -0.033247203 0.18321402 -0.09574253
0.18021002 0.048293456 -0.46958753 0.038257338 0.51520497 0.22147605 0.29993403 -0.2158305
0.09518552 -0.26988477 -0.44844466 -0.26649383 0.6861198 0.588185 -0.019520696 0.038476568
0.590015 0.06268972 -0.031794116 -0.4054585 0.104148276 -0.13931209 -0.13543162 0.013403441
-0.8241708 -0.07777114 0.20236434 -0.44246086 0.7149498 -0.10763334 0.03856836 -0.16343291
-0.47103572 -0.8300287 0.33980915 -0.3477346 0.7087922 -0.21567854 0.11015267 0.8532277
0.015574363 0.36361885 -0.17913981 0.13890599 -0.4653327 -0.3224786 -0.5803019 -0.079826914
0.09152258 0.26365474 0.11120578 0.124337725 -0.0806618 -0.2100153 -0.045771077 -0.05275995
-0.0125382 -0.25597346 0.063208595 -0.13974541 0.04381244 -0.009224129 -0.20697272 0.484979
-0.03410785 -0.0473699 -0.5704001 -0.18119024 -0.38476926 0.035693463 -0.62883425 0.067609265
-0.18074517 -0.63115 0.26474628 -0.1962347 -0.68779653 0.40927553 0.5907035 0.016310599
-0.78430325 -0.39252 0.12340277 -0.20346428 0.037284292 0.45586365 0.19027169 0.017271629
0.43504986 0.3602744 0.2995054 0.18767291 -0.73741853 0.22750118 0.1861251 -0.48621827
-0.09875009 -0.082695104 0.56650853 0.26146477 0.035758294 -1.2144225 -0.109927975 -0.51042485
0.413766 0.017989034 0.5090652 0.3817911 -0.21809445 -0.28896546 0.3357284 0.28371462
00000000: d320 403e 596a cfbe 6ead 5e3e d43b a03e
00000010: 362f d8be ace8 98be b169 453e caa7 f93e
00000020: 5b1c 5fbe 1346 08bf 62f8 0c3f b69c 79be
00000030: 6efb 953c 9409 4fbe 7c2f 0a3f a969 2fbd
00000040: 113e de3e ec92 f9be 49cb 733d 61e4 d3be
00000050: 0373 3dbd b4db f0be 76d7 55be ea8b 0c3e
00000060: 9b06 d53e 5420 01bf 4ff0 fe3e 8dde 6a3d
00000070: 3c7f 553f 8470 943e 694b 533e 6e53 97bd
00000080: 252b 95be 3f7e a3be 3b26 dbbe 076d 283e
00000090: 1bc3 89bd d69f 06bd bf67 10be a749 8e3e
000000a0: b5f2 babe c9fe f93c c2db bcbe 5d44 353d
000000b0: 1dd8 86bd 920c a23d 9084 0dbe eafa 4c3f
000000c0: 69e6 113e 6004 1cbf 388d 5ebe fdcf 423d
000000d0: 0b7e e5bd aa76 ecbe f8b9 283f 86c1 e3be
000000e0: 8dbf 403f 6be5 443f 9c43 733e da83 25bf
000000f0: fe9d 99be 3b75 fbbe d9b5 1b3e cfee 273f
00000100: 65ac 07bd 52b8 0a3e 260b b4be 7834 64be
00000110: 6765 abbd bcbc 51be f5b8 c23e ed29 5a3f
00000120: 280f 00bd b056 e1bd 40c7 6a3e 4947 7bbf
00000130: a086 e03c 44df ce3e face dabe 27d3 acbe
00000140: fa1b df3e a6d1 d0be 66a2 9cbe 6234 043e
00000150: e455 14be 7b71 32bf 42ec fc3e 99fb 023f
00000160: ba8a 07bf bc74 ea3e 2d4d a9be d45d 7b3e
00000170: ebb1 c33e 7910 03bf c004 d83d ac2a fe3e
00000180: 27ba 59bc 126b acbc 7562 bb3d 800a 343f
00000190: b3ba 4cbf fd3f 503e 7b3b 2e3f 6bcd 2d3d
000001a0: e7a6 983d 9380 25be a325 febc 6d6d a1bd
000001b0: d9e5 b93d 2a74 d8be da1b 6b3e de9a 3e3e
000001c0: 0b6d fb3e 8806 7a3d 035c 893e bb06 ed3d
000001d0: 0fd7 27be 6087 b9be 960d 78bf a55c ebbe
000001e0: 5b8a 14be b4b3 413d 843e 263e 63c4 f23d
000001f0: 8ebc db3d 6afa 063f ef0a 0a3e ddec 1c3e
00000200: 9335 dfbe ad24 c6be 5e65 773d 4a0b 1c3f
00000210: e5a9 833d cd81 4dbe 6c70 db3e 0b9c 85be
00000220: a506 bbbe c02d 123f 5a68 67be ae48 8c3e
00000230: 322a 68bf 382e 08bd 759c 3b3e a914 c4bd
00000240: fa88 383e 5ccf 453d c76d f0be bab3 1c3d
00000250: 79e4 033f 9eca 623e f490 993e ac02 5dbe
00000260: a0f0 c23d 562e 8abe 8a9a e5be e171 88be
00000270: 8ca5 2f3f 4b93 163f dee9 9fbc 9b99 1d3d
00000280: 390b 173f 7863 803d 8c3a 02bd 4298 cfbe
00000290: b14b d53d d4a7 0ebe 96ae 0abe 1b9a 5b3c
000002a0: dcfc 52bf 7a46 9fbd 9938 4f3e 3b8a e2be
000002b0: f306 373f de6e dcbd dbf9 1d3d f55a 27be
000002c0: 982b f1be c37c 54bf 77fb ad3e 450a b2be
000002d0: 6873 353f d6da 5cbe b997 e13d 216d 5a3f
000002e0: 9d2b 7f3c 402c ba3e 6d70 37be 5f3d 0e3e
000002f0: 1640 eebe ea1b a5be aa8e 14bf 4b7c a3bd
00000300: 3170 bb3d c1fd 863e dbbf e33d c7a4 fe3d
00000310: 0432 a5bd 400e 57be 747a 3bbd d11a 58bd
00000320: 066d 4dbc f40e 83be 8273 813d 6c19 0fbe
00000330: ac74 333d cd20 17bc a8f0 53be 2b4f f83e
00000340: acb4 0bbd f106 42bd be05 12bf ef89 39be
00000350: 7a00 c5be 4f33 123d 48fb 20bf ba76 8a3d
00000360: 4315 39be 0c93 21bf d38c 873e c0f1 48be
00000370: 6f13 30bf 908c d13e 5838 173f ce9d 853c
00000380: 19c8 48bf 62f8 c8be 97ba fc3d f158 50be
00000390: 6ab7 183d f666 e93e 95d6 423e 3b7d 8d3c
000003a0: dbbe de3e e375 b83e c658 993e 542d 403e
000003b0: 76c7 3cbf 12f6 683e 9497 3e3e 9af1 f8be
000003c0: 7d3d cabd 0d5c a9bd b406 113f b6de 853e
000003d0: 4a77 123d 3272 9bbf eb21 e1bd 34ab 02bf
000003e0: 23d9 d33e bd5d 933c 1952 023f 207a c33e
000003f0: 2754 5fbe 48f3 93be 98e4 ab3e 0b43 913e

l3/W f4 [256, 256]
0.012005297 -0.1840689 0.09456553 -0.05203945 -0.027784124 -0.17062807 -0.098717876 -0.066682376
0.018395752 -0.02516486 -0.10489016 -0.05985317 0.15285908 -0.10519181 0.19145069 0.12718633
-0.08698175 -0.007463752 -0.17210855 -0.0033792355 0.12686817 -0.04572066 0.19811258 0.02199221
0.10296803 -0.1526862 0.033786487 -0.01663624 0.11468955 -0.118568346 0.14226276 -0.08837805
0.11930647 -0.017548637 -0.0047870353 0.022582807 -0.026502987 0.047604013 0.15456916 0.04401855
-0.111403815 -0.09001494 -0.06605511 -0.029479066 0.0034418034 0.06256913 -0.11343357 -0.0030462714
-0.031397287 0.12878472 -0.097263776 0.027487285 0.07159389 -0.10931282 0.08565373 0.081720695
0.09313215 -0.13919625 -0.04183318 0.016100762 -0.15481569 -0.047814373 -0.13934946 0.09239296
0.016402759 -0.011726299 0.004147734 0.37297285 0.0025978494 -0.09981357 0.086928815 -0.07432696
0.025162198 0.07877816 0.035312265 0.117046915 0.020394288 0.014380803 -0.23220068 -0.12181856
-0.033380516 -0.19451818 -0.1301699 0.025404513 -0.013957265 0.06418782 -0.14984468 -0.09231132
0.08637017 0.08723939 -0.065526396 0.06210382 0.15587112 0.02310954 -0.036692988 0.032066096
0.16760635 -0.029955447 -0.15267266 0.050687317 0.17257576 -0.038487095 0.08748728 -0.06586218
0.14246817 -0.16295767 0.0924613 0.03891888 -0.1025028 -0.09287389 -0.085808255 -0.02251615
-0.016402721 -0.10646023 -0.0063640317 -0.05162445 -0.07486079 -0.097054206 -0.063962646 0.015327338
-0.12334151 -0.18399575 0.013005384 0.04599831 -0.05668565 -0.0864605 -0.15796243 -0.07163546
-0.032012988 -0.104317755 0.053904306 0.14603809 -0.08961882 -0.042274766 0.09892212 0.052456073
-0.12717661 0.059017625 0.17421518 0.040117882 -0.05140913 0.0067953663 0.06443889 -0.05628151
0.034171626 -0.058777664 -0.079584576 0.009239966 0.0032253307 -0.06798821 0.1656774 0.07390348
-0.1889999 -0.0132748205 -0.03986805 -0.111574054 -0.06976197 -0.114330776 0.004388845 0.029402357
0.05648817 0.08485822 -0.011499489 0.036213774 -0.037040576 -0.038283095 -0.11952693 0.040058464
-0.07598392 0.21283852 0.061770163 -0.007222666 -0.16289774 -0.051670846 0.06620183 0.01636891
0.039377343 0.053931694 -0.053401083 0.13989767 0.039123535 -0.013541734 -0.011331494 0.044637203
0.055417035 -0.1832853 0.024490707 0.08371238 -0.1137376 -0.12532517 0.07469681 0.1167815
0.025931802 -0.07340424 0.047447216 -0.04524893 -0.15205692 -0.3129902 0.0984728 0.078653336
-0.04512598 0.074292466 -0.046924885 -0.07410948 -0.0879032 -0.033391524 -0.1417828 -0.07370462
0.06278578 -0.19795252 -0.12787597 -0.046299413 -0.004911822 0.11312896 -0.1016669 -0.0012827732
0.13999192 0.0038956571 0.47524872 -0.004974358 -0.019616123 0.00490022 0.074947454 0.027244525
-0.06108697 -0.017880864 0.043840926 -0.0022022983 0.019822737 -0.12829238 -0.11871968 -0.046308544
0.15481457 -0.2844374 -0.08350555 -0.054184522 -0.060027894 -0.032097522 -0.07184288 0.14931132
0.12857778 -0.124243855 -0.10208324 -0.1550205 0.0095458925 -0.19058639 0.10357843 0.18950962
-0.1091055 -0.11539723 0.11993643 -0.01146914 0.26184818 0.03623882 0.12458442 0.032854132
00000000: ddb1 443c 8f7c 3cbe 93ab c13d 5127 55bd
00000010: 889b e3bc 20b9 2ebe 992c cabd c590 88bd
00000020: b0b2 963c 8926 cebc a7d0 d6bd 9928 75bd
00000030: 1787 1c3e ce6e d7bd a60b 443e 223d 023e
00000040: 7d23 b2bd 7d92 f4bb 393d 30be 2a76 5dbb
00000050: bbe9 013e 9645 3bbd 06de 4a3e 0229 b43c
00000060: e7e0 d23d c559 1cbe b363 0a3d b948 88bc
00000070: 5be2 ea3d f6d3 f2bd 54ad 113e 8dff b4bd
00000080: f356 f43d 29c2 8fbc 90dc 9cbb 94ff b83c
00000090: cb1c d9bc 6dfc 423d 6147 1e3e cc4c 343d
000000a0: af27 e4bd c159 b8bd e747 87bd 157e f1bc
000000b0: e18f 613b 3e24 803d dc4f e8bd f4a3 47bb
000000c0: 719a 00bd 24e0 033e 3b32 c7bd 042d e13c
000000d0: d19f 923d 66df dfbd 396b af3d 2e5d a73d
000000e0: 12bc be3d 7689 0ebe 4559 2bbd bfe5 833c
000000f0: 0188 1ebe 01d9 43bd a0b1 0ebe 8538 bd3d
00000100: 145f 863c aa1f 40bc b7e9 873b 4cf6 be3e
00000110: ae40 2a3b 0f6b ccbd bc07 b23d bc38 98bd
00000120: f420 ce3c 7256 a13d 98a3 103d 4bb6 ef3d
00000130: ec11 a73c 769d 6b3c 04c6 6dbe 027c f9bd
00000140: 02ba 08bd c62f 47be 424b 05be 201d d03c
00000150: 03ad 64bc e774 833d e270 19be b80d bdbd
00000160: d8e2 b03d 91aa b23d b432 86bd 9360 7e3d
00000170: ae9c 1f3e 3850 bd3c 634b 16bd bd57 033d
00000180: 00a1 2b3e 2065 f5bc 3956 1cbe 819d 4f3d
00000190: b3b7 303e a5a4 1dbd 882c b33d c0e2 86bd
000001a0: 2de3 113e 60de 26be 5a5c bd3d 6769 1f3d
000001b0: fdec d1bd ab34 bebd 3dbc afbd ca73 b8bc
000001c0: 005f 86bc d207 dabd 5e89 d0bb 2974 53bd
000001d0: 9d50 99bd 5bc4 c6bd d9fe 82bd 841f 7b3c
000001e0: 799a fcbd 6269 3cbe 8914 553c b968 3c3d
000001f0: 362f 68bd 3412 b1bd e7c0 21be 9db5 92bd
00000200: 0d20 03bd 8ca4 d5bd c3ca 5c3d 028b 153e
00000210: 128a b7bd 4e28 2dbd ae97 ca3d 2edc 563d
00000220: 963a 02be 77bc 713d 7765 323e a652 243d
00000230: 6192 52bd aaab de3b 89f8 833d 7187 66bd
00000240: 8cf7 0b3d d9c0 70bd 3dfd a2bd 3a63 173c
00000250: 1260 533b 673d 8bbd 56a7 293e b55a 973d
00000260: 3189 41be a27e 59bc ae4c 23bd f080 e4bd
00000270: 5ddf 8ebd 4126 eabd 4dd0 8f3b 36dd f03c
00000280: 2460 673d 25ca ad3d 5a68 3cbc e554 143d
00000290: dcb7 17bd bcce 1cbd 89ca f4bd 5814 243d
000002a0: 759d 9bbd 57f2 593e b602 7d3d 1dac ecbb
000002b0: aace 26be cfa4 53bd d394 873d 1818 863c
000002c0: 234a 213d 7be7 5c3d 18bb 5abd 5641 0f3e
000002d0: 0040 203d 26de 5dbc bba7 39bc 80d5 363d
000002e0: f9fc 623d 24af 3bbe bca0 c83c 6571 ab3d
000002f0: 42ef e8bd 3e55 00be a4fa 983d 242b ef3d
00000300: ee6e d43c f654 96bd 0358 423d f156 39bd
00000310: cfb4 1bbe 4040 a0be 1bac c93d 0015 a13d
00000320: 05d6 38bd a626 983d 4f34 40bd b6c6 97bd
00000330: 9806 b4bd 8dc5 08bd 832f 11be 73f2 96bd
00000340: d595 803d 11b4 4abe ebf1 02be 74a4 3dbd
00000350: 59f3 a0bb 28b0 e73d bc36 d0bd ba22 a8ba
00000360: 0b5a 0f3e 484e 7f3b cd53 f33e f0ff a2bb
00000370: feb1 a0bc 0692 a03b 0d7e 993d e92f df3c
00000380: 5536 7abd e47a 92bc 8b92 333d 6f54 10bb
00000390: 4b63 a23c 145f 03be 4e23 f3bd 07ae 3dbd
000003a0: b687 1e3e c7a1 91be f504 abbd 97f0 5dbd
000003b0: cfdf 75bd b178 03bd 5c22 93bd 11e5 183e
000003c0: e5a9 033e 9073 febd 0511 d1bd b2bd 1ebe
000003d0: 6066 1c3c 1429 43be ee20 d43d cf0e 423e
000003e0: b472 dfbd 6255 ecbd 3ba1 f53d 0fe9 3bbc
000003f0: f710 863e 286f 143d 1e26 ff3d 0e92 063d

l4/W f4 [16, 256]
0.08832041 0.13826892 0.1484499 0.0044068256 -0.267876 -0.27013862 -0.29754475 -0.37660336
-0.11550275 0.23114221 -0.1171377 0.0017561512 0.018676998 -0.31126627 0.1257416 0.13398753
0.08684317 -0.046163596 0.06287783 -0.3420348 0.29622367 -0.2809462 -0.07091116 0.02828348
-0.05552205 0.26196152 -0.01002955 0.30079508 -0.03898414 0.160007 0.09175143 -0.041001506
0.022676513 0.07509704 0.048404828 0.110419005 0.34444648 0.0982574 0.3517169 -0.22973421
0.34661943 0.19384937 -0.025104081 0.23367748 0.011753679 0.053902965 0.31731316 0.14764637
0.21464963 0.12445962 -0.00037078653 0.07969118 -0.017720092 0.22434531 -0.3548609 0.067180336
0.26259312 -0.14398879 -0.11729675 -0.36348584 -0.15278679 0.14716919 -0.051645532 -0.13412641
-0.1698159 0.013637947 -0.12649041 -0.21808527 0.049940363 0.25167844 0.08856091 0.22130655
-0.33888212 0.16318776 -0.33391184 -0.060482338 -0.122502446 0.021349376 -0.12326184 0.21838835
-0.13168152 -0.29410833 -0.011796738 -0.3173109 -0.19382931 -0.11382646 0.033028107 -0.15272269
-0.30353886 0.045212995 0.43236 -0.07984571 0.22810726 0.11550241 0.2612909 0.2733461
0.0492899 -0.13198169 -0.0045048674 -0.2034538 -0.036009047 -0.0028462356 -0.084880225 0.08968357
0.045597438 -0.08461293 0.018439326 0.105073236 0.046097964 0.1766102 -0.073988765 -0.20889229
-0.23837106 0.016250463 0.0714666 0.45059368 0.29299664 -0.009699576 -0.3044563 -0.21300705
-0.21722627 -0.20761089 0.23160832 0.122744724 0.071587846 0.18079071 -0.40626335 0.083202146
-0.024572942 0.17168851 0.13952577 0.11540466 0.12801304 0.12026779 0.15247834 -0.08895067
-0.005488106 -0.4569483 -0.012997118 -0.048840865 0.10653207 -0.42127168 -0.14457518 0.15444528
-0.020010153 -0.2973478 0.07497903 -0.05128147 0.14399718 0.10761945 -0.14093335 -0.2980551
0.14826335 -0.07140856 -0.036560215 -0.08627159 -0.16430731 0.01606266 0.33535963 0.1418343
-0.2009819 -0.24595232 0.14678961 0.114702046 -0.13758042 0.1706824 -0.0410198 0.22683476
-0.18126142 0.021441652 0.19501059 -0.26996982 0.059771575 -0.12771252 0.2362414 0.0033825827
0.08139047 0.15677942 0.1293965 -0.31108263 0.112709545 -0.21621394 -0.104416594 0.043050703
-0.008932692 -0.1986957 0.1881199 -0.2815955 -0.012986035 -0.4663153 0.24129666 0.0400051
-0.4613906 0.05108364 0.07004317 -0.19053411 0.004400253 0.09629311 0.015182538 -0.29460496
-0.0032419825 0.20729241 -0.23596954 -0.07360764 -0.23033002 0.12899186 0.29218745 -0.15423973
-0.1123436 -0.13089325 -0.0063436427 -0.12128598 -0.2948293 -0.027703423 -0.2539503 0.10550516
0.051543128 -0.08994549 0.22561511 -0.18057512 0.1717976 0.17032413 0.16733512 0.09582462
0.09174595 -0.2668392 -0.12220967 -0.5045357 -0.10290535 0.07363731 0.04199525 0.054917764
0.051426034 -0.17111321 0.09325652 0.048355058 -0.056796234 -0.074496545 -0.395325 0.3379148
0.18803462 -0.1845099 0.17447567 0.3241009 0.041260783 -0.07433773 0.20445544 0.24095723
-0.18403615 -0.062050216 -0.15503462 0.12639071 0.005598732 0.20874959 -0.10538199 -0.048671547
00000000: 55e1 b43d 5e96 0d3e 4003 183e 2267 903b
00000010: 0b27 89be 9c4f 8abe c957 98be 28d2 c0be
00000020: b58c ecbd 8bb0 6c3e e4e5 efbd a82e e63a
00000030: 8100 993c 4b5e 9fbe 68c2 003e 0734 093e
00000040: d5da b13d 0a16 3dbd 17c6 803d 2f1f afbe
00000050: a1aa 973e 2ed8 8fbe df39 91bd c2b2 e73c
00000060: 176b 63bd d21f 863e fb52 24bc d001 9a3e
00000070: d5ad 1fbd e0d8 233e 2ce8 bb3d 32f1 27bd
00000080: 18c4 b93c 7acc 993d 2444 463d 5c23 e23d
00000090: 4a5b b03e 2d3b c93d 3d14 b43e 723f 6bbe
000000a0: 1a78 b13e 7380 463e 13a7 cdbc 2649 6f3e
000000b0: 8192 403c 5bc9 5c3d df76 a23e 9c30 173e
000000c0: 1dcd 5b3e afe4 fe3d 2066 c2b9 2135 a33d
000000d0: ba29 91bc c7ba 653e 54b0 b5be d895 893d
000000e0: 9b72 863e cc71 13be 4739 f0bd d11a babe
000000f0: 2474 1cbe 85b3 163e 448a 53bd 6f58 09be
00000100: 38e4 2dbe b271 5f3c b486 01be bf51 5fbe
00000110: 448e 4c3d ffdb 803e 6c5f b53d 2f9e 623e
00000120: f581 adbe b11a 273e 7ef6 aabe 54bc 77bd
00000130: 90e2 fabd e3e4 ae3c b470 fcbd 32a1 5f3e
00000140: 85d7 06be 5e95 96be 1b47 41bc 9376 a2be
00000150: 317b 46be d91d e9bd 7b48 073d 5663 1cbe
00000160: 7269 9bbe 4331 393d 4a5e dd3e 2686 a3bd
00000170: f394 693e 878c ec3d ecc7 853e 05f4 8b3e
00000180: 35e4 493d 3526 07be 919d 93bb 3156 50be
00000190: 397e 13bd e987 3abb afd5 adbd 05ac b73d
000001a0: 61c4 3a3d 8b49 adbd 120e 973c a330 d73d
000001b0: 38d1 3c3d 4ed9 343e 6c87 97bd dce7 55be
000001c0: 8b17 74be b11f 853c 155d 923d 37b4 e63e
000001d0: a803 963e f8ea 1ebc b2e1 9bbe 851e 5abe
000001e0: 9070 5ebe f397 54be bb2a 6d3e 9661 fb3d
000001f0: a69c 923d 3321 393e c001 d0be e365 aa3d
00000200: 324d c9bc 1dcf 2f3e d8df 0e3e 4759 ec3d
00000210: da15 033e f64e f63d 4823 1c3e c52b b6bd
00000220: 92d5 b3bb 21f5 e9be ddf1 54bc 5c0d 48bd
00000230: 7c2d da3d ecb0 d7be 840b 14be e726 1e3e
00000240: 55ec a3bc f93d 98be 9b8e 993d 850c 52bd
00000250: ff73 133e 9667 dc3d d550 10be ae9a 98be
00000260: 59d2 173e a73e 92bd 2ac0 15bd 29af b0bd
00000270: 2d40 28be d795 833c 42b4 ab3e 033d 113e
00000280: 33ce 4dbe edda 7bbe 0450 163e e8e8 ea3d
00000290: e2e1 0cbe 5ec7 2e3e 6104 28bd 5f47 683e
000002a0: 989c 39be 67a6 af3c dbb0 473e 7c39 8abe
000002b0: 0ad3 743d 12c7 02be 44e9 713e 52ae 5d3b
000002c0: 0cb0 a63d c98a 203e 8480 043e 3946 9fbe
000002d0: 43d4 e63d 3067 5dbe 5ed8 d5bd ef55 303d
000002e0: 6d5a 12bc e376 4bbe 81a2 403e 492d 90be
000002f0: 61c3 54bc e1c0 eebe 7916 773e 63dc 233d
00000300: 643b ecbe 143d 513d cb72 8f3d 601b 43be
00000310: ff2f 903b 5235 c53d 2ec0 783c 76d6 96be
00000320: 7177 54bb 7644 543e 00a2 71be 9abf 96bd
00000330: a2db 6bbe 7116 043e 9899 953e 05f1 1dbe
00000340: 6714 e6bd e108 06be 55de cfbb c964 f8bd
00000350: def3 96be 4af2 e2bc c605 82be 1713 d83d
00000360: e31e 533d 5735 b8bd a607 673e afe8 38be
00000370: b6eb 2f3e 7369 2e3e e659 2b3e b33f c43d
00000380: 4de5 bb3d 269f 88be 1049 fabd 4029 01bf
00000390: 0ac0 d2bd 28cf 963d 3603 2c3d 73f1 603d
000003a0: 1ba4 523d 4d38 2fbe 46fd be3d f40f 463d
000003b0: 2ba3 68bd a591 98bd 0a68 cabe 2b03 ad3e
000003c0: 268c 403e 2af0 3cbe c0a9 323e 8ef0 a53e
000003d0: 1101 293d 613e 98bd c45c 513e 7ebd 763e
000003e0: f973 3cbe 5e28 7ebd 65c1 1ebe 916c 013e
000003f0: 9175 b73b 74c2 553e 83d2 d7bd d15b 47bd

l2/W f4 [256, 256]
-0.027989725 -0.12574294 -0.052735426 0.17005196 -0.00020617421 -0.022642782 0.051914345 -0.018058091
0.09556485 -0.20425235 -0.04512435 0.07315906 -0.058860444 0.13947138 -0.06387378 0.110790946
0.19570312 0.14836562 -0.12837481 -0.043968424 0.031880226 0.086828895 -0.29580563 0.035808843
0.14247233 -0.09537506 -0.031654123 -0.13527395 0.10511926 -0.003421182 0.057394166 -0.14277586
-0.122077085 -0.00031685174 -0.06137921 -0.07294289 -0.023153909 -0.032717098 -0.066345945 -0.10199001
-0.009688912 0.13251024 -0.0030198642 -0.09904308 0.13256167 -0.0071223555 0.08565783 0.00037726434
-0.00653423 0.047250047 -0.0980474 0.077615276 0.15074843 0.011207557 0.12085619 0.059234723
-0.056738794 0.11486184 -0.070204064 -0.1050211 -0.016281638 0.024374815 -0.009976976 0.06058165
0.05594452 -0.07832933 0.27046618 0.05748304 0.048193447 -0.13555084 -0.10597727 0.18410955
-0.048561092 -0.14290737 0.25771004 -0.010672147 0.039769914 -0.019928336 0.18707353 -0.0114569
-0.014954588 -0.023032939 -0.037124302 -0.08341304 -0.032958474 0.07199525 0.026696399 0.1459416
-0.033258777 0.13069062 -0.28232068 0.014762775 0.03553327 -0.053527817 -0.1747592 -0.17345683
0.0050336984 -0.049548056 0.03101646 0.16087063 0.026876023 -0.30155173 0.06700012 -0.14170867
-0.011385332 0.03974598 0.15186332 0.032051843 0.14239186 0.08226527 0.021014774 -0.14966758
0.05308537 0.11867073 0.05467474 0.17023735 0.13210872 0.0143396 -0.059698462 -0.12429431
0.088733226 0.06695515 -0.10886134 0.020050945 -0.06830168 -0.16885526 0.03885242 0.21578716
-0.09347911 -0.0037075034 -0.05389751 0.08721588 -0.27474308 0.05239921 -0.017016191 -0.08233022
0.12983268 -0.027696548 0.12971361 -0.001820258 0.101467416 0.17322858 0.1610267 -0.16905682
-0.13862471 -0.02538373 -0.09346906 0.014721728 -0.05351557 -0.12187567 0.00019779014 -0.14874288
0.015117818 -0.022816222 0.15350391 0.040749144 -0.09155036 0.0317017 -0.022464054 -0.0579122
-0.18693194 0.1054496 -0.017304342 -0.11540533 0.0020666213 0.013879887 -0.023152672 -0.07054052
-0.15899348 0.17502603 -0.047967955 -0.06881325 -0.06450175 -0.06299909 0.051287517 -0.23075458
0.001713529 -0.015766552 0.021771714 -0.010031131 0.18130495 0.03626464 0.24389791 -0.15659636
-0.13616829 0.025044931 -0.026519777 0.0012868249 0.043656245 0.16901408 -0.0082024345 -0.010702373
-0.03430937 0.0031670805 0.078753695 -0.25224 -0.08273939 0.05871409 -0.06240795 -0.0498042
-0.027723007 0.119873874 0.12839316 0.22300655 0.014525498 0.11297923 -0.13396847 -0.0009342951
-0.11130447 -0.10825461 0.19179133 0.06522851 -0.016531292 0.042424776 -0.13313632 -0.18828759
-0.033661723 0.15214773 0.01833193 -0.07753568 -0.055034418 0.13600804 0.040145658 0.0789713
-0.20912853 0.10258519 0.01922102 -0.050071776 -0.1440633 -0.22548574 0.06492534 -0.058745157
0.036011867 0.096566364 0.20998675 0.040557012 -0.07090022 -0.12490525 -0.0074923527 0.04867523
-0.085318826 -0.051590808 -0.030882265 0.14204037 0.018440383 0.0052816276 0.08378513 -0.103229605
0.12608033 -0.13082348 -0.14471942 -0.08591729 0.015534138 -0.14041258 -0.15244146 0.057291813
00000000: b54a e5bc c2c2 00be 1a01 58bd 1a22 2e3e
00000010: 7830 58b9 5b7d b9bc 23a4 543d 90ee 93bc
00000020: 81b7 c33d 8727 51be 4fd4 38bd 6bd4 953d
00000030: a617 71bd 96d1 0e3e 42d0 82bd 5de6 e23d
00000040: 6666 483e 28ed 173e b074 03be 3c18 34bd
00000050: d794 023d 59d3 b13d d673 97be 4bac 123d
00000060: 44e4 113e 0054 c3bd c1a7 01bd 4185 0abe
00000070: c448 d73d e935 60bb 2516 6b3d d633 12be
00000080: 8d03 fabd 1f1f a6b9 c468 7bbd 1563 95bd
00000090: 44ad bdbc 5d02 06bd 62e0 87bd 23e0 d0bd
000000a0: 3ebe 1ebc c4b0 073e eae8 45bb 19d7 cabd
000000b0: 3fbe 073e a662 e9bb 5f6d af3d 90cb c539
000000c0: 181d d6bb 4489 413d 13cd c8bd c2f4 9e3d
000000d0: cc5d 1a3e e79f 373c 7383 f73d 1ca0 723d
000000e0: f066 68bd af3c eb3d 26c7 8fbd 4d15 d7bd
000000f0: 1261 85bc b1ad c73c 7876 23bc 7724 783d
00000100: 1526 653d 216b a0bd 8b7a 8a3e 5673 6b3d
00000110: 7e66 453d d7cd 0abe 9c0a d9bd 3787 3c3e
00000120: ffe7 46bd 4f56 12be 92f2 833e 3bda 2ebc
00000130: c7e5 223d c040 a3bc 3490 3f3e b9b5 3bbc
00000140: 1704 75bc 93af bcbc a70f 18bd 75d4 aabd
00000150: 77ff 06bd 3f72 933d 68b2 da3c b771 153e
00000160: 5b3a 08bd c3d3 053e 568c 90be 91df 713c
00000170: 568b 113d fc3f 5bbd 13f4 32be ab9e 31be
00000180: b9f1 a43b e7f2 4abd 3b16 fe3c 45bb 243e
00000190: 1b2b dc3c fd64 9abe 5c37 893d 141c 11be
000001a0: 8b89 3abc aecc 223d 0f82 1b3e cb48 033d
000001b0: 2ccf 113e b27a a83d 2d27 ac3c 7542 19be
000001c0: 0c70 593d a409 f33d 9ff2 5f3d b352 2e3e
000001d0: 8247 073e a4f0 6a3c 6086 74bd 048e febd
000001e0: c4b9 b53d c81f 893d b2f2 debd e141 a43c
000001f0: c0e1 8bbd 65e8 2cbe b723 1f3d 4ff7 5c3e
00000200: fa71 bfbd 96f9 72bb a3c3 5cbd 3d9e b23d
00000210: 20ab 8cbe 8ea0 563d 8a65 8bbc bf9c a8bd
00000220: dcf2 043e dfe3 e2bc a5d3 043e b995 eeba
00000230: 26ce cf3d d562 313e 2fe4 243e 3b1d 2dbe
00000240: a3f3 0dbe 8af1 cfbc b56c bfbd 6733 713c
00000250: 2433 5bbd f499 f9bd e365 4f39 0e50 18be
00000260: b9b0 773c 16e9 babc 2130 1d3e 93e8 263d
00000270: c17e bbbd a4d9 013d 8906 b8bc 5835 6dbd
00000280: 166b 3fbe f6f5 d73d d6c1 8dbc a159 ecbd
00000290: 2770 073b 7768 633c acaa bdbc 8c77 90bd
000002a0: 30cf 22be 063a 333e 0c7a 44bd f6ed 8cbd
000002b0: 7e19 84bd ab05 81bd dc12 523d ee4a 6cbe
000002c0: 7e98 e03a db28 81bc 985a b23c 9d59 24bc
000002d0: 01a8 393e 3b8a 143d 60c0 793e cc5a 20be
000002e0: b36f 0bbe 072b cd3c 0140 d9bc aeaa a83a
000002f0: e4d0 323d 0712 2d3e 8163 06bc 0259 2fbc
00000300: fb87 0cbd cb8e 4f3b 9e49 a13d 9a25 81be
00000310: 4573 a9bd 307e 703d 7b9f 7fbd 7dff 4bbd
00000320: 5c1b e3bc 6f80 f53d 7f79 033e d45b 643e
00000330: 5bfc 6d3c a861 e73d 082f 09be 7ceb 74ba
00000340: 99f3 e3bd 98b4 ddbd f264 443e 8696 853d
00000350: a26c 87bc 9ac5 2d3d e354 08be 76ce 40be
00000360: e0e0 09bd 9dcc 1b3e d82c 963c 07cb 9ebd
00000370: c56b 61bd b145 0b3e c66f 243d b4bb a13d
00000380: ca25 56be 2f18 d23d 6775 9d3c 1018 4dbd
00000390: 5485 13be bce5 66be 94f7 843d c39e 70bd
000003a0: 2e81 133d 96c4 c53d c406 573e 1c1f 263d
000003b0: 2234 91bd 53ce ffbd 6982 f5bb ae5f 473d
000003c0: a3bb aebd e250 53bd cefc fcbc 0873 113e
000003d0: 4910 973c 8111 ad3b 8a97 ab3d 0b6a d3bd
000003e0: 341b 013e 97f6 05be 5431 14be 67f5 afbd
000003f0: e682 7e3c 51c8 0fbe 9d19 1cbe d2aa 6a3d

l1/b f4 [256]
-0.0561689 -0.11609086 0.024544913 -0.06633439 0.027005162 0.015817076 -0.116415225 0.008910162
0.0011294133 -0.18015715 0.20195334 0.151134 -0.14934005 0.014657519 -0.17582707 -0.013053209
-0.04776212 0.07054955 0.0041604764 -0.022588644 -0.35516205 0.08583586 -0.09111898 -0.093177855
-0.08812444 0.0450125 0.041451037 0.07901899 0.0 -0.008821963 0.034779012 -0.0058499877
-0.21058448 0.05915738 -0.19106345 -0.0053664437 -0.033706382 0.020170983 0.052673753 -0.0067418125
0.059525102 0.009570999 -0.2475963 -0.10535563 0.06878167 -0.10399632 0.046821013 0.0012895308
0.022584002 0.087868825 -0.0007194574 0.07848489 -0.38851196 0.059451453 -0.08652464 0.011823697
-0.14920501 0.053857915 0.0002297357 -0.05903595 -0.11062922 0.068694174 0.0681642 0.04026782
0.031376164 0.013195925 -0.0039767013 0.0038650408 -0.03934564 0.032459736 0.025995143 -0.08931652
-0.033489004 0.08640629 -0.07321852 0.04512597 -0.081400186 -0.044000596 -0.026506629 -0.11868887
0.089464605 0.0758695 -0.2505619 0.031498063 0.029519744 0.09592572 -0.051738206 0.036361184
-0.08407126 -0.23552822 -0.27017492 0.07496831 -0.05553851 0.09062621 -0.04535269 -0.0075114053
-0.17429745 -0.047595322 0.011132366 0.05219803 0.05225034 0.011591658 0.031027216 0.08257471
-0.06384724 0.01670446 0.12521777 0.042026088 0.0690322 -0.02351831 -0.010362393 -0.11591337
0.10087923 0.041326236 -0.28917828 -0.0021785123 0.11394337 -0.03864232 0.0056874244 -0.2079113
-0.009239352 0.09534883 0.042956658 0.043232806 -0.0148654925 -0.034171384 0.07358518 0.12137941
0.042067107 0.053019054 -0.116440356 0.10938086 -0.23755307 0.054806285 0.035746373 -0.15171911
-0.00042131322 -0.024397839 -0.09083489 0.048353404 0.026322288 0.08155801 0.07414599 0.078442864
0.0015713905 0.06977567 0.059316576 -0.19999327 0.06341128 0.097189814 -0.13057712 -0.105273575
0.017762577 -0.31704473 0.073619634 -0.03391894 0.14302257 -0.095002405 0.1336024 0.038206216
-0.0052669034 0.044946395 0.07642605 -0.027900023 -0.061622392 -0.22574455 0.08503064 0.110700086
-0.052905668 -0.05318859 0.08578635 -0.16307762 0.023619404 0.025474064 0.012813123 -0.18016441
-0.3080025 0.03805932 0.06487931 -0.07962821 0.13834058 -0.21035813 -0.21880056 -0.05653647
-0.069316834 -0.24480128 -0.16685687 0.00920799 -0.0021460734 0.057321686 0.067235574 -0.25763386
0.017918767 -0.0022198535 -0.00069965154 0.04317145 0.19114526 -0.084666304 -0.024570461 0.092396215
-0.15537156 0.07360187 0.060519718 0.056714248 0.09230757 0.146775 0.023174828 0.11176534
-0.0012598069 0.08974021 -0.18338317 0.0834539 0.08933525 0.03653029 -0.2604365 0.08144638
-0.05916168 -0.0010396886 0.07300145 -0.012353969 -0.2823396 0.03411014 0.060199156 0.0665159
0.08350226 0.009421505 -0.13425985 -0.0088290265 -0.0819262 0.050845962 0.11988267 0.039131064
-0.05947512 -0.19645226 0.026353665 0.0053969403 -0.07047806 0.033397462 -0.08092611 -0.013302376
0.08252593 -0.19176514 -0.00011855177 0.069633596 -0.08827534 0.049631573 -0.14243616 -0.03616966
0.04346268 0.07873934 -0.050668415 -3.1487498e-06 -0.30277878 -0.2767471 -0.08569022 -0.16431852
00000000: 5c11 66bd 0bc1 edbd 6a12 c93c 53da 87bd
00000010: ee39 dd3c d092 813c 1b6b eebd eefb 113c
00000020: d208 943a 1e7b 38be dbcc 4e3e dfc2 1a3e
00000030: 99ec 18be 1726 703c 030c 34be 20dd 55bc
00000040: 36a2 43bd 487c 903d 9b54 883b d20b b9bc
00000050: cdd7 b5be b6ca af3d 969c babd 08d4 bebd
00000060: 967a b4bd 075f 383d 90c8 293d b5d4 a13d
00000070: 0000 0000 ff89 10bc 7074 0e3d 41b1 bfbb
00000080: 75a3 57be 024f 723d 23a6 43be fed8 afbb
00000090: b40f 0abd 9e3d a53c 6fc0 573d 6cea dcbb
000000a0: 98d0 733d aecf 1c3c e289 7dbe b1c4 d7bd
000000b0: 67dd 8c3d 06fc d4bd 64c7 3f3d 7905 a93a
000000c0: 1602 b93c 92f4 b33d f899 3cba b0bc a03d
000000d0: 0aeb c6be 5e83 733d d533 b1bd 2eb8 413c
000000e0: 33c9 18be 1e9a 5c3d 35e5 7039 aecf 71bd
000000f0: 9391 e2bd 88af 8c3d ac99 8b3d dfef 243d
00000100: 4b84 003d b933 583c fd4e 82bb a04c 7d3b
00000110: e528 21bd 80f4 043d c4f3 d43c 94eb b6bd
00000120: c42b 09bd c8f5 b03d 97f3 95bd 02d6 383d
00000130: 24b5 a6bd f839 34bd 6e24 d9bc 2613 f3bd
00000140: 3839 b73d 7861 9b3d a649 80be 1d04 013d
00000150: 64d3 f13c b474 c43d 71eb 53bd 77ef 143d
00000160: 8e2d acbd 4f2e 71be 5e54 8abe fc88 993d
00000170: 597c 63bd 3c9a b93d bec3 39bd 3c22 f6bb
00000180: 087b 32be 50f3 42bd 8764 363c 9acd 553d
00000190: 7404 563d f0ea 3d3c ca2c fe3c ee1c a93d
000001a0: 57c2 82bd cbd7 883c 1639 003e 8c23 2c3d
000001b0: c160 8d3d 79a9 c0bc 07c7 29bc fd63 edbd
000001c0: c599 ce3d b345 293d 2d0f 94be 5fc5 0ebb
000001d0: 245b e93d 6947 1ebd 935d ba3b b3e6 54be
000001e0: a760 17bc 3f46 c33d 52f3 2f3d e214 313d
000001f0: 658e 73bc 4bf7 0bbd d4b3 963d c595 f83d
00000200: 8f4e 2c3d 822a 593d 4878 eebd 1303 e03d
00000210: 1d41 73be 8e7c 603d ca6a 123d 415c 1bbe
00000220: b4e3 dcb9 fadd c7bc a507 babd 380e 463d
00000230: d7a1 d73c e307 a73d dad9 973d a7a6 a03d
00000240: 1ef7 cd3a 8ce6 8e3d f0f5 723d 09cb 4cbe
00000250: c6dd 813d 740b c73d 02b6 05be ac99 d7bd
00000260: d382 913c b053 a2be e4c5 963d 96ee 0abd
00000270: 8274 123e 9f90 c2bd 11cf 083e 1f7e 1c3d
00000280: fd95 acbb b619 383d 4385 9c3d 978e e4bc
00000290: c367 7cbd 9429 67be 8b24 ae3d bab6 e23d
000002a0: 9db3 58bd 47dc 59bd c1b0 af3d d2fd 26be
000002b0: 7b7d c13c fcae d03c 22ee 513c 057d 38be
000002c0: 81b2 9dbe 17e4 1b3d 72df 843d 1d14 a3bd
000002d0: 27a9 0d3e 1f68 57be 410d 60be c992 67bd
000002e0: fcf5 8dbd 30ad 7abe 87dc 2abe 1cdd 163c
000002f0: 23a5 0cbb 25ca 6a3d ceb2 893d 96e8 83be
00000300: 61ca 923c f67a 11bb d268 37ba 8cd4 303d
00000310: 95bb 433e 8765 adbd fe47 c9bc 3a3a bd3d
00000320: b919 1fbe 94bc 963d 86e3 773d 334d 683d
00000330: c00b bd3d 304c 163e 23d9 bd3c 3ae5 e43d
00000340: 1b20 a5ba b7c9 b73d ccc8 3bbe e1e9 aa3d
00000350: 66f5 b63d c9a0 153d ef57 85be 5ccd a63d
00000360: 8553 72bd 2946 88ba c981 953d 4d68 4abc
00000370: d18e 90be 13b7 0b3d 6493 763d 7d39 883d
00000380: 3c03 ab3d a85c 1a3c 6a7b 09be 9fa7 10bc
00000390: ecc8 a7bd db43 503d 0c85 f53d e547 203d
000003a0: 2f9c 73bd c82a 49be a4e3 d73c d1d8 b03b
000003b0: cd56 90bd c7cb 083d 97bc a5bd 35f2 59bc
000003c0: 5b03 a93d 155e 44be ff9e f8b8 0f9c 8e3d
000003d0: b4c9 b4bd 7a4a 4b3d c9da 11be a326 14bd
000003e0: ec05 323d 1742 a13d af89 4fbd 1c4f 53b6
000003f0: d205 9bbe ccb1 8dbe 5b7e afbd 1d43 28be

l3/b f4 [256]
0.11317075 0.003763871 -0.015284304 -0.06201418 -0.05480516 0.02739278 -0.015345955 -0.03077189
-0.04523017 0.0036412142 -0.0052571897 -0.025484577 0.07508134 -0.0646572 0.032076355 0.049059708
-0.026207075 -0.076964304 0.015832514 0.041108582 0.03835919 -0.0668488 -0.040061954 -0.0060771527
0.04220014 0.040072408 0.05243088 -0.06586256 0.04060256 -0.020511273 0.049196716 -0.018288726
-0.006508997 -0.07272666 -0.06511401 0.01057472 -0.06837757 0.051371705 -0.006929682 -0.10048652
0.07092286 0.08652928 0.012221804 0.040644526 -0.03321547 -0.023574615 -0.03086685 -0.014396078
0.064859375 -0.06976463 -0.0038641014 0.06753594 -0.01592853 0.083242744 -0.008735016 0.013259558
0.004864945 0.015384282 0.017232036 -0.06814009 0.0154281715 0.039130446 -0.041420937 -0.06144101
-0.043745097 0.03231788 -0.05353717 -0.0378524 -0.029294178 0.09455785 0.06937863 -0.026133984
-0.04113366 -0.022979965 -0.06621485 0.027589276 -0.021971222 0.031102644 0.036506973 -0.007822315
0.044807207 -0.04254315 0.062424425 -0.0719911 0.0028588641 0.0385109 -0.013557627 0.013506342
-0.019487616 -0.045485858 -0.07586796 0.0035422237 0.08167064 -0.031728998 0.065565586 -0.026351213
-0.013780993 0.0145755485 0.011961093 -0.012967894 0.006355363 -0.024700407 -0.05968254 -0.034566157
-0.020400122 -0.04283501 -0.02986385 -0.0100593185 0.010704558 0.003388013 -0.022466928 0.03796924
-0.055428248 -0.03918841 -0.020873632 -0.028443785 -0.01503449 -0.038475376 -0.012890916 -0.009704503
-0.0073785703 -0.0011635241 0.06246808 -0.0104414085 0.021551857 0.023497635 -0.029597787 -0.03658013
-0.015892794 -0.006248897 0.051137213 0.054751888 -0.02354661 0.05120185 -0.06600117 0.07680128
0.0059268367 -0.017519316 0.059500933 0.035348035 0.013482881 -0.021956464 0.010470564 0.03665144
-0.010828153 -0.0003094973 0.0024224448 -0.042031955 -0.011533889 0.027825432 -0.0016025829 -0.010351013
0.01199082 0.033297013 0.0010798761 -0.0382697 -0.10429465 -0.011194677 0.029413495 -0.032872003
-0.024279717 -0.023603909 -0.02197533 -0.030358214 -0.0550153 -0.007963889 -0.017921366 0.007969456
0.037625972 -0.035320424 -0.008096691 -0.028952865 -0.034684755 -0.01046946 -0.05141643 -0.028779613
0.061130162 -0.008728775 -0.040339757 -0.014905357 -0.063391894 0.0014225135 -0.036636803 -0.0027790694
-0.04618531 -0.0001415968 -0.00085199194 -0.05772921 -0.019310072 -0.014530616 0.027149515 -0.028523546
0.044519886 0.05162903 0.0010640562 -0.022967847 -0.008360615 -0.035001244 -0.032005686 -0.02386622
-0.01682478 0.0022194132 -0.013470287 -0.016612994 0.016206404 0.069997154 -0.008602816 0.005806448
0.050684653 0.01772429 -0.016517282 -0.032903887 0.06006143 -0.027778994 -0.04215425 0.011812016
-0.042850208 0.022701308 -0.00990958 -0.07933487 0.0024879563 -0.027597947 -0.057130396 0.025116004
-0.016918346 -0.059837047 0.06601237 -0.056746148 -0.009570737 0.0153679075 -0.026196327 0.041617792
0.05277552 -0.08841869 0.042786382 0.052303683 -0.020166775 -0.027050698 -0.07514185 -0.032803908
-0.010409654 -0.0025967504 0.051668167 0.058852453 0.094325386 -0.07533585 0.03384902 0.030757079
-0.016132232 -0.0011873347 0.009454699 0.014398843 -0.004241751 0.052328613 -0.061925773 0.01839603
00000000: 11c6 e73d 47ab 763b 046b 7abc 9502 7ebd
00000010: 607b 60bd d366 e03c 9a6d 7bbc 5515 fcbc
00000020: 4543 39bd 70a1 6e3b 8144 acbb 08c5 d0bc
00000030: 3fc4 993d fe6a 84bd 7f62 033d d5f2 483d
00000040: 38b0 d6bc 769f 9dbd 30b3 813c 7961 283d
00000050: 871e 1d3d 06e8 88bd 0118 24bd da22 c7bb
00000060: 0eda 2c3d f722 243d c3c1 563d f3e2 86bd
00000070: df4e 263d 4207 a8bc 7f82 493d 3dd2 95bc
00000080: 6d49 d5bb b7f1 94bd 7e5a 85bd 9741 2d3c
00000090: 8a09 8cbd 236b 523d 6312 e3bb e0cb cdbd
000000a0: 0140 913d 4336 b13d f63d 483c e07a 263d
000000b0: f20c 08bd 8d1f c1bc 7adc fcbc 87dd 6bbc
000000c0: fed4 843d c2e0 8ebd dd3c 7dbb 4850 8a3d
000000d0: 8c7c 82bc 2c7b aa3d 501d 0fbc 9e3e 593c
000000e0: 1e6a 9f3b 5b0e 7c3c 332a 8d3c 088d 8bbd
000000f0: 71c6 7c3c 3f47 203d 00a9 29bd 92a9 7bbd
00000100: 0f2e 33bd c15f 043d cb49 5bbd 1e0b 1bbd
00000110: 58fa efbc 8ca7 c13d 6216 8e3d f016 d6bc
00000120: c57b 28bd 7b40 bcbc a79b 87bd e802 e23c
00000130: fefc b3bc f9ca fe3c 5688 153d 2b29 00bc
00000140: c387 373d ba41 2ebd c1b0 7f3d 1270 93bd
00000150: c85b 3b3b 9bbd 1d3d cf20 5ebc b449 5d3c
00000160: 7ea4 9fbc 614f 3abd a960 9bbd a724 683b
00000170: f042 a73d 44f6 01bd 4047 863d 80de d7bc
00000180: adc9 61bc 48ce 6e3c 76f8 433c 4a77 54bc
00000190: a640 d03b 8258 cabc ae75 74bd 3e95 0dbd
000001a0: 281e a7bc c373 2fbd 08a5 f4bc d7cf 24bc
000001b0: 2c62 2f3c 6d09 5e3b 900c b8bc a285 1b3d
000001c0: bb08 63bd 0784 20bd 2eff aabc f102 e9bc
000001d0: 3953 76bc 5b98 1dbd 6c34 53bc a3ff 1ebc
000001e0: efc7 f1bb 6481 98ba 88de 7f3d 7112 2bbc
000001f0: 858d b03c 1d7e c03c 0f77 f2bc 0cd5 15bd
00000200: 9b31 82bc 8cc3 ccbb 4175 513d 8443 603d
00000210: d2e4 c0bc 08b9 513d 9f2b 87bd fd49 9d3d
00000220: e935 c23b ab84 8fbc 40b7 733d 1ac9 103d
00000230: 4de7 5c3c 0bde b3bc ba8c 2b3c d21f 163d
00000240: 9168 31bc 0644 a2b9 e1c1 1e3b b329 2cbd
00000250: a3f8 3cbc 29f2 e33c c20d d2ba 4c97 29bc
00000260: 2575 443c 7362 083d a18a 8d3a b0c0 1cbd
00000270: 6f98 d5bd e169 37bc 92f4 f03c cba4 06bd
00000280: 42e6 c6bc fc5c c1bc 9b05 b4bc cab1 f8bc
00000290: b957 61bd f97a 02bc d4cf 92bc 5292 023c
000002a0: b11d 1a3d 26ac 10bd fca7 04bc 8f2e edbc
000002b0: 9a11 0ebd 1988 2bbc 099a 52bd 39c3 ebbc
000002c0: 9f63 7a3d 2303 0fbc 4d3b 25bd 9935 74bc
000002d0: 9cd3 81bd a273 ba3a 7910 16bd 0c21 36bb
000002e0: cf2c 3dbd 9a79 14b9 3658 5fba 7775 6cbd
000002f0: 2830 9ebc d211 6ebc a968 de3c 36aa e9bc
00000300: 7c5a 363d f678 533d cd77 8b3a 1127 bcbc
00000310: f6fa 08bc 775d 0fbd 6518 03bd 1783 c3bc
00000320: 1fd4 89bc 9373 113b 7bb2 5cbc f917 88bc
00000330: 4bc3 843c ab5a 8f3d d3f2 0cbc 0444 be3b
00000340: b69a 4f3d 8832 913c 404f 87bc 3ac6 06bd
00000350: f902 763d c690 e3bc efa9 2cbd 3087 413c
00000360: b383 2fbd 18f8 b93c cb5b 22bc 527a a2bd
00000370: fb0c 233b 1715 e2bc 9001 6abd 14c0 cd3c
00000380: 5898 8abc b117 75bd 7e31 873d a66e 68bd
00000390: 95ce 1cbc adc9 7b3c ae99 d6bc 6b77 2a3d
000003a0: 252b 583d dc14 b5bd c640 2f3d 633c 563d
000003b0: cb34 a5bc 6d99 ddbc f8e3 99bd 645d 06bd
000003c0: 418d 2abc 3e2e 2abb 00a2 533d 450f 713d
000003d0: ab2d c13d af49 9abd 45a5 0a3d 45f6 fb3c
000003e0: be27 84bc 57a0 9bba e2e7 1a3c 20e9 6b3c
000003f0: 63fe 8abb 8756 563d e1a5 7dbd 45b3 963c

l4/b f4 [16]
-0.07056276 -0.12064906 -0.0350609 -0.0060037803 -0.055369817 -0.12775102 -0.14933392 -0.071135394
-0.0609418 -0.13245419 -0.11855636 -0.056304455 -0.005014331 0.028025104 0.009961019 -0.04026479
00000000: 3583 90bd db16 f7bd 059c 0fbd 5cbb c4bb
00000010: 76cb 62bd 2ad1 02be feea 18be 6faf 91bd
00000020: 1c9e 79bd 12a2 07be adcd f2bd 809f 66bd
00000030: 424f a4bb e794 e53c 8b33 233c b1ec 24bd
