examples/ch4/reversi_DQN_CNN/agent_black_8000/model.npz (npz, 35976 bytes, 10 tensors)

c3/b f4 [16]
0	0xbec66cdf	-0.38754937
1	0xbe9408e1	-0.28913024
2	0x00000000	0.0
3	0x3f6a5832	0.91540825
4	0x3f108b31	0.5646239
5	0x3f3c3d9e	0.7353152
6	0x3e89708c	0.2684368
7	0x3d04b637	0.032400336
8	0x00000000	0.0
9	0xbabcabaa	-0.0014394422
10	0x3eb075a4	0.34464753
11	0xbdc0cbc3	-0.094138645
12	0xbe8ea552	-0.27860504
13	0xbd1152b2	-0.035479255
14	0x3e850e24	0.2598735
15	0xbcddb104	-0.027061947

c1/W f4 [4, 1, 2, 2]
0	0x3f8d4134	1.1035523
1	0xbf23b724	-0.63951325
2	0xbf804ac7	-1.002282
3	0x3e4e9051	0.2017224
4	0xbf4bd803	-0.7962648
5	0x3def0675	0.116711535
6	0xbec30bd4	-0.38094962
7	0x3f16a6b8	0.5884814
8	0x3f20d510	0.6282511
9	0x3e849a59	0.25899008
10	0x3e9839ae	0.29731506
11	0x3b682773	0.0035423904
12	0xbdfbc2ba	-0.122930005
13	0x3e884776	0.2661702
14	0x3e5a4889	0.21316732
15	0x3f4f6844	0.8101847

l5/W f4 [16, 256]
0	0xbf4fe4d4	-0.8120854
1	0x3ea3698b	0.3191646
2	0xbea4000a	-0.3203128
3	0xbe863ee5	-0.2621986
4	0xbd88c7a6	-0.06678705
5	0xbe6bea2a	-0.23038545
6	0x3e8d31a6	0.2757694
7	0xbf2c2ce6	-0.6725601
8	0x3dab66c1	0.08369208
9	0xbeaa27aa	-0.33233386
10	0x3e41ccb2	0.18925741
11	0xbbce8d64	-0.006303476
12	0x3eafb8a4	0.34320557
13	0xbd2c9e57	-0.042143192
14	0xbe05cb21	-0.13065769
15	0xbe3f59de	-0.18686625
16	0x3ee55fd7	0.44799682
17	0x3dc77ad3	0.09740224
18	0xbd4d683c	-0.050148234
19	0x3da47dae	0.08031784
20	0xbe9be85d	-0.30450717
21	0x3d5db62a	0.054128803
22	0xbdba878a	-0.09107883
23	0xbea5f837	-0.32415935
24	0x3d4bdbbf	0.049770113
25	0xbe56f6c4	-0.20992571
26	0x3e8f0d8b	0.2794002
27	0xbf05ea41	-0.5231057
28	0x3f7354ea	0.95051444
29	0x3ddcd83d	0.10783432
30	0x3d991488	0.07474619
31	0xbee4d7c3	-0.44695863
32	0x3e93df57	0.28881332
33	0x3df50041	0.11962939
34	0x3ebbda90	0.36690187
35	0x3d0102a5	0.031496663
36	0x3da6f6a3	0.08152511
37	0x3b87fe1c	0.0041501652
38	0xbe0d3e15	-0.13793214
39	0xbe13bab6	-0.14426693
40	0xbedfd9a1	-0.43720725
41	0xbe99b099	-0.30017546
42	0x3daee9a9	0.08540661
43	0x3e79c28c	0.2439062
44	0x3d801323	0.0625365
45	0x3db30f03	0.08743098
46	0xbe0635d7	-0.13106476
47	0x3f2f3bda	0.684507
48	0x3e01611d	0.12634702
49	0xbeae1bb5	-0.34005514
50	0xbefc4f6e	-0.4927935
51	0x3ad80097	0.0016479668
52	0xbedfac28	-0.43686032
53	0x3e4d3cc5	0.20042713
54	0x3e6b0baf	0.22953676
55	0xbe884771	-0.26617005
56	0xbd98db04	-0.07463649
57	0x3e7038d2	0.23459175
58	0xbdc6ea2a	-0.09712632
59	0x3d55c81a	0.052192785
60	0x3ed1a8c5	0.40949073
61	0x3d98fc96	0.07470052
62	0x3f144808	0.5792241
63	0x3ef71640	0.48259163
64	0xbd8c4d3d	-0.068506695
65	0xbd01eb82	-0.03171874
66	0xbf3a4d05	-0.7277377
67	0xbdb96d86	-0.09054093
68	0xbf5d99cd	-0.86562806
69	0x3eb66ca9	0.35629776
70	0xbdc5efc4	-0.09664872
71	0x3de0c5b4	0.10975209
72	0xbd4cae49	-0.0499709
73	0x3e9d5c9a	0.30734712
74	0x3d734924	0.059395924
75	0x3ee30faf	0.44347903
76	0x3e7c47a0	0.24636698
77	0xbd05ad85	-0.032636184
78	0xbdc3d135	-0.095613874
79	0x3bbf9868	0.0058470257
80	0x3ea17eac	0.31541955
81	0xbea520c3	-0.32251558
82	0xbe761cbe	-0.24034402
83	0x3f1f9b63	0.62346476
84	0xbe8f2d6d	-0.27964345
85	0x3e237b3b	0.15964977
86	0xbd463f3b	-0.048400145
87	0x3ead6760	0.3386793
88	0x3e74c0fc	0.23901743
89	0xbd82d475	-0.06388179
90	0xbd3fc08c	-0.046814486
91	0xbe5c2c66	-0.21501312
92	0xbcd57b92	-0.0260599
93	0xbe082beb	-0.13298003
94	0xbe925ad0	-0.2858491
95	0xbe033199	-0.12811889
96	0xbe12765f	-0.14302967
97	0x3e505833	0.20346145
98	0x3e50feec	0.20409745
99	0x3f4694d0	0.7757082
100	0xbd87eeb0	-0.06637323
101	0x3e4533bb	0.19258015
102	0x3b1ef31a	0.0024253787
103	0x3da4ea8f	0.08052551
104	0xbd1b0bd2	-0.03785307
105	0xbeda6d3c	-0.42661464
106	0x3e69ba38	0.22824943
107	0xbf0249f6	-0.50894105
108	0xbe96a07f	-0.29419324
109	0xbe37f633	-0.17965011
110	0xbddc68b7	-0.1076216
111	0x3f0497e3	0.5179426
112	0x3f2028b0	0.62562084
113	0x3ecea1e4	0.40357888
114	0xbeda94a7	-0.42691538
115	0xbe21f3eb	-0.15815704
116	0x3e4e4cfe	0.20146558
117	0xbdaf3d67	-0.085566334
118	0x3dca5b2e	0.098806724
119	0xbe444b2f	-0.19169305
120	0xbf100326	-0.56254804
121	0xbc65f293	-0.014034885
122	0x3d91fa6d	0.07127843
123	0x3ea40be6	0.32040328
124	0xbf099935	-0.537494
125	0xbeaf1d74	-0.34202158
126	0x3e366473	0.17811756
127	0x3f4cdc6c	0.8002384
128	0xbe94e99d	-0.29084483
129	0x3e9c0f87	0.30480596
130	0x3e63b4d5	0.2223695
131	0x3f3376ca	0.7010313
132	0x3ede2c4a	0.43393165
133	0x3db146a4	0.08656052
134	0x3e31ea2e	0.17374489
135	0xbe0a8c0d	-0.13529988
136	0xbdb50d97	-0.08840483
137	0xbe09ec73	-0.13469104
138	0x3e068bc4	0.13139254
139	0xbf1287d4	-0.5723851
140	0xbe68a7ad	-0.22720213
141	0xbe0757ab	-0.13217036
142	0xbec45193	-0.38343486
143	0xbe874802	-0.26422125
144	0xbe0073b5	-0.12544139
145	0x3e858ee8	0.2608559
146	0x3d6fa2b2	0.058504768
147	0xbf1cadae	-0.61202514
148	0x3f1d41a8	0.6142831
149	0x3e06363c	0.13106626
150	0xbe634840	-0.2219553
151	0x3d508b86	0.05091431
152	0xbec75abe	-0.38936418
153	0x3d6e357f	0.058156487
154	0x3f660596	0.89852273
155	0x3e1e68b9	0.15469636
156	0x3d4bb66b	0.049734514
157	0x3f287851	0.6580859
158	0x3d71947a	0.05897949
159	0x3e8b5ca9	0.27219132
160	0xbec9f639	-0.39445665
161	0xbcb846d5	-0.022494713
162	0xbe8e5864	-0.27801812
163	0x3edfc803	0.43707284
164	0x3cfd0978	0.030888304
165	0xbe5efdbb	-0.21776478
166	0xbd369faa	-0.04458586
167	0xbe7b4683	-0.24538617
168	0x3eaabb3a	0.33345968
169	0xbf34d0a8	-0.70630884
170	0xbe002151	-0.12512709
171	0x3e1dad75	0.153982
172	0xbdc32348	-0.09528214
173	0xbdf23049	-0.11825616
174	0x3d4bc73d	0.049750555
175	0x3d5f5f46	0.05453422
176	0xbec04523	-0.37552747
177	0x3c9a70f6	0.018852692
178	0xbf30a9d7	-0.69009155
179	0xbc9a3e96	-0.018828671
180	0x3e7bc9c7	0.2458869
181	0xbe9a64c3	-0.30155
182	0x3ec25f60	0.3796339
183	0xbf5ebf3a	-0.8701054
184	0x3b1c962d	0.0023893223
185	0x3f0b25d6	0.5435461
186	0xbbfa4c40	-0.0076384842
187	0xbd901f3f	-0.0703721
188	0xbed45529	-0.41471222
189	0x3f6be437	0.92145103
190	0x3eb198f2	0.34687
191	0x3ea88087	0.3291056
192	0xbf1f6c9b	-0.62275094
193	0x3ed3286b	0.41241774
194	0x3f1d7a99	0.61515194
195	0xbeb8bf49	-0.3608344
196	0x3dfb0c45	0.122581996
197	0xbf10ef3a	-0.5661503
198	0xbe19059c	-0.14943546
199	0xbef7ba94	-0.48384535
200	0xbe51bc26	-0.20481929
201	0x3e6e766f	0.23287366
202	0x3edb7360	0.42861462
203	0x3cea911e	0.02863365
204	0x3cfe539d	0.03104573
205	0xbeb12d09	-0.34604672
206	0x3e077faa	0.13232294
207	0xbdcf0048	-0.101074755
208	0xbf39635d	-0.7241724
209	0x3d5f53e7	0.054523375
210	0xbde21167	-0.110384755
211	0xbf53375f	-0.82506365
212	0xbec4596c	-0.38349473
213	0x3f086aac	0.5328777
214	0x3d7432ea	0.059618868
215	0x3f550b78	0.83220625
216	0x3e7c8c11	0.24662806
217	0xbe281293	-0.16413336
218	0xbeb97512	-0.3622213
219	0xbe2483db	-0.16065924
220	0x3ebbc8c7	0.36676618
221	0x3dbd84b6	0.09253828
222	0xbf19195b	-0.59804314
223	0xbf48b17a	-0.7839581
224	0x3c6ea678	0.014566056
225	0x3e84fa6c	0.25972307
226	0xbe9d987f	-0.30780408
227	0xbe55975d	-0.20858522
228	0x3ec3bfcb	0.38232264
229	0xbeeb10d6	-0.45911282
230	0x3e3b48a7	0.18289433
231	0xbe940cba	-0.2891596
232	0xbdb1681b	-0.08662435
233	0x3e10fba0	0.14158487
234	0x3dc2f5ec	0.09519562
235	0x3eee6c6e	0.465671
236	0x3e572c74	0.21013051
237	0xbf3e6f58	-0.7438865
238	0x3d8c5d2c	0.068537086
239	0x3f1cc577	0.6123881
240	0xbf15b78a	-0.58483183
241	0xbe386558	-0.1800741
242	0xbf7ab3d4	-0.97930646
243	0x3ce96357	0.028489752
244	0xbf05d729	-0.52281433
245	0xbe07acec	-0.13249558
246	0x3f324f4a	0.69652236
247	0xbdc727f0	-0.09724414
248	0x3ecf1ea3	0.4045306
249	0x3ed16447	0.40896818
250	0xbf65af63	-0.89720744
251	0xbe91edb0	-0.28501654
252	0x3eabcd6a	0.33555156
253	0xbea5b4c7	-0.32364485
254	0xbed28d84	-0.41123593
255	0x3eb63618	0.35588145

c2/W f4 [8, 4, 2, 2]
0	0xbe61f4e6	-0.22066078
1	0x3f365c05	0.7123416
2	0xbea7e96c	-0.32795274
3	0x3f2ac238	0.66702604
4	0xbee53c6c	-0.4477266
5	0x3b05532a	0.002034376
6	0x3ea60ce5	0.32431713
7	0xbd494701	-0.04913998
8	0x3f0dbd04	0.5536654
9	0xbe6c4116	-0.23071703
10	0xbe5b4fee	-0.2141721
11	0x3f08b124	0.53395295
12	0x3edf151b	0.4357079
13	0xbe507a14	-0.20359069
14	0x3d9f084a	0.07765253
15	0xbef52448	-0.47879243
16	0x3dd47d57	0.10375469
17	0x3e5b8ffa	0.21441641
18	0x3d45e1a9	0.04831091
19	0xbd0dd572	-0.034627385
20	0x3edad3bd	0.42739668
21	0xbe8f013e	-0.27930635
22	0x3f22848b	0.63483495
23	0x3f0d59c6	0.5521511
24	0xbec34044	-0.38134968
25	0x3e930ab2	0.28719097
26	0xbd42d417	-0.047565546
27	0x3ee4aef3	0.44664726
28	0x3ebc477a	0.36773282
29	0x3f42973a	0.76012003
30	0xbefdfaca	-0.496054
31	0x3dccb46d	0.09995351
32	0xbe2a3be2	-0.16624406
33	0xbf0a48bf	-0.5401725
34	0x3f445589	0.76693016
35	0x3e3b42ca	0.18287197
36	0x3e71df5f	0.23620366
37	0xbf289669	-0.6585451
38	0x3ef8bae6	0.48580092
39	0x3f4a8e39	0.79123265
40	0x3ec9516b	0.3931993
41	0x3eb047a9	0.34429672
42	0x3e57a897	0.21060406
43	0xbeccb3fe	-0.39981073
44	0xbc9b484b	-0.01895537
45	0x3f17a183	0.5923082
46	0xbd00f775	-0.031485993
47	0xbead41c0	-0.33839226
48	0xbf14dce6	-0.58149564
49	0xbd8a3e9d	-0.06750224
50	0x39aa9c7e	0.00032541523
51	0x3f07fc1f	0.5311908
52	0xbf3cfee6	-0.73826444
53	0x3e103787	0.14083682
54	0xbe766d02	-0.2406502
55	0xbf2fa4b9	-0.6861072
56	0x3e9b4979	0.30329493
57	0x3ea0a35b	0.3137463
58	0xbeed96ca	-0.46404105
59	0x3e2e6dcc	0.17034072
60	0xbeb406cb	-0.35161433
61	0x3e337900	0.17526627
62	0x3f02775f	0.50963396
63	0x3e8997b2	0.26873547
64	0xbed0e89d	-0.4080247
65	0xbd06a7b8	-0.032874793
66	0xbf5372f3	-0.82597274
67	0xbe701760	-0.23446417
68	0xbf016e04	-0.50558496
69	0x3f04a8a1	0.5181981
70	0xbf309b28	-0.6898675
71	0xbd87255f	-0.06598925
72	0x3f2926b4	0.6607468
73	0xbe7f56d7	-0.2493547
74	0x3eadfc01	0.33981326
75	0x3e9ebdb0	0.31004095
76	0x3e545921	0.20737125
77	0x3dc73029	0.09725983
78	0xbd686e4e	-0.05674582
79	0x3eb636ee	0.35588783
80	0xbe52f56f	-0.20601438
81	0x3f70d5aa	0.94076025
82	0xbfc88edf	-1.5668601
83	0xbe6af845	-0.2294627
84	0xbf24a5ef	-0.64315695
85	0xbf5cb324	-0.86210847
86	0xbea4dfe5	-0.32202068
87	0xbe4ed69a	-0.20199051
88	0x3ea67b4e	0.3251595
89	0xbde22fc1	-0.110442646
90	0x3ea61562	0.3243819
91	0xbec2a8f2	-0.3801952
92	0xbdb627fb	-0.088943444
93	0xbeb52c41	-0.35385326
94	0x3e44a4cd	0.19203492
95	0x3d59514f	0.053056058
96	0xbdcbac00	-0.09944916
97	0x3ed6385a	0.41839868
98	0x3e30fa1f	0.17282914
99	0xbea2f337	-0.31826183
100	0xbe08177a	-0.13290206
101	0xbdba784d	-0.09104977
102	0xbf4c2623	-0.7974569
103	0x3ec6b71c	0.38811576
104	0xbef1a520	-0.47196293
105	0xbf587581	-0.84554297
106	0x3e21fb2e	0.15818474
107	0xbcea597b	-0.02860712
108	0xbecd0f21	-0.40050605
109	0x3ed152d5	0.40883508
110	0x3d70ad5b	0.058759075
111	0x3f1ef601	0.6209412
112	0xbe3c0732	-0.1836212
113	0x3f11b85f	0.5692195
114	0xbf285c39	-0.6576572
115	0x3ebbeb0b	0.3670276
116	0xbf267ae6	-0.6503128
117	0x3f6d5fd9	0.92724377
118	0x3ed95377	0.4244649
119	0xbe937f39	-0.28808
120	0xbe9123f1	-0.28347734
121	0xbe2fbfa5	-0.1716295
122	0xbcedf550	-0.029047638
123	0x3ec7338c	0.38906515
124	0xbdcf747d	-0.1012964
125	0x3f5fdafc	0.8744352
126	0xbf1853c6	-0.5950283
127	0xbeb9da59	-0.362994

l4/W f4 [256, 16]
0	0x3efe08c5	0.49616066
1	0xbe90351e	-0.28165525
2	0x3e9f263a	0.31083852
3	0xbf03cbd8	-0.51482916
4	0xbd574759	-0.052558277
5	0xbec9abe5	-0.39388958
6	0x3f1b9ed5	0.60789233
7	0xbda7045f	-0.081551306
8	0x3db3f6b8	0.08787292
9	0x3cff551c	0.031168513
10	0xbe6b2074	-0.22961599
11	0xbf570e6a	-0.8400637
12	0x3e9090ae	0.28235382
13	0x3f1908dd	0.5977915
14	0x3d39f8e2	0.04540337
15	0x3ee867b0	0.45391607
16	0xbf463e55	-0.7743886
17	0x3ed8640b	0.42263827
18	0x3e832512	0.2561422
19	0xbec4b5fc	-0.38420093
20	0x3ee59a09	0.44844082
21	0x3ea5a5a4	0.32352936
22	0x3ea0b9ba	0.31391698
23	0x3e25d326	0.16193828
24	0xbec8c49b	-0.39212498
25	0xbf431496	-0.76203287
26	0xbcc22967	-0.023701383
27	0xbe2b91d9	-0.16754855
28	0xbf4741a2	-0.7783452
29	0x3e489f12	0.1959193
30	0xbf3c8ead	-0.73655206
31	0x3d4cdc1b	0.050014596
32	0x3e309d39	0.17247476
33	0x3dbe87d8	0.09303254
34	0xbec58692	-0.38579232
35	0xbf2440f4	-0.6416161
36	0x3ef26508	0.47342706
37	0xbb2d1c7a	-0.0026414678
38	0x3e64753a	0.22310343
39	0x3eddf22c	0.43348825
40	0x3f1b9f4c	0.6078994
41	0xbd694052	-0.056946106
42	0xbef38963	-0.47565755
43	0x3d053e81	0.03253031
44	0xbedb5db2	-0.4284492
45	0xbe5e9c27	-0.21739255
46	0xbfcf24e1	-1.618313
47	0x3e3fd67f	0.18734168
48	0x3d58f98e	0.05297237
49	0xbf8c4526	-1.0958602
50	0x3f4ad22f	0.79226965
51	0xbe4c828a	-0.19971672
52	0x3eda75cb	0.42667994
53	0xbe4554a3	-0.19270568
54	0xbdbf35ac	-0.09336409
55	0x3ea25cfa	0.3171156
56	0x3ec0ded1	0.37669995
57	0x3e0270f9	0.12738408
58	0xbe71f327	-0.23627912
59	0x3f57a202	0.8423158
60	0xbecfbedf	-0.4057531
61	0xbee65ae2	-0.44991213
62	0x3d6e9062	0.058243163
63	0xbdd5abca	-0.10433157
64	0xbee34ba1	-0.44393638
65	0xbed2156c	-0.4103197
66	0x3f22d733	0.6360962
67	0x3e296e8c	0.16546077
68	0x3e1d387d	0.1535358
69	0x3e829554	0.25504553
70	0xbf1e0c7c	-0.617378
71	0x3e5456c4	0.20736223
72	0xbdff3cbd	-0.12462757
73	0xbefb4be2	-0.49081331
74	0x3e01833f	0.12647723
75	0x3f116e96	0.56809366
76	0xbf9595ab	-1.16863
77	0xbf7b2c4b	-0.9811446
78	0x3e110d40	0.1416521
79	0xbcbd592e	-0.023113813
80	0xbf0a069e	-0.5391635
81	0xbdc5ca60	-0.096577406
82	0xbf363b41	-0.71184164
83	0xbe809ab1	-0.2511802
84	0xbea12663	-0.314746
85	0x3e5e0b2b	0.21683948
86	0x3e1e85c1	0.1548071
87	0xbc3fdf63	-0.011710974
88	0x3e5588d7	0.20852982
89	0x3e80dcd0	0.25168467
90	0x3ee28da3	0.44248685
91	0xbe12ec95	-0.14348061
92	0xbeac8d5c	-0.337016
93	0xbe6979ac	-0.2280032
94	0x3ea72f36	0.32653207
95	0x3e856eb5	0.26061025
96	0x3ea066d2	0.31328446
97	0x3e8584c9	0.2607787
98	0x3e0a269e	0.13491294
99	0xbded8aca	-0.115987375
100	0x3d145494	0.036213472
101	0xbed49c1e	-0.41525358
102	0xbf7b4be8	-0.981627
103	0x3df7905d	0.12088082
104	0xbe4cdf41	-0.2000704
105	0x3ed084c2	0.40726286
106	0xbe1b23d7	-0.1515039
107	0x3ea40660	0.32036114
108	0xbd348d55	-0.044080097
109	0x3e72782a	0.23678651
110	0xbd818f7f	-0.06326198
111	0x3e77b4b0	0.2419002
112	0x3e3c3d40	0.1838274
113	0xbe96141e	-0.29312223
114	0x3ece5736	0.40300912
115	0x3f1043b6	0.5635332
116	0xbf5fa0f3	-0.87354964
117	0xbe170ab3	-0.14750175
118	0xbefd5c7b	-0.4948462
119	0x3ec9648c	0.39334524
120	0x3f2a6a27	0.66568226
121	0xbd741847	-0.059593465
122	0xbf845a94	-1.0340142
123	0x3ec34508	0.38138604
124	0x3b8bd599	0.004267406
125	0xbbd9040b	-0.0066227964
126	0xbd9e261b	-0.07722112
127	0xbeee0a25	-0.46492115
128	0x3ea2c07e	0.31787485
129	0xbf7e4b7c	-0.9933393
130	0xbeefe042	-0.46850783
131	0x3df5f44b	0.12009486
132	0xbf4495f8	-0.76791334
133	0x3defc770	0.117079616
134	0x3f27cd38	0.65547514
135	0xbea73dda	-0.32664376
136	0xbe099873	-0.13437061
137	0xbe32e444	-0.17469889
138	0xbee1879d	-0.44048777
139	0xbe20e28a	-0.15711418
140	0xbe1a8463	-0.15089564
141	0xbf441875	-0.7659982
142	0x3efd862e	0.49516433
143	0xbeb408bd	-0.35162917
144	0x3e589363	0.21149974
145	0x3eb43072	0.3519321
146	0xbed093e9	-0.40737846
147	0xbf66ce6d	-0.9015873
148	0xbe396930	-0.18106532
149	0x3d1710e0	0.036881328
150	0xbe02bfa4	-0.12768418
151	0xbeab0440	-0.3340168
152	0xbdad864c	-0.08472881
153	0xbf667929	-0.90028626
154	0xbe8ec970	-0.2788806
155	0xbe6ddd2d	-0.23228903
156	0x3d5c8d9f	0.053845998
157	0xbddf8569	-0.10914118
158	0x3ed597a5	0.41717258
159	0x3daf784a	0.08567865
160	0xbf83e9aa	-1.0305684
161	0xbf22202b	-0.63330334
162	0x3f166481	0.58747107
163	0xbf13e03d	-0.57764035
164	0x3e2476e9	0.16060986
165	0xbec058df	-0.37567803
166	0x3dcee506	0.101022765
167	0xbe9f30b1	-0.31091836
168	0xbe525834	-0.2054146
169	0x3e78f556	0.24312338
170	0xbcf8d9fd	-0.030377382
171	0xbd2647df	-0.040595885
172	0xbe186940	-0.148839
173	0x3d8fdea1	0.07024885
174	0x3e40ba13	0.18820982
175	0xbf025b83	-0.50920886
176	0xbc3e4c74	-0.0116149075
177	0xbf7452ac	-0.9543865
178	0xbda40c29	-0.08010132
179	0xbf0fd28d	-0.5618065
180	0xbe9aaed5	-0.3021151
181	0xbea1a060	-0.3156767
182	0x3dd6c3eb	0.10486587
183	0x3eb196a6	0.34685248
184	0xbe81960b	-0.25309786
185	0x3d6f25a2	0.0583855
186	0x3ec3096b	0.38093123
187	0x3e79e5b7	0.24404036
188	0xbf389ead	-0.7211712
189	0x3e285470	0.1643846
190	0xbd97fd43	-0.07421353
191	0xbe4e6983	-0.20157437
192	0x3e830ad9	0.25594214
193	0xbd973862	-0.07383801
194	0xbe9dbe09	-0.30809048
195	0xbf05b381	-0.52227026
196	0xbe6c52a3	-0.23078398
197	0x3df64cad	0.120263435
198	0x3f002652	0.5005847
199	0xbe97b890	-0.29632998
200	0xbeb2dde3	-0.3493491
201	0x3e321385	0.17390259
202	0xbc05a9d6	-0.008158168
203	0x3e6b9093	0.2300437
204	0xbe0d7f8b	-0.13818185
205	0xbd3761e5	-0.044771094
206	0xbdd0e440	-0.10199785
207	0xbcbdf36e	-0.023187365
208	0xbed6ac0b	-0.41928133
209	0x3f077ab4	0.52921605
210	0x3f074017	0.5283217
211	0xbed17acd	-0.40914002
212	0x3ed9caee	0.42537636
213	0xbdac64ee	-0.08417688
214	0xbebee130	-0.3728118
215	0x3e4108c2	0.18850997
216	0x3d19634d	0.037448216
217	0xbf18dc51	-0.59711176
218	0xbe6dfd90	-0.23241258
219	0xbda091c0	-0.078402996
220	0xbc722bee	-0.0147809815
221	0xbe7607d8	-0.2402643
222	0xbce09c67	-0.027418328
223	0xbe940491	-0.28909734
224	0xbeb326ae	-0.34990448
225	0x3ec3ff0d	0.38280526
226	0x3da937a3	0.08262565
227	0xbf585762	-0.84508336
228	0xbe4c43fd	-0.1994781
229	0xbf41f736	-0.7576784
230	0xbc6c48cb	-0.014421652
231	0x3c8c6c1c	0.017141394
232	0x3eaf989e	0.34296125
233	0x3d6e2750	0.05814296
234	0x3f1749a4	0.5909674
235	0x3d23a02f	0.039947685
236	0x3e64cddf	0.22344159
237	0x3cefd675	0.029277066
238	0xbe8df1f8	-0.2772367
239	0xbf485e8e	-0.7826928
240	0xbc4354a4	-0.011922035
241	0x3d5a7ac7	0.053339746
242	0xbe8344c3	-0.256384
243	0x3e868953	0.26276645
244	0x3ed88938	0.4229219
245	0xbeb46a18	-0.35237193
246	0xbe84352e	-0.25821823
247	0xbe0855a7	-0.13313924
248	0xbe1edec6	-0.15514669
249	0xbc48254f	-0.012215926
250	0x3d6b5b5e	0.05746018
251	0x3ef39b24	0.475793
252	0x3e9a846f	0.30179164
253	0x3c268d3d	0.01016551
254	0x3c41679a	0.011804486
255	0x3e6488c8	0.22317803

c3/W f4 [16, 8, 2, 2]
0	0x3eaa3452	0.33243042
1	0xbdb269fc	-0.08711621
2	0x3ce47a50	0.027890354
3	0xbe152244	-0.14563853
4	0xbd13bd3b	-0.036069136
5	0xbe9f459e	-0.311078
6	0x3e303f1f	0.17211579
7	0x3c735d8b	0.014853845
8	0x3eab4ea1	0.33458427
9	0xbf0e71ac	-0.556422
10	0xbdc239b2	-0.09483661
11	0xbdea3008	-0.114349425
12	0x3e3559b1	0.17709996
13	0xbea1d51b	-0.316079
14	0x3f39eb76	0.7262491
15	0xbd4cf167	-0.050034907
16	0x3f320aa2	0.69547474
17	0x3f29b05a	0.66284716
18	0x3d57d4ce	0.05269318
19	0xbdcd71a2	-0.10031439
20	0x3d9a429e	0.075322375
21	0xbeaaff57	-0.33397934
22	0xbdecb40e	-0.1155778
23	0xbd36925a	-0.044573165
24	0xbef9766f	-0.4872317
25	0xbe381abf	-0.17978953
26	0xbf07526f	-0.5286016
27	0xbe3f6963	-0.18692546
28	0xbf3476e6	-0.70493925
29	0x3c2ce566	0.01055274
30	0x3ef5e33e	0.48024935
31	0xbe618e93	-0.22027044
32	0x3e7105ef	0.2353742
33	0x3ea04300	0.31301117
34	0xbf0758e1	-0.52869993
35	0xbe3ca7c0	-0.18423367
36	0x3e0cbb1b	0.1374325
37	0x3ebc09f7	0.36726353
38	0x3de5c5e1	0.11219383
39	0x3f1b0c1e	0.60565364
40	0x3d0112e9	0.031512175
41	0x3ebea0a1	0.37231925
42	0x3eadf46e	0.33975548
43	0xbf38fbb3	-0.7225906
44	0x3e86eb65	0.26351467
45	0x3e7fcb73	0.24979953
46	0x3a873da2	0.0010318051
47	0x3e285235	0.1643761
48	0x3eae8b30	0.34090567
49	0x3e149a2c	0.14511937
50	0xbf171abf	-0.59025186
51	0xbef16364	-0.47146142
52	0x3eb81e1c	0.35960472
53	0xbe865dd0	-0.26243448
54	0xbe5253c1	-0.20539762
55	0xbea345a9	-0.31889084
56	0x3d750d0f	0.059826907
57	0x3e3ff6ad	0.18746443
58	0xbf47763d	-0.7791479
59	0x3eafdc00	0.34347534
60	0xbe620edf	-0.22075985
61	0x3dcc62da	0.09979792
62	0xbeacaa83	-0.3372384
63	0xbf80d8b8	-1.0066137
64	0xbc911f59	-0.017715143
65	0xbd387f09	-0.045043025
66	0x3d69fa3b	0.057123404
67	0x3c3ab115	0.011394759
68	0xbe0f0f0c	-0.13970584
69	0xbdc3a539	-0.09552998
70	0xbe45173f	-0.19247149
71	0x3d9e6364	0.07733801
72	0x3d2d45cc	0.04230289
73	0xbe1da85f	-0.1539626
74	0xb8c7bfac	-9.524761e-05
75	0xbf02c9bb	-0.51089066
76	0xbe4e5e63	-0.20153193
77	0x3e38de7f	0.18053626
78	0x3ca04857	0.019565744
79	0xbdcc4b3f	-0.099752896
80	0xbd76fa4e	-0.060297303
81	0xbe6c23e9	-0.23060574
82	0x3d2fd7d9	0.042930458
83	0xbe8bdcf1	-0.27317002
84	0x3d20891d	0.03919326
85	0x3e6447d3	0.22293024
86	0x3b949e24	0.0045354534
87	0xbcc92ef9	-0.024558531
88	0xbe7d8139	-0.24756326
89	0xbe1a881a	-0.15090981
90	0xbd1bda33	-0.038049888
91	0xbcb6660d	-0.022265458
92	0xbddf2a38	-0.108967245
93	0xbe4e64af	-0.20155595
94	0x3d79e717	0.0610114
95	0x3e60cdd0	0.21953511
96	0xbf08a77b	-0.53380555
97	0x3e62baec	0.22141618
98	0x3dd57f60	0.104246855
99	0x3ce34368	0.027742103
100	0x3ea94c98	0.3306625
101	0xbf82ed9d	-1.0228764
102	0xbeb46152	-0.352305
103	0x3ec29990	0.38007784
104	0xbcefa02c	-0.02925118
105	0x3eabd2b5	0.33559194
106	0x3ec83479	0.39102533
107	0xbefbd850	-0.4918847
108	0x3e2749c6	0.16336736
109	0xbe35459e	-0.17702338
110	0x3ef9f228	0.48817563
111	0xbf1b7175	-0.60719997
112	0x3f133cf6	0.57514894
113	0xbf176a2e	-0.5914639
114	0x3cb5aa28	0.022175863
115	0xbe3685b3	-0.1782444
116	0x3f023c2a	0.50873053
117	0x3d2c2fbe	0.042037718
118	0xbebd900c	-0.37023962
119	0xbe80ab8d	-0.25130883
120	0x3ddf73d0	0.10910761
121	0xbf38dda8	-0.7221322
122	0xbf37bd56	-0.7177328
123	0x3f4c94ce	0.7991456
124	0x3f069a5a	0.5257927
125	0xbcd2f621	-0.025752129
126	0x3c8679e1	0.016415538
127	0xbf1fc86e	-0.62415206
128	0x3ed89346	0.4229986
129	0x3e1a1352	0.15046433
130	0xbf35e79c	-0.7105653
131	0x3dd23769	0.10264475
132	0xbd11a266	-0.035555266
133	0xbedde071	-0.43335298
134	0x3d63a0a5	0.055573124
135	0x3e899d4a	0.26877815
136	0xbefb8665	-0.49125972
137	0x3f3a28f6	0.7271875
138	0x3dcb5833	0.09928932
139	0x3ee53d6c	0.44773424
140	0xbea7b1c8	-0.32752824
141	0x3e7cdbab	0.24693172
142	0xbf0ff03e	-0.56225955
143	0xbf14b557	-0.580892
144	0xbf088d4d	-0.5334061
145	0xbef2818a	-0.47364455
146	0x3e8c8ff6	0.27453583
147	0xbe8b330d	-0.27187386
148	0xbd4ba722	-0.049719937
149	0xbce44e9f	-0.02786952
150	0xbf3d9e7a	-0.7406994
151	0xbeb13e98	-0.34618068
152	0x3f0acf02	0.5422212
153	0xbe470213	-0.19434385
154	0xbe149a8d	-0.14512081
155	0x3eab0f7d	0.33410254
156	0xbf3d79f0	-0.74014187
157	0x3f187552	0.59554017
158	0x3f13c65a	0.57724535
159	0xbf6f199e	-0.93398464
160	0xbc8da9b5	-0.017292837
161	0xbe8e7deb	-0.27830443
162	0xbece8600	-0.4033661
163	0x3f6563d6	0.8960546
164	0xbd3362ac	-0.043795273
165	0x3f0def59	0.5544334
166	0x3d8f42be	0.06995152
167	0xbe5c5d2e	-0.2151992
168	0xbe3c2790	-0.18374467
169	0x3eac5819	0.33660963
170	0xbe2dfafe	-0.16990277
171	0x3b812ea4	0.0039423276
172	0x3f154738	0.58311796
173	0xbeb2e01f	-0.34936616
174	0xbdd106d0	-0.102063775
175	0xbec47e3b	-0.38377556
176	0x3e23df07	0.16003047
177	0xbd29cfa9	-0.041457806
178	0xbdc0a47b	-0.09406372
179	0xbe37affb	-0.17938225
180	0x3e0f48a1	0.1399255
181	0x3e47e1bf	0.19519709
182	0x3f0b0693	0.54306906
183	0x3e0e07f7	0.13870226
184	0xbdf73522	-0.12070681
185	0x3cfe8b6d	0.031072343
186	0xbe3f4906	-0.186802
187	0xbf11b9ab	-0.5692393
188	0x3e54bc67	0.20774995
189	0x3ef6fa37	0.48237774
190	0xbeec3ad3	-0.4613863
191	0x3f0efeca	0.5585753
192	0x3ea31961	0.318553
193	0xbe84647f	-0.25857922
194	0x3ef8b353	0.48574314
195	0xbe2758c0	-0.16342449
196	0xbf550e4f	-0.8322496
197	0x3ed8cf7c	0.42345798
198	0xbdcbb62d	-0.09946857
199	0x3e199cfa	0.15001288
200	0xbf30777c	-0.6893232
201	0x3edcb0de	0.4310369
202	0x3eb219c1	0.34785274
203	0xbedd11aa	-0.4317754
204	0xbd8d4b2a	-0.06899102
205	0x3e9fb1e8	0.3119042
206	0x3f062f29	0.5241571
207	0x3ea524ef	0.3225474
208	0x3d896869	0.06709368
209	0xbc447391	-0.011990444
210	0x3de9cbd0	0.11415827
211	0x3dd14678	0.10218519
212	0x3ea85944	0.32880604
213	0x3d9dd4e6	0.07706623
214	0xbe76ccd7	-0.24101578
215	0xbdf453eb	-0.119300686
216	0x3f2552b9	0.6457935
217	0xbdde301e	-0.108490214
218	0x3f61b0fc	0.8816068
219	0x3e2106d5	0.15725262
220	0xbe7f956a	-0.2495934
221	0x3c8f8f88	0.017524496
222	0xbf07b02d	-0.530032
223	0xbe8c6a06	-0.2742464
224	0xbe0d271f	-0.13784455
225	0xbf80f60f	-1.0075091
226	0x3cf9ea63	0.030507272
227	0xbc9b433a	-0.018952955
228	0x3ecc6c4f	0.39926383
229	0xbf0ab32e	-0.54179657
230	0xbec5756c	-0.38566148
231	0x3f69cdff	0.9132995
232	0xbe4c13aa	-0.19929376
233	0x3d3c6e98	0.046003908
234	0x3ca6cc7f	0.020361183
235	0x3da47129	0.08029396
236	0xbdec0dbe	-0.115260586
237	0xbebbec9f	-0.36703965
238	0xbcf208ea	-0.029545266
239	0x3eebd006	0.46057147
240	0xbeda6335	-0.42653814
241	0xbc56159c	-0.0130666755
242	0x3e781c67	0.24229585
243	0x3ea62dde	0.3245687
244	0xbe6cde4d	-0.23131676
245	0x3dff753a	0.12473531
246	0x3e5089f3	0.20365123
247	0xbda157a6	-0.07878046
248	0x3deb2926	0.11482458
249	0xbe9e69e7	-0.30940172
250	0xbf317ce9	-0.6933122
251	0x3e9d98d2	0.30780655
252	0x3e434371	0.19068696
253	0x3ed11ea7	0.40843698
254	0x3e3d1952	0.1846669
255	0x3eeeb632	0.4662338

l5/b f4 [16]
0	0xbe8c1e3c	-0.27366817
1	0xbe395471	-0.18098618
2	0xbda0f4db	-0.078592025
3	0x3daaaf5d	0.08334229
4	0xbeb7689a	-0.35821992
5	0xbe975e09	-0.2956393
6	0xbeb1f2bb	-0.347555
7	0xbe06dbc2	-0.13169768
8	0x3dbac427	0.09119444
9	0xbe942b56	-0.28939313
10	0xbe926d0a	-0.28598815
11	0xbe910059	-0.28320578
12	0xbb9fc08f	-0.0048752497
13	0x3c8ddf8d	0.017318511
14	0xbe894f0b	-0.26818117
15	0xbc5f5f60	-0.013633579

c1/b f4 [4]
0	0x3e7b1161	0.24518348
1	0x3ea98a2e	0.33113235
2	0xbed1041c	-0.40823448
3	0xbe898947	-0.26862547

l4/b f4 [256]
0	0x3f2cad40	0.6745186
1	0x3e02f1bc	0.12787527
2	0x3e326963	0.17423014
3	0xbeb6685f	-0.35626504
4	0xbf29794b	-0.66200703
5	0xbeab5ccc	-0.33469236
6	0x3dc4f2ec	0.09616646
7	0x3dcdbc7a	0.10045715
8	0xbe81601f	-0.25268647
9	0x3efe97d3	0.49725208
10	0x3f784b50	0.9698992
11	0x3eedafa3	0.46423063
12	0xbec0a0fa	-0.37622815
13	0x3f1e1fbe	0.61767185
14	0xbeed9c87	-0.46408483
15	0xbe1b5761	-0.15170051
16	0xbc7d536c	-0.015461784
17	0x3e47f04a	0.19525257
18	0x3c65618a	0.014000306
19	0x3eccb48b	0.39981493
20	0x3f2093c5	0.6272548
21	0x3e6c2154	0.23059589
22	0xbe4b3a30	-0.19846416
23	0xbb657b1d	-0.0035016008
24	0x3eb7dd93	0.35911235
25	0x3eb3efff	0.3514404
26	0x3e1c44d0	0.15260625
27	0xbe931750	-0.28728724
28	0x3db14d05	0.086572684
29	0x3deffda0	0.11718297
30	0x3f0a0342	0.5391122
31	0xbdd8a78e	-0.105788335
32	0x3ccd818c	0.025086187
33	0xbf31756a	-0.69319785
34	0xbf853214	-1.0405908
35	0x3dc92208	0.09820944
36	0xbea185f6	-0.31547517
37	0x3ea903eb	0.33010802
38	0xbe30c019	-0.1726078
39	0xbeb71271	-0.35756257
40	0xbf63b19a	-0.88942873
41	0xbddfa323	-0.10919788
42	0x3e369b48	0.17832673
43	0x3dc3654d	0.09540806
44	0xbdde2469	-0.108467884
45	0xbdd79d02	-0.10527994
46	0xbe80cbcd	-0.25155488
47	0xbd879c34	-0.0662159
48	0x3d92f816	0.07176225
49	0xbeb5147a	-0.35367185
50	0xbe63665b	-0.22207014
51	0x3d81e276	0.06342022
52	0xbd186739	-0.037207816
53	0xbe4adb22	-0.19810155
54	0x3d322651	0.043493573
55	0xbf1ab87c	-0.6043775
56	0x3d02b756	0.031913124
57	0xbd96c769	-0.07362253
58	0x3e7a05ea	0.24416319
59	0x3ec95deb	0.39329466
60	0xbe85327b	-0.26015076
61	0x3f0530bb	0.5202748
62	0x3ea93253	0.33046207
63	0xbedfe14a	-0.4372657
64	0xbed704d6	-0.41995877
65	0xbc91d500	-0.017801762
66	0x3f4d5556	0.8020834
67	0xbceafe3b	-0.02868568
68	0xbf948802	-1.1604006
69	0xbf3def01	-0.74192816
70	0x3d4b0d99	0.049573515
71	0xbed35434	-0.4127518
72	0x3daadfc6	0.08343463
73	0xbf155956	-0.5833944
74	0x3f1d894e	0.61537635
75	0x3e79192d	0.2432601
76	0xbdb2b11b	-0.087251864
77	0x3c426040	0.011863768
78	0x3e62b319	0.22138633
79	0x3b7b626c	0.0038358225
80	0xbe69a4e9	-0.22816814
81	0xbedc6a7c	-0.4304999
82	0x3f36ef53	0.7145893
83	0xbe869085	-0.26282135
84	0xbf2393b0	-0.6389723
85	0x3d3b3361	0.045703296
86	0xbdf10e54	-0.11770311
87	0xbe7276a9	-0.23678078
88	0xbe46833d	-0.19386001
89	0x3d8c1825	0.06840543
90	0x3e57a4f4	0.21059018
91	0xbe794ac7	-0.24344932
92	0x3d9d9135	0.07693712
93	0x3e491453	0.1963666
94	0xbe92063e	-0.28520387
95	0x3ced3c02	0.028959278
96	0xbe116eab	-0.14202373
97	0x3e385f6e	0.18005154
98	0x3dd24078	0.10266203
99	0x3ee16801	0.4402466
100	0x3afe4236	0.0019398395
101	0x3f272c1f	0.653017
102	0x3f3da064	0.7407286
103	0x3eb3de13	0.35130367
104	0x3ecb64a1	0.3972521
105	0xbe1eeec1	-0.15520765
106	0xbdf65c4d	-0.12029324
107	0x3ead3efe	0.33837122
108	0xbe9f8707	-0.31157705
109	0xbe6370c5	-0.22210987
110	0xbeaf2e36	-0.34214944
111	0xbeef953b	-0.4679354
112	0x3e6e16c0	0.23250866
113	0xbe96f66f	-0.2948489
114	0xbe91aee6	-0.2845375
115	0x3d5b7b35	0.053584296
116	0xbf1c7f5e	-0.61131847
117	0x3e6281f3	0.22119884
118	0xbeb69b36	-0.35665292
119	0x3cb44457	0.022005243
120	0x3e60832c	0.21925038
121	0x3e1bffa4	0.15234238
122	0x3e0058e9	0.12533917
123	0xbeb4bb3d	-0.352991
124	0xbe95f114	-0.2928549
125	0x3ed69fce	0.41918796
126	0xbe9df55e	-0.30851263
127	0xbf3c7df5	-0.73629695
128	0x3f0a061d	0.5391558
129	0xbf846dcc	-1.0346007
130	0xbe4d93b1	-0.20075871
131	0x3eadae18	0.33921885
132	0xbe4db2ca	-0.20087734
133	0x3e6f6f8d	0.23382397
134	0xbebd7191	-0.37000707
135	0xbd551194	-0.052018717
136	0x3e7854b9	0.24251069
137	0xbe7f822b	-0.24951999
138	0x3e3da17c	0.18518633
139	0xbe7e312d	-0.24823447
140	0xbf025a19	-0.5091873
141	0xbcca6e15	-0.024710694
142	0x3d6e4140	0.058167696
143	0xbdcdca0a	-0.100483015
144	0xbd7a916b	-0.061173838
145	0x3d9106b8	0.070813596
146	0x3e3dcf64	0.18536144
147	0xbf5b1692	-0.85581315
148	0x3f302102	0.68800366
149	0x3c401e03	0.011725905
150	0xbd0c6d5f	-0.034283992
151	0xbe1aac8e	-0.15104887
152	0xbed84f61	-0.4224806
153	0xbe67a03c	-0.22619718
154	0x3f5b279d	0.8560732
155	0xbe259886	-0.16171464
156	0xbcdebf16	-0.027190726
157	0xbeb94a1a	-0.36189348
158	0xbf147857	-0.57996124
159	0x3f286ea3	0.6579382
160	0x3f05fe79	0.5234142
161	0xbea79c04	-0.32736218
162	0xbec1976d	-0.3781084
163	0x3ecf54fd	0.40494528
164	0x3da6becb	0.081418596
165	0xbf2215e2	-0.6331464
166	0xbe12342b	-0.14277713
167	0x3ea6b3d5	0.32559076
168	0xbd5ff043	-0.05467249
169	0xbf4be65c	-0.79648376
170	0xbe96e345	-0.29470268
171	0x3e02f3d6	0.12788329
172	0x3e9380f2	0.28809315
173	0xbdb33dff	-0.08752059
174	0xbd527ade	-0.051386707
175	0x3ee380e0	0.4443426
176	0xbe2b10ff	-0.16705702
177	0xbf3d4ce9	-0.7394548
178	0xbbecb35d	-0.00722353
179	0xbf4d1bae	-0.8012036
180	0x3e609606	0.2193223
181	0xbefd67af	-0.49493167
182	0xbd3a3742	-0.045462854
183	0x3df7d26a	0.1210068
184	0xbd0734e1	-0.033009414
185	0x3f41e239	0.75735813
186	0xbd4d5b73	-0.05013604
187	0xbe995b7b	-0.29952607
188	0x3eec446c	0.46145952
189	0x3e787a34	0.24265367
190	0x3e67f3a8	0.22651541
191	0xbe295742	-0.16537192
192	0xbe00c6db	-0.12575857
193	0x3c86496c	0.016392432
194	0x3ef509c7	0.47859022
195	0x3dfb12d5	0.12259451
196	0x3e4321a0	0.19055796
197	0x3ab337f1	0.0013673288
198	0xbeecf737	-0.4628236
199	0xbd7527af	-0.0598523
200	0xbf47d712	-0.78062546
201	0x3e924055	0.28564706
202	0xbe43f111	-0.19134928
203	0x3f23ab0e	0.63932884
204	0x3dc12f18	0.094328105
205	0xbeacdb48	-0.33761048
206	0xbd0b27f7	-0.03397366
207	0x3f096df5	0.53683406
208	0xbf1c33ee	-0.6101674
209	0xbd63f0db	-0.05564962
210	0x3d8a4797	0.06751936
211	0xbf48928e	-0.78348625
212	0x3e5f8ee6	0.21831855
213	0xbf569f68	-0.83836985
214	0xbed4b7cd	-0.4154648
215	0xbed09a4a	-0.40742713
216	0x3d81b629	0.063335724
217	0xbe1866b5	-0.1488293
218	0xbf2c125c	-0.67215514
219	0x3db1b9ed	0.08678041
220	0xbd45553e	-0.048176996
221	0x3f05e903	0.5230867
222	0xbf120431	-0.57037646
223	0xbee69eb4	-0.45042956
224	0xbe79b711	-0.2438624
225	0xbeb13eb3	-0.34618148
226	0x3ef7bce5	0.48386303
227	0xbe02c776	-0.12771401
228	0x3e9cb9e7	0.30610582
229	0x3e257303	0.16157155
230	0xbe9c7619	-0.3055885
231	0xbe16c031	-0.14721753
232	0xbdd4b1cb	-0.10385474
233	0xbf1ed9a1	-0.62050825
234	0xbe0d35b1	-0.13790013
235	0x3d1e8d73	0.038709115
236	0xbf0e2e9a	-0.5553986
237	0xbe480596	-0.19533381
238	0xbf06c978	-0.52651167
239	0xbf7dc19b	-0.99123544
240	0x3e5d1572	0.21590212
241	0xbe274cff	-0.16337965
242	0xbefa245f	-0.48855874
243	0xbea2e8da	-0.31818277
244	0x3f196ccc	0.59931636
245	0x3eb0f6b2	0.34563214
246	0x3eb961d3	0.36207446
247	0xbf018b5c	-0.5060327
248	0x3e7c1a8d	0.24619503
249	0x3f0939d0	0.5360384
250	0xbe7fef40	-0.2499361
251	0xbd0bfd0b	-0.034176867
252	0xbe17485b	-0.14773695
253	0xbe861dfa	-0.26194745
254	0xbee64140	-0.44971657
255	0xbde734aa	-0.11289342

c2/b f4 [8]
0	0x3d7c9063	0.061661135
1	0x3d69a7de	0.057044856
2	0xbeb5845d	-0.35452548
3	0xbe81f7f6	-0.25384492
4	0xbe8f669d	-0.28007975
5	0xbebb7c37	-0.36618206
6	0x3d54b63e	0.051931612
7	0xbe9a20a9	-0.30103043
