examples/ch4/reversi_DQN_DNN/agent_black_14000/target_model.npz (npz, 522011 bytes, 8 tensors)

l2/b f4 [256]
0	0xbd80d73f	-0.06291055
1	0x3cd1b22c	0.025597654
2	0x3cfa68a2	0.030567471
3	0x3cb354f4	0.021891095
4	0xbc4e4cbc	-0.012591537
5	0xbdae186e	-0.08500753
6	0x3cf767c2	0.030200843
7	0x3d02869d	0.03186666
8	0xbc116c94	-0.008875985
9	0x3cac29b5	0.021015981
10	0xbdaffecc	-0.085935205
11	0x3c92f068	0.0179369
12	0x3d464cf8	0.048413247
13	0xbd277068	-0.040878683
14	0xbb898240	-0.004196435
15	0x3c4a2ba4	0.012339506
16	0xbd829e3e	-0.063778386
17	0xbd9959eb	-0.074878536
18	0x3cc15dff	0.023604391
19	0x3c3cbced	0.011519653
20	0x3cbb9703	0.022899156
21	0x3db8913d	0.09012077
22	0x3dd309b2	0.103045836
23	0x3cb8dc00	0.022565842
24	0xbc831eb6	-0.016005855
25	0x3debe29a	0.1151783
26	0x3cb30e2e	0.021857347
27	0x3cd3cf21	0.025855603
28	0xbd81ff4c	-0.06347522
29	0xbd657738	-0.0560219
30	0xbccf4278	-0.02530025
31	0x3d2c57e5	0.04207601
32	0x3c87e44a	0.016588349
33	0xbd30d492	-0.043171473
34	0x3d6fb20c	0.058519408
35	0xbd1bdfc1	-0.038055185
36	0xbce59db4	-0.0280293
37	0xbc0cb779	-0.008588665
38	0x3cbed17e	0.023293253
39	0xbb622d03	-0.0034511692
40	0xbe065e6d	-0.13121958
41	0x38639ab2	5.426509e-05
42	0x3c1d491f	0.009599953
43	0x3d9de883	0.07710364
44	0xbd3a111e	-0.04542648
45	0xbc84fd89	-0.016234176
46	0x3c037e52	0.008025723
47	0xbdddc4eb	-0.10828575
48	0xbd634240	-0.055483103
49	0x3d39ae2d	0.045332123
50	0x3d6ee9e5	0.058328528
51	0xbc7f4c23	-0.015582117
52	0xbc510ea4	-0.012759838
53	0xbc4a74dc	-0.012356963
54	0xbc96e1fe	-0.018418308
55	0x3c9c12a0	0.01905185
56	0xbb962232	-0.004581713
57	0x3bdb445c	0.0066914987
58	0xbdb1b625	-0.086773194
59	0x3c59f94e	0.013304068
60	0xbd1a2d65	-0.037640948
61	0x3c8a0163	0.016846364
62	0xbd43e9d3	-0.047830414
63	0x3d7bd10f	0.06147867
64	0xbcda6624	-0.026660033
65	0x3ab93093	0.0014128856
66	0xbb8e37e8	-0.0043401606
67	0x3ce42974	0.027851798
68	0x3c17acb8	0.009257488
69	0x3d620ddc	0.055189
70	0x3d52161d	0.05129062
71	0x3db65192	0.08902277
72	0x3b99befd	0.004691957
73	0x3d555073	0.052078675
74	0xbc0ed266	-0.008717155
75	0xbc516a89	-0.012781748
76	0xbcc2a1fa	-0.023758877
77	0x3d2df186	0.042466663
78	0xbce4012c	-0.02783259
79	0xbd599060	-0.053116202
80	0x3ca9b5bd	0.020716542
81	0xbb6b9d21	-0.003595181
82	0xbc9b267a	-0.018939245
83	0xbd075368	-0.033038527
84	0xbd737c3a	-0.059444644
85	0xbc45674d	-0.012048555
86	0xbdcf68ae	-0.10127388
87	0x3d10ee6e	0.035383634
88	0xbd97ea86	-0.07417779
89	0xbcaf956a	-0.02143355
90	0x3d5e34c7	0.05424955
91	0xbd0afe34	-0.033933833
92	0xbc9be5bd	-0.019030446
93	0xb9997835	-0.00029271995
94	0xbcd03fbb	-0.025421014
95	0xbd834bfd	-0.06410978
96	0x3dffb61a	0.12485905
97	0xbdc7c88a	-0.09755047
98	0xbdab3509	-0.08359725
99	0xbd8d9b7c	-0.06914422
100	0x3c0019b6	0.00781863
101	0xbd4a5c6c	-0.049404547
102	0x3d5229a3	0.05130924
103	0xbbc4a781	-0.0060014133
104	0x3dad0ded	0.08449922
105	0x3b001c21	0.0019548016
106	0x3bd49e70	0.006488614
107	0xbd6ada60	-0.057337165
108	0xbc5d5058	-0.013507925
109	0xbc2a6fdd	-0.010402647
110	0xbcb7ce3d	-0.02243721
111	0xbc18ead4	-0.009333331
112	0xbd4aef2a	-0.04954449
113	0x3d548823	0.051887643
114	0xbd218903	-0.039437305
115	0xbcc15065	-0.023597905
116	0xbd958c82	-0.0730219
117	0xbc9a8687	-0.018862976
118	0xbcab974b	-0.020946166
119	0x3c9d8bf3	0.019231772
120	0xbb3ba62d	-0.0028632984
121	0xbb805e7f	-0.003917515
122	0x3d4cd296	0.050005518
123	0xbc0a95f4	-0.008458603
124	0x3d66ed0c	0.05637841
125	0xbd6bc59c	-0.0575615
126	0xbd485d0a	-0.048916854
127	0xbd8856cb	-0.066571794
128	0xbdbad973	-0.091235064
129	0x3c4cf410	0.012509361
130	0xbbadfdca	-0.005309795
131	0xbc8e2339	-0.01735078
132	0x3d8a648e	0.067574605
133	0xbdbca2ea	-0.09210761
134	0xbc0c0aa3	-0.008547458
135	0x3be908da	0.007111651
136	0x3d96d992	0.07365717
137	0xbcd17933	-0.025570488
138	0xbbe47109	-0.0069714827
139	0xbca3261c	-0.019915633
140	0xbbca05d3	-0.006165245
141	0x3d0a69db	0.033792358
142	0xbbe53129	-0.0069943857
143	0x3d17e3c5	0.037082452
144	0x3d8d0605	0.06885914
145	0xbd348259	-0.04406962
146	0xbd8e0af1	-0.06935681
147	0xbd3d60ff	-0.04623508
148	0xbba5e4c1	-0.00506267
149	0x3ce1114a	0.027474064
150	0xbc3fdf6f	-0.011710986
151	0x3c9c8307	0.019105447
152	0x3d157b8a	0.03649477
153	0xbd96273a	-0.073317006
154	0xbd0ab473	-0.033863496
155	0xbd66a5f3	-0.056310605
156	0xbdba8879	-0.09108061
157	0xbd8e643f	-0.06952714
158	0xbd15385b	-0.036430698
159	0xbd92f8d7	-0.07176369
160	0xbc8027dc	-0.015644006
161	0x3ca52e36	0.020163637
162	0xbcadedff	-0.02123165
163	0x3c979287	0.018502487
164	0xbd421edc	-0.04739271
165	0x3c7528a5	0.014963304
166	0xbd715279	-0.058916543
167	0x3d24b936	0.040215693
168	0x3d2f999a	0.042871095
169	0xbd0aa961	-0.03385294
170	0xbc33b7b2	-0.010969089
171	0x3c88c7b6	0.016696792
172	0x3d145aab	0.03621928
173	0x3b71f742	0.0036921059
174	0x3d22d209	0.039751086
175	0xbd225674	-0.03963323
176	0x3c927c80	0.017881632
177	0x3d84d0ab	0.06485113
178	0xbcd94ae0	-0.026524961
179	0x3d29bbf4	0.04143901
180	0xbcca663f	-0.024706958
181	0xbd6fe43c	-0.05856727
182	0xbcf10294	-0.029420175
183	0x3c83c5f4	0.016085602
184	0xbcdf57ca	-0.02726354
185	0xbd6a39ce	-0.057184033
186	0xbdcbccc5	-0.09951166
187	0x3d2b553c	0.041829333
188	0x3d1156cf	0.035483178
189	0x3c9fbe8f	0.019500045
190	0xbda37fa8	-0.07983333
191	0xbc90eada	-0.017690111
192	0x3d7f58da	0.062340595
193	0xbd2d079c	-0.042243585
194	0x3d673fcb	0.056457322
195	0xbc063aee	-0.008192761
196	0xbd540cb8	-0.051769942
197	0xbd93eedf	-0.072232954
198	0xbd5e9a4a	-0.05434636
199	0xbd9b398c	-0.075793356
200	0xbcd5f8d8	-0.026119635
201	0x3d9073bf	0.07053327
202	0xbc48d9ed	-0.012258989
203	0x3ca42d98	0.020041272
204	0x3d4ebb4f	0.0504716
205	0xbcdff8d1	-0.027340325
206	0x3bb3ac84	0.005483212
207	0xbc60828c	-0.013703
208	0xbd8967d2	-0.06709255
209	0xbd41ddc8	-0.047330648
210	0x3bfdcc02	0.007745267
211	0xbd65ba5a	-0.05608592
212	0xbda9c364	-0.08289221
213	0xbdbb8b93	-0.09157481
214	0xbc4befb0	-0.012447283
215	0xbd71e2c4	-0.05905415
216	0x3d91fa95	0.07127873
217	0x3db8cbcc	0.09023246
218	0xbc0cb39f	-0.008587747
219	0xbd742490	-0.05960518
220	0x3d102b07	0.035197284
221	0xbd7692c4	-0.06019856
222	0xbcddfe42	-0.027098779
223	0xbd12ef31	-0.035872642
224	0x3c3e3245	0.011608665
225	0x3d845315	0.06461159
226	0xbda3eb98	-0.0800392
227	0xbd173628	-0.03691688
228	0x3b2d6ac9	0.0026461354
229	0xbd51a01e	-0.05117809
230	0xbd1054ca	-0.03523711
231	0xbd2e7155	-0.04258855
232	0x3cb36cd3	0.021902477
233	0xbcbf8039	-0.023376571
234	0xbcf0fce1	-0.029417457
235	0x3d959a5d	0.07304833
236	0x3dc9511a	0.09829922
237	0x3c404cd0	0.0117370635
238	0xbc8306c1	-0.015994431
239	0x3c1cadcf	0.009562924
240	0xbca837f6	-0.020534497
241	0x3d9e0cbc	0.07717273
242	0x3d929aaa	0.07158406
243	0xbcda3946	-0.026638638
244	0xbccb6f90	-0.02483347
245	0xbd55b905	-0.0521784
246	0xbc6057c9	-0.013692805
247	0xbc58eefc	-0.013240572
248	0xbcf262f8	-0.029588208
249	0x3c0caf6f	0.0085867485
250	0xbc1b1212	-0.0094647575
251	0x3d4820f3	0.048859548
252	0x3c62dde9	0.013846853
253	0x3d2986a9	0.041388188
254	0xbd4fad2b	-0.050702255
255	0xbd8d9710	-0.069135785

l1/W f4 [256, 16]
0	0x3e37652e	0.1790969
1	0xbed197b5	-0.40936056
2	0x3e54aa16	0.20768008
3	0x3ea6865e	0.3252439
4	0xbede4ec3	-0.43419465
5	0xbe95ddd2	-0.29270798
6	0x3e891dc8	0.26780534
7	0x3eff8492	0.4990583
8	0xbe45b47e	-0.19307134
9	0xbf06ae84	-0.5261004
10	0x3f185baf	0.595149
11	0xbe8cac7a	-0.2747534
12	0x3c82639f	0.015916644
13	0xbe80eee3	-0.25182256
14	0x3efecffb	0.49768052
15	0xba9a1440	-0.0011755303
16	0x3ed82f8f	0.42223784
17	0xbee44668	-0.44584966
18	0x3dc591bf	0.096469395
19	0xbed34e98	-0.412709
20	0xbd40a681	-0.04703379
21	0xbf046a6e	-0.517249
22	0xbe39d94c	-0.18149298
23	0x3e514e86	0.2044011
24	0x3ed12676	0.40849656
25	0xbf107032	-0.56421196
26	0x3f1241d5	0.571317
27	0xbc4a9c85	-0.012366419
28	0x3f57c06b	0.8427798
29	0x3e6e1c74	0.23253042
30	0x3e24ef90	0.16107011
31	0xbe1b915f	-0.15192173
32	0xbe94fa3c	-0.29097164
33	0xbec10910	-0.37702227
34	0xbecd84a3	-0.40140256
35	0x3e24c446	0.16090497
36	0xbd9209fc	-0.071308106
37	0xbc595956	-0.013265928
38	0xbe094154	-0.13403827
39	0x3e9d55e1	0.30729583
40	0xbec20c5f	-0.37900063
41	0x3b54d3c5	0.0032474857
42	0xbecb7839	-0.3974016
43	0x3c3c007e	0.011474727
44	0xbe29dce5	-0.16588171
45	0x3dc8c4da	0.098031715
46	0xbe30fed3	-0.17284708
47	0x3f5b0343	0.8555185
48	0x3e2fe9b3	0.17178993
49	0xbf086a1e	-0.5328692
50	0xbe5732f9	-0.21015538
51	0x3d0835f1	0.033254568
52	0xbe298dbb	-0.16557972
53	0xbef40913	-0.47663173
54	0x3f24e9f0	0.6441946
55	0xbebdb462	-0.37051684
56	0x3f2e016a	0.6797091
57	0x3f36b653	0.71371955
58	0x3e63f21d	0.22260328
59	0xbf2a40e2	-0.66505253
60	0xbeb1fd72	-0.34763676
61	0xbeff6cc3	-0.49887666
62	0x3e136ca6	0.14396915
63	0x3f301f27	0.68797535
64	0xbcf81175	-0.030281762
65	0x3e1562cf	0.14588474
66	0xbec76f50	-0.38952112
67	0xbe48a3c2	-0.19593719
68	0xbd50a3c1	-0.050937418
69	0xbe4fabec	-0.20280427
70	0x3ed4cbb8	0.41561675
71	0x3f65534a	0.89580214
72	0xbd898f51	-0.067167886
73	0xbd8d5a63	-0.069020055
74	0x3e57e24a	0.21082416
75	0xbf8b841d	-1.0899693
76	0xbbb3d304	-0.0054878015
77	0x3ee0e501	0.43924716
78	0xbed41de8	-0.41429067
79	0xbec55fff	-0.38549802
80	0x3ee457a1	0.44598106
81	0xbec4a2cb	-0.3840545
82	0xbe75cdd5	-0.240043
83	0x3e2966cf	0.16543125
84	0xbe10d2a1	-0.14142849
85	0xbf4dfd11	-0.80464274
86	0x3ee68d8c	0.45029867
87	0x3f097005	0.53686553
88	0xbeee69ba	-0.46565038
89	0x3eecb54c	0.4623207
90	0xbeaec2eb	-0.34133086
91	0x3e3e12d3	0.18561868
92	0x3eb67bdb	0.3564137
93	0xbf024cc9	-0.50898415
94	0x3dd26f9c	0.10275194
95	0x3f040f3b	0.5158574
96	0x3cafeec0	0.02147615
97	0x3cfb684e	0.030689385
98	0x3d6387f9	0.055549596
99	0x3f18ded1	0.5971499
100	0xbf4b2d7b	-0.7936627
101	0x3e611bca	0.21983257
102	0x3f28adea	0.6589037
103	0xbcce67e1	-0.025196018
104	0x3dc1e7c0	0.09468031
105	0xbe3546ce	-0.17702791
106	0xbd7190fa	-0.05897615
107	0xbcbf0b8a	-0.023320932
108	0x3e1bba8f	0.15207885
109	0xbed8f2e3	-0.42372808
110	0x3e4b7742	0.19869712
111	0x3e1f3b4f	0.15549968
112	0x3f07e7b3	0.5308792
113	0xba23eb64	-0.00062530325
114	0x3e638f2e	0.22222587
115	0x3dd16e8d	0.10226164
116	0xbe561d70	-0.20909667
117	0xbed91357	-0.42397568
118	0xbf776ded	-0.9665211
119	0xbee58052	-0.44824463
120	0xbe1b6f82	-0.15179256
121	0x3dd0ea5b	0.1020095
122	0x3e49c3f2	0.19703653
123	0x3e35113b	0.17682354
124	0x3e37714d	0.17914315
125	0x3ef4348d	0.47696343
126	0x3e1b5e95	0.15172799
127	0x3e028ada	0.1274828
128	0xbef913ae	-0.48647827
129	0xbeed7f07	-0.46385977
130	0x3dd3116d	0.10306058
131	0x3f21ed3a	0.63252604
132	0x3d9fed8a	0.07808979
133	0xbe64de5e	-0.22350451
134	0x3ef91573	0.48649177
135	0xbe6b692c	-0.22989339
136	0xbe9f0354	-0.31057227
137	0x3f0b171a	0.54332125
138	0xbe96c2aa	-0.29445392
139	0x3e8facf8	0.28061652
140	0xbf776653	-0.9664051
141	0x3cfba014	0.03071598
142	0x3e245c1a	0.16050759
143	0xbdd0b420	-0.10190606
144	0x3e2a41ac	0.16626614
145	0x3d888c7a	0.06667419
146	0xbef8f607	-0.48625204
147	0x3c887f93	0.016662395
148	0x3f069c75	0.52582484
149	0x3e67a3a2	0.22621015
150	0x3e8eea47	0.27913114
151	0xbe536dcf	-0.20647357
152	0x3dc77642	0.09739353
153	0xbe9ce288	-0.3064158
154	0xbedd9390	-0.43276644
155	0xbe80efe9	-0.25183037
156	0x3f32d4ee	0.69856155
157	0x3f12886a	0.572394
158	0xbdc11557	-0.094278984
159	0x3bfdc4a8	0.0077443905
160	0x3f2938cc	0.6610229
161	0x3c9230fd	0.017845625
162	0xbd11a1a0	-0.03555453
163	0xbedbed92	-0.4295469
164	0x3e025913	0.12729292
165	0xbe4b491d	-0.19852109
166	0xbe0f545e	-0.13997027
167	0x3d41cab5	0.047312457
168	0xbf6134f6	-0.87971437
169	0xbdd95e3a	-0.106136754
170	0x3e4f4970	0.20242858
171	0xbef5418a	-0.47901565
172	0x3f3ac2ab	0.7295329
173	0xbe340f0d	-0.17583866
174	0x3db8e87b	0.09028717
175	0xbe45baec	-0.19309586
176	0xbeeded1d	-0.46469966
177	0xbf65c435	-0.89752513
178	0x3eb9c7ca	0.3628524
179	0xbeb04b0d	-0.3443226
180	0x3f44b795	0.76842624
181	0xbe84e6fc	-0.25957477
182	0x3e1df7a7	0.15426503
183	0x3f5ea389	0.86968285
184	0x3d885632	0.066570655
185	0x3ebca93d	0.3684787
186	0xbe48fab6	-0.19626889
187	0x3e00886e	0.12552044
188	0xbefc148a	-0.4923442
189	0xbebe9605	-0.3722383
190	0xbf1afb15	-0.6053937
191	0xbdc82e0d	-0.097744085
192	0x3db443bf	0.08801984
193	0x3e9d3494	0.30704176
194	0x3db441f3	0.08801641
195	0x3e09e263	0.13465266
196	0xbdc3e8ca	-0.09565885
197	0xbe5f52a4	-0.21808869
198	0xbb457001	-0.0030126574
199	0xbd002008	-0.031280547
200	0x3a3ca2d2	0.0007195893
201	0xbe9899c4	-0.29804814
202	0x3d152fbb	0.036422472
203	0xbe159f41	-0.14611532
204	0x3d122d0c	0.03568749
205	0x3c3c8bb9	0.011507922
206	0xbe84b347	-0.25918028
207	0x3f0ca59a	0.5494019
208	0xbca6c173	-0.020355916
209	0xbc9169c4	-0.017750628
210	0xbf16cbc9	-0.589047
211	0xbe53b0db	-0.20672934
212	0xbed18992	-0.4092527
213	0x3cb875c5	0.022517094
214	0xbf1dddf7	-0.61666816
215	0x3dd03513	0.10166373
216	0xbe434a95	-0.1907142
217	0xbf2d13ad	-0.6760815
218	0x3e7744b4	0.24147302
219	0xbe40137f	-0.18757437
220	0xbf2c64a9	-0.67341095
221	0x3ec849a9	0.39118698
222	0x3f227ddb	0.6347329
223	0x3d1de966	0.038552664
224	0xbf42a30a	-0.7603003
225	0xbea29787	-0.3175623
226	0x3dfe500a	0.1241761
227	0xbe7056b0	-0.23470569
228	0x3d8a68e3	0.06758287
229	0x3ee53684	0.44768155
230	0x3e1a6a0a	0.15079513
231	0xbd2bc5a7	-0.041936543
232	0x3ee08714	0.43853056
233	0x3eb2cf75	0.34923902
234	0x3e6bd3c4	0.23030001
235	0x3e6141b1	0.21997716
236	0xbf2e24f2	-0.68025124
237	0x3e394172	0.18091372
238	0x3e35dac6	0.17759237
239	0xbf001bfe	-0.5004271
240	0xbe3e2d8e	-0.18572065
241	0xbda2ede2	-0.07955529
242	0x3f1cfda0	0.613245
243	0x3e8692ac	0.26283777
244	0x3d954d01	0.07290078
245	0xbfa6c4b3	-1.3028778
246	0xbdc69c4a	-0.096977785
247	0xbf050486	-0.5196003
248	0x3ecc2405	0.3987123
249	0x3c9c6b1d	0.019094044
250	0x3f0dac2e	0.5534085
251	0x3ecf8dad	0.40537778
252	0xbe8626a1	-0.26201347
253	0xbe987e07	-0.2978365
254	0x3ea73473	0.32657203
255	0x3eafbf31	0.34325555

l3/W f4 [256, 256]
0	0xbd262198	-0.04055938
1	0xbe62766b	-0.22115485
2	0x3df6ed4d	0.1205698
3	0xbdb0f4a1	-0.08640409
4	0xbcd3992b	-0.025829872
5	0xbe293509	-0.16524138
6	0xbdb809ed	-0.08986268
7	0xbd5a6229	-0.05331627
8	0xbd8f062d	-0.069836
9	0x3c56182e	0.013067288
10	0xbe0c405e	-0.13696429
11	0xbcb1a0a8	-0.021683052
12	0x3e16f58e	0.14742109
13	0xbdb24d9a	-0.087062076
14	0x3e406dae	0.1879184
15	0x3deb424b	0.11487254
16	0xbe01e9af	-0.126868
17	0xbc788415	-0.01516821
18	0xbe3d045f	-0.18458699
19	0x3b62e0b2	0.0034618792
20	0x3daa7e02	0.08324815
21	0xbbf2dca1	-0.007411555
22	0x3e5d39d8	0.21604097
23	0x3bc4d291	0.006006547
24	0x3d8005c7	0.06251102
25	0xbe389c63	-0.18028407
26	0xbbe16c04	-0.0068793315
27	0x3c1ccf1c	0.009570863
28	0x3db40962	0.08790852
29	0xbdbe01b0	-0.092776656
30	0x3dc845bb	0.09778925
31	0xbd9d90c0	-0.076936245
32	0x3d56c7b8	0.05243656
33	0xbde1ea4c	-0.11031017
34	0x3cdd9a4b	0.027051112
35	0x3d7fa8a0	0.062416673
36	0xbcdf4a0f	-0.027256994
37	0x3d8aa0c4	0.06768945
38	0x3e0134db	0.12617819
39	0x3daeed3c	0.085413426
40	0xbe3f5570	-0.18684936
41	0xbd9a1efb	-0.0752544
42	0xbdead978	-0.1146726
43	0xbd21c3af	-0.03949326
44	0x3d1db672	0.03850407
45	0x3dc45d79	0.09588141
46	0xbdb08d85	-0.08620743
47	0x3bea78c3	0.007155509
48	0xbda39b07	-0.079885535
49	0x3e2b91f4	0.16754895
50	0xbdd66f34	-0.10470429
51	0x3d0ff83b	0.03514884
52	0x3ddce93f	0.10786676
53	0xbd1c97d0	-0.038230717
54	0x3dd57716	0.104231045
55	0x3d515b01	0.05111218
56	0x3dc8b9d1	0.09801067
57	0xbe13176b	-0.14364402
58	0xbd2054be	-0.039143316
59	0x3d4f2059	0.05056796
60	0xbe1bdf86	-0.15221986
61	0xbd322c34	-0.043499187
62	0xbe050065	-0.12988432
63	0x3da231cb	0.079196535
64	0xbc4040d0	-0.0117342025
65	0xbcf91698	-0.030406281
66	0xbd1a4f2d	-0.037673164
67	0x3ed28746	0.4111883
68	0xbd6f3822	-0.05840314
69	0xbdb974b0	-0.090554595
70	0x3d8728f6	0.065996096
71	0xbd904018	-0.07043475
72	0x3b0b1f73	0.0021228462
73	0x3dc99f04	0.09844783
74	0x3dc008bf	0.09376668
75	0x3ddf429c	0.109013766
76	0x3caef962	0.02135915
77	0x3d71341b	0.058887582
78	0xbe867c56	-0.26266736
79	0xbdac7551	-0.08420814
80	0xbc6db598	-0.014508627
81	0xbe45d5d1	-0.19319846
82	0xbdfb8241	-0.12280703
83	0x3d1bd33c	0.038043246
84	0x3d6174be	0.055042975
85	0x3ceb2c68	0.028707698
86	0xbe133cda	-0.14378682
87	0xbd8ec1ad	-0.069705345
88	0x3e0d79c7	0.13815986
89	0x3e14abcc	0.1451866
90	0xbc957bf7	-0.018247588
91	0x3d82f25a	0.06393881
92	0x3e4cdd31	0.20006253
93	0x3bfe9232	0.0077688927
94	0xbd3c6d9d	-0.046002973
95	0xbd5849d7	-0.052804794
96	0x3e31c1cd	0.17359085
97	0xbd804e7f	-0.06264972
98	0xbdf85c43	-0.121269725
99	0x3d2e2713	0.042517733
100	0x3e47f941	0.19528677
101	0xbd2802e2	-0.041018374
102	0x3dab2c2e	0.08358036
103	0xbdd15681	-0.102215774
104	0x3de667d9	0.11250276
105	0xbe0671b5	-0.13129313
106	0x3dfd7e02	0.1237755
107	0xbbe43ed9	-0.0069655
108	0xbe037c5a	-0.12840405
109	0xbda68d6d	-0.081324436
110	0xbda2e5e9	-0.07954008
111	0xbc62a71a	-0.013833785
112	0xbceeaecf	-0.02913609
113	0xbe32c42d	-0.17457648
114	0x3c97cc8d	0.018530155
115	0xbc9913f0	-0.018686265
116	0xbcfb76a5	-0.030696223
117	0xbddf9af3	-0.10918226
118	0xbda42dce	-0.08016549
119	0x3d4de9ea	0.050271906
120	0xbe021ada	-0.12705556
121	0xbdc589bf	-0.096454136
122	0x3d88ac36	0.06673472
123	0x3d386b8e	0.045024447
124	0xbd5f070a	-0.054450072
125	0xbe028e64	-0.1274963
126	0xbe3256ea	-0.17415968
127	0xbdde9448	-0.10868126
128	0xbceeecd6	-0.029165667
129	0xbe1d5eb3	-0.15368156
130	0x3d82210f	0.06353962
131	0x3e4ee042	0.20202735
132	0xbde0e86f	-0.10981833
133	0xbc9544ef	-0.018221347
134	0x3db0a9dd	0.08626149
135	0x3d694e73	0.05695958
136	0xbe1c7238	-0.15277946
137	0x3d9603a5	0.07324914
138	0x3e106998	0.14102781
139	0x3d633c01	0.055477146
140	0xbd5a22cd	-0.053255845
141	0x3cb41afc	0.021985523
142	0x3dd7ce7d	0.105374314
143	0xbd86ea5b	-0.065876685
144	0xbc408ce1	-0.011752338
145	0xbd17f5ea	-0.037099756
146	0xbdccde6f	-0.10003363
147	0x3c342e06	0.010997301
148	0x3c2e0337	0.010620884
149	0xbd897960	-0.067126036
150	0x3e27e7f9	0.16397084
151	0x3c85c1ad	0.016327703
152	0xbe80dfc1	-0.2517071
153	0x3bfc06e8	0.007691253
154	0xbd70854a	-0.058720864
155	0xbddec1fa	-0.10876842
156	0xbd113a6d	-0.03545611
157	0xbd76d151	-0.060258213
158	0x3d0ea915	0.034829218
159	0xb7cfd3c0	-2.4774927e-05
160	0x3da4482c	0.08021578
161	0x3dff1b0d	0.124563314
162	0xbd0bc230	-0.03412074
163	0x3dd7cce6	0.10537128
164	0xbd8ca3b9	-0.06867165
165	0xbcc1fc1d	-0.023679787
166	0xbd875d42	-0.066095844
167	0x3dbef588	0.09324175
168	0xbd121003	-0.0356598
169	0x3e48ae4a	0.19597736
170	0x3cdba79e	0.026813325
171	0x3d3b2b8c	0.045695826
172	0xbe15ac3e	-0.14616486
173	0xbc6cabdb	-0.01444527
174	0x3d7f6edb	0.06236158
175	0xbd33774c	-0.043814942
176	0x3d653111	0.055954996
177	0x3ca5d8d2	0.02024499
178	0xbcd431b6	-0.02590261
179	0x3df96818	0.121780574
180	0x3ce09531	0.02741489
181	0xbd3a7220	-0.045518994
182	0xbd97a4d3	-0.074044846
183	0xbce3d61f	-0.027812062
184	0x3c9c8665	0.019107053
185	0xbe3a8cc4	-0.1821776
186	0x3dcd0c09	0.10012061
187	0x3de16cbb	0.11007067
188	0xbe091451	-0.13386656
189	0xbdf9db56	-0.12200038
190	0x3ddac7fc	0.10682675
191	0x3e114759	0.14187373
192	0x3d0c84e8	0.034306437
193	0xbd722ea8	-0.059126526
194	0x3ded70ed	0.115938045
195	0xbda691f8	-0.0813331
196	0xbe3e9bdb	-0.18614142
197	0xbec03797	-0.37542412
198	0x3d8590b3	0.0652174
199	0x3e03c4d6	0.12868056
200	0xbd574059	-0.0525516
201	0x3dc473a3	0.095923685
202	0xbd921c65	-0.07134322
203	0xbe0f1365	-0.13972242
204	0xbdab9b0e	-0.08379184
205	0xbd2741ff	-0.040834423
206	0xbe1afab3	-0.15134697
207	0xbdbd47d4	-0.09242216
208	0x3d389b4b	0.045069974
209	0xbe5e060d	-0.21681996
210	0xbe268c85	-0.16264541
211	0xbd4f4f7d	-0.050612915
212	0x3b348000	0.0027542114
213	0x3e10f867	0.14157258
214	0xbe4c7473	-0.19966297
215	0xbcfd2cd5	-0.030905167
216	0x3d0f3ea4	0.034971848
217	0xbcb6509a	-0.02225523
218	0x3efdb5a3	0.4955264
219	0xbd04f22e	-0.032457523
220	0xbd37b827	-0.044853356
221	0x3c76c6a0	0.015062004
222	0x3de0df68	0.10980111
223	0x3dca71d1	0.0988499
224	0xbd9d3c05	-0.076774634
225	0xbcc75925	-0.0243345
226	0x3d532bac	0.05155532
227	0xbd0c518c	-0.034257457
228	0xbb206d3a	-0.0024479167
229	0xbe38277d	-0.17983814
230	0xbddc7e67	-0.10766297
231	0xbd22a5a3	-0.039708745
232	0x3e2e31af	0.1701114
233	0xbea32667	-0.31865236
234	0xbde5c5d0	-0.1121937
235	0xbd451c1f	-0.04812252
236	0xbcd44de2	-0.025916044
237	0xbd2893fe	-0.04115676
238	0xbe0bc24b	-0.13648336
239	0x3e3211e1	0.17389633
240	0x3e3629c6	0.17789373
241	0xbdd32109	-0.10309035
242	0xbd70f703	-0.05882932
243	0xbe3e1740	-0.18563557
244	0x3d8ab87a	0.06773467
245	0xbe3e1366	-0.18562087
246	0x3ddb7111	0.10714925
247	0x3e564237	0.20923696
248	0xbdcc56a2	-0.099774614
249	0xbdf05910	-0.11735737
250	0x3e02166b	0.12703864
251	0xbd97a56f	-0.07404601
252	0x3e96322a	0.29335147
253	0x3daf13df	0.08548712
254	0x3dfe8f71	0.12429703
255	0x3d390f7b	0.04518078

l4/W f4 [16, 256]
0	0x3de7f1d9	0.11325426
1	0x3e1960b8	0.14978302
2	0x3d77d8df	0.06050956
3	0xbd088912	-0.033333845
4	0xbe9e5c6c	-0.30929887
5	0xbea43816	-0.3207404
6	0xbe7d24bd	-0.24721046
7	0xbeaf605a	-0.34253198
8	0xbe0f2023	-0.13977103
9	0x3e869918	0.26288676
10	0xbe3d8b10	-0.1851008
11	0xbcbc1725	-0.022960255
12	0x3d4ae0e4	0.04953088
13	0xbe90dc46	-0.28293055
14	0x3e5730d2	0.21014717
15	0x3dca0af3	0.0986537
16	0x3dbc65d2	0.09199108
17	0xbcd3660d	-0.025805498
18	0x3d657064	0.056015387
19	0xbebd5541	-0.36979106
20	0x3e86cadc	0.26326644
21	0xbed9070c	-0.4238819
22	0xbd96695f	-0.07344317
23	0x3d2ddb8f	0.042445716
24	0xbd69a773	-0.057044458
25	0x3e9c30c3	0.30505952
26	0xbce649e3	-0.028111404
27	0x3ec6aadd	0.38802233
28	0x3cf8efa2	0.030387703
29	0x3e2381a1	0.15967418
30	0xbb0ae093	-0.0021190986
31	0xbcd24562	-0.02566785
32	0x3d9a51c0	0.07535124
33	0x3df4b883	0.11949255
34	0x3dae20d7	0.085023575
35	0x3e22b88a	0.15890709
36	0x3eb100ae	0.3457083
37	0x3d77afed	0.06047051
38	0x3eb7df68	0.35912633
39	0xbe630fce	-0.22173998
40	0x3ec23111	0.3792806
41	0x3e6d6ff1	0.23187234
42	0xbd56dce4	-0.05245675
43	0x3e76b39e	0.24091956
44	0xbd43c738	-0.04779741
45	0x3ddcf471	0.10788811
46	0x3ea6afbd	0.32555953
47	0x3e0f3a88	0.13987172
48	0x3e4ede6a	0.20202032
49	0x3e2a3be7	0.16624413
50	0xbd00516d	-0.031327654
51	0x3cd4b9e4	0.025967546
52	0xbd27cea0	-0.040968537
53	0x3e6cfd28	0.23143446
54	0xbecad802	-0.39617926
55	0x3d472976	0.048623525
56	0x3e8bbd4b	0.27292857
57	0xbd3f3d1b	-0.046689134
58	0xbde8883c	-0.1135411
59	0xbec9668a	-0.39336044
60	0xbe5ee3dc	-0.21766609
61	0x3e4adf4d	0.19811745
62	0xbd692567	-0.056920435
63	0xbe337034	-0.17523271
64	0xbe1007d9	-0.14065494
65	0xbb1ba574	-0.002374974
66	0xbe247741	-0.16061117
67	0xbe65bd09	-0.22435392
68	0x3d64e4c2	0.055882223
69	0x3e949837	0.2902238
70	0x3d76f838	0.060295314
71	0x3eb4e484	0.35330594
72	0xbeb98053	-0.36230716
73	0x3df44467	0.11927109
74	0xbeb4759c	-0.3524598
75	0xbd5aa38d	-0.05337863
76	0xbdfc156d	-0.12308774
77	0x3d9e5a67	0.07732087
78	0xbe0e6577	-0.13905893
79	0x3e32aee2	0.17449525
80	0xbe238620	-0.15969133
81	0xbea67cc8	-0.32517076
82	0xbd10a4c5	-0.035313386
83	0xbee57a32	-0.4481979
84	0xbe2277e7	-0.15866052
85	0xbddc2eec	-0.10751137
86	0x3d11025e	0.03540265
87	0xbd949b70	-0.0725621
88	0xbec1ebde	-0.37875265
89	0x3b0bae1a	0.002131349
90	0x3ec09bfc	0.37619007
91	0xbde255aa	-0.110514954
92	0x3e694c5f	0.2278304
93	0x3de50ffe	0.11184691
94	0x3e967635	0.2938706
95	0x3ebd838f	0.37014434
96	0x3d38e736	0.045142375
97	0xbdc2b9f3	-0.09508123
98	0xbd374606	-0.044744514
99	0xbe57501c	-0.21026653
100	0xbd705cb2	-0.05868215
101	0x3bccd9d1	0.0062515517
102	0xbdf63c01	-0.120231636
103	0x3de17ba0	0.11009908
104	0x3d40d27f	0.047075745
105	0xbde7af7d	-0.113127686
106	0xbd380149	-0.0449231
107	0x3d58e3bb	0.052951556
108	0x3b3d813f	0.0028916148
109	0x3e0d70fe	0.13812634
110	0xbe107c7b	-0.14109986
111	0xbe26b44c	-0.16279715
112	0xbe888cd2	-0.26669937
113	0xbd90cec1	-0.07070685
114	0x3dd7ac85	0.10530952
115	0x3ee7fbc0	0.45309258
116	0x3eae9ce7	0.34104082
117	0x3d9e9bca	0.07744558
118	0xbea16448	-0.3152182
119	0xbe71623b	-0.23572628
120	0xbe174a4c	-0.14774436
121	0xbe1b6024	-0.15173393
122	0x3e6d4362	0.23170236
123	0x3de5ce40	0.1122098
124	0x3d375dcc	0.044767186
125	0x3e48fb4a	0.19627109
126	0xbedc0704	-0.42974102
127	0x3d62bc8e	0.0553556
128	0x3c4c0d71	0.012454377
129	0x3de283b4	0.11060277
130	0x3dcac499	0.09900779
131	0x3e1210e8	0.14264262
132	0x3e396284	0.18103987
133	0x3e13f420	0.14448595
134	0x3e73a376	0.23792824
135	0xbdfec58f	-0.12440025
136	0x3ba621be	0.0050699404
137	0xbf08f81e	-0.53503597
138	0x3d0a75a2	0.03380359
139	0xbca04148	-0.019562379
140	0x3e0db9d7	0.13840424
141	0xbeef3508	-0.46720147
142	0xbe76787a	-0.24069396
143	0x3e665fc8	0.22497475
144	0xbd122fc0	-0.03569007
145	0xbe95ae71	-0.2923465
146	0x3d0e019e	0.03466951
147	0xbcab0625	-0.020876953
148	0x3e38003a	0.17968836
149	0x3dfd3869	0.12364275
150	0xbe338723	-0.1753202
151	0xbedeeff9	-0.4354246
152	0x3e419bca	0.18907085
153	0xbdad76d7	-0.084699325
154	0xbd246d99	-0.040143583
155	0xbe3272c8	-0.17426598
156	0xbdd6f3db	-0.104957305
157	0x3d98c369	0.074591465
158	0x3ea04991	0.31306127
159	0x3e25d95b	0.16196196
160	0xbe6a2fca	-0.22869793
161	0xbe7f1292	-0.24909428
162	0x3e482166	0.1954399
163	0x3d306b61	0.043071155
164	0xbddd85e9	-0.10816557
165	0x3e053a5b	0.13010542
166	0xbe0ef6cb	-0.13961332
167	0x3e718faf	0.23589967
168	0xbe3d3685	-0.18477829
169	0x3d4a8c79	0.04945037
170	0x3e54e9e8	0.20792353
171	0xbe835d7a	-0.25657254
172	0x3d88ee02	0.066860214
173	0xbe1ffccc	-0.15623778
174	0x3e8b0dbe	0.27158922
175	0x3cd4d2da	0.025979448
176	0x3cf2c6e9	0.029635863
177	0x3e2a5101	0.16632463
178	0x3e08dfa2	0.13366559
179	0xbeaf8b10	-0.34285784
180	0x3dcf1c6d	0.10112844
181	0xbe697805	-0.2279969
182	0xbdf5756f	-0.11985289
183	0x3d5d1519	0.0539752
184	0xbd15500b	-0.036453288
185	0xbe88819f	-0.26661393
186	0x3e582e41	0.21111394
187	0xbe6303f7	-0.22169481
188	0x3d0b02cc	0.033938214
189	0xbef4964e	-0.47770923
190	0x3e72634b	0.2367069
191	0x3d06539d	0.032794584
192	0xbf08368d	-0.5320824
193	0x3d7b15c7	0.061300065
194	0x3dce9469	0.10086901
195	0xbe3be9c3	-0.18350892
196	0x3e200cf3	0.1562994
197	0x3e0ec085	0.13940628
198	0x3c1b4961	0.009477944
199	0xbeac8a98	-0.3369949
200	0xbcdfd2b2	-0.027322147
201	0x3e2b85ac	0.1675021
202	0xbe9a2db8	-0.30113006
203	0xbdee84e8	-0.116464436
204	0xbe79d5ef	-0.24398015
205	0x3dc4d1b9	0.09610314
206	0x3ef639fb	0.4809111
207	0xbe44fa19	-0.1923603
208	0xbce2f2ce	-0.027703669
209	0xbe1cdbda	-0.15318242
210	0xbd17b5a6	-0.037038468
211	0xbdfd982f	-0.12382542
212	0xbe8f9f1b	-0.28051075
213	0x3d6c0bdb	0.057628494
214	0xbe9ba281	-0.30397418
215	0x3e27a484	0.16371351
216	0x3d299065	0.04139747
217	0xbe189210	-0.14899468
218	0x3e744e01	0.23857881
219	0xbe2a4b3d	-0.16630264
220	0x3e3cf127	0.18451367
221	0x3e6c4f60	0.23077154
222	0x3e5ea4a1	0.21742488
223	0x3d9b78bb	0.07591387
224	0x3e309afd	0.17246623
225	0xbea05cda	-0.3132084
226	0xbda10a34	-0.07863274
227	0xbf0a1923	-0.53944606
228	0xbe12bbb9	-0.14329423
229	0x3e0ad25d	0.1355681
230	0x3d0b44d8	0.0340012
231	0x3dde9428	0.10868102
232	0x3dd8d1c3	0.10586884
233	0xbdca9de8	-0.098933995
234	0x3e0a07a1	0.13479473
235	0x3d8ffd8d	0.07030783
236	0xbda86ead	-0.08224235
237	0xbe08b848	-0.13351548
238	0xbee666dc	-0.4500035
239	0x3eac2ca4	0.33627808
240	0x3e4c0c96	0.19926676
241	0xbe2d6b02	-0.16935351
242	0x3e63d3c2	0.22248748
243	0x3eaf728d	0.34267083
244	0x3d658af1	0.056040708
245	0xbdc57ba2	-0.09642722
246	0x3e6978e9	0.2280003
247	0x3e5150c9	0.20440973
248	0xbe387236	-0.18012318
249	0xbda42a18	-0.08015841
250	0xbd9ae93c	-0.07564017
251	0x3e055ea7	0.13024388
252	0xbd3adbe8	-0.045619875
253	0x3e2b243f	0.16713046
254	0xbe0ac086	-0.13550004
255	0xbd8918dd	-0.066941954

l2/W f4 [256, 256]
0	0xbadf954b	-0.0017058043
1	0xbe33358d	-0.17500897
2	0xbd496a48	-0.049173623
3	0x3e43fb5c	0.19138855
4	0x3d5559fb	0.052087765
5	0x3c5cb493	0.013470787
6	0x3bddd696	0.0067699654
7	0xbc1d4fc4	-0.009601537
8	0x3e0596b5	0.13045771
9	0xbe66633b	-0.22498791
10	0xbd8c563a	-0.06852384
11	0x3db26d1e	0.08712219
12	0xbdaecb24	-0.0853484
13	0x3e0ba861	0.1363845
14	0xbd809c3e	-0.06279801
15	0x3dc72074	0.09722987
16	0x3e5b50a5	0.21417482
17	0x3df8f244	0.121555835
18	0xbe47a701	-0.194973
19	0xbd9db11f	-0.07699799
20	0xbaaf1b62	-0.0013359601
21	0x3dee8056	0.11645572
22	0xbe8cb238	-0.2747972
23	0x3b1db970	0.0024066828
24	0x3e0a4a70	0.13504958
25	0xbdfd8547	-0.12378936
26	0xbbf9ae8b	-0.007619684
27	0xbe01883e	-0.12649629
28	0x3dd748c4	0.10511926
29	0xbcd348f5	-0.025791625
30	0x3d9eb503	0.07749369
31	0xbe10d31b	-0.1414303
32	0xbdf3b8fe	-0.11900519
33	0xbc9b316f	-0.01894447
34	0xbd940258	-0.072270095
35	0xbda737a6	-0.08164911
36	0xbc3569d5	-0.011072596
37	0xbb72647c	-0.0036986163
38	0xbd8e2e90	-0.06942475
39	0xbe101fad	-0.14074583
40	0xbce3d5f3	-0.02781198
41	0x3e232df1	0.15935494
42	0xbd33bb64	-0.04387988
43	0xbddfb3b6	-0.10922949
44	0x3ddee378	0.1088323
45	0xbc134383	-0.008988264
46	0x3d4aafeb	0.049484175
47	0x3d33dfb5	0.043914516
48	0x3c72d758	0.01482185
49	0x3cbe761d	0.02324968
50	0xbd750ee9	-0.059828673
51	0x3db83c3a	0.08995862
52	0x3e2089aa	0.15677515
53	0xbd546965	-0.051858325
54	0x3defca1e	0.11708473
55	0x3e18a6cf	0.14907382
56	0xbdaa4042	-0.083130375
57	0x3e09e54b	0.13466375
58	0xbcf0f4e4	-0.029413648
59	0xbdb9831f	-0.090582125
60	0xbd11c566	-0.035588644
61	0x3c71a0cd	0.014747811
62	0xbc9d2f8a	-0.019187707
63	0xbb37d317	-0.0028049403
64	0x3ce278d5	0.027645508
65	0xbda2f41d	-0.07956717
66	0x3ea46d10	0.32114458
67	0x3d6b7356	0.05748304
68	0x3d4b4668	0.04962769
69	0xbdfba363	-0.12287023
70	0xbe15d62a	-0.14632478
71	0x3e4f91f7	0.20270525
72	0xbd1129aa	-0.035440125
73	0xbe1818be	-0.14853188
74	0x3e8b4d70	0.27207518
75	0xbd498f39	-0.049208853
76	0x3d7b777b	0.061393242
77	0xbc519470	-0.012791738
78	0x3e4ffe70	0.20311904
79	0xbd7e0408	-0.062015563
80	0xbcb61868	-0.022228435
81	0xbcfd2499	-0.03090124
82	0xbbf938b6	-0.0076056374
83	0xbe05445b	-0.13014357
84	0xbd273f7d	-0.04083203
85	0x3dae47f5	0.085098185
86	0x3d02cb8f	0.03193241
87	0x3ddc2be1	0.10750557
88	0xbd447635	-0.047964294
89	0x3de3290c	0.110918134
90	0xbe8f15f4	-0.27946436
91	0x3d2ce416	0.042209707
92	0x3d53aea6	0.05168023
93	0xbd3208e9	-0.04346553
94	0xbe850673	-0.25981483
95	0xbe3e9655	-0.18612035
96	0xbce1ceff	-0.027564524
97	0xbd4e3350	-0.050341904
98	0x3ccbba51	0.024869116
99	0x3e23526f	0.15949415
100	0x3c93e217	0.018052144
101	0xbeb22751	-0.3479562
102	0x3d667df2	0.056272455
103	0xbe09336c	-0.13398522
104	0xbc81bb2d	-0.015836323
105	0x3d6defa0	0.058089852
106	0x3e167200	0.14691925
107	0x3d5a3d60	0.053281188
108	0x3dfbc913	0.12294211
109	0x3dafb52d	0.085794784
110	0x3cac5e11	0.021040948
111	0xbe2092b3	-0.15680961
112	0x3cfa4dae	0.030554619
113	0x3e00ccb6	0.12578091
114	0x3d442354	0.047885254
115	0x3e2e025f	0.16993092
116	0x3e102f1b	0.1408047
117	0x3d908271	0.0705613
118	0xbd85f5c8	-0.0654102
119	0xbe0027b2	-0.12515143
120	0x3d9a17f3	0.07524099
121	0x3d90ff9e	0.07080005
122	0xbdad69e5	-0.084674634
123	0x3c1cd457	0.00957211
124	0xbdc6463b	-0.09681364
125	0xbe3fba3c	-0.18723387
126	0x3c05f3df	0.008175819
127	0x3e737b9e	0.23777625
128	0xbdb61bf1	-0.08892048
129	0xbbda7b48	-0.0066675283
130	0xbdb46535	-0.08808366
131	0x3dab9ba3	0.08379295
132	0xbe96342d	-0.29336682
133	0x3d007b6d	0.031367708
134	0xbc61d49a	-0.013783598
135	0xbd9badce	-0.0760151
136	0x3e047019	0.12933387
137	0xbcbcecbc	-0.023062102
138	0x3df9057c	0.12159249
139	0xbc83dd23	-0.016096657
140	0x3e1792bd	0.1480207
141	0x3e53fef4	0.20702726
142	0x3e2e03af	0.16993593
143	0xbe2a4fbe	-0.16631982
144	0xbe002186	-0.12512788
145	0xbc59991f	-0.013281136
146	0xbdb3a4ed	-0.087716915
147	0x3d1fbec0	0.039000273
148	0xbda9032c	-0.08252558
149	0xbdbb155c	-0.09134933
150	0x3b7f0d67	0.00389179
151	0xbe1397a0	-0.14413309
152	0x3c8801d7	0.01660244
153	0xbc76b9d4	-0.015058953
154	0x3e2d2318	0.16907918
155	0x3d2e4615	0.042547304
156	0xbdd57edd	-0.10424588
157	0x3d3a108a	0.04542593
158	0xbd0f9a97	-0.035059538
159	0xbd793139	-0.060837958
160	0xbe719250	-0.2359097
161	0x3db49369	0.08817179
162	0xbd932c1f	-0.0718615
163	0xbddec175	-0.10876743
164	0xbd61eb5a	-0.05515609
165	0x3cc2e020	0.023788512
166	0xbc9ca5db	-0.019122055
167	0xbd9b9b40	-0.07597971
168	0xbe267ed0	-0.16259313
169	0x3e020f1c	0.12701076
170	0xbd44055f	-0.047856685
171	0xbda935b1	-0.08262194
172	0xbd8b2ca2	-0.067956224
173	0xbd8b6ce2	-0.06807877
174	0x3d4a80b2	0.04943914
175	0xbe5a374a	-0.21310154
176	0xbc0c27e7	-0.008554435
177	0xbc147184	-0.009060267
178	0xbcc1db8c	-0.023664258
179	0x3b44bdcf	0.0030020361
180	0x3e40afde	0.18817088
181	0x3d12ac40	0.0358088
182	0x3e76fa57	0.24118935
183	0xbe2dc1e7	-0.16968499
184	0xbdfe13c0	-0.12406111
185	0xbc6abd03	-0.0143272905
186	0x3c3df555	0.011594136
187	0x3d1e3f2c	0.038634464
188	0x3d845aac	0.06462607
189	0x3e30a7c6	0.172515
190	0x3ab5c347	0.0013867401
191	0x3c14e3a1	0.009087474
192	0xbcc1b5ef	-0.023646323
193	0x3c356fbf	0.011074006
194	0x3da1499e	0.078753695
195	0xbe829f4d	-0.25512162
196	0xbdc5e769	-0.096632786
197	0x3d70f508	0.05882743
198	0xbdae4608	-0.08509451
199	0xbd243883	-0.040092956
200	0xbd2db215	-0.04240616
201	0x3e253994	0.16135246
202	0x3e03a596	0.12856135
203	0x3e6f47ce	0.23367235
204	0x3d17e371	0.03708214
205	0x3da3d008	0.07998663
206	0xbdc97967	-0.09837609
207	0xbd35f01f	-0.04441845
208	0xbde3f399	-0.11130447
209	0xbe09287c	-0.1339435
210	0x3e1fd022	0.1560674
211	0x3dbb43d6	0.09143798
212	0x3b88bf61	0.004173205
213	0x3d811d37	0.063044004
214	0xbe081131	-0.13287808
215	0xbe3b5439	-0.18293847
216	0xbd16be8a	-0.036802806
217	0x3e43ba62	0.19114068
218	0x3c89e68d	0.016833568
219	0xbd9f755e	-0.07786058
220	0xbd1f4294	-0.038881853
221	0x3e147ad4	0.1449998
222	0x3c7d3063	0.015453431
223	0x3db5d2ea	0.08878119
224	0xbe504a69	-0.20340885
225	0x3e177844	0.14791971
226	0x3c8fd716	0.017558616
227	0xbd4d5c82	-0.05013705
228	0xbe1eb3af	-0.15498231
229	0xbe628e41	-0.22124578
230	0x3da85295	0.08218876
231	0xbd6b9586	-0.057515644
232	0xbaffb340	-0.0019508377
233	0x3dc51e58	0.09624928
234	0x3e4dd6f1	0.20101525
235	0x3d271d8e	0.04079967
236	0xbdb1bd4c	-0.08678684
237	0xbe2f6dc6	-0.17131719
238	0xbbb1ecf0	-0.0054298565
239	0x3d521ee5	0.051298995
240	0xbdce3284	-0.10068229
241	0xbd80925c	-0.06277916
242	0xbd1ca44c	-0.038242623
243	0x3e1a7796	0.15084681
244	0xbcc50b45	-0.024053225
245	0x3c93fd1d	0.01806503
246	0x3d320e58	0.04347071
247	0xbdc04129	-0.09387428
248	0x3d9ca95e	0.07649492
249	0xbe0aa6c9	-0.13540186
250	0xbe1e6681	-0.1546879
251	0xbdb98391	-0.090582974
252	0xba7aadc4	-0.0009562636
253	0xbde8147a	-0.113320306
254	0xbe3c9d3e	-0.18419358
255	0x3d6228a5	0.055214543

l1/b f4 [256]
0	0xbd4a432c	-0.049380466
1	0xbe100037	-0.14062582
2	0x3d09f37c	0.03367947
3	0xbdedac8b	-0.116051756
4	0xbca5e062	-0.020248596
5	0xbbdcb5af	-0.0067355256
6	0xbe20ed3e	-0.157155
7	0x3cf1463a	0.029452432
8	0xbbb97a47	-0.0056603285
9	0xbe81ec07	-0.25375387
10	0x3e6e324f	0.23261379
11	0x3e0932cc	0.13398284
12	0xbe3057be	-0.17220971
13	0x3c206b17	0.009791157
14	0xbe7bc390	-0.2458632
15	0xbcc6dbed	-0.02427479
16	0xbd9882e8	-0.074468434
17	0x3dc14209	0.09436423
18	0x3d379b2c	0.044825718
19	0xbd5770a0	-0.052597642
20	0xbecbe46b	-0.39822707
21	0x3dd4a2b3	0.10382595
22	0xbdec0ff8	-0.11526483
23	0xbe09ccaa	-0.1345698
24	0xbd96f865	-0.07371596
25	0x3c711c90	0.0147162825
26	0xbafd4473	-0.0019322768
27	0x3d97a372	0.074042216
28	0x00000000	0.0
29	0xbc610fbe	-0.013736663
30	0x3c924342	0.017854337
31	0xbcf27993	-0.029598987
32	0xbe674591	-0.22585131
33	0x3d8defb4	0.06930485
34	0xbe80e03c	-0.25171077
35	0xbc80afa5	-0.015708754
36	0xbc31218b	-0.01081122
37	0x3c0e45dd	0.008683649
38	0x3d81fe00	0.06347275
39	0xbc5a57ca	-0.013326595
40	0x3d952955	0.07283274
41	0xbd0b12b7	-0.033953395
42	0xbe94c574	-0.29056895
43	0xbdf5c260	-0.11999965
44	0x3d9ce09f	0.076600306
45	0xbe024b50	-0.12724042
46	0x3be8e712	0.007107624
47	0x3c695973	0.014242518
48	0x3d13051f	0.035893556
49	0x3d62467f	0.05524301
50	0xbd54ceb1	-0.05195493
51	0x3dad8f3a	0.08474584
52	0xbeed5349	-0.46352604
53	0x3d45c07b	0.048279267
54	0xbd9b7f6a	-0.07592662
55	0x3cead90a	0.028667945
56	0xbe6ed2c0	-0.23322582
57	0x3ce0a58a	0.027422685
58	0xbcdab7fe	-0.026699062
59	0xbdcbc534	-0.09949723
60	0xbe05a7b5	-0.13052256
61	0x3d51259b	0.051061254
62	0x3dad544a	0.084633425
63	0x3b7d3d63	0.0038641326
64	0x3cde9b0c	0.027173541
65	0x3c332044	0.010932986
66	0xbd352ea2	-0.044233926
67	0x3b70b197	0.0036726946
68	0xbde2aa80	-0.110676765
69	0x3d18d76b	0.037314814
70	0x3c092480	0.008370519
71	0xbdd5d636	-0.10441248
72	0xbd1683b4	-0.036746696
73	0x3d92038f	0.07129585
74	0xbd8c113f	-0.06839227
75	0x3d715675	0.058920342
76	0xbdb23783	-0.08701994
77	0xbd09e19f	-0.033662435
78	0xbcfc2e3f	-0.03078377
79	0xbe1b724d	-0.15180321
80	0x3d5abb2e	0.053401165
81	0x3c74e318	0.0149467215
82	0xbe7294b7	-0.23689543
83	0x3ccb2372	0.024797175
84	0x3bd36284	0.006450953
85	0x3e00ebc0	0.12589931
86	0xbd6e15cf	-0.058126267
87	0x3cb54152	0.022125874
88	0xbdcf7998	-0.10130614
89	0xbe8e56d6	-0.27800626
90	0xbec66795	-0.38750902
91	0x3dc79683	0.09745505
92	0xbdcc6f1c	-0.0998213
93	0x3e016f81	0.12640192
94	0xbc14c23e	-0.009079514
95	0xbc6d9839	-0.014501625
96	0xbe88f1a1	-0.26746848
97	0xbd86ed70	-0.06588256
98	0xbbe131a8	-0.0068723746
99	0x3d786a4b	0.060648244
100	0x3c73d3b8	0.014882021
101	0xbc0d1c43	-0.008612695
102	0x3c899b18	0.016797587
103	0x3d829851	0.06376708
104	0xbdd895f8	-0.10575479
105	0x3c3ea429	0.0116358185
106	0x3df27aaf	0.11839806
107	0x3c08b515	0.008343955
108	0x3d9b1fc2	0.07574417
109	0xbd3a4472	-0.04547543
110	0xbbd5df0b	-0.006526833
111	0xbde3e74c	-0.11128101
112	0x3dd6cd32	0.10488357
113	0x3d39e99b	0.0453888
114	0xbeb29d04	-0.34885418
115	0x3c4c2b01	0.012461425
116	0x3df20b9b	0.1181862
117	0xbd5f7a0a	-0.054559745
118	0x3cce8384	0.025209196
119	0xbe8d035f	-0.27541634
120	0xbcdb78ea	-0.026791055
121	0x3dbd98c6	0.09257655
122	0xbccc64ac	-0.024950348
123	0xba08e057	-0.00052214175
124	0x3b062ec9	0.0020474663
125	0xba2e6896	-0.0006653158
126	0x3d9cec73	0.076622866
127	0x3e29fc34	0.16600114
128	0x3d01ed68	0.03172055
129	0x3d529280	0.051409245
130	0xbde225d4	-0.110423714
131	0x3e19874d	0.1499302
132	0xbe6a1927	-0.22861157
133	0x3d05c18e	0.03265529
134	0xbcea9051	-0.028633269
135	0xbe3b797a	-0.18308058
136	0x3ac36210	0.0014906544
137	0xbd60bc39	-0.054867003
138	0xbddcfa5a	-0.10789938
139	0x3d989883	0.07450964
140	0x3ceccdc5	0.028906712
141	0x3d5a1e2c	0.05325143
142	0x3d55cd3f	0.05219769
143	0x3db498b3	0.088181876
144	0xbccd355a	-0.025049854
145	0x3dadc686	0.08485131
146	0x3d9fa503	0.07795145
147	0xbe8cad09	-0.27475765
148	0x3d28f7a4	0.041251794
149	0x3d9d9d71	0.07696045
150	0xbe456140	-0.19275379
151	0xbdef71e5	-0.116916455
152	0x3c7f4eba	0.015582735
153	0xbeba9eb8	-0.36449218
154	0x3d3b7de6	0.045774363
155	0xbc38d517	-0.011281273
156	0x3e3049fd	0.17215724
157	0xbde6e8d1	-0.11274875
158	0x3e204245	0.1565028
159	0xbc373a47	-0.011183328
160	0xbc349e36	-0.011024049
161	0x3c314929	0.010820665
162	0x3d89714d	0.067110635
163	0xbcea6b4c	-0.028615616
164	0xbe15945d	-0.14607377
165	0xbe8cf7a3	-0.27532682
166	0x3dda208b	0.10650738
167	0x3e069061	0.13141014
168	0xbda14d26	-0.07876043
169	0xbd4410d4	-0.04786761
170	0x3db45447	0.08805137
171	0xbe272ea9	-0.16326393
172	0x3d0cf4a9	0.034413014
173	0x3c839c58	0.016065761
174	0xbc8160e0	-0.015793264
175	0xbe73fc77	-0.23826776
176	0xbeb4f122	-0.3534022
177	0x3cc684e5	0.02423329
178	0x3d578304	0.05261518
179	0xbe395280	-0.18097878
180	0x3e11deee	0.14245197
181	0xbe653508	-0.22383511
182	0xbe5450d5	-0.2073396
183	0xbd424f40	-0.04743886
184	0xbd720205	-0.059083957
185	0xbe8cffa6	-0.27538794
186	0xbe4f142d	-0.2022254
187	0xbb19d1ef	-0.0023471077
188	0x3a8ae1ad	0.0010595821
189	0x3d6fbb4e	0.058528237
190	0x3da19b67	0.07890969
191	0xbe995b89	-0.29952648
192	0x3cef1178	0.029183134
193	0xbd2c3702	-0.042044647
194	0xba3768d2	-0.00069965154
195	0x3ca2064d	0.019778395
196	0x3e44f4db	0.1923403
197	0xbdd365fe	-0.10322188
198	0xbd59deee	-0.053191118
199	0x3dba827b	0.091069184
200	0xbe151049	-0.14556994
201	0x3ddb4c16	0.107078716
202	0x3ccf6f64	0.02532167
203	0x3d1e49a0	0.038644433
204	0x3db6c0b4	0.08923474
205	0x3e2880f2	0.16455439
206	0x3c349aa8	0.011023201
207	0x3e24b7cf	0.16085742
208	0xbaa5201b	-0.0012598069
209	0x3dbb25a5	0.091380395
210	0xbe5d6c92	-0.21623448
211	0x3d80435b	0.06262847
212	0x3db9555c	0.09049484
213	0x3d050a81	0.03248072
214	0xbe94fabf	-0.29097554
215	0x3dcb60db	0.09930583
216	0xbd85841e	-0.0651934
217	0xbcb2fd6f	-0.021849362
218	0x3d50ce21	0.05097783
219	0xbce26a2c	-0.027638517
220	0xbeac4757	-0.33648178
221	0x3d5cf39d	0.053943265
222	0x3d0876c6	0.033316396
223	0x3d8211e8	0.063510716
224	0x3d50dd47	0.050992277
225	0xbc080749	-0.008302518
226	0xbe3ae7bc	-0.18252462
227	0xbc30dbb2	-0.010794567
228	0xbdd51a73	-0.104054354
229	0x3d174791	0.036933485
230	0x3de62296	0.112370655
231	0x3da8185b	0.082077704
232	0xbdb397e2	-0.08769204
233	0xbe61ac29	-0.2203833
234	0x3c940818	0.018070266
235	0x3bfac112	0.0076524103
236	0xbd9e1975	-0.07719699
237	0x3d3018a3	0.042992245
238	0xbdbd59d9	-0.09245653
239	0xbcea35a8	-0.028590038
240	0x3dd79dea	0.105281666
241	0xbe478ef2	-0.19488123
242	0xbc8353ea	-0.016031224
243	0x3d72e3f0	0.05929941
244	0xbdb4243e	-0.08795975
245	0x3d3850f7	0.04499909
246	0xbe1ff895	-0.1562217
247	0xbd6872d8	-0.05675015
248	0xbbe9ce69	-0.0071352017
249	0x3dc8fc74	0.098137766
250	0xbd98609b	-0.07440301
251	0x3bba672f	0.00568857
252	0xbeb0700b	-0.34460482
253	0xbe8be4cd	-0.27323
254	0xbdcb5949	-0.09929139
255	0xbe3a0335	-0.18165286

l3/b f4 [256]
0	0x3dd88e71	0.105740435
1	0xbca11814	-0.019664802
2	0xbd25b73c	-0.04045795
3	0xbd3ff6a5	-0.046866078
4	0xbd97213c	-0.07379386
5	0x3d83021a	0.06396885
6	0xbce2e2aa	-0.027695972
7	0xbc53df29	-0.0129316235
8	0xbd2d5c3d	-0.042324293
9	0x3bea3566	0.007147479
10	0x3c9a361a	0.018824626
11	0xbcb9d185	-0.022682915
12	0x3d5e07c0	0.05420661
13	0xbd98295b	-0.07429763
14	0x3d4cdb40	0.05001378
15	0x3cf0183f	0.029308436
16	0xbce03ed9	-0.027373718
17	0xbd871c46	-0.065971896
18	0x3c1d688e	0.009607447
19	0x3d87356b	0.066019855
20	0x3d28ae3e	0.041181795
21	0xbdab0aad	-0.083516456
22	0xbd534039	-0.05157492
23	0xbc7591a3	-0.014988336
24	0x3cfb90f1	0.030708762
25	0x3d836867	0.064163975
26	0x3d0fdbea	0.035121836
27	0xbdac006d	-0.08398519
28	0x3d1370ac	0.035996124
29	0xbcf5ba73	-0.029996132
30	0x3d47f804	0.04882051
31	0xbd22ffd7	-0.03979477
32	0xbd12f97d	-0.03588246
33	0xbdd0ff65	-0.10204963
34	0xbd843514	-0.06455436
35	0x3d2b01ae	0.04174965
36	0xbdc4131d	-0.09573958
37	0x3d8009ee	0.06251894
38	0xbb4e613e	-0.0031491066
39	0xbdc91f86	-0.09820466
40	0x3de04e1f	0.109524004
41	0x3dc86a41	0.09785891
42	0x3c01666d	0.007897955
43	0x3d1ec222	0.03875936
44	0xbce6e38d	-0.028184677
45	0xbafcd64b	-0.0019289939
46	0xbd4dd032	-0.05024738
47	0xbc406473	-0.011742699
48	0x3d9f2093	0.07769885
49	0xbd9d0638	-0.07667202
50	0xbd305797	-0.043052282
51	0x3d49108a	0.04908804
52	0xbc25c047	-0.010116643
53	0x3de4d004	0.11172488
54	0xbb377721	-0.002799459
55	0x3c93bbbc	0.018033855
56	0xbbc031e5	-0.005865323
57	0xbb926bd8	-0.0044684224
58	0x3d2d5094	0.042313173
59	0xbde6b272	-0.112645045
60	0x3bf56e49	0.0074899537
61	0xba311a44	-0.0006755928
62	0xbd1496d6	-0.03627666
63	0xbdb28359	-0.08716459
64	0xbd397660	-0.045278907
65	0x3c63d00d	0.013904584
66	0xbd8b8942	-0.06813289
67	0xbcb2657c	-0.021776907
68	0xbd2673c3	-0.040637743
69	0x3d886c33	0.06661262
70	0x3d2bd9ab	0.04195563
71	0xbd419429	-0.047260437
72	0xbd848fbe	-0.06472729
73	0xbcf9cf63	-0.030494398
74	0xbd9fdf1a	-0.07806225
75	0x3d18a5cb	0.037267487
76	0xbd033ecf	-0.03204232
77	0x3d7a26fb	0.06107233
78	0x3d16aea9	0.036787663
79	0xbcc6c60a	-0.024264354
80	0x3d338fe0	0.04383838
81	0xbd023575	-0.03178926
82	0x3d1ae9b4	0.037820533
83	0xbded2e29	-0.1158107
84	0x3b06d09b	0.0020571116
85	0x3cfdb636	0.030970674
86	0xbd1a0ae7	-0.037608054
87	0x3cbac4cc	0.022798918
88	0xbd432ca6	-0.047650002
89	0xbdb555e8	-0.08854276
90	0xbda25ed3	-0.079282425
91	0xbc025969	-0.007955887
92	0x3d9a0581	0.07520581
93	0xbc6e5109	-0.0145456875
94	0x3d9f73bb	0.07785746
95	0xbca7ff08	-0.02050735
96	0xbbd4de8a	-0.0064962553
97	0x3d042c25	0.032268662
98	0x3c8320bb	0.016006818
99	0xbbc194be	-0.005907624
100	0x3c582a69	0.013193705
101	0xbc17acba	-0.00925749
102	0xbd634c20	-0.05549252
103	0xbd3b40cf	-0.045716103
104	0xbcc2b1ff	-0.023766516
105	0xbd7862c8	-0.06064108
106	0xbd33e0e5	-0.043915648
107	0xbcb9f3bc	-0.02269923
108	0xbcc50341	-0.024049403
109	0x3d2380e2	0.039917834
110	0xbd5cfde7	-0.053953078
111	0x3cefbdf4	0.029265381
112	0xbdcb6650	-0.09931624
113	0xbd9ba704	-0.07600215
114	0xbd2ff7c3	-0.042960893
115	0xbcc63107	-0.0241933
116	0xbcf1edbd	-0.029532308
117	0xbd2d11e4	-0.04225339
118	0xbb09bdbe	-0.0021017636
119	0x3c4d41c3	0.012527886
120	0xbd0d8361	-0.03454912
121	0xbc8000b6	-0.015625339
122	0x3d3ce9a2	0.046121247
123	0xbd26c290	-0.040712893
124	0x3c81c3ce	0.015840437
125	0xbcbc9c76	-0.023023825
126	0xbd3f320d	-0.04667859
127	0xbce54a83	-0.027989632
128	0xbce7949e	-0.028269108
129	0xbcebd7d1	-0.028789433
130	0x3d61fea1	0.055174474
131	0x3b237a16	0.0024944595
132	0xbccad977	-0.024761898
133	0x3d3999b9	0.045312617
134	0xbdf13586	-0.11777787
135	0x3daf4c16	0.08559434
136	0xbcefbaac	-0.029263817
137	0xbd2ad3d1	-0.04170591
138	0x3d918414	0.0710527
139	0xbba071c0	-0.0048963726
140	0x3c69ea21	0.014277012
141	0xbd459dea	-0.0482463
142	0x3a9f5bbb	0.0012158075
143	0x3d6bc0ba	0.057556845
144	0xbc3d864a	-0.011567662
145	0xbbd61de4	-0.006534325
146	0xbc2f5d62	-0.010703417
147	0xbc92c4eb	-0.017916163
148	0xbcde303a	-0.027122606
149	0x3d40bb68	0.047053725
150	0xbb2731fe	-0.0025511975
151	0xbcb0e959	-0.021595644
152	0xbbd54f54	-0.006509701
153	0x3d0c1894	0.034203127
154	0xbb887f62	-0.004165576
155	0xbd8463d9	-0.06464357
156	0xbe063ca7	-0.13109075
157	0xbc00531e	-0.007832317
158	0x3caf99b7	0.021435602
159	0xbd21f4e9	-0.039540205
160	0xbcc8cfe4	-0.024513192
161	0xbc111b09	-0.008856543
162	0xbcb3dac5	-0.021954903
163	0xbcdf4377	-0.02725385
164	0xbd5ba063	-0.053619754
165	0xbcfb9219	-0.030709313
166	0xbc79ac1f	-0.015238791
167	0x3c36951d	0.01114395
168	0x3d836e01	0.06417466
169	0xbd63d519	-0.055623148
170	0xbc58bbad	-0.013228339
171	0xbd63d490	-0.055622637
172	0xbd576ff8	-0.052597016
173	0xbcb2b8b8	-0.021816596
174	0xbda14e85	-0.078763045
175	0xbbedbbc4	-0.0072550494
176	0x3d965dae	0.07342087
177	0xbcd0f0e3	-0.025505489
178	0xbd2b98e9	-0.041893873
179	0xbd2f5880	-0.04280901
180	0xbdc68d6c	-0.09694943
181	0xbd32f8f6	-0.04369446
182	0xbd3cd5d8	-0.046102375
183	0xbc62ebb9	-0.013850146
184	0xbcf84892	-0.030308042
185	0x3bbfc47d	0.0058522807
186	0xba3a1675	-0.0007098683
187	0xbdc3159f	-0.09525608
188	0xbd554987	-0.052072074
189	0xbcd01d2f	-0.02540454
190	0x3d0b1ba9	0.033961926
191	0xbd4885d5	-0.048955757
192	0x3cbebeca	0.023284335
193	0x3d137bcd	0.036006738
194	0xbc0a9add	-0.008459774
195	0xbc8e8255	-0.017396132
196	0xbd1568d4	-0.036476925
197	0xbd0bc0c7	-0.034119394
198	0xbd555172	-0.052079625
199	0xbd0ca59d	-0.03433763
200	0xbd0788e8	-0.03308955
201	0xbc1f3d2d	-0.009719175
202	0xbce0b56e	-0.027430262
203	0xbc75a48f	-0.014992847
204	0x3cf28af7	0.02960728
205	0x3da2bcf1	0.07946194
206	0xbc1ae604	-0.009454254
207	0x3b5d62f1	0.0033780898
208	0x3d483cce	0.048886113
209	0x3c639a3b	0.013891752
210	0xbc8458f2	-0.016155694
211	0xbd6e9657	-0.058248844
212	0x3da174ba	0.07883592
213	0xbd42feed	-0.047606397
214	0xbd5a429f	-0.05328619
215	0xbbad98b7	-0.005297746
216	0xbd04093b	-0.032235365
217	0x3d07cf61	0.033156756
218	0x3cb80ac1	0.022466065
219	0xbdbe91d8	-0.09305161
220	0xbd066c5b	-0.03281818
221	0xbcd1309b	-0.025535872
222	0xbd57de4c	-0.052702233
223	0x3d1dbb65	0.03850879
224	0xbcc4c166	-0.024018
225	0xbd6bab3c	-0.05753635
226	0x3da39566	0.0798748
227	0xbdba4183	-0.090945266
228	0xbcbf3c4c	-0.023344181
229	0x3c3a0e8f	0.01135601
230	0xbcb06587	-0.021532787
231	0x3d2996a6	0.041403435
232	0x3cf9da5c	0.03049963
233	0xbdbe8848	-0.09303337
234	0x3cba6e20	0.02275759
235	0x3d8e81bd	0.06958339
236	0xbd334394	-0.04376562
237	0xbc8aeb58	-0.016957924
238	0xbe066641	-0.13124944
239	0xbd35af1f	-0.04435646
240	0xbd113f32	-0.03546066
241	0x3af1da99	0.0018451988
242	0x3d5d579c	0.05403863
243	0x3d366b5a	0.044535972
244	0x3dbe0e7f	0.09280109
245	0xbda7859f	-0.08179783
246	0x3d16478f	0.036689337
247	0x3cb2f231	0.021844001
248	0xbd1ed011	-0.038772646
249	0x3c1c7b28	0.009550847
250	0xbcf13a4d	-0.029446745
251	0x3d37b8d8	0.044854015
252	0xbc86f4f3	-0.016474223
253	0x3d0ac64c	0.033880517
254	0xbd7f7c20	-0.062374234
255	0x3cbd6fee	0.023124661

l4/b f4 [16]
0	0xbe038afd	-0.12845989
1	0xbe5d21dd	-0.21594949
2	0xbdb96428	-0.090523064
3	0xbdf009f5	-0.11720649
4	0xbd968a59	-0.073506065
5	0xbe72733c	-0.23676771
6	0xbe584336	-0.21119389
7	0xbdc638b8	-0.09678787
8	0xbd878b6e	-0.06618391
9	0xbe47d46c	-0.19514626
10	0xbe529b4d	-0.20567055
11	0xbe07f6c9	-0.13277735
12	0xbd2e3d4d	-0.04253893
13	0xbd2ebf08	-0.04266265
14	0xbd84fe49	-0.064938135
15	0xbd5a1793	-0.05324514
